software/logs/hyper_parameter_tuning/custom_model_hp/version_12/checkpoints/epoch=0-step=20.ckpt (torch, 195567 bytes, 54 tensors)

backbone.model.0.0.model.0.weight f4 [4, 2, 5, 5]
00000000: c2c4 85bd 727c b3bd e640 9dbd 5e5c 4bbd
00000010: e0e5 763d e43b dc3b 2bf2 ccbd 138c bebd
00000020: 905b d7bb f80c d6bd 2f71 1e3d a1a5 683c
00000030: 6428 d23d 9351 2d3d 4628 bc3d 8798 00be
00000040: d260 16bd 7934 50bd 1b8a fc3c e467 0a3e
00000050: 2ca3 193d 1b3e 5dbd ad81 803d 7f8a 8cbd
00000060: e59c d43d acef 8d3b 0476 dbbd 2d87 ecbd
00000070: 6b9f c13d 996d b4bd cb64 c73d 8c20 083e
00000080: 98e0 8fbc 86e8 4e3a 31d0 2a3d a45e 883c
00000090: b95b 97bd 1e78 aebc 55d1 083d 6190 1b3d
000000a0: a37e 893d 7edf 0ebe 44df c6bc dc17 ca3c
000000b0: db55 f33d a721 cabd 9a06 dabd ebae f03c
000000c0: 73e9 273c f440 c63d d342 053e 4385 ad3c
000000d0: 6d7f 023e 93bc c6bd 19c7 fe3d 136c 9e3c
000000e0: f2d3 90bd bd80 f93d fcad ec3d 1edc 06be
000000f0: 8bb2 0d3e de1c 5abd 0214 ff3c c521 10bd
00000100: 6810 b6bd 92d2 6d3d 2295 dc3d 5f57 713d
00000110: 9098 2a3d 49ea 6a3d 5b77 b13d bd16 febd
00000120: 4b9b dfbd 41a4 f53d 5c8d 823d 6170 37bd
00000130: 38a8 703d fd28 34bd ed81 93bd 2369 43bd
00000140: b7be 17bd e431 c63d eac0 84bd 997a d7bd
00000150: e450 703d f992 79bd 0f30 8abd 3d7d f7bd
00000160: f1d1 bfbd 1d91 5ebd 3e1c 073e 6432 f8bc
00000170: 4099 b63d 4a68 6f3d aafe 1a3c ab53 b93d
00000180: d72b b03d db12 ed3d 2e82 ccbd 7e01 8ebb
00000190: ce03 c03d 40ca 4d3d 3d3d 0b3d 070d cebd
000001a0: 58cb a53d 9288 c13b 449f d9bd b525 8abd
000001b0: 7adf aabd ab12 a13d 6aff fbbd e797 44ba
000001c0: 710b b3bc 098a 8f3d 60fc afbd 5593 bbbd
000001d0: c844 fd3d f491 923c d6c7 d9bc a4dc d23c
000001e0: 5037 44bc d923 9abd bfc4 573d 6563 01bd
000001f0: bd67 07bd bfb8 d1bc 3eec c6bd f6f0 063e
00000200: f70c a43d bb32 a7bb e320 99bd 698c 693d
00000210: 654e 05be c347 0a3e d4d1 203d c212 c03d
00000220: 5b73 363d 814a 823d b310 953d b8f0 8b3b
00000230: d209 6dbd 836e b83b e498 5eba f302 913d
00000240: 5059 e6b9 76cf f4bd d5d7 9ebd e3fb fa3d
00000250: ebbb 473d 34ae 313b 55a9 f0bc 7e2e e53b
00000260: f833 a6bd ca6e e83c b506 c53d 8193 b73d
00000270: 38f1 e4bc fdc9 d4bc db3c 43bc 6b93 b2bd
00000280: 8270 adbc 4698 5abd e04c 03be 1127 eebc
00000290: 3d85 9f3d 0b17 c1bd 932b 98bd 6f81 0cbe
000002a0: 6470 913c 31da 92bd 039c c4bd 96e4 ea3d
000002b0: eff9 9b3d 6b43 6b3d 6c70 ce3c a132 e13d
000002c0: 873d 2d3d 706a c43c 48dc ad3d a97a d53d
000002d0: 18aa 8fbd 35d1 023e 9a01 f93d aabc 813d
000002e0: 12ec 6c3d 4819 083e d317 763b c7eb b53d
000002f0: 6c78 bf3d 94ed 03be 27d7 053e 7961 cebd
00000300: 707b 9f3d 8ab1 143b 859f b4bc a7e7 873d
00000310: c507 0c3b a488 e0bc 2002 883d 3bbe 973d
-0.06531669 -0.087639704 -0.07678394 -0.049648635 0.06027782 0.0067210067 -0.100071274 -0.09304061
-0.0065721944 -0.10451692 0.03868216 0.014199645 0.1026161 0.042314123 0.09187369 -0.12558185
-0.03671343 -0.05083129 0.030827573 0.13516194 0.03750913 -0.054014307 0.06274734 -0.068623535
0.10381488 0.0043315496 -0.10715869 -0.1154922 0.09454235 -0.088099666 0.097360216 0.13293666
-0.01756315 0.0007892925 0.041702453 0.01664669 -0.073905416 -0.02129751 0.03340276 0.037979487
0.06713607 -0.13952443 -0.024276383 0.02466958 0.1188161 -0.098697 -0.106457904 0.029380282
0.01024853 0.096803576 0.13013773 0.021181708 0.12743922 -0.097039364 0.124403186 0.019338643
-0.07071675 0.12182758 0.115566224 -0.13169906 0.1383764 -0.053250186 0.03113747 -0.035188455
-0.08889848 0.058062144 0.10770632 0.058921214 0.0416494 0.057352338 0.086653434 -0.12406681
-0.10918292 0.119942196 0.063746184 -0.044784907 0.058754176 -0.043984402 -0.07202516 -0.047707688
-0.037047114 0.09677485 -0.06482108 -0.105214305 0.058670893 -0.06093118 -0.06747448 -0.12084434
-0.09366215 -0.05433761 0.13194367 -0.030297466 0.08915949 0.058449067 0.009460131 0.090491615
0.08602112 0.11575862 -0.09985767 -0.004333674 0.09375726 0.05024171 0.03399395 -0.100610785
0.08095425 0.005906173 -0.10626081 -0.06745473 -0.08343406 0.07864889 -0.12304576 -0.0007499442
-0.021856042 0.0700875 -0.085930586 -0.09158961 0.123666346 0.017891861 -0.026584547 0.025739975
-0.011976078 -0.07526369 0.052677866 -0.03158893 -0.033057917 -0.02560079 -0.09713028 0.13177857
0.08010285 -0.005102483 -0.07476976 0.05701867 -0.13018186 0.13503937 0.039262608 0.09378578
0.044543605 0.06361867 0.07278576 0.0042706393 -0.057870694 0.0056284084 -0.00084914104 0.07080641
-0.00043935562 -0.119536325 -0.077560104 0.12255075 0.048763197 0.002711189 -0.029377619 0.0069940677
-0.08115381 0.02837314 0.0962042 0.08963681 -0.027947053 -0.025975222 -0.011916365 -0.08719524
-0.021171812 -0.053367876 -0.12822294 -0.029071363 0.07789085 -0.09428223 -0.07430186 -0.1372125
0.017753787 -0.07170523 -0.096000694 0.114693806 0.076160304 0.05743734 0.025200091 0.10995985
0.042295005 0.023976535 0.08489281 0.10423786 -0.07014865 0.12775119 0.121585086 0.06334813
0.05784232 0.13290894 0.0037550821 0.088828616 0.093491405 -0.12883598 0.13070355 -0.10077185
0.07787216 0.002268883 -0.022048721 0.06635981 0.0021366936 -0.027408905 0.0664103 0.074093305

backbone.model.0.0.model.0.bias f4 [4]
00000000: e88c a53c d520 b43d 44e8 babd 8e80 0abe
0.02020879 0.08795325 -0.091263324 -0.13525602

backbone.model.0.1.model.0.weight f4 [4, 4, 5, 5]
00000000: b3dd 86bb 0098 a8b9 50d2 76bd 5a79 003d
00000010: 92fb af3d e5c8 a03d bb2f b63d b06d 563d
00000020: c836 9f3d effc c6bd 73e8 1f3c a0ef 24bd
00000030: 508a 8cbd 5395 0dbd 4d61 4d3c f075 ca3d
00000040: a7ab 5e3c 2017 d83c 2af1 7dbd 3ade c83d
00000050: f383 6dbc c3e4 853d 470c 743d fd20 a5bd
00000060: dad3 2dbd a74b 9bbc 172d 583d daff 49bd
00000070: c89e 893d 8dfd 55bd 1d0b b9bd 9f60 ac3d
00000080: a77b 583d a3fb 893d 1a8e 4d3c dac4 843c
00000090: ea3c 98bd 3557 9c3d 8d62 43bd 136e 443d
000000a0: d324 933d 3041 91bd 8786 8e3d f533 b9bd
000000b0: 171b 063d 3307 863d b3ef 863d da90 e0bc
000000c0: eab9 4e3d 4df7 83bc 5337 c1bc 4db5 f1bb
000000d0: d0ec 0abd 670e 41bd 152b c0bd 4309 0c3d
000000e0: 5a97 51bc 7f51 8e3d 6d2f a5bd 5707 6d3d
000000f0: 9a87 64bb 0793 4bbd 33b5 8dbc 7d9c 633d
00000100: b398 d7bb dacc 5a3c 4084 b5bc 656f b8bd
00000110: 20ad f43c 2d99 dc3c 6db3 95bc 4b85 c6bd
00000120: da55 bebc e0d5 8dbc 832e b7bd 9dfd 033d
00000130: b22e c63d a387 903d 8d31 1f3d 4dbc dbbb
00000140: b0c3 93bd dd3c 2a3d 678a 97bd 1f1f a83d
00000150: 60c2 963c f35a a4bc 52e8 8cbd 27ba e4bc
00000160: 8d73 b9bc 5337 b6bc 9ffc 80bd fa2f 8d3d
00000170: 938d af3c 6a51 06bd b35d 893b 97ae a93d
00000180: 1a0b 833c bd3f a2bd 80c2 96bc 4b5c a7bd
00000190: 7aad b53d d7ec c43d b2b3 b83d 1315 96bc
000001a0: 675a ac3b 2d66 9abd bd1f 21bd 2764 c33d
000001b0: 2a71 73bd 53e2 f4bc 00ab 0dbb 9075 0ebd
000001c0: 756f cb3d 407a 923d 001e 13bc dafc 23bc
000001d0: 8db1 b33c b85c c03d 3307 5ebc 4fd8 c9bd
000001e0: 9a45 643a ea14 c23d 6724 8e3a a0fe 44bd
000001f0: 1d51 be3d daf6 e43c 0521 afbd c714 cd3c
00000200: 33f6 aebd b099 aabd 77a0 c3bd dd52 633d
00000210: 470f fa3c ed50 353d ed70 babc 2b82 a2bd
00000220: 9d5c ccbd c3f7 1d3d 5393 c63c dd25 b93d
00000230: eb81 88bd b302 503d 80ea fb3b 1a26 e2bc
00000240: bada 8e3c 9a07 833d aa7f abbd a7d6 66bc
00000250: b326 20bd 8d00 433d cd85 b13c f7fa c4bd
00000260: 331e c5bd aaaa 02bd 237b 2ebd 2dfb 22bd
00000270: da81 1a3c 6729 a23b 1d80 9fbd 48e2 b4bd
00000280: 4ade b7bd d359 c63d ddcd bfbd 9727 103d
00000290: 92b5 83bd 3ae3 4b3d 9042 643d 001a 1dbd
000002a0: b366 0a3c ba4f 9d3c 87ef 413d eaf9 8dbd
000002b0: 4dd5 6b3d 90ac 33bd 0d84 64bd cdf6 d83b
000002c0: ad9c 46bd f868 853d e32e 90bd cd52 e23b
000002d0: 3a27 c3bd 8044 543c ff88 903d d3c1 21bd
000002e0: eb1e a03d 1a9d d9bb 005c 553b fd84 07bd
000002f0: 202e d5bc 9a13 99ba 6a48 c5bd 2f71 cc3d
00000300: 4d47 c5bb 6782 383c 4f88 bfbd e0f8 1e3d
00000310: c061 b3bc 9aba 10bb caee 4abd 279f e43c
00000320: 3df1 72bd 53e9 8ebc e32b 6c3d 5a14 0dbd
00000330: fadc d73c ebf7 983d f03e 62bd 6d9f a63c
00000340: 4332 3bbd bd47 593d 3b7d c13d 9a69 1b39
00000350: 000f 933b 8765 06bd 47c3 13bd 6734 d13b
00000360: 2540 bc3d 6aef 17bd df87 c43d 1362 9bbc
00000370: 070b b7bc d823 bebd 1a54 c4bd 487b a2bd
00000380: 43de 62bd 27c3 acbd 9a79 303c 807d 9c3b
00000390: e0c9 473d 57cb 54bd 3a0b 35bd 38bd a4bd
000003a0: 80f4 643d 2d45 8a3d 33a7 99bd 4279 b5bd
000003b0: dd81 423d 40c1 80bd a751 b0bc e33e 07bd
000003c0: 3a4b 663d 73ab 1d3c 202b 8cbd 1a3e d93b
000003d0: 577e 823d 9aeb b2bb 5adc 1fbd 5342 4dbd
000003e0: b7f3 97bd 0011 9d3d 6f1f 9d3d a786 71bc
000003f0: c8db a5bd 4d21 033c 2063 b63d a8cd ab3d
-0.004115784 -0.00032156706 -0.060259163 0.03136573 0.08592905 0.078508176 0.088958226 0.0523507
0.077741206 -0.09716212 0.00976001 -0.040267587 -0.068623185 -0.034566235 0.012535405 0.09885776
0.01359073 0.026378214 -0.06199757 0.09808011 -0.014496791 0.065377735 0.05958202 -0.08062933
-0.042438366 -0.018956972 0.052777376 -0.049316265 0.06719738 -0.052243758 -0.09035323 0.084168665
0.0528523 0.06737449 0.012546087 0.016207147 -0.074334934 0.07633821 -0.047701407 0.047956537
0.07184758 -0.07092512 0.06959253 -0.09043113 0.03274068 0.06544342 0.06588688 -0.02741282
0.05047027 -0.016109133 -0.023585951 -0.007376349 -0.03391725 -0.047132876 -0.09383217 0.03418852
-0.012792433 0.06949138 -0.080656864 0.057868328 -0.0034870864 -0.049700763 -0.017298317 0.05556916
-0.0065794825 0.0133545045 -0.022157788 -0.09005622 0.029867709 0.026928509 -0.018274033 -0.09693392
-0.023234297 -0.017313898 -0.08944418 0.032224286 0.09676875 0.07057121 0.038865615 -0.006705797
-0.07215059 0.04156195 -0.07399445 0.08209061 0.018403232 -0.0200629 -0.06880249 -0.027920796
-0.022638107 -0.022243178 -0.06298184 0.068939164 0.021429813 -0.032792486 0.004192078 0.082852535
0.015996505 -0.07922313 -0.018403292 -0.081719 0.08870979 0.09615486 0.09018649 -0.018320596
0.0052598002 -0.0753902 -0.03933691 0.09540587 -0.059434094 -0.029893076 -0.0021616817 -0.034780085
0.09933368 0.071522236 -0.0089793205 -0.010009015 0.021935249 0.09392685 -0.013551521 -0.09855711
0.0008707881 0.09476645 0.0010844589 -0.04809439 0.09292815 0.02794974 -0.0855122 0.025034321
-0.085430525 -0.08330095 -0.095520906 0.055498946 0.030524863 0.04426663 -0.022758925 -0.07934984
-0.09978602 0.038566362 0.024240172 0.09040425 -0.06665405 0.050783824 0.0076878667 -0.027606059
0.017438281 0.06397934 -0.08373959 -0.014089263 -0.039099406 0.047607947 0.021670246 -0.0961818
-0.09624901 -0.03190104 -0.0425979 -0.03979032 0.009430373 0.004948783 -0.077881075 -0.08832222
-0.08977945 0.09685101 -0.09365437 0.035194006 -0.06431116 0.049777247 0.05572754 -0.038354874
0.008447337 0.019203056 0.04734757 -0.06932433 0.057576466 -0.04386574 -0.055789996 0.006621218
-0.04848926 0.06514162 -0.07040193 0.0069068433 -0.09528966 0.012955785 0.0705738 -0.039491486
0.07818397 -0.0066410424 0.0032556057 -0.033085812 -0.02602297 -0.0011678815 -0.096329525 0.099825256
-0.0060204626 0.011261559 -0.09352171 0.038811564 -0.021897197 -0.002208388 -0.049544133 0.027907921
-0.059312094 -0.017445242 0.05765904 -0.034443237 0.026350487 0.074691616 -0.055235803 0.020339692
-0.04570223 0.05304693 0.09447714 0.00014821292 0.004487872 -0.032811668 -0.036074903 0.0063844207
0.09191922 -0.037093557 0.09596228 -0.018967664 -0.022344125 -0.092841804 -0.095863536 -0.0793367
-0.055387747 -0.0843566 0.01077118 0.004775703 0.048776507 -0.051951732 -0.04420016 -0.08043903
0.055897236 0.067514755 -0.07502594 -0.08861019 0.04748713 -0.062868595 -0.02152331 -0.033018958
0.056224085 0.009623396 -0.06844163 0.0066297175 0.06371754 -0.005460215 -0.039028503 -0.05011208
-0.07419532 0.07669258 0.07672011 -0.014741576 -0.080985606 0.008003545 0.08905625 0.08388835

backbone.model.0.1.model.0.bias f4 [4]
00000000: 5282 cb3d 438d 9a3d 0729 373d 8db3 b8bc
0.09936966 0.07546475 0.04471686 -0.022546554

backbone.model.1.0.model.0.weight f4 [8, 4, 5, 5]
00000000: d378 b9bc 437e 66bd a737 40bd 9a66 94bb
00000010: 7add 093d 409c 4a3d d044 acbd 9304 2c3d
00000020: 28e0 c73d 7de1 3a3d f015 7fbd 337a 303c
00000030: 5fa2 9c3d cd41 bdbc 4a85 16bd 4d37 8ebb
00000040: f09a 993d 8542 c83d 43a0 0c3d da13 7bbd
00000050: 808f 7cbc 7776 bcbd 9ac4 883d d702 21bd
00000060: 530a 9dbd d5f8 903d cd02 9d3d 83ac 29bd
00000070: e794 9b3d 1d8c a0bd 538f ff3c 6d84 733d
00000080: 5547 8ebd 6aa9 02bd dae7 83bd 8a36 303d
00000090: 435d 4c3d 9abd 533c b5c1 a73d a39a 4fbd
000000a0: 3a55 ce3c 181a a33d 624a c83d 407a cabd
000000b0: b5be 8ebd dad4 4bbc 9739 6e3d 9378 bdbd
000000c0: cb0c adbd 2325 b43d 97e3 42bd e012 a53d
000000d0: 0d24 5c3d 8df2 79bc 07a0 363d da23 c9bd
000000e0: 82b8 a6bd 2755 49bc 93d5 a9bd 80b9 55bd
000000f0: 6709 133b 0db7 36bd 183e cb3d 8393 033d
00000100: 15a5 bd3d 8de5 373d 13bf 72bd 3f49 9cbd
00000110: aadd 86bd b796 8c3d 4088 193d 2bc4 8f3d
00000120: 4d33 333d cde6 ab3c 3ac1 9fbd 57e3 313d
00000130: 57ea aabd 008b bebd 25b3 b4bd 80cf bc3d
00000140: d73c 0d3d 3f80 acbd 975b 323d 17d3 773d
00000150: 1d35 0cbd fdd2 32bd 437a 06bd ba5e b53c
00000160: 67c1 5ebd 9a83 363c d724 4ebd 4364 3a3d
00000170: f348 c8bc 038c 41bd 0a01 1ebd c75e 05bd
00000180: bbad 8f3d a041 7ebd fa57 b4bc 9db0 133d
00000190: 67c6 7ebb 83c9 623d 873b 733d 88d7 84bd
000001a0: 73cd 5c3d a780 323c 37ff 6bbd 8dc1 443d
000001b0: 670f c33b a06b 283d d35d 0abd f30e 6abd
000001c0: 8bb5 aa3d 0ad4 5dbd 0041 7abc 2773 ad3c
000001d0: 80e5 bc3c e04e 68bd 8d82 903c cdd8 06ba
000001e0: 7544 b23d 8d24 e23c daea b33c 22ad 893d
000001f0: 3823 abbd 88d5 b23d 2348 733d c29a bb3d
00000200: 1272 c4bd 2d03 0dbd 9787 803d 90d8 963d
00000210: 4dee 35bc bbaf afbd a3b7 1bbd 4066 553d
00000220: 1d2c c83d c72f ce3c ea2b bf3d f354 223d
00000230: f328 443d b3db e23c 67ba 2a3a b822 883d
00000240: bd06 973d ad5d a23c 6396 31bd 9352 bebc
00000250: ed53 26bd c029 4c3d 4d1c a43b 1238 8fbd
00000260: b741 bd3d d7f2 853d 7769 123d a7b1 d63c
00000270: e0e2 fcbc 3a50 a7bd d76b 29bd ed43 b5bc
00000280: 5a94 c03d da8a c0bc 60b9 993d 0d3a 5a3c
00000290: 7a7a 1ebd 5846 993d 8d8b 3f3c e7eb f73c
000002a0: 70ff a83d aac1 aa3d d35f 5e3d a53f b23d
000002b0: 5a97 b0bd f335 48bd 7009 593d 0255 a8bd
000002c0: 92a9 8e3d 53c4 ae3c 05a9 9b3d 0075 0bbb
000002d0: 100b c63d 1ac2 e4bc ed46 ac3c 4729 b0bd
000002e0: 6728 083c 4a0d 32bd fa34 893d d3b4 1c3d
000002f0: 63ca b1bd f348 5c3c 7d5d 6bbd 67df d03c
00000300: abf6 a9bd 80cc 0c3d 6756 b83a 675c 81ba
00000310: 4db0 d2bb 3b63 b23d 4090 843d a079 91bd
00000320: 004e 92bd 5722 17bd 680d b6bd 40af 183c
00000330: 9778 b83d 6778 c2bc 87e0 42bd 1ae6 c0bc
00000340: 6d69 813c 4ba8 b73d 8b8b bd3d e7f7 3b3d
00000350: 224c a7bd fab1 483d b782 083d 00a7 313b
00000360: f7f4 543d fa6d 7dbd 3353 dc3a 5afb 953d
00000370: d7d0 853d 93fe 86bc e228 c3bd 0078 bd3a
00000380: b336 5f3d 33f2 38bd 1ae8 533d 339c 5a3b
00000390: e72e f4bc da6a 07bd 0daf 29bc c3c1 6cbd
000003a0: 6368 28bd 33ab 5a3c 8a6c 30bd da53 543c
000003b0: 9a57 8abc 47c4 0fbd da94 433c c037 563c
000003c0: ff0b 9b3d a098 323d edf2 633d 5f47 b0bd
000003d0: 8018 f53b 4dd8 f83c 5791 243d 1a92 de3c
000003e0: e06a ba3d 2072 bebc 2f07 c6bd 53a3 91bc
000003f0: 6545 8c3d 803c 953d dae5 c53d 53f5 bf3c
-0.022640621 -0.056272756 -0.046928074 -0.0045288326 0.033658482 0.049465418 -0.084115624 0.04199655
0.09759551 0.0456252 -0.06227678 0.010771322 0.07648157 -0.023102665 -0.036748208 -0.0043400885
0.07500255 0.097783126 0.034332525 -0.06129823 -0.015415072 -0.09202283 0.06678124 -0.03930935
-0.07667985 0.07078711 0.0766655 -0.041424286 0.0759676 -0.078392245 0.031196272 0.059452463
-0.06947199 -0.031899847 -0.064407066 0.043020763 0.04989363 0.0129236225 0.081912436 -0.050684582
0.025187124 0.07963961 0.097798124 -0.098865986 -0.06969968 -0.0124408845 0.05816039 -0.09251513
-0.08449706 0.08796146 -0.047580328 0.08060241 0.05374532 -0.0152555825 0.044586208 -0.09821291
-0.08140661 -0.012288368 -0.08292689 -0.05217886 0.0022436024 -0.044608165 0.09923953 0.0321231
0.092600025 0.04489665 -0.059264254 -0.07631158 -0.06585248 0.06864684 0.037483454 0.07019838
0.043750096 0.020984078 -0.07800527 0.0434297 -0.08345478 -0.09303856 -0.088232316 0.09219265
0.03448185 -0.084228985 0.043544378 0.060504045 -0.03423034 -0.043658245 -0.03283144 0.022139896
-0.05438366 0.011139775 -0.050328102 0.045505773 -0.024448847 -0.047252666 -0.03857521 -0.03256109
0.07015558 -0.062074304 -0.022014607 0.036057103 -0.0038875581 0.055367958 0.05938294 -0.06486422
0.05390687 0.010894931 -0.05761644 0.048036147 0.005952764 0.041118264 -0.033780884 -0.057143163
0.08335408 -0.054157294 -0.015274286 0.021173073 0.023058653 -0.056715846 0.017640376 -0.0005144
0.087044634 0.02760532 0.021962572 0.067224756 -0.08356327 0.08732134 0.059394967 0.09160377
-0.0959207 -0.034426857 0.06275862 0.07365525 -0.011104179 -0.0857844 -0.038016926 0.052099466
0.09774039 0.025169266 0.09334548 0.039631795 0.047890615 0.027692651 0.00065127615 0.06647247
0.07374332 0.019820059 -0.04335631 -0.023232734 -0.04060738 0.049844503 0.0050082565 -0.069931164
0.0924105 0.06540459 0.03574511 0.026207758 -0.030869901 -0.08169599 -0.04136261 -0.022127116
0.09403296 -0.02350371 0.075060606 0.013319504 -0.03869102 0.0748412 0.011690986 0.030263854
0.08251846 0.0833772 0.054290604 0.087035455 -0.08622618 -0.048879575 0.052987516 -0.08219339
0.06965937 0.021333849 0.07600597 -0.0021279454 0.09670079 -0.027924586 0.021029914 -0.08601623
0.008310414 -0.043469705 0.066995576 0.038258385 -0.0868118 0.013445127 -0.057462204 0.025497152
-0.08299001 0.034374714 0.0014063836 -0.0009869457 -0.006429708 0.08710333 0.06472826 -0.07103276
-0.071437836 -0.036897983 -0.08889276 0.009319127 0.09007376 -0.023739053 -0.047577407 -0.023547221
0.015797341 0.08967646 0.09255131 0.045890715 -0.08168818 0.048997857 0.033327784 0.0027107596
0.05199143 -0.06187246 0.0016809463 0.07323332 0.06533974 -0.016478812 -0.09529282 0.0014455318
0.054495525 -0.045152854 0.05173502 0.0033357262 -0.029807521 -0.033060886 -0.010356677 -0.057801973
-0.041115176 0.013346481 -0.04307226 0.012959445 -0.016887475 -0.035099294 0.011937344 0.013074815
0.075706474 0.043602586 0.055651594 -0.08607363 0.0074797273 0.030376578 0.04017767 0.027169276
0.09102416 -0.023247778 -0.09669339 -0.017778074 0.068491735 0.0728693 0.09662981 0.02343241

backbone.model.1.0.model.0.bias f4 [8]
00000000: 20fc bc3d dd40 6c3d 0079 143d 3dea bf3d
00000010: 60d0 563d 3384 bc3d 0d43 b73d 839c 523d
0.092277765 0.057679046 0.036248207 0.09370849 0.052444816 0.092049025 0.08948336 0.051418792

backbone.model.1.1.model.0.weight f4 [8, 8, 5, 5]
00000000: bc1f 2a3c e02b cfbc 5c5e 873d 6fc7 213d
00000010: 73ea a23c 1b5f 44bd 23c3 023d 4e68 66bb
00000020: 9206 4abd 6eec 5a3d 1462 4bbc da82 62bd
00000030: a3fc 83bd 1072 11bd a1ab 30bd b775 a13c
00000040: 0e64 4d3d 8978 22bd 1d39 c6bc 0be6 92bc
00000050: 8b1a 623d dce0 70bd 3412 6a3d c7e2 6f3d
00000060: 713f 08bd 9b85 053d d5dd 54bd bcbb f2bc
00000070: 3ce7 8cbc 3b8f 86bd faa4 4cbb 9e27 82bd
00000080: 6e7f 0ebc a294 8f3c d2dd 60bd b376 b43c
00000090: 1c4b 1c3c 123f 913c 3442 20bd 4350 103d
000000a0: df2c 8f3d 3b55 683c ed3e 2b3d e25c 073d
000000b0: 4a78 433d a728 60bc cb24 2f3d 016a 78bc
000000c0: 8063 21bd b996 8fbd 9559 873d ecdf 26bd
000000d0: e3e6 d83c 59d2 21bc 1318 b2bc 6c2a 5cbc
000000e0: 2ed9 80bd fe17 ec3c f1d1 d6bc ac43 8fbd
000000f0: 1277 883d c904 893d 82de 0ebd 0701 2b3d
00000100: 28f2 4dbd 8cbb 8bbd 744b 4a3d d72c 403d
00000110: 6c30 493c ce9b 883d 129e 733d fd50 8dbd
00000120: 0659 eebc 82b6 d23c aeda 05bc 512c f03c
00000130: 871b f73c 88fc db3a 7b41 003d 2558 e8bc
00000140: 43d7 8ebd 0977 153c 6340 923b 4e73 3f3c
00000150: ccb8 a73c ab12 4bbd ae03 f53c 6858 70bc
00000160: d23d 89bd 150f 57bd 0418 4cbd 672a 20bc
00000170: 6f28 28bd 3229 d0bc 85b0 823d 3c63 8e3d
00000180: 0cc1 233d 1502 1d3d 59f6 2b3b e576 603c
00000190: c510 0b3d 5444 1dbd 89c1 0f3d 685d 843d
000001a0: 09ac a53c 449c 60bc e026 ea3c 54c9 e53c
000001b0: bc15 edbb 5a2c 913c c3a5 02bc f721 71bd
000001c0: 8b74 733d d426 fc3c 56ab 883d 1bec 4bbc
000001d0: 69bb 2fbc 784d 50ba 40b1 293a d4c7 583c
000001e0: dd48 8d3d b6d0 ba3c 2428 8a3d f26d 05bd
000001f0: 882c c0ba 535e b0bc 49b8 893d e220 863d
00000200: 5d76 2bba f0a5 873d 79cd 493c c9a6 27bd
00000210: 7d1e b2ba 172f 90bd 6861 81bd 84fd 89bd
00000220: 18a6 eb3c d273 34bc 9ab6 efbc 00a4 483d
00000230: 1ce0 8337 3060 5f3c b7c6 15bd 0bd8 8c3d
00000240: 9917 79bb cfad 89bb 8fdd 753b cbfe 4a3d
00000250: c84c 643c 8203 5cbd 77ca 4c3d 82fa 9c3b
00000260: dd2b f53c 27d3 adbc 04c8 203d 3f5e f1bc
00000270: 5949 8e3d 10bb c6bc 4b43 343d eb06 3abd
00000280: 37d5 2abc 3593 493c 4bc6 373d 4b15 373d
00000290: 139c 5b3d 6b52 69bd d7a9 b83c ed42 fdbc
000002a0: c3f3 723d 65c0 573c fbd5 20bd 758f 0b3c
000002b0: 1f58 593d 1538 4cbb 6f88 653d 20bb 38bc
000002c0: 2e93 bf3c 7902 30bd 80b6 e0bc bbd9 bd3c
000002d0: 520f 163d 66ad 8ebd ecea 14bc c23d 413b
000002e0: 03ab 043c 7c44 223d 8e42 fdbc e91b bb3b
000002f0: 2956 0dbc 34eb 0b39 8330 48bd 6679 7c3d
00000300: 8315 0ebd 7640 97bb 9cef 853a 4951 693d
00000310: 83d8 9e3b 9157 613d 243f 72bd 8bba 8ebb
00000320: db68 79bd 1ee5 3e3d 48b8 0d3d eb8c 023d
00000330: 04f9 643d 9054 60bd 25cb 75bd bbec 213d
00000340: a415 9f3c 4fa2 ca3c baa6 993b c241 7fbc
00000350: acc5 393d 7f36 11bd 0870 023d caa9 82bd
00000360: 20ec f53c 288a 063d e9f4 6a3b fcb1 c9bc
00000370: a43f a3bb bf2f 18bb 8f38 83bd adf9 273d
00000380: c263 69bd 27ba 5bbd 0527 a6b8 b7f8 43bd
00000390: 1562 8f3d f722 6e3c 03b2 da3c 49a1 7639
000003a0: 5790 09bd bb5c b6bc 867b 6f3d 7866 ccba
000003b0: fa3c 48bd ceb5 0fbd 8868 773d 9d09 483d
000003c0: 9361 8abd 277f 7f3d 5d12 5b3d c0f7 30bd
000003d0: 0052 ebbc 89aa 2e3d bcab 68bd 1dcc 44bd
000003e0: 61c6 613c 4474 80bd 5ee2 c73c c13e 6f3d
000003f0: 5c23 31bd d0de 55bd 452b e0bc c5cf 2abb
0.010383543 -0.025289476 0.066097945 0.039496835 0.019887185 -0.047942262 0.031924378 -0.0035157385
-0.049322672 0.053448133 -0.01241352 -0.05530057 -0.06444671 -0.03550917 -0.043132428 0.019709451
0.050144248 -0.039665733 -0.024197156 -0.017931959 0.055201095 -0.058808193 0.057146266 0.05856588
-0.033263627 0.03259812 -0.051969368 -0.029630534 -0.017200105 -0.06570288 -0.0031226263 -0.06355213
-0.008697374 0.017526928 -0.054899044 0.022029256 0.009539392 0.01773027 -0.039125636 0.035232794
0.0699098 0.014180477 0.041808058 0.033047564 0.04772214 -0.013681567 0.042759698 -0.015161992
-0.03940153 -0.0701117 0.06608883 -0.040740892 0.026477283 -0.009876811 -0.021739995 -0.013437849
-0.06291424 0.028820034 -0.026223155 -0.06995329 0.06663336 0.06690366 -0.03488017 0.041749027
-0.050279766 -0.06822881 0.049388364 0.046917763 0.012279611 0.066703424 0.05947692 -0.06900213
-0.029095184 0.025721792 -0.008169813 0.029318007 0.030164493 0.0016783634 0.031312447 -0.028362343
-0.06974652 0.0091226185 0.004463242 0.011685206 0.02047386 -0.04957835 0.029908981 -0.014669515
-0.067012444 -0.052504618 -0.04982759 -0.0097757345 -0.041054185 -0.025410268 0.06381325 0.06952521
0.039979026 0.038332064 0.0026239364 0.013700222 0.03395154 -0.03839524 0.03509668 0.06463128
0.020223634 -0.013709132 0.02858299 0.028050102 -0.007235257 0.017721344 -0.007974091 -0.058870282
0.059437316 0.030780233 0.06673305 -0.012446429 -0.010725834 -0.0007946114 0.00064732507 0.0132312365
0.06898663 0.0228046 0.067459375 -0.032575555 -0.0014661709 -0.021529352 0.06724603 0.06549241
-0.000654077 0.06623447 0.012317055 -0.040930543 -0.0013589408 -0.07040232 -0.06317407 -0.067378074
0.028765723 -0.011013942 -0.029261876 0.048984528 1.5720776e-05 0.013633773 -0.036566462 0.068771444
-0.003800845 -0.004201628 0.0037516092 0.049559396 0.013934322 -0.053714283 0.049997773 0.004790605
0.029928142 -0.02121885 0.03925325 -0.029463885 0.06947584 -0.02425912 0.044009488 -0.045416754
-0.010426811 0.012303163 0.04486684 0.04469804 0.05361564 -0.056963366 0.022541923 -0.030915702
0.0593145 0.013168429 -0.039266568 0.00851809 0.053062554 -0.0031161357 0.056038316 -0.011275083
0.02338561 -0.042971108 -0.027430773 0.023175111 0.036635704 -0.06966667 -0.009089213 0.0029486273
0.008097413 0.039616093 -0.030915525 0.0057101143 -0.008626499 0.00013343693 -0.04887439 0.061639212
-0.034688484 -0.0046158386 0.0010218504 0.056962285 0.0048475876 0.05501515 -0.059142247 -0.0043557337
-0.060891014 0.046605222 0.034599572 0.03187267 0.055901542 -0.054768145 -0.060008187 0.039532404
0.019419499 0.024735598 0.004689065 -0.015579643 0.04535453 -0.035452362 0.031845123 -0.06380041
0.03001982 0.0328466 0.0035851544 -0.024621002 -0.004981952 -0.0023221818 -0.06407272 0.041009594
-0.056979902 -0.053644326 -7.922765e-05 -0.047844615 0.070011295 0.014534703 0.02669621 0.00023520472
-0.03358492 -0.022261014 0.05846741 -0.0015594503 -0.048886277 -0.03508549 0.060402423 0.048837293
-0.06756892 0.06237712 0.05348431 -0.043205023 -0.028725624 0.042643104 -0.056804404 -0.04804622
0.013780207 -0.06272176 0.024399932 0.058409456 -0.043246612 -0.052214444 -0.027364383 -0.0026063782

backbone.model.1.1.model.0.bias f4 [8]
00000000: e00d 8dbd 74a6 89bd de83 8ebc fc50 82bd
00000010: ec03 313d 4692 30bd 20ad 393d 0381 2dbd
-0.06887412 -0.067212015 -0.017396864 -0.06363103 0.04321663 -0.043108247 0.04533112 -0.042359363

backbone.model.2.0.model.0.weight f4 [8, 8, 3, 3]
00000000: 06fc eb3d abe9 0abd e379 cc3d eccd c53c
00000010: b21f 383d 2be0 dfbd 6f44 073c de85 93bc
00000020: b00e 993d d98f 853d 49cd 943c 7cec ab3d
00000030: cb59 37bd 164d 41bd aed4 b23d 4ef0 81bb
00000040: 9acd 10bc 5967 e8bd b570 4fbd 71e9 fe3c
00000050: 9bcd e5bc 2234 9f3d 02be d1bd d8e3 a43d
00000060: 2bce 9a3d c25b 8abd f7a4 0d3c f0f6 93bd
00000070: 84ab ac3c 8d01 8abd 6bff 1c3d ff52 ecbc
00000080: 0881 d33d a1ba 113d e9ee eb3c 91fe c73c
00000090: 654a 99bd eed6 99bd 29bf ebbd dfed c83d
000000a0: 7194 9d3b 6ef6 e7bd 69dd 183b e722 a23d
000000b0: aeae 0f3d 6d8d 14bd 4bbd a0bd a91f f1bd
000000c0: fb53 903d 0c08 a9bc af50 9cbd d5b6 9cbd
000000d0: 82ac a13d 78ab 0fbd b029 c1bc a630 94bd
000000e0: 96d3 a73d 951e 433d 15c4 0e3d 9752 a93c
000000f0: 76b4 973d f07a 6fbd c098 d0bd 0619 a43d
00000100: 96a0 a7bd 3df8 98bd 0675 2cbd a605 76bd
00000110: 8358 303d ff63 8ebd e2c9 a13d 2601 743d
00000120: b475 de3c 51b3 eb3d 5727 5abd 963c bd3d
00000130: 84d8 dbba adde 9ebd 2983 bc3d b78b 8d3d
00000140: afd2 78bd 896f 86bc 57d6 8e3d 1dfc d03c
00000150: f9b3 e83d 3a50 a73d 4147 2dbd f77e ab3c
00000160: 995b b1bd 4a41 e2bd dafa 803d 4ce2 dfbd
00000170: ee22 abbd e6bd 4e3d 64c8 26bd b000 ddbd
00000180: 22a9 a5bd d761 5cbd a43f aebd 58f3 473c
00000190: 0d2e 92bd f28f e8bc 3eec 47bd 1807 eabd
000001a0: f2f5 d7bd ef76 c23d 21f9 373d d48a edbd
000001b0: 66f2 c7bb a74e d23d 991f 983d 8a22 24bd
000001c0: 5b7e 2f3d 9df6 af3d 7bf1 d33c 17b3 92bd
000001d0: 2193 c63d 321d 33bd 8740 29bd 491b ba3d
000001e0: dc8a 363c 4542 003d c635 ebbd 9b69 d2bd
000001f0: e6c0 453c bd88 853d 79f8 94bd eed7 a6bc
00000200: 2b87 01bd 9b94 5dbd 8e24 a23c cbc4 2cbd
00000210: 5fb5 343d b3b0 e8bd 1b66 a4bd 8737 a3bd
00000220: be07 3f3b 5edb 1a3d 21cf a9bc 69fc 8fbd
00000230: d922 46bd e162 853d 8333 ba3d ece2 73bd
00000240: 01ac d0bd 076d 2ebc 2395 93bd b1f2 00bd
00000250: 8ded a7bd a8a5 583d 3482 bf3d f227 083d
00000260: 9049 09bb 481c d93d 78f8 8f3d 7ebf bc3c
00000270: 05c6 9c3d f351 d63d cdb2 913d cd95 91bd
00000280: f570 a23d ac7a da3d f72f 50bd 6afe 523c
00000290: 6c03 7dbd 5aa3 e4bc a026 0bbc bb33 d2bd
000002a0: 6ed6 c33c ca42 573d 34a2 2bbb 2544 a6bd
000002b0: 58dc de3d 30f7 093d 307a c63d 0ee2 bd3c
000002c0: 7d06 54bd e338 1e3d b79e fabc da0d 98bd
000002d0: 4587 7d3d e35b 77bc 86f5 8c3d c6b2 ae3d
000002e0: a867 a9bc cc70 b13d 6bf1 263d 0e79 e8bd
000002f0: 6463 c93b 53bc ddbd b43b 26bd 4d99 8e3c
00000300: b486 583d b4f5 c6bd e9f5 be3d 826e dfbd
00000310: 7398 af3d 621b bebd d24e 6fbd d084 d83d
00000320: dbdb e73d 8af9 53bd 97fc c23d 236a c13d
00000330: 6d33 723c 0b9d d4bd 627b c0bc 8cb6 dc3b
00000340: e6aa bb3c d6ac 40bd dfbd e43a 34f4 d8bc
00000350: 0e23 e63d 7c3e a7bd 0b8f 19bd c42b 653c
00000360: e1bf e63d 9c29 23bd 785c dbbd 0bb8 593d
00000370: c624 903d 81c1 2437 c9a2 83bd a4b1 d2bd
00000380: 4b12 973c f1e7 173d 3db1 efbd 0048 a33c
00000390: 7d8c 8c3d 24e2 c93d 6907 57bd 280d 92bd
000003a0: d2fd 0bbd bfaa 4ebd 6ec8 243d efa7 333c
000003b0: d793 78ba 9099 bd3d b7ac 37bc 0a9d 3d3d
000003c0: 73ff 953d a5c5 23bd 2cb9 e5bd b2ee f53c
000003d0: e8bd a2bd 185f e03d 3092 bfbd 21c2 a2bd
000003e0: aae9 3239 936b 30bd 3576 90bd a817 ac3d
000003f0: 8cee e93d 3771 4b3d f4c3 d23d 7993 e43c
0.11522679 -0.03391425 0.099841855 0.024146043 0.044952102 -0.109314285 0.008256062 -0.018008169
0.074735045 0.065215774 0.018164294 0.08394715 -0.044763368 -0.047192656 0.08731972 -0.003965414
-0.008838082 -0.11347837 -0.050644595 0.031117173 -0.028052142 0.077736154 -0.10241319 0.0805127
0.07558855 -0.06755783 0.008645288 -0.07224834 0.021077879 -0.06738577 0.038329523 -0.02884817
0.10327345 0.035578374 0.028800445 0.024413379 -0.07484893 -0.07511698 -0.1151107 0.09810995
0.0048089554 -0.113262996 0.002332533 0.07916813 0.035078697 -0.036267687 -0.07848605 -0.11773617
0.07047268 -0.02063372 -0.07632577 -0.0765206 0.078942314 -0.035075635 -0.023579448 -0.072358415
0.08194654 0.047636587 0.034854967 0.020669265 0.07407467 -0.05846685 -0.10185385 0.08012585
-0.08184926 -0.07469223 -0.04210379 -0.06006398 0.04305316 -0.069526665 0.07899834 0.059571408
0.027155735 0.11508811 -0.053260174 0.092400715 -0.0016772901 -0.07757316 0.09204704 0.06911414
-0.0607478 -0.016410606 0.06974476 0.025510842 0.11362452 0.08169599 -0.04230428 0.020934565
-0.08660049 -0.11047609 0.06297846 -0.109318346 -0.08356272 0.05047407 -0.04071845 -0.10791147
-0.080889 -0.053804245 -0.08508232 0.012204014 -0.0713769 -0.028388951 -0.048809282 -0.11427134
-0.10544957 0.09495341 0.044915322 -0.11598745 -0.006101894 0.10268908 0.07427902 -0.040072
0.04284511 0.085919596 0.025871983 -0.07163065 0.09696031 -0.043729015 -0.041321304 0.090872355
0.011141505 0.0313132 -0.11484866 -0.10274049 0.012069916 0.065202214 -0.07273955 -0.020366635
-0.031623047 -0.0540968 0.019792821 -0.042179864 0.04411828 -0.11361828 -0.080272876 -0.079695754
0.0029148902 0.03780686 -0.02072865 -0.07030565 -0.048373077 0.06513 0.09091856 -0.05954258
-0.10189057 -0.010646111 -0.0720618 -0.03148145 -0.08199606 0.052892357 0.09351006 0.03324122
-0.0020948388 0.10601097 0.070298135 0.02304053 0.07654957 0.10464849 0.07114182 -0.0710865
0.07931701 0.10667929 -0.050826993 0.01287804 -0.06177084 -0.027909923 -0.008493096 -0.10263773
0.023905959 0.05255393 -0.002618921 -0.08118466 0.10881871 0.033683002 0.09691274 0.02317908
-0.051764 0.03862847 -0.03059326 -0.07424517 0.06189658 -0.015097591 0.068827674 0.08530192
-0.02067931 0.086640924 0.040757578 -0.11351214 0.0061458815 -0.108269356 -0.04058428 0.017407084
0.052862838 -0.09714833 0.093242474 -0.109097496 0.08573999 -0.092825666 -0.05842478 0.10572207
0.11321231 -0.05175165 0.09520834 0.09444072 0.014782769 -0.10381516 -0.023496334 0.0067356285
0.02290864 -0.04703983 0.0017451606 -0.026483633 0.11237155 -0.08166215 -0.037489932 0.013987485
0.11267067 -0.039834604 -0.107109964 0.053154033 0.07038264 9.820215e-06 -0.06427533 -0.102877885
0.01844134 0.03708643 -0.117037274 0.019931793 0.068627335 0.09857586 -0.0524973 -0.071314156
-0.03417761 -0.050455805 0.040230207 0.010965331 -0.0009482479 0.09257805 -0.011210612 0.046292342
0.07324114 -0.03998341 -0.11216959 0.030021045 -0.07946378 0.10955638 -0.09354055 -0.079471834
0.0001706245 -0.04307134 -0.07053796 0.084029496 0.11422452 0.049668517 0.10291281 0.027902352

backbone.model.2.0.model.0.bias f4 [8]
00000000: 8a4e 62bd b95e ecbd 0acf cfbd bbdd a0bd
00000010: ed11 f3bc f37e dfbd 4c48 71bd 1868 a0bd
-0.055250682 -0.115415044 -0.101469114 -0.07854792 -0.029671634 -0.109128855 -0.05890684 -0.07832354

backbone.model.2.1.model.0.weight f4 [8, 8, 3, 3]
00000000: 5889 373d ca7c b4bd 0e4e 84bd 1668 08bd
00000010: 8430 ccbc 2a4c b73d 5fdd c8bd a132 e43d
00000020: 6552 cebd 425d 78bd 616c 5fbd d9a2 1c3c
00000030: 620a 943d f895 d33c d7bc e23d d81d dabd
00000040: 2ee7 04bd af7c 72bd d47e ddbd da49 f5bc
00000050: 05a1 b73c a65f 943d a8d3 e33d 34d0 75bd
00000060: ee57 cfbd 5c96 823c 492d c3bc ffc0 a03c
00000070: 4fd8 d8bd 1b81 513b 0d62 dd3d 040c 97bd
00000080: 56c0 1b3b d354 e63d 64fd d63c 0c9b c6bd
00000090: b819 c23d 234e af3d 1a1c 8bbd 3c57 0939
000000a0: 8920 c0bd c42d ab3d 8d29 633d 9c81 133d
000000b0: 34db 573d 0556 86bc b5bf 99bd c33c 483d
000000c0: 62da e73d f710 dbbc 652c dc3c 3a0c 50ba
000000d0: d329 0c3d a7e1 1f3d ffe4 e33c 9828 6abd
000000e0: 1861 b13d dd33 46bc 5960 83bd f3fd 1e3d
000000f0: 51e6 cf3d ff85 6d3b 548f 773c fb0c a73d
00000100: 4e7b cb3d d13f 433d 1915 82bd dbb8 9bbd
00000110: 38a2 ddbc 249b ccbd d7e8 eb3c e988 a8bd
00000120: 2ce2 c63d e1e8 2abc 350b 09bd f504 07bd
00000130: ef1e a9bd 1be3 c63b 38a0 f03d 23d4 c4bc
00000140: 764b 953d 674f c2bd dacc c4bd 0c7e 223d
00000150: 400f edbd bcbf b13b 99a8 423d 5ba3 db3d
00000160: b423 2bbd 374c ac3d a2c8 aa3d 5e15 efbd
00000170: c2fd ce3d 95dd f63c 453b 8a3d 363c ccbc
00000180: f4dc 483d f561 853d 0a22 25bd f19c bfbb
00000190: 3880 e3bd ffc7 3d3d 99cf 743d cb76 8b3d
000001a0: f3d0 a7bc c58d 883d 5bd6 e5bd a963 ea3d
000001b0: 7b4d ca3d a3f7 c3bd 5aa3 e0bd 14e9 ddbb
000001c0: 4524 ae3d 3f4b b4bd d387 65bd d1d8 8bbc
000001d0: ac3f d8bd c2a0 dbbd 9639 81bd 185f abbd
000001e0: bf47 87bd 1c86 cbbd 0c88 44bd 90f6 a9bd
000001f0: d318 d9bb e19c c2bd bff0 8e3c 9342 6dbd
00000200: f89a e93b d040 a53d a8fd 8cbd 07e1 8d3d
00000210: c26e 7e3d d815 d3bd db2c adbc a703 bebd
00000220: b9c6 113d eb34 d6bd 518b 603d b545 8abc
00000230: daec 993c 759d 2a3c 9286 bebd 1844 913d
00000240: 97d5 f33c cca1 dcbd 4d29 bc3d 0fa0 97bd
00000250: 6627 233d 9ead 5cbd 1047 993c afb7 18bd
00000260: b320 9b3d 5451 90bc da40 b63c 86d3 82bc
00000270: 3586 af3d bdb0 1cbd 8207 333d fb4c 023d
00000280: 9d87 be3d 9461 6bbd 7670 1a3d 42cf b63d
00000290: a8d2 e1bd a556 773d 10f9 a63d 7d3c 43bd
000002a0: 6d39 373d acbc e8bc fb5b 2cbd 56e9 0ebd
000002b0: 455d a23b a3c8 473d e639 1abc d336 a4bc
000002c0: eb0d 02bd fc59 aa3c db62 543b 4ae5 9dbd
000002d0: 3fb8 7a3d 299c b1bd b40e b6bb 8f15 ec3d
000002e0: 83bb 85bd 5525 a23d f966 a0bd 96b7 eebb
000002f0: ac81 3fbd 7406 c3bd fea7 88bb 9db9 4fbc
00000300: 1667 5cbd c375 debd 312c f93c 310e 15bd
00000310: 6aea 40bd 6afb a7bd 2635 423c 9d08 093d
00000320: 4e71 8bbd 0ad9 6e3d b563 ccbd 340a dc3d
00000330: f1fa c33d 9fae d53d 38b3 ef3d 4d46 a4bd
00000340: 0788 503c 9fe4 943c f47b ee3d 1a50 d1bd
00000350: cd76 7ebd f101 98bd dad1 b03d c04c a73b
00000360: d344 8a38 2264 cb3d 834f 30bd 9d72 b2bd
00000370: 040c f1bd 1bd0 333d 8e8b da3c 8efc 6d3c
00000380: 81c9 2bbc 6bae 0ab9 6d7f c6bd b63f 4f3d
00000390: d7ff 58bd 5e35 a53d 1a6f 0abd 97cd d03d
000003a0: 2877 89bd 78b2 2d3c 41a8 683d 93d0 23bd
000003b0: 308d 60bc 159a e2bd 179b dd3d 2d3b a7bd
000003c0: 83de 3f3d 14ea babd 1e94 543c 9e47 6a3c
000003d0: f8b3 ee3d 2fdd 45bd 95d0 cdbd aa74 95bc
000003e0: 3da2 e23d 215a 74bd 4ef9 45bd 2890 dfbd
000003f0: 7477 2c3c c9d2 a1bd 7e40 493d d8f5 223d
0.044808716 -0.08812864 -0.064602 -0.03330239 -0.024925478 0.08950074 -0.09807848 0.11142469
-0.10074309 -0.060635813 -0.054546718 0.00956031 0.07228543 0.025828347 0.110711746 -0.106502235
-0.032447033 -0.05920094 -0.10815206 -0.029942442 0.022415647 0.07244806 0.111243546 -0.06001301
-0.10124193 0.015940838 -0.023825305 0.019623278 -0.105881326 0.0031967822 0.10809717 -0.07375339
0.0023765764 0.11246648 0.026243873 -0.096975416 0.09477562 0.08559825 -0.06792469 0.00013097835
-0.093812056 0.083583385 0.055459548 0.036012277 0.052699283 -0.01639844 -0.07507268 0.048886072
0.1132095 -0.026741488 0.026876638 -0.0007936392 0.034219574 0.03903356 0.027819155 -0.05716762
0.08661097 -0.012097326 -0.06414861 0.038816404 0.10151351 0.0036243198 0.015109856 0.08156773
0.09935628 0.047668282 -0.0635168 -0.07603618 -0.027054891 -0.09990528 0.02879755 -0.082292385
0.097111076 -0.010431499 -0.033457953 -0.03296371 -0.08257853 0.0060695536 0.11749309 -0.024026936
0.07289784 -0.09487801 -0.09609385 0.03967099 -0.11575174 0.005424468 0.04752407 0.10724517
-0.041782096 0.08412974 0.08339049 -0.11673997 0.10106994 0.030134955 0.06749586 -0.024931055
0.049038842 0.065128244 -0.040315665 -0.0058475663 -0.1110844 0.04633331 0.059768293 0.06809767
-0.020485377 0.066676654 -0.11222526 0.1144479 0.098780595 -0.09568717 -0.10968657 -0.00677217
0.085030116 -0.088034146 -0.056037735 -0.01707116 -0.105590194 -0.107240215 -0.06309812 -0.08367747
-0.06605481 -0.09937689 -0.047981307 -0.08298981 -0.0066252737 -0.095025785 0.017448781 -0.05792482
0.0071290694 0.08069003 -0.068843186 0.06927686 0.062117346 -0.10306901 -0.021139553 -0.092780404
0.035589907 -0.10459312 0.054820362 -0.016878942 0.018789697 0.010413517 -0.09303011 0.07093066
0.029764934 -0.10773048 0.09187565 -0.07403576 0.039832495 -0.05387651 0.018710643 -0.03728455
0.07574596 -0.017616905 0.02224772 -0.015970003 0.0857052 -0.03825449 0.043708332 0.031811696
0.0930321 -0.057466105 0.037704907 0.0892625 -0.110265076 0.060385365 0.08152974 -0.047665108
0.0447325 -0.028410278 -0.042079907 -0.034890495 0.0049549663 0.048775326 -0.009413218 -0.020045673
-0.031751554 0.020794861 0.0032407555 -0.07709749 0.061210867 -0.08672363 -0.005555952 0.115275495
-0.06529906 0.07917277 -0.078321405 -0.0072850687 -0.046754524 -0.09522715 -0.004170417 -0.012678531
-0.053809248 -0.10862305 0.03041658 -0.036390487 -0.047098555 -0.0820225 0.011853492 0.03345548
-0.068087205 0.058312453 -0.09979955 0.107441336 0.09569348 0.10433697 0.11704105 -0.08021221
0.012727744 0.018175421 0.11644736 -0.10220356 -0.062125016 -0.07422245 0.08633776 0.005105585
6.593172e-05 0.09931208 -0.04304458 -0.08713267 -0.1176987 0.043899637 0.026677873 0.014525546
-0.010485054 -0.00013225681 -0.09692273 0.05059787 -0.052978363 0.080668196 -0.03379736 0.10195463
-0.067121804 0.010601632 0.056801084 -0.039993834 -0.013705537 -0.11064545 0.10820597 -0.08165584
0.046843063 -0.09126678 0.012974767 0.014299301 0.1165542 -0.04830664 -0.100495495 -0.018244106
0.11066101 -0.059656266 -0.04833346 -0.109161675 0.010526527 -0.07901532 0.04913377 0.039785236

backbone.model.2.1.model.0.bias f4 [8]
00000000: cba2 c83d 322e 2d3d f00b 7dbc 7c94 e83c
00000010: 79ec 86bd 08af dcbd 7865 c2bb a8f3 efbd
0.09796675 0.042280383 -0.015444741 0.028391115 -0.06588072 -0.10775572 -0.005932506 -0.117163956

backbone.model.3.0.model.0.weight f4 [16, 8, 3, 3]
00000000: 3b96 aebd 7f83 a13d 3a4c 6f3d 44c4 bcbc
00000010: b7fa 90bd 8753 883d f23b 14bc fc5b 5fbd
00000020: 2bbb 23bc 40ab ac3d 66ee 81bd edc0 a9bc
00000030: 7e04 5ebd 4a77 543d a884 bcbd df82 b43c
00000040: fffa a8bc 201c b9bd 88e0 6abc 8c9c efbd
00000050: c1e5 ddbd c573 393d 86d1 84bc 7fc9 cdbd
00000060: 3e41 913d 74ab 903d ae42 e83d c0ef 72bc
00000070: 3875 963d b365 823d cbdf 783d 6343 adbd
00000080: 9f69 8abc 1700 813d a456 4d3d edd7 54bd
00000090: 771f a7bd 1156 e93d 6489 233d ecc9 11bd
000000a0: b66f 74bd a963 7b3d 16bf 9f3d 9e4d 6bbd
000000b0: 9eeb 59bd 696d d4bd 5ef3 e03c adf9 46bc
000000c0: fac0 c7bd b0ec d6bd 4221 c33d 1847 0cbd
000000d0: f292 5e3d d941 a3bd 5a76 bfbd c486 a1bd
000000e0: 458a 95bd a47f 1dbc ed18 4abd a08f c0bc
000000f0: acba 793d 064e aa3c 4b4b 12bd a91d bfbb
00000100: 4dd1 183d 807d c7bd 62fe d13b 6dc3 923d
00000110: 1159 43bd 6a43 e03c 2ded aa3d 1ab1 a33d
00000120: b490 03bd 82c3 953c 8132 9bbd 72c6 ae3d
00000130: fa1e 0abd f512 de3d 66f9 5d3c b495 5f3b
00000140: 3a70 1a3c a919 e43d 4c8c c1bc f7c3 d4ba
00000150: 3b79 943d df23 bc3c 307e 193d 75c1 533c
00000160: 39cd c9bc ee0a 7a3d 61d7 c5bd bd52 9fbd
00000170: 20a1 2abd 5fc8 f83c 638b 983d 127d d1bc
00000180: 0421 753c 14db 403d 5522 cabd d754 f1bd
00000190: f5fa 953c 975c 523d 7d79 2ebd 3f42 f2bc
000001a0: ca1d 933d be6a 2ebd c036 ec3d 68b2 8bbd
000001b0: 366c 71bd 016b 8cbd e799 85bc b5b1 3c3d
000001c0: d4fc edbd b83b a3bd ff74 3b3d 3cc9 053d
000001d0: 767b 72bd 855c 913d 6617 b13d 7372 993d
000001e0: ad94 d13d c727 acbd 907a c23b 52c0 bc3c
000001f0: 351f 3e3d 89b8 8c3d 0cdb b0bd b0e4 91bd
00000200: 7cb0 c3bd e5c3 ac3d a7e9 80bd e60f 13bc
00000210: 8618 9abd 61d1 523d fd87 743c f2f0 b5bd
00000220: b115 313d 3045 82bc 45a1 dabd 77a7 dd3c
00000230: 012a a2bc 8cbe ac3c da90 ef3d 292e b83d
00000240: dc17 ac3d 6de6 f9bb 93a9 4a3d 1f4d a8bd
00000250: 1f68 fabc e4ea 113d 19eb bfbd 1621 b8bd
00000260: e67e 933d 3fd9 cb3c 7738 d7bd 4c07 f53c
00000270: cbcc 9f3d 994f afbc e332 babd b879 473c
00000280: 1fd1 96bd ca0e a33d f7d4 cdbd 4700 d6ba
00000290: 547e 153c 0483 173d 7029 48bd 135e 203d
000002a0: 984b 38bd 2039 cb3d c215 0a3d b302 5abc
000002b0: d16e 0f3d 1799 c4bc 0b53 cb3c 6356 c33d
000002c0: e525 5a3d 7041 8fbd e46e 39bd 6359 093d
000002d0: 0558 a0ba f1e8 d1bd c3ee 25bd 9fc6 833d
000002e0: 72a1 d93d 9282 e8bd 401d 3fbd 263a 673d
000002f0: d5e0 593d dddb 48bc ffe5 ea3d ca47 b2bd
00000300: 8ba6 6e3d 4a43 e7bd 941a 143d c611 e5bd
00000310: 7617 febc 3fe9 a1bc 600e 5ebc e2d6 093d
00000320: e557 e93d 987b c5bd 82e9 e3bd 37dc 7f3d
00000330: 9e99 6bbb e35e e93d 79d6 573d f984 b53d
00000340: 0ccc 3d3d 5282 803d 8f9f 933a 98e2 b03d
00000350: 60cc a93d 46a8 11bc 480c c7bd f413 54bc
00000360: c084 da3b 5f3c a43d f6b2 443c f9c6 1ebc
00000370: e767 883d c899 c9bd 36bc ee3d 39e8 833d
00000380: ee2d c1bd c266 f03d 145a a2bd ccf2 883c
00000390: 2cdc ea3c d79e a3bd 713d 9e3b 8c98 2fbc
000003a0: c7ec 92bd 8226 19bd b019 72bd 80ad 853d
000003b0: 468d 8bbd 61b7 bdbd 3e82 3dbd 92fb 93bc
000003c0: 64d1 34bd 20a8 943d 470d efbd 132c 263d
000003d0: ab2e 353c 95c6 82bd 51d1 80bd 00fa c63c
000003e0: 20f1 19bc 338c 923d 8048 8ebd fb18 79bd
000003f0: f502 72bd 27a6 57bd 7858 f7ba 0e0d 7b3c
-0.08524748 0.07886409 0.058422305 -0.023042805 -0.0707907 0.066565566 -0.009047495 -0.054531083
-0.009993355 0.08431101 -0.06344299 -0.020721877 -0.054203503 0.051871575 -0.0920499 0.02203506
-0.020627497 -0.090385675 -0.014335759 -0.11699781 -0.10834838 0.045276422 -0.01621319 -0.10048198
0.07092522 0.07063952 0.11340843 -0.014827669 0.073465765 0.06367054 0.0607603 -0.084601186
-0.016896067 0.06298845 0.050131455 -0.051963735 -0.08160298 0.11393369 0.039925948 -0.03559296
-0.05967685 0.06137434 0.078001186 -0.05744707 -0.053203218 -0.10372431 0.027459797 -0.012144488
-0.09753604 -0.10494363 0.09527828 -0.034247488 0.054339357 -0.07971544 -0.09348746 -0.07887033
-0.073017634 -0.009612951 -0.049340177 -0.023505986 0.06096904 0.020789158 -0.035716336 -0.005832393
0.03730898 -0.09740734 0.0064084986 0.07166181 -0.047692362 0.027375896 0.08346019 0.07992764
-0.03212042 0.018281702 -0.07577992 0.08533944 -0.033720948 0.108434595 0.013548231 0.003411633
0.009426171 0.11137707 -0.02362647 -0.0016232718 0.072496854 0.022966323 0.037473857 0.012924542
-0.02463399 0.06104558 -0.09660221 -0.07779453 -0.041657567 0.030368982 0.07448461 -0.025572333
0.014961485 0.04708393 -0.098698296 -0.1178376 0.018308142 0.05135783 -0.04259633 -0.029572604
0.07183416 -0.042582266 0.1153388 -0.06821138 -0.05894109 -0.06856347 -0.016308738 0.046067912
-0.11620489 -0.07970375 0.045765873 0.032662615 -0.059199773 0.07097725 0.08647041 0.074925326
0.10233436 -0.084060244 0.0059350207 0.023040924 0.04641648 0.06871135 -0.0863553 -0.07123697
-0.09555146 0.084358014 -0.06294566 -0.008975958 -0.07524209 0.05146921 0.014925 -0.08883847
0.043233577 -0.015902132 -0.10675291 0.027057393 -0.01979542 0.021086954 0.1169755 0.08993179
0.08402988 -0.007626346 0.049478125 -0.08217835 -0.030567227 0.0356244 -0.09371013 -0.08990686
0.07201938 0.024883864 -0.10508817 0.029910706 0.07802733 -0.02140026 -0.09091737 0.012175016
-0.073641054 0.07961805 -0.100503854 -0.0016326987 0.009124357 0.03699018 -0.048867643 0.039152216
-0.044993967 0.09923005 0.033712156 -0.013306308 0.035017792 -0.02399878 0.024819871 0.09537961
0.053258795 -0.06994903 -0.04527177 0.03353251 -0.0012233263 -0.10249508 -0.040510904 0.06434368
0.106264964 -0.11353029 -0.046658754 0.05645194 0.053192932 -0.012259451 0.114696495 -0.08705099
0.058264297 -0.11292131 0.03615816 -0.11185031 -0.031017046 -0.01976454 -0.013553232 0.033652194
0.11393718 -0.09642714 -0.111285225 0.062465873 -0.0035949717 0.11395051 0.05269477 0.08863253
0.046337172 0.062748566 0.0011262762 0.08636969 0.082909346 -0.008890217 -0.09719139 -0.01294421
0.006668657 0.08019327 0.012005558 -0.009690993 0.06660443 -0.098437846 0.11656992 0.06440777
-0.094325885 0.117383495 -0.07927337 0.016717337 0.02866944 -0.07989281 0.0048291017 -0.010717522
-0.07174068 -0.03739024 -0.05910653 0.06527233 -0.06814055 -0.092634924 -0.046266787 -0.018064294
-0.044145003 0.0725863 -0.11672454 0.040569376 0.01105849 -0.06385533 -0.06289924 0.024289131
-0.009395868 0.07155647 -0.06947422 -0.06081484 -0.05908485 -0.05264869 -0.001887097 0.015322937

backbone.model.3.0.model.0.bias f4 [16]
00000000: a51e 913d 4b3b be3c a56c 323d f860 abbd
00000010: 296b 6bbd 6b39 9fbd 478f 2ebd fb89 abbd
00000020: 62a0 78bb d048 903d 6720 8b3d 5f44 c2bd
00000030: 1668 d8bd 5bd7 443c 8fb0 82bd 0792 c5bd
0.07085923 0.023221632 0.043560643 -0.08368105 -0.057475243 -0.077746235 -0.04261711 -0.08375927
-0.0037937392 0.07045138 0.0679329 -0.09485697 -0.10566728 0.012014235 -0.06381332 -0.09646993
