software/logs/hyper_parameter_tuning/custom_model_hp/version_4/checkpoints/epoch=0-step=20.ckpt (torch, 195567 bytes, 54 tensors)

backbone.model.0.0.model.0.weight f4 [4, 2, 5, 5]
0	0xbd99a65d	-0.075024344
1	0x3e063105	0.13104637
2	0xbd90cc0b	-0.07070168
3	0xbdbd292d	-0.09236369
4	0x3dc19d7c	0.09453866
5	0xbe00368f	-0.12520812
6	0xbcc22a52	-0.02370182
7	0xbdb4573c	-0.08805701
8	0xbd1cf033	-0.03831501
9	0x3d689941	0.05678678
10	0xbde759d3	-0.112964295
11	0x3d49dd66	0.049283408
12	0x3ceafb22	0.028684203
13	0xbd734c4d	-0.059398938
14	0xbcce7282	-0.025201086
15	0xbdc34a75	-0.09535686
16	0x3d3eb9e2	0.04656399
17	0x3dfa3541	0.122171886
18	0x3dedecb9	0.11617417
19	0x3cc941ff	0.024567602
20	0x3d350f39	0.04420397
21	0x3d4df93d	0.05028652
22	0xbe07108e	-0.13189909
23	0xbdafa7d0	-0.085769296
24	0x3d521e33	0.05129833
25	0x3e0411e2	0.12897447
26	0x3c678983	0.014131906
27	0x3bda7efa	0.006667969
28	0xbe04db25	-0.12974222
29	0x3ccd00b1	0.025024744
30	0xbd1c86fc	-0.03821467
31	0xbdf7d03c	-0.121002644
32	0xbd232504	-0.039830223
33	0xbd146d77	-0.036237206
34	0x3d86c97d	0.065813996
35	0x3cf4a01a	0.029861499
36	0x3df43537	0.119242124
37	0x3b134933	0.002247405
38	0xbdf876fd	-0.1213207
39	0xbe0b7950	-0.13620496
40	0xbd66b2f5	-0.05632301
41	0x3d7fe135	0.062470634
42	0xbd5c6616	-0.053808294
43	0xbc475140	-0.012165368
44	0x3dd4919b	0.103793345
45	0xbda8991f	-0.082323305
46	0xbe0bff6e	-0.13671657
47	0x3bb78e14	0.005601654
48	0xbdcd979f	-0.10038685
49	0xbdf6bfc7	-0.120482974
50	0x3d51805b	0.0511478
51	0xbdba11a2	-0.090853944
52	0xbd9bb8da	-0.07603617
53	0x3e09e064	0.13464504
54	0x3d0420d8	0.032257885
55	0xbd76054c	-0.060063645
56	0x3b9477fb	0.0045309043
57	0xbdb74830	-0.089493155
58	0xbd2fa76a	-0.042884268
59	0xbde33d80	-0.110957146
60	0xbe0d487d	-0.13797183
61	0xbdc640db	-0.09680339
62	0x3d9f0da9	0.07766277
63	0xbcf86c29	-0.030325012
64	0x3d868c65	0.06569747
65	0x3dae0acb	0.08498152
66	0xbdfe68c1	-0.12422324
67	0xbe080435	-0.13282855
68	0xbdc4b396	-0.09604566
69	0xbdb1d4c8	-0.08683163
70	0x3d59a3ab	0.0531346
71	0x3e059b7d	0.13047595
72	0x3d2486c4	0.040167585
73	0xbe0f5972	-0.13998964
74	0xbdd98096	-0.10620229
75	0xbc75e1f1	-0.015007482
76	0xbd36202f	-0.044464286
77	0xbda768b8	-0.081742704
78	0x3d749634	0.059713557
79	0xbd0b5bae	-0.03402298
80	0x3d72e578	0.05930087
81	0x3d9a6419	0.07538623
82	0x3dcc3cb7	0.09972518
83	0xbd4d0134	-0.050049976
84	0xbcc12989	-0.023579376
85	0xbdba78a6	-0.09105043
86	0x3d943c5d	0.07238076
87	0xbdf23ba6	-0.11827783
88	0xbde41b07	-0.111379676
89	0x3dda40ac	0.106568664
90	0x3d913b69	0.0709141
91	0xbde6bff1	-0.11267079
92	0x3d7e388e	0.062065654
93	0x3de3302c	0.110931724
94	0xbe00a325	-0.12562235
95	0xbdedefcf	-0.116180055
96	0xbd8a3d1f	-0.06749939
97	0xbdf43d52	-0.119257584
98	0x3e0a65a9	0.13515343
99	0x3dfa77cd	0.122298814
100	0x3dc03092	0.09384264
101	0xbe030f75	-0.12798865
102	0x3db6fccd	0.08934937
103	0xbdeb80fd	-0.11499212
104	0xbd8a21bd	-0.06744716
105	0x3cf5f164	0.03002233
106	0x3daaffd8	0.083495796
107	0x3d9384d5	0.0720307
108	0xbd434b67	-0.04767933
109	0xbb47bf6b	-0.0030479084
110	0xbde3ba45	-0.111195125
111	0x3d5277fc	0.051383957
112	0xbdd82374	-0.10553637
113	0xbdd48afc	-0.10378072
114	0x3b809ffc	0.0039253216
115	0xbd332fc9	-0.043746743
116	0xbbc9b803	-0.006155969
117	0xbb8f3bbb	-0.004371134
118	0xbc9a3c47	-0.01882757
119	0xbde48f47	-0.111601405
120	0x3d2969cc	0.04136066
121	0xbd5b5486	-0.053547405
122	0x3d50d834	0.050987437
123	0x3d2899c4	0.041162267
124	0xbdd4e9bd	-0.103961445
125	0xbe0b3859	-0.13595714
126	0x3dc54036	0.09631388
127	0x3d6ce782	0.05783797
128	0xbd379181	-0.044816498
129	0x3defacc3	0.117028736
130	0x3d97c0db	0.07409831
131	0x3d13e29f	0.036104795
132	0xbdad12e6	-0.0845087
133	0xbe028343	-0.12745385
134	0x3d5f427d	0.054506768
135	0x3d1d4fd6	0.038406216
136	0xbde0e33b	-0.10980841
137	0x3d857df6	0.06518166
138	0x3e04cef3	0.1296957
139	0xbdad64e5	-0.0846651
140	0x3d458528	0.04822269
141	0xbd1d9eff	-0.03848171
142	0x3d617ae1	0.055048827
143	0x3d71b483	0.05901004
144	0x3d3b84d4	0.04578097
145	0x3d531afd	0.05153941
146	0x3c5e8377	0.013581148
147	0x3de70602	0.11280443
148	0xbd843bb4	-0.064567
149	0xbe0dd9bc	-0.1385259
150	0xbba56199	-0.005047035
151	0x3d6337d8	0.05547318
152	0x3d76fb48	0.060298234
153	0x3d9c44c5	0.07630304
154	0xbd337b06	-0.043818496
155	0xbe01c84d	-0.12674065
156	0x3dd0a2ef	0.10187327
157	0x3d9816cc	0.07426223
158	0xbd70274c	-0.058631226
159	0x3e08e12f	0.1336715
160	0xbd035bcf	-0.032069977
161	0xbb97ba3a	-0.0046303542
162	0x3db4bdd1	0.08825267
163	0x3dcf264e	0.10114728
164	0x3dff15fa	0.124553636
165	0x3d6feba7	0.058574345
166	0x3d6fa13a	0.058503367
167	0xbd63d833	-0.055626106
168	0x3c8aa0aa	0.016922314
169	0xbd9411de	-0.072299704
170	0x3cf0ae51	0.029379996
171	0x3c3037dc	0.010755505
172	0x3dd36084	0.10321143
173	0xbdc4446c	-0.09583363
174	0xbde67ab1	-0.1125387
175	0xbdb4b196	-0.08822934
176	0x3d863d25	0.06554631
177	0xbcf6a493	-0.030107772
178	0x3cb9308b	0.022606155
179	0xbda3932b	-0.079870544
180	0x3d720a7b	0.059092026
181	0x3cbec768	0.023288444
182	0xbc1121cc	-0.008858155
183	0xbdf228f2	-0.11824216
184	0xbe0499c9	-0.1294929
185	0xbd83e38c	-0.064398855
186	0x3d871543	0.06595852
187	0x3d863752	0.0655352
188	0xbd9f4ec4	-0.07778695
189	0xbdf1a48d	-0.11798964
190	0xbd09e7b4	-0.033668235
191	0xbd23b000	-0.03996277
192	0x3ddb2c4a	0.10701807
193	0xbc0a7403	-0.008450511
194	0xbda14946	-0.07875304
195	0xbd6ac068	-0.0573124
196	0xbdd07df6	-0.10180275
197	0xbd152065	-0.036407847
198	0x3cbedfa0	0.023299992
199	0xbd964fb1	-0.07339419

backbone.model.0.0.model.0.bias f4 [4]
0	0x3d90d3a2	0.07071616
1	0xbd58ab35	-0.05289765
2	0x3de7b645	0.11314062
3	0x3d57aab0	0.052653015

backbone.model.0.1.model.0.weight f4 [4, 4, 5, 5]
0	0xbd486f27	-0.048934128
1	0x3db24bf3	0.087058924
2	0xbdac5f1f	-0.084165804
3	0x3c9ed340	0.019387841
4	0x3dba38cd	0.09092865
5	0x3d1d2a1d	0.03837024
6	0x3dbd0b82	0.092307106
7	0x3d86e322	0.06586291
8	0xbd7140f7	-0.058899846
9	0xbbf230e7	-0.0073910835
10	0x3cecc70d	0.028903509
11	0x3d95b380	0.073096275
12	0x3d80429b	0.06262704
13	0x3d8000ea	0.06250174
14	0xbd05c5a7	-0.0326592
15	0xbc802700	-0.015643597
16	0x3d2ea847	0.04264095
17	0x3da3d587	0.079997115
18	0x3cd1e0ba	0.025619853
19	0x3ca2bcda	0.019865442
20	0xbdcb2928	-0.09919959
21	0x3d471093	0.04859979
22	0x3db1e24a	0.08685739
23	0xbd9ee925	-0.077593125
24	0xba80a867	-0.0009815813
25	0x3d6b0a97	0.057383146
26	0x3d028f7d	0.031875122
27	0xbc149580	-0.009068847
28	0xbc48544d	-0.01222713
29	0x3c068033	0.008209276
30	0x3cd5bd9a	0.026091386
31	0x3c17dc00	0.009268761
32	0xbdca55d5	-0.098796524
33	0x3d40345d	0.046924938
34	0xbd6fd14d	-0.058549214
35	0xbcbe99da	-0.023266722
36	0x3ce5337a	0.027978648
37	0xbd8ef0e5	-0.06979541
38	0x3cb0f887	0.021602882
39	0xbd908ea5	-0.07058457
40	0x3d9901fd	0.07471082
41	0x3d8590d8	0.065217674
42	0x3d783f4d	0.060607243
43	0x3c03cf8d	0.008045089
44	0x3db03ae7	0.08604985
45	0x3da695a7	0.08134013
46	0xbd45ec40	-0.04832101
47	0x3c243b0d	0.010023844
48	0x3da9e6db	0.08295985
49	0x3da05188	0.07828051
50	0x3d9a55b8	0.07535881
51	0x3d0a2477	0.03372618
52	0xbcb4afed	-0.022056544
53	0x3d59a1ed	0.05313294
54	0x3d14c493	0.03632028
55	0xbd88af28	-0.066740334
56	0xbd4668d0	-0.0484398
57	0xbdc1c0a3	-0.09460571
58	0xbd97c05b	-0.07409736
59	0x3dc0e97a	0.09419532
60	0x3be77d80	0.0070645213
61	0xbdc5cf90	-0.0965873
62	0x3dcc9a8f	0.09990417
63	0x3cecd833	0.028911686
64	0x3c9d56a7	0.019206358
65	0x3da0c047	0.07849174
66	0xbdcad068	-0.099030316
67	0x3d57bf13	0.052672457
68	0x3d698043	0.057007086
69	0xbd3fbaf0	-0.046809137
70	0x3d4472d0	0.047961056
71	0x3dc5d60a	0.09659965
72	0x3c371073	0.011173355
73	0x3d2ab9b3	0.041681003
74	0x3d4f3e87	0.05059674
75	0xbd5deb5d	-0.054179538
76	0xbd8230bb	-0.06356951
77	0x3b0094cd	0.0019619942
78	0xbd266997	-0.040628042
79	0x3d971d0b	0.073785864
80	0x3d377bc7	0.044795778
81	0xbdb8db1a	-0.09026165
82	0x3d8bd80a	0.068283156
83	0xbd7dd6b7	-0.061972346
84	0xbcdf110d	-0.02722981
85	0x3da0b710	0.078474164
86	0xbcf36dc0	-0.029715419
87	0x3d05ca8d	0.03266387
88	0x3dbc00e0	0.091798544
89	0x3d6670f0	0.05626005
90	0x3dc95002	0.098297134
91	0xbd61e850	-0.05515319
92	0xbd0fce83	-0.035109054
93	0x3c9910a0	0.018684685
94	0x3dc98467	0.09839707
95	0x3cb93ea0	0.02261287
96	0x3dc0c73b	0.09413
97	0x3dc56d95	0.09640042
98	0x3d1e6850	0.0386737
99	0x3dac77db	0.08421298
100	0x3d8fda83	0.070241
101	0xbcebc340	-0.028779626
102	0x3d9aa247	0.07550483
103	0x3d1eb740	0.03874898
104	0x3dab6ad8	0.08369988
105	0xbdb9bca5	-0.09069184
106	0xbcf4c2da	-0.029878069
107	0xbd5288bd	-0.051399935
108	0x3b89af9a	0.0042018415
109	0x3d0444ba	0.032292105
110	0x3cde7807	0.027156843
111	0x3c16b367	0.009198046
112	0xbd191e6d	-0.037382532
113	0xbdc43c55	-0.0958182
114	0xbba0a833	-0.0049028634
115	0xbd17ca73	-0.037058305
116	0xbdbee57f	-0.09321117
117	0x3c01dd73	0.007926333
118	0x3d824e90	0.06362641
119	0x3d58c7cd	0.05292492
120	0x3d959e60	0.07305598
121	0xbd99dd6f	-0.07512938
122	0xbd4bcd50	-0.049756348
123	0xbdb01607	-0.085979514
124	0x3d629267	0.0553154
125	0x3d4fbba3	0.050716054
126	0xbd889dd0	-0.06670725
127	0x3d80680d	0.06269846
128	0xbd9f3bf2	-0.077751055
129	0x3d9cdb55	0.07659022
130	0xbd2bcdd7	-0.04194435
131	0xbd4fbe37	-0.050718512
132	0x3cf7b37a	0.030236948
133	0x3dcc0c98	0.099633396
134	0xbc8b746d	-0.01702329
135	0xbd387c2d	-0.0450403
136	0x3cd11a5a	0.02552526
137	0x3d776977	0.060403313
138	0xbd4c1203	-0.049821865
139	0xbd21db5d	-0.03951584
140	0x3cb9f973	0.022701954
141	0xbd6add53	-0.057339977
142	0xbcb08ba0	-0.021550953
143	0xbcf18833	-0.02948389
144	0x3d6c8cf3	0.057751607
145	0x3dabc173	0.08386507
146	0x3d0bad67	0.034100916
147	0xbc1831e7	-0.009289241
148	0x3d92193f	0.071337216
149	0xbd34f88d	-0.04418235
150	0xbdbb58b0	-0.09147775
151	0x3d1dabc0	0.03849387
152	0xbdb94e77	-0.09048169
153	0xbba79e33	-0.0051152944
154	0x3b41cc00	0.0029571056
155	0x3dc73b20	0.09728074
156	0x3d7a0af0	0.061045587
157	0x3d2acbad	0.041698147
158	0x3c988a73	0.018620705
159	0x3dabf28f	0.08395874
160	0x3db9ef67	0.090788655
161	0x3d657007	0.05601504
162	0xbd6b493a	-0.05744288
163	0x3d454787	0.048163917
164	0xba952e67	-0.0011381627
165	0x3d809412	0.06278242
166	0xbdac902f	-0.08425938
167	0xbc980c40	-0.018560529
168	0xbcd6528d	-0.02616241
169	0xbd26a020	-0.04068005
170	0xbc7f5800	-0.015584946
171	0xbd6e1cf3	-0.058133077
172	0xbbcb751a	-0.006209028
173	0x3d8c7c57	0.068596534
174	0x3c569167	0.01309619
175	0xbda864a3	-0.0822232
176	0xbd859a1b	-0.06523534
177	0x3d65d47d	0.056110848
178	0x3c8d0d07	0.017218126
179	0x3db623b7	0.08893531
180	0x3da12a5d	0.07869408
181	0xbd504e97	-0.0508562
182	0x3c90dc40	0.017683148
183	0x3d30f8fa	0.043206193
184	0x3d92bf97	0.07165449
185	0xbdb49897	-0.08818167
186	0xbc83d55a	-0.016092945
187	0xbd74b3e0	-0.059741855
188	0xbcaa4c33	-0.020788288
189	0x3db5cf32	0.0887741
190	0x3d0b7d77	0.0340552
191	0xbd561e93	-0.05227525
192	0x3d8a837d	0.06763361
193	0xbcbe0ae7	-0.023198558
194	0xbd95a6c5	-0.073071994
195	0x3d770170	0.060304105
196	0x3d83bbb0	0.06432283
197	0x3d992d9f	0.07479405
198	0x3d24f7d3	0.040275406
199	0xbcc4ffad	-0.024047697
200	0x3dbb9e8b	0.09161099
201	0x3d90c1ed	0.070682384
202	0xbc4edbb3	-0.012625623
203	0x3d58d1d7	0.052934494
204	0xbc862d0d	-0.016378904
205	0xbd8b4e38	-0.068020284
206	0xbd91f983	-0.07127669
207	0x3d4fe863	0.05075873
208	0x3cde1a5a	0.027112175
209	0xbda09e57	-0.07842701
210	0x39821667	0.00024812223
211	0xbd9b468a	-0.07581814
212	0x3baf7f4d	0.0053557516
213	0xbd90728b	-0.07053097
214	0x3dbacc58	0.09121007
215	0x3d576f0a	0.05259613
216	0x3c0ccf5a	0.008594358
217	0x3c45d0cd	0.012073708
218	0x3bc3ad1a	0.005971563
219	0x3c911e8d	0.017714763
220	0xbda9e7c8	-0.08296162
221	0xbd367203	-0.044542324
222	0x3c7bf4c0	0.015378177
223	0x3dc0d86b	0.094162785
224	0xbdb223fb	-0.08698269
225	0xbd173e73	-0.03692479
226	0x3dbc4ec3	0.0919471
227	0x3c83368d	0.016017223
228	0x3d8b63ff	0.06806182
229	0x3d75c3c3	0.060001146
230	0x3d036640	0.032079935
231	0x3c2f9327	0.010716236
232	0xbd767a30	-0.06017512
233	0x3d548340	0.051882982
234	0xbdadcf72	-0.08486833
235	0xbd468f8a	-0.048476733
236	0xbd094e0d	-0.0335217
237	0xbd9aaebf	-0.075528614
238	0x3db8fc57	0.09032505
239	0x3da9b737	0.082868986
240	0xbdc34b37	-0.095358305
241	0xbd1dce37	-0.03852674
242	0x3c0a9440	0.008458197
243	0x3d09878a	0.033576526
244	0x3d6d4367	0.057925608
245	0x3d572b73	0.05253167
246	0x3d289a47	0.041162755
247	0x3d603933	0.05474205
248	0xbc6d8ce7	-0.014498926
249	0xbcfef98d	-0.031124854
250	0x399f099a	0.00030333997
251	0xbdaf70c2	-0.08566429
252	0xbd733333	-0.059375
253	0xbca85f13	-0.020553147
254	0xbc95c5cd	-0.018282795
255	0x3d15b153	0.036546063

backbone.model.0.1.model.0.bias f4 [4]
0	0x3d6d9a1d	0.058008302
1	0x3dc2aa6b	0.09505161
2	0x3d9b4dba	0.075831845
3	0x3c0d521a	0.008625532

backbone.model.1.0.model.0.weight f4 [8, 4, 5, 5]
0	0x3d99ea5b	0.07515403
1	0xbd230853	-0.03980286
2	0xbd34d9ba	-0.044152953
3	0x3d620dbd	0.055188883
4	0xbb795867	-0.0038047077
5	0x3d5c82d0	0.05383569
6	0xbdc0a7b8	-0.0940699
7	0x3d9a9add	0.07549069
8	0x3cda4d3a	0.026648153
9	0xbd91ad67	-0.07113152
10	0xbd55b45d	-0.05217396
11	0x3d94b95d	0.07261918
12	0x3d0a1273	0.033709
13	0xbd946a82	-0.07246877
14	0xbd61a9f3	-0.055093717
15	0xbd82ca37	-0.06386226
16	0xbd788aa0	-0.060679078
17	0x3da4be63	0.08044126
18	0xbdbc2cab	-0.09188207
19	0x3dca815a	0.09887953
20	0xbd054fa0	-0.03254664
21	0x3da3cebb	0.07998415
22	0xbd70948d	-0.05873542
23	0x3da55913	0.0807363
24	0x3cd87327	0.026422096
25	0xbd322970	-0.04349655
26	0xbd7a6190	-0.0611282
27	0xbd45f05a	-0.04832492
28	0x3d9bf6b5	0.07615415
29	0x3c8d510d	0.017250562
30	0x3c2023e7	0.009774185
31	0x3c7b188d	0.015325678
32	0x3d742e27	0.059614327
33	0x3db54b78	0.08852285
34	0x3cce003a	0.025146592
35	0x3bf4014d	0.007446444
36	0xbdbdba28	-0.09264022
37	0xbc0ff840	-0.008787215
38	0xbd300893	-0.042976927
39	0x3cbd940d	0.023141885
40	0xbda79142	-0.081820026
41	0x3dcb7aea	0.09935553
42	0xbd342f93	-0.043990683
43	0x3dc34f30	0.09536588
44	0xbd49a197	-0.04922637
45	0x3cb42773	0.021991467
46	0xbd2089fa	-0.039194085
47	0x3d0fed2a	0.035138287
48	0x3db34baa	0.08754666
49	0xbdbdbbc2	-0.092643276
50	0xbdc760dd	-0.09735272
51	0xbda90c00	-0.08254242
52	0xbdbe817d	-0.09302042
53	0xbb7a41cd	-0.0038186193
54	0xbc051d67	-0.008124686
55	0x3d7260b0	0.05917424
56	0x3827cccd	4.000664e-05
57	0x3d95d6e2	0.07316376
58	0xbd6eb260	-0.05827558
59	0xbcb90f6d	-0.022590363
60	0x3cbf6dd3	0.023367798
61	0x3cea5de7	0.02860923
62	0xbd2e343d	-0.042530287
63	0x3ce52c33	0.027975177
64	0xbdb70203	-0.089359306
65	0x3cb06180	0.021530867
66	0xbda124bf	-0.07868337
67	0x3d78089d	0.06055509
68	0x3d9c411b	0.076296054
69	0x3d836d5f	0.06417345
70	0x3d3cbc20	0.046077847
71	0x3d4c0cb7	0.049816813
72	0xbc021a8d	-0.0079409005
73	0x3ce8984d	0.028392935
74	0x3db07140	0.08615351
75	0x3dbaeceb	0.0912722
76	0x3d5416b7	0.051779475
77	0xbd885970	-0.06657684
78	0x3cb3cb53	0.021947538
79	0x3db2aae0	0.08723998
80	0xbd5a7457	-0.053333607
81	0xbdc7518b	-0.0973235
82	0xbc40c8f3	-0.01176666
83	0x3db7c9b3	0.08974018
84	0x3d7e778d	0.06212573
85	0x3d3904ea	0.045170702
86	0xbdb08952	-0.08619942
87	0xbcea79b3	-0.028622484
88	0xbb721800	-0.0036940575
89	0xbceefc53	-0.029173052
90	0xbd3ad72d	-0.045615364
91	0x3d4c8270	0.049929082
92	0xbc13c267	-0.009018517
93	0xbd522b60	-0.051310897
94	0x3dcbc58d	0.09949789
95	0x3d2af3f0	0.041736543
96	0x3d43068a	0.047613658
97	0x3c91692d	0.017750347
98	0xbd36df5d	-0.04464661
99	0x3dbf7dc2	0.09350158
100	0x3d7b4873	0.06134839
101	0x3d65a330	0.05606383
102	0xbdb517b5	-0.088424124
103	0xbd7ec53d	-0.06219982
104	0x3cdc5120	0.026894152
105	0x3d2ab99d	0.04168092
106	0x3cd14a3a	0.02554809
107	0xbd90f9a7	-0.070788674
108	0x3dcc64ef	0.09980189
109	0xbdab441d	-0.08362601
110	0x3d53bc1a	0.05169306
111	0x3d59a763	0.053138148
112	0x3c154af3	0.009112108
113	0xbd85d0eb	-0.065339886
114	0xbd201d2d	-0.039090324
115	0xbdbee033	-0.09320106
116	0xbd4f8fd7	-0.050674286
117	0x3d1812f7	0.03712746
118	0xbd9ca3f2	-0.076484576
119	0x3d7e67f3	0.062110852
120	0xbd83dac8	-0.064382136
121	0x3d209f6d	0.03921454
122	0xbbea2a4d	-0.007146156
123	0xbcb1d2cd	-0.021706963
124	0x3dc816e8	0.09769994
125	0x3d86f67d	0.06589983
126	0x3dba9250	0.09109938
127	0xbd91b13a	-0.071138814
128	0xbd9c07f2	-0.07618703
129	0xbda727a5	-0.081618585
130	0x3cdbe140	0.026840806
131	0xbd121b67	-0.035670664
132	0x3d4ae35a	0.049533226
133	0xbdb61fa3	-0.08892753
134	0xbc202a8d	-0.00977577
135	0xbb4dcc00	-0.003140211
136	0xbd674e6a	-0.056471266
137	0x3b5f0f67	0.003403628
138	0x3d3a7fda	0.045532085
139	0x3c3b7d5a	0.01144346
140	0xbdaad38a	-0.08341129
141	0xbbfd8467	-0.007736731
142	0x3cb31a60	0.021863163
143	0x3d85b512	0.06528677
144	0xbbf9a64d	-0.0076187016
145	0x3d5b4b2a	0.05353848
146	0x3d39d390	0.045367777
147	0x3d5174b0	0.051136672
148	0xbdb920fd	-0.09039495
149	0x3dc3a68a	0.09553249
150	0x3c7a9200	0.015293598
151	0x3d57caf0	0.05268377
152	0x3d7868c0	0.060646772
153	0x3d8c3feb	0.06848129
154	0xbd7b895a	-0.061410286
155	0xbc5a845a	-0.013337219
156	0xbd91df22	-0.07122637
157	0x3dc24f5b	0.09487792
158	0xbd95d6eb	-0.07316383
159	0xbd1631fa	-0.036668755
160	0x3daddddd	0.08489583
161	0xbd1824b3	-0.037144374
162	0xbce83587	-0.028345836
163	0x3d362b57	0.044474926
164	0x3d8b09a3	0.067889474
165	0xbd3f84ca	-0.046757497
166	0xbda5c810	-0.080947995
167	0x3d972bc3	0.07381394
168	0x3aae9733	0.0013320207
169	0x3d81e730	0.06342924
170	0x3d925f7b	0.07147118
171	0xbc5a36da	-0.013318742
172	0x3cce4973	0.025181508
173	0x3c2e68b3	0.010645079
174	0x3da370e7	0.07980519
175	0xbd4751bd	-0.048661936
176	0x3d26ab2d	0.04069059
177	0xbda4a80d	-0.08039866
178	0x3c103de7	0.008803821
179	0xbc079227	-0.0082745915
180	0xbdc7c60b	-0.097545706
181	0xbc19f5b3	-0.009396958
182	0xbdb407fb	-0.08790585
183	0x3dbb0252	0.09131302
184	0xbd2cb1ad	-0.042161632
185	0x3db517e8	0.088424504
186	0xbd21090a	-0.03931526
187	0x3c059100	0.0081522465
188	0xbc1214c0	-0.00891608
189	0x3d049960	0.032372832
190	0x3d875125	0.06607274
191	0xbcbde72d	-0.023181522
192	0xbd3e53d7	-0.046466675
193	0x3d68d26d	0.056841303
194	0x3d8ebf1a	0.069700435
195	0x3d7d88e0	0.061898112
196	0x3cf95760	0.030437171
197	0xbd07020a	-0.03296093
198	0x3da93cd7	0.082635574
199	0xbd46a72a	-0.048499264
200	0xbdbb550f	-0.09147083
201	0x3c79789a	0.015226508
202	0xbb9c6d00	-0.004773736
203	0xbd9a7bba	-0.0754313
204	0xbd26cb40	-0.040721178
205	0xbc3d400d	-0.011550915
206	0x3d803eb5	0.062619604
207	0xbda48f5d	-0.08035157
208	0x3cd11687	0.025523437
209	0xbb5e07cd	-0.0033879161
210	0x3c6d3640	0.014478266
211	0x3d98c2cb	0.07459029
212	0x3cc79873	0.024364686
213	0x3d611f7d	0.05496167
214	0x3d92543d	0.071449734
215	0xbcaf5ac0	-0.021405578
216	0x3ca1c1a0	0.019745648
217	0xbbc594cd	-0.0060297013
218	0xbdc5a6da	-0.09650965
219	0xb99e219a	-0.00030161144
220	0xbdb15d42	-0.08660366
221	0x3d868ef3	0.06570234
222	0x3d1c2147	0.038117673
223	0x3c42984d	0.011877132
224	0x3d2079d7	0.039178696
225	0x3b6df39a	0.0036308528
226	0x3d50bc4d	0.050960828
227	0xbd7da3aa	-0.06192366
228	0xbd9f4e42	-0.07778598
229	0x3d87cd37	0.066309385
230	0x3dbda515	0.092600025
231	0xbd592c70	-0.053020895
232	0xbc9a368d	-0.01882484
233	0x3ba6f5b3	0.0050952076
234	0xbd51450a	-0.05109123
235	0x3d29dbb7	0.041469302
236	0x3dc224f3	0.09479704
237	0x3dc03fda	0.09387179
238	0xbd9ebc7f	-0.077507965
239	0xbc4553f3	-0.012043941
240	0x3d936c80	0.07198429
241	0xbd394d4d	-0.045239735
242	0x3dc54313	0.09631934
243	0xbdac4b5f	-0.084128134
244	0x3c42f7b3	0.011899876
245	0x3d97a48b	0.07404431
246	0x3cdbf807	0.026851667
247	0xbd9bbc9d	-0.076043345
248	0x3daf657b	0.08564278
249	0xbc8d7873	-0.017269349
250	0xbbac021a	-0.005249274
251	0x3d8b834a	0.06812151
252	0xbae92ccd	-0.0017789841
253	0xbd72acb3	-0.05924673
254	0x3cf2a347	0.029618872
255	0xbd354f9a	-0.044265367

backbone.model.1.0.model.0.bias f4 [8]
0	0x3d7a644a	0.0611308
1	0xbd4cb640	-0.049978495
2	0x3dbd4fed	0.0924376
3	0x3d8df78a	0.0693198
4	0x3d1da8fa	0.038491227
5	0xbd181a57	-0.037134495
6	0x3d06a987	0.032876518
7	0xbcdc65cd	-0.026904011

backbone.model.1.1.model.0.weight f4 [8, 8, 5, 5]
0	0x3baea505	0.0053297305
1	0xbcb95778	-0.022624716
2	0x3d35cfe0	0.0443877
3	0xbd447578	-0.04796359
4	0x3d4471d6	0.047960125
5	0xbd66f8c0	-0.05638957
6	0x3bc47882	0.005995811
7	0x3b9cf3a6	0.0047897873
8	0x3d4448ac	0.047920868
9	0x3d12f9f1	0.035882894
10	0xbd242b26	-0.040080212
11	0xbd626303	-0.055270206
12	0xbd079460	-0.033100486
13	0x3d8f5338	0.069982946
14	0x3d82c696	0.063855335
15	0x3c08cb2f	0.008349224
16	0x3c8d5746	0.01725353
17	0xbd6a091b	-0.05713759
18	0x3ceb5ec8	0.028731719
19	0x3d26b3e3	0.040698897
20	0xbc0c1dba	-0.008552009
21	0xbd192898	-0.03739223
22	0xbd84547c	-0.064614266
23	0xbd2b1e19	-0.04177675
24	0xbca7c516	-0.02047972
25	0x395b0901	0.00020888822
26	0x3bb05e0b	0.0053823045
27	0xbd14a16f	-0.036286768
28	0xbd527f1c	-0.051390752
29	0xbd62d887	-0.055382278
30	0xbcbfcbda	-0.023412634
31	0x3d45260a	0.04813198
32	0xbd05701e	-0.032577626
33	0x3d2dd0b4	0.042435363
34	0x3d906d7c	0.070521325
35	0xbd4b96db	-0.049704414
36	0x3d8b9df0	0.068172336
37	0x3d74861e	0.059698217
38	0xbd1de60b	-0.038549464
39	0xbd3e4491	-0.04645211
40	0xbc32d660	-0.010915369
41	0xbd191593	-0.03737409
42	0xbcb8837a	-0.02252363
43	0x3d00d598	0.0314537
44	0x3c8517bf	0.016246675
45	0x3d4181df	0.047242995
46	0xbd436e2d	-0.047712494
47	0xba78e63e	-0.0009494758
48	0xbd2f5e41	-0.042814497
49	0x3c737dc4	0.014861528
50	0x3cc0357a	0.023463
51	0x3c194d35	0.0093567865
52	0xbd1839ee	-0.03716462
53	0x3b529f95	0.0032138575
54	0x3d8b712e	0.06808697
55	0x3d874074	0.0660409
56	0xbd20cec7	-0.0392597
57	0x3d26149c	0.040547
58	0x3c6878b1	0.014188931
59	0xbd4b2f81	-0.04960585
60	0xbb5fc9ef	-0.0034147461
61	0x3ca65880	0.020305872
62	0xbd1ac2b1	-0.03778333
63	0x3d0d4ccf	0.03449708
64	0xbcf2ae00	-0.029623985
65	0x3b28d03f	0.002575889
66	0xbc91818a	-0.017761964
67	0xbc8b20f8	-0.016983494
68	0xbd631126	-0.055436276
69	0x3a38c339	0.00070481334
70	0x3d635c13	0.05550773
71	0x3c50143b	0.012700136
72	0x3ca91a6c	0.020642482
73	0x3d5150d0	0.05110246
74	0xbd081a31	-0.033228103
75	0xbc1d9b32	-0.009619521
76	0xbd753714	-0.05986698
77	0xbd6d5997	-0.057946768
78	0xbc9902a4	-0.018678017
79	0xbd286ee1	-0.041121367
80	0xbd4bc10f	-0.049744662
81	0xbcb3ec83	-0.021963364
82	0x3d41172d	0.047141243
83	0xbd509871	-0.05092663
84	0xbc9a3a4d	-0.018826628
85	0xbc2044eb	-0.009782056
86	0x3cca35e5	0.024683902
87	0x3cd808bc	0.026371352
88	0x3d60c93f	0.054879423
89	0x3c8dae56	0.017295044
90	0x3d83ec22	0.06441523
91	0x3c04e124	0.008110318
92	0xbca56f75	-0.020194748
93	0xbc2966af	-0.010339423
94	0xbd2f0d54	-0.04273732
95	0xbbf3f0d8	-0.0074444823
96	0xbd8b0d57	-0.06789654
97	0xbbd3e6b0	-0.006466709
98	0x3d6620e8	0.056183726
99	0x3d618d3b	0.05506633
100	0x3d6f59f6	0.058435403
101	0x3cd85a3a	0.02641021
102	0xbd781183	-0.060563575
103	0xbd3bd97f	-0.045861717
104	0xbcda2c56	-0.02663247
105	0xbb954784	-0.0045556445
106	0xbd835f74	-0.064146906
107	0xbd1ff2bc	-0.03904985
108	0xbd620c47	-0.05518749
109	0xbd297562	-0.04137171
110	0x3d47c8a1	0.04877532
111	0x3d3f7c64	0.046749488
112	0xbc3c0170	-0.011474952
113	0xbd2a5613	-0.041585993
114	0x3d5f21a3	0.054475438
115	0xbd11d3dd	-0.03560244
116	0x3cbdc100	0.023163319
117	0x3d3efb58	0.04662642
118	0xbc813a39	-0.015774833
119	0x3d620e9d	0.055189718
120	0xba40a8fc	-0.00073493994
121	0x3cc0f9a1	0.023556532
122	0xbc46c067	-0.012130833
123	0xbd36d449	-0.044636045
124	0xbd7f39a0	-0.062310815
125	0xbd3795b9	-0.04482052
126	0xbd506efd	-0.050887097
127	0xbd62b3c2	-0.05534721
128	0x3c8fceb9	0.017554628
129	0x3cc72436	0.024309259
130	0x3cc52d3f	0.024069427
131	0xbbaf28d3	-0.005345443
132	0x3d41d84c	0.047325417
133	0xbbf3b9d5	-0.0074379244
134	0xbd8d17f4	-0.06889334
135	0xbd4e2e4c	-0.05033712
136	0x3ce20a3f	0.027592776
137	0xbd4a7a4c	-0.049433038
138	0xbd7b411f	-0.0613414
139	0x3d4ea030	0.050445735
140	0xbd81414b	-0.06311282
141	0xbd1acc2b	-0.037792366
142	0x3d83d26b	0.064366184
143	0xbc05ff46	-0.008178538
144	0x3d881436	0.0664448
145	0x3c9a1954	0.018810906
146	0x3d57791c	0.052605733
147	0x3c3cc4ab	0.011521499
148	0x3d2760bf	0.04086375
149	0xbd667a02	-0.0562687
150	0xbd5f2131	-0.054475013
151	0x3d4cc61b	0.049993616
152	0x3cd9a06f	0.026565759
153	0x3cd43610	0.025904685
154	0x3b86576a	0.004099776
155	0x3c4eb6ac	0.012616795
156	0xbce66fe3	-0.028129524
157	0x3cb7f7d3	0.022457039
158	0xbd898a7b	-0.06715866
159	0xbd85fa2b	-0.065418564
160	0xbd873148	-0.066011965
161	0x3ccc84c5	0.024965653
162	0xbd81a23d	-0.063297726
163	0x3c8bea4d	0.017079497
164	0x3d5a3ecc	0.053282544
165	0xbd80a338	-0.062811315
166	0xbd127759	-0.03575835
167	0x3d874004	0.06604007
168	0x3d873bbc	0.0660319
169	0x3d7497c9	0.059715066
170	0x3ceedf0a	0.029159088
171	0x3beca572	0.007221871
172	0xbc137f4b	-0.009002517
173	0xbc0ee501	-0.008721591
174	0xbd348acf	-0.04407769
175	0xbd6263fc	-0.055271134
176	0xbc4b4641	-0.012406887
177	0x3d8d2d9e	0.068934664
178	0x3d1451e5	0.036210913
179	0xbcfc414f	-0.03079286
180	0xbc1e6936	-0.009668639
181	0x3c580adb	0.013186182
182	0x3b955b75	0.0045580217
183	0xbd5b3547	-0.053517606
184	0xbd80f56d	-0.06296811
185	0xbb2b0e6b	-0.0026101123
186	0xbd273df0	-0.040830553
187	0x3b9435f0	0.0045230314
188	0xba1ff95d	-0.00061025267
189	0xbd1c2717	-0.038123216
190	0xbd84a806	-0.064773604
191	0xbbe4b00f	-0.0069789956
192	0xbd661843	-0.05617548
193	0x3ce2e174	0.027695395
194	0xbd8fcdf7	-0.070217066
195	0x3d42ad11	0.04752833
196	0x3ca363b4	0.019945003
197	0xbcedf8c5	-0.029049287
198	0x3b9b0190	0.004730411
199	0x3cacea20	0.021107733
200	0x3c837196	0.016045373
201	0x3d25cde4	0.040479556
202	0xbb5661ac	-0.0032712026
203	0x3b1d8a8b	0.0024038877
204	0xbbe97000	-0.007123947
205	0x3c9ef867	0.019405557
206	0x3c6e027a	0.014526958
207	0xbcd80ff7	-0.0263748
208	0xbc8683d6	-0.016420286
209	0xbd7b7264	-0.06138839
210	0x3b1cffcf	0.0023956185
211	0xbd7c5574	-0.061604932
212	0x3d001bcd	0.031276513
213	0x3d29de8e	0.04147201
214	0xbced20ed	-0.028946364
215	0xbc5eae3f	-0.013591348
216	0xbd4bcce5	-0.04975595
217	0x3d0abee3	0.03387345
218	0x3ca98c25	0.020696709
219	0x3cb5c05a	0.022186447
220	0xbc59ef0c	-0.013301622
221	0xbc3beb84	-0.0114697255
222	0xbc6b8a13	-0.014376181
223	0x3d421d9c	0.04739152
224	0xbd50e0f2	-0.050995775
225	0xbc253680	-0.010083795
226	0xbd4ca543	-0.049962293
227	0x3d76e0c4	0.060272947
228	0xbd6d7caa	-0.057980217
229	0x3cf52044	0.029922612
230	0xbd217e2b	-0.039426964
231	0xbd276d79	-0.040875886
232	0x3c4775cf	0.012174084
233	0xbd131482	-0.03590823
234	0xbbd4268a	-0.006474321
235	0x3a1e40b2	0.0006036862
236	0xbd8d3f17	-0.06896799
237	0x3cf7aeb1	0.030234667
238	0xbc8cd90e	-0.017193343
239	0x3d8caedf	0.068692915
240	0xbd01e5b0	-0.031713188
241	0x3d909b20	0.07060838
242	0x3cf4231f	0.029801903
243	0x3d3a648a	0.045506038
244	0xbd379ced	-0.04482739
245	0xbbde5cc9	-0.006785963
246	0x3d20befe	0.039244644
247	0x3d4fdcc4	0.050747648
248	0x3d8e1b70	0.06938827
249	0xbd6a0dcd	-0.057142068
250	0xbca92cc6	-0.020651232
251	0x3c7f8ba6	0.01559726
252	0xbd50c6f1	-0.050970975
253	0xbd6b9c5a	-0.057522155
254	0xbbd21a5d	-0.006411834
255	0x3d81f941	0.063463695

backbone.model.1.1.model.0.bias f4 [8]
0	0x3c8fdfb6	0.017562728
1	0xbd1190e4	-0.03553857
2	0xbab23d52	-0.0013598597
3	0xba39adfc	-0.00070831156
4	0xbd5d6925	-0.05405535
5	0x3c81e9a8	0.015858486
6	0xbd48f483	-0.04906131
7	0x3c8d18e4	0.017223783

backbone.model.2.0.model.0.weight f4 [8, 8, 3, 3]
0	0x3dd5db8d	0.104422666
1	0xbde93d4e	-0.11388646
2	0xbdcfac0f	-0.101402394
3	0xbdb7d4cf	-0.08976137
4	0xbd1e324a	-0.038622178
5	0x3b9d004e	0.004791296
6	0x3cef443e	0.029207345
7	0x3cbff664	0.023432918
8	0x3d90cc63	0.07070234
9	0x3b2a3b3a	0.0025975243
10	0x3d345a4d	0.04403143
11	0xbd2f8ff5	-0.042861897
12	0x3c8b8459	0.017030882
13	0xbd819feb	-0.0632933
14	0xbccfcd3c	-0.025366418
15	0xbdb8d81e	-0.09025596
16	0xbdcc9322	-0.09989001
17	0xbd9c18dc	-0.07621929
18	0x3d11c3b4	0.035587028
19	0x3d5fcddf	0.054639693
20	0x3d3bdb1d	0.04586326
21	0xbc592962	-0.013254495
22	0xbdd930b8	-0.106049955
23	0xbd0e3f71	-0.03472847
24	0xbd38a863	-0.04508246
25	0xbd88c67e	-0.066784844
26	0xbc16396b	-0.009168963
27	0x3c89f6a8	0.016841248
28	0x3cb14175	0.021637658
29	0xbd23b780	-0.03996992
30	0x3da4169b	0.08012124
31	0xbc98afe4	-0.018638559
32	0xbbed4077	-0.007240351
33	0x3d3c6776	0.045997106
34	0xbd5919db	-0.053003173
35	0xbd0a1e18	-0.033720106
36	0x3d38ca1b	0.045114618
37	0x3d90b37f	0.07065486
38	0xbd0a12c0	-0.033709288
39	0x3c8633ba	0.016382087
40	0xbd9e99dc	-0.0774419
41	0x3d0f8280	0.035036564
42	0xbdc710c0	-0.09719992
43	0xbda43e93	-0.080197476
44	0xbc891b03	-0.016736513
45	0x3d907ce9	0.07055075
46	0xbd3d3ff7	-0.04620358
47	0x3da0e754	0.07856622
48	0xbbdcd189	-0.0067388457
49	0xbde4e6eb	-0.111768566
50	0xbd387fa4	-0.045043603
51	0xbd36163f	-0.04445481
52	0x3d785b23	0.06063379
53	0xbdd0136c	-0.101599544
54	0x3d9169ce	0.07100259
55	0xbbfe4ef8	-0.0077608787
56	0x3da442c0	0.08020544
57	0xbd1c8714	-0.038214758
58	0xbca951cb	-0.020668885
59	0xbd3190d1	-0.043351
60	0xbbd076c3	-0.0063618138
61	0x3dc95efd	0.09832571
62	0xbdced229	-0.100986786
63	0xbda0d479	-0.07853026
64	0x3d4fed74	0.050763562
65	0x3d5eb357	0.05437025
66	0x3d18d191	0.037309233
67	0x3c0f325c	0.008740034
68	0xbca55fed	-0.020187343
69	0xbdb4df3f	-0.08831643
70	0xbda425e2	-0.08015038
71	0x3d05caf9	0.032664273
72	0xbc8f6410	-0.017503768
73	0x3c9f6857	0.019458933
74	0xbd494548	-0.049138337
75	0x3d9e6581	0.07734204
76	0xbc88b9c9	-0.016690152
77	0xbdf037f7	-0.117294244
78	0xbbd6e050	-0.006557502
79	0x3db2d3b3	0.08731785
80	0xbdc74cec	-0.097314686
81	0x3d6beed3	0.057600807
82	0xbd340250	-0.043947518
83	0xbc91bd31	-0.017790409
84	0xbcdfd7f7	-0.02732466
85	0x3d5575b7	0.052114215
86	0xbb6152b5	-0.0034381573
87	0xbdbbc139	-0.09167714
88	0xbd15925d	-0.036516536
89	0xbbb633f2	-0.0055603916
90	0xbc27d4b1	-0.010243581
91	0x3cfcb3c9	0.030847447
92	0x3d9e2e8c	0.07723722
93	0x3d4f28e8	0.05057612
94	0xbd04580d	-0.032310534
95	0x3dd24625	0.10267285
96	0x3d6d7e25	0.05798163
97	0xbdcdd52a	-0.100504234
98	0x3d3e8fee	0.04652398
99	0xbd300a7e	-0.042978756
100	0x3c0c02b6	0.008545568
101	0x3d89826c	0.06714329
102	0x3dcf2c73	0.101159
103	0x3a6f017b	0.0009117347
104	0x3c8e2857	0.01735322
105	0xbd42c2d2	-0.047549076
106	0x3dce8121	0.10083223
107	0x3dd09529	0.101847
108	0x3d475d7b	0.048673134
109	0xbddfb00c	-0.1092225
110	0xba64014f	-0.0008697705
111	0xbcc90fb8	-0.024543628
112	0x3dc1f15b	0.09469863
113	0xbded5208	-0.11587912
114	0xbdbea382	-0.093085304
115	0x3d443b17	0.047907915
116	0x3dbbbb3e	0.09166573
117	0x3d6f0ff6	0.05836483
118	0x3a2267fe	0.00061953056
119	0xbda17f8c	-0.07885656
120	0xbdb4e165	-0.08832053
121	0xbd824eef	-0.06362712
122	0xbd431097	-0.047623243
123	0x3de541f7	0.111942224
124	0x3c08c4a1	0.008347661
125	0xbddd98e1	-0.10820175
126	0xbcbf25d3	-0.023333466
127	0x3c7c274f	0.015390231
128	0xbde1f665	-0.11033324
129	0x3dc5eb5c	0.09664032
130	0x3b0bb71c	0.0021318858
131	0x3cad3d79	0.021147477
132	0xbdc5405a	-0.09631415
133	0x3b83d9fa	0.0040237876
134	0x3dbacc7c	0.091210335
135	0xbddbc178	-0.107302606
136	0xbce8ca94	-0.02841691
137	0x3c92ca7c	0.017918818
138	0x3d7d7663	0.06188048
139	0xbd528c4a	-0.05140332
140	0x3ddc11ff	0.1074562
141	0xbd879dc9	-0.06621892
142	0x3da08196	0.078372166
143	0x3debbcca	0.11510618
144	0xbccd358e	-0.02504995
145	0x3d9c5688	0.07633692
146	0xbdd4b037	-0.10385173
147	0x3d80843c	0.06275222
148	0x3ba0c0ca	0.0049057947
149	0x3db3598c	0.08757314
150	0xbc945257	-0.018105669
151	0xbdb62b41	-0.08894969
152	0x3cee52ad	0.029092157
153	0x3dc44a11	0.095844395
154	0xbdcbe935	-0.0995659
155	0xbce2b02a	-0.027671892
156	0x3d97721f	0.07394814
157	0xbdac9455	-0.084267296
158	0x3d110cab	0.03541247
159	0x3da7f757	0.08201473
160	0x3b406093	0.0029354438
161	0x3d9ff9aa	0.078112915
162	0xbddb216b	-0.10699733
163	0x3d2f8cac	0.042858765
164	0xbbb318ec	-0.0054656174
165	0xbd87585f	-0.06608652
166	0x3d655352	0.055987664
167	0x3bc9769a	0.0061481716
168	0xbc7fd687	-0.015615112
169	0xbc51efa7	-0.012813485
170	0x3d21a586	0.039464496
171	0x3d0e151a	0.034688093
172	0x3dedc7a2	0.116103426
173	0x3d966b7d	0.073447205
174	0xbd9b9569	-0.07596857
175	0xbceb731c	-0.028741412
176	0xbded616f	-0.115908496
177	0x3d90f679	0.07078261
178	0xbddd716c	-0.10812649
179	0x3dd6ae21	0.10482431
180	0xbc1a2427	-0.009408033
181	0xbd856465	-0.06513289
182	0xbdc21d2d	-0.09478221
183	0xbd1dd499	-0.038532827
184	0x3b9a858f	0.0047156285
185	0xbd137370	-0.03599876
186	0xbde7a535	-0.113108076
187	0xbde603ea	-0.11231215
188	0x3c19b8e9	0.009382465
189	0x3cf2eb8a	0.02965333
190	0xbd223e2c	-0.039610073
191	0xbd851ee3	-0.06500032
192	0x3da37618	0.07981509
193	0x3d98e744	0.074659854
194	0x3d8576d3	0.065168045
195	0xbd9f1174	-0.07767001
196	0x3d267048	0.040634423
197	0x3cb45998	0.022015378
198	0x3cf77987	0.030209316
199	0xbdb951f0	-0.090488315
200	0x3dc4f4f1	0.09617031
201	0xbd9ac9b4	-0.07558003
202	0x3d719e14	0.058988646
203	0x3cd5d004	0.026100166
204	0x3dc00411	0.093757756
205	0xbbe28cc8	-0.006913755
206	0xbd379018	-0.044815153
207	0x3dddd242	0.10831119
208	0xbc585fae	-0.013206406
209	0x3dd82ec2	0.10555793
210	0xbde47e2e	-0.11156879
211	0x3cbb02e7	0.022828532
212	0x3d570fb0	0.052505195
213	0x3d832576	0.064036295
214	0x3d91692e	0.071001396
215	0x3dee4e86	0.11636071
216	0x3d017b3c	0.031611666
217	0x3dd66519	0.104685016
218	0xbc3bf5f8	-0.011472218
219	0x3ba88295	0.0051425197
220	0x3d794d25	0.060864586
221	0x3d81f67e	0.06345843
222	0x3ca2b0bd	0.019859666
223	0xbd61876e	-0.055060796
224	0xbd338166	-0.043824576
225	0x3d631e9b	0.05544911
226	0x3cfcf650	0.03087917
227	0xbd0b3fbe	-0.033996336
228	0xbd204acb	-0.039133828
229	0x3d1a86d7	0.03772625
230	0x3ddac455	0.106819786
231	0x3d0025c7	0.031286027
232	0xbd0435c1	-0.032277826
233	0x3da607a7	0.08106928
234	0xbd0d3a39	-0.034479354
235	0x3cf69c3b	0.030103793
236	0xbd230b78	-0.03980586
237	0xbd7bfd9a	-0.06152115
238	0xbd9ad234	-0.07559624
239	0xbc267844	-0.0101605095
240	0x3d1c3b58	0.038142532
241	0x3c8fa697	0.01753549
242	0xbd4bef7e	-0.049788944
243	0xbd04f8e7	-0.032463934
244	0x3d73b240	0.059496164
245	0xbc90423e	-0.017609712
246	0xbdc457e8	-0.09587079
247	0xbd4cab2b	-0.049967926
248	0x3b381d9e	0.0028093825
249	0x3b868bff	0.0041060443
250	0xbcd97841	-0.0265466
251	0xbd5825eb	-0.052770536
252	0x3c974945	0.018467555
253	0x3db44b08	0.088033736
254	0x3dc65160	0.0968349
255	0xbd5508d2	-0.052010365

backbone.model.2.0.model.0.bias f4 [8]
0	0xbdc9e93a	-0.098589376
1	0xbd9f2c51	-0.077721246
2	0xbd52dfaf	-0.051482853
3	0x3d9ca739	0.07649083
4	0x3dbbfc73	0.0917901
5	0xbd9924eb	-0.07477745
6	0x3d0282cc	0.03186302
7	0xbd52ffba	-0.05151341

backbone.model.2.1.model.0.weight f4 [8, 8, 3, 3]
0	0x3d8ae150	0.06781256
1	0xbdad750e	-0.08469592
2	0xbd377b1d	-0.044795144
3	0xbd4532c9	-0.048144136
4	0xbd211d70	-0.039334714
5	0xbd8ef17a	-0.06979652
6	0xbdc51181	-0.09622479
7	0x3dbf5eb1	0.09344233
8	0xbd620e41	-0.055189375
9	0x3dc0cf17	0.09414499
10	0x3d8f0c20	0.069847345
11	0xbda76105	-0.08172802
12	0xbcaa1513	-0.020762002
13	0xbd443ad3	-0.04790766
14	0x3c0168f4	0.007898558
15	0xbdb2a086	-0.08722024
16	0x3de9b8ce	0.11412202
17	0xbdc178b3	-0.0944685
18	0x3d619bbb	0.055080157
19	0xbd413823	-0.047172677
20	0xbd606902	-0.054787643
21	0xbd9195be	-0.07108639
22	0x3c7df60d	0.015500558
23	0xbd415114	-0.047196463
24	0xbdb5de76	-0.08880322
25	0xbde0f2b6	-0.109837934
26	0xbc84b0bb	-0.016197553
27	0xbdb91617	-0.090374164
28	0xbd5c9df9	-0.053861592
29	0x3daf37f8	0.08555597
30	0xbda7f2fd	-0.08200643
31	0x3df065eb	0.11738189
32	0x39695c27	0.00022254941
33	0x3ccc5229	0.02494152
34	0x3d0e9a33	0.034815025
35	0xbdcbe84b	-0.09956416
36	0xbd98b09b	-0.0745556
37	0xbd641eef	-0.055693563
38	0xbc9acd3d	-0.018896693
39	0x3db6e0fd	0.08929632
40	0xbd9dd9a1	-0.07707525
41	0xbc577629	-0.01315073
42	0xbd933a64	-0.071888715
43	0xbdc70161	-0.0971706
44	0x3da1dfb3	0.07903995
45	0xbc30dc85	-0.010794763
46	0xbd375331	-0.044757072
47	0x3c5202be	0.012818037
48	0xbd4a38bb	-0.04937051
49	0x3d0b836b	0.034060877
50	0x3b95b001	0.0045681004
51	0xbd0eb60b	-0.03484158
52	0xbce02409	-0.027360933
53	0xbc273410	-0.010205284
54	0xbc69f83f	-0.014280378
55	0xbdd0dce2	-0.1019838
56	0xbd473fb5	-0.04864474
57	0x3d479911	0.04872996
58	0xbd03e16b	-0.032197397
59	0xbd40e33e	-0.047091715
60	0xbde99075	-0.11404506
61	0x3db0d226	0.08633833
62	0xbde2afa8	-0.1106866
63	0xbbdf51d2	-0.0068151737
64	0x3bd9028d	0.0066226185
65	0xbd971503	-0.073770545
66	0x3ddb44a4	0.107064515
67	0xbdc635c9	-0.096782275
68	0x3d535912	0.051598616
69	0xbdd0db78	-0.1019811
70	0xbd006541	-0.031346563
71	0x3d696e58	0.056989998
72	0xbd36554c	-0.04451494
73	0x3def37d8	0.11680573
74	0x3d284362	0.041079886
75	0x3c09fa39	0.008421474
76	0x3dc0f168	0.094210446
77	0xbcae4b25	-0.021276066
78	0x3c88e0c4	0.01670874
79	0xbda477ae	-0.080306396
80	0x3d2d6d78	0.042340726
81	0xbdce7d5c	-0.10082504
82	0xbdb806fd	-0.08985708
83	0x3da7bb02	0.08189966
84	0xbdb1e0d8	-0.08685464
85	0x3d9746ef	0.073865764
86	0xbd18f4ff	-0.03734302
87	0xbd6204e6	-0.055180453
88	0x3db76f9c	0.08956835
89	0xbde7a837	-0.11311381
90	0x3d40c7ea	0.047065653
91	0xbc620650	-0.01379545
92	0x3db3ba5f	0.08775782
93	0xbd952be0	-0.07283759
94	0x3bab9a4e	0.0052369004
95	0xbd8ac87c	-0.067765206
96	0x3c1c70e1	0.009548397
97	0x3da7bd45	0.08190397
98	0x3de98729	0.11402733
99	0x3dd7c1a6	0.105349824
100	0x3d67a386	0.056552432
101	0x3d45aaba	0.04825852
102	0xbcb9d267	-0.022683335
103	0x3d04ded7	0.03243908
104	0xbdbb1e9c	-0.09136698
105	0xbde4e936	-0.11177294
106	0xbd8d3246	-0.068943545
107	0xbd7703c0	-0.06030631
108	0x3d845ea0	0.06463361
109	0xbd0eb08c	-0.034836337
110	0x3dca71b4	0.098849684
111	0xbc499721	-0.012304098
112	0xbc9423fe	-0.018083569
113	0xbd10d850	-0.03536254
114	0x3d408362	0.047000296
115	0x3da284c4	0.07935479
116	0xbd74a210	-0.059724867
117	0x3d8afec7	0.06786876
118	0xbd8dd675	-0.0692567
119	0xbdae1e08	-0.08501822
120	0x3de7432e	0.112921104
121	0x3c7819ce	0.015142871
122	0x3bc83c0e	0.0061106747
123	0xbd607955	-0.05480321
124	0x3c92df6e	0.017928805
125	0x3dbb281f	0.09138512
126	0xbd9adbb9	-0.0756144
127	0x3bc7c160	0.00609605
128	0x3dc4cf33	0.096098326
129	0xbd29d48d	-0.04146247
130	0x3d78ee8a	0.060774364
131	0x3d938b09	0.07204253
132	0xbdbaa34d	-0.091131784
133	0x3d975b97	0.07390516
134	0x3dda51a9	0.10660107
135	0xbcd7533f	-0.026284812
136	0xbcbada73	-0.022809243
137	0xbdb95389	-0.09049136
138	0xbd8e6dd2	-0.0695454
139	0x3dbadf79	0.09124655
140	0xbc968ffa	-0.0183792
141	0xbd239edf	-0.039946433
142	0x3da499cc	0.08037147
143	0x3dd16962	0.10225178
144	0xbdeb4b4a	-0.114889696
145	0xbbbc7499	-0.005751204
146	0x3d971ab2	0.073781386
147	0x3d9bed0c	0.076135725
148	0x3dee3f68	0.116331875
149	0xbc5a31d7	-0.013317547
150	0xbdcb02b7	-0.09912627
151	0xbd265717	-0.0406104
152	0xbdd36041	-0.10321093
153	0x3d1b0593	0.037847113
154	0xbda9037b	-0.08252617
155	0xbdadef0f	-0.084928624
156	0x3ceb7b89	0.02874543
157	0xbdeeb942	-0.11656429
158	0xbd629942	-0.05532194
159	0x3dc325d1	0.09528697
160	0xbd815787	-0.06315523
161	0xbcfd4573	-0.030916905
162	0xbb9755cb	-0.0046183816
163	0x3dc068de	0.09395002
164	0xbbc6bb09	-0.006064777
165	0x3dea332a	0.1143554
166	0xbdb5a8e0	-0.08870101
167	0x3baa72bc	0.0052016657
168	0xbdeb96a2	-0.1150334
169	0x3d594c85	0.05305149
170	0xbd5f24a7	-0.054478314
171	0xbdeaf1bb	-0.11471888
172	0x3da8db7c	0.08244988
173	0xbd7fc34a	-0.0624421
174	0xbcf00e9f	-0.029303847
175	0x3d19d195	0.03755339
176	0x3cd72895	0.026264468
177	0xbdaca7be	-0.08430432
178	0xbd558efe	-0.05213832
179	0x3d6d1dd9	0.057889793
180	0x3cd6dbec	0.026227914
181	0x3d196679	0.03745124
182	0xbd881445	-0.06644491
183	0xbcb98326	-0.022645544
184	0xbdac3071	-0.08407677
185	0x3c40aa3b	0.011759336
186	0xbd39a8cd	-0.045326997
187	0xbd7bbb57	-0.061457958
188	0xbd0cc668	-0.034368902
189	0xbd0c92a0	-0.03431952
190	0xbde4b3f7	-0.11167138
191	0x3d731bcc	0.05935268
192	0x3d084e5d	0.033277858
193	0x3d85aa7b	0.06526657
194	0x3de5c1c1	0.11218596
195	0x3dcbdc5d	0.0995414
196	0x3d13ed84	0.036115184
197	0xbd84ced0	-0.06484759
198	0x3d58639d	0.052829374
199	0xbd1cab9d	-0.0382496
200	0x3db5ffac	0.08886656
201	0xbd82701a	-0.06369038
202	0xbd00cf61	-0.031447772
203	0x3defb163	0.11703756
204	0xbd8f5571	-0.069987185
205	0xbd044b0e	-0.03229814
206	0xbd9f8712	-0.077894345
207	0x3d75b769	0.059989367
208	0x3db25b80	0.087088585
209	0xbd043a07	-0.0322819
210	0xbc85a272	-0.016312812
211	0xbc44698a	-0.011988053
212	0xbdca71ef	-0.09885012
213	0xbdc49bba	-0.09600015
214	0x3d41f92e	0.047356777
215	0xbda4b76a	-0.08042796
216	0x3b321a02	0.0027176146
217	0xbda03fd9	-0.07824678
218	0x3d9f9151	0.07791389
219	0x3d906267	0.07050019
220	0xbcda9bca	-0.026685614
221	0x3d9bc7cb	0.07606467
222	0x3dc4192e	0.09575115
223	0x3d466c32	0.048443027
224	0xbdcfc719	-0.10145397
225	0x3d681872	0.056663938
226	0x3d444f02	0.04792691
227	0xbd468152	-0.048463173
228	0xbdb0e759	-0.08637876
229	0xbdb6ded1	-0.089292176
230	0x3d7011b7	0.058610644
231	0x3db85c5c	0.09001991
232	0xbddd8ffb	-0.10818478
233	0x3c11f2c2	0.008907976
234	0x3d1299b1	0.035791103
235	0xbdae5310	-0.08511937
236	0xbdcccd28	-0.10000068
237	0x3d8828fc	0.06648442
238	0xbd5b6711	-0.05356509
239	0x3ccfef00	0.025382519
240	0xbdda78c8	-0.106675684
241	0x3d5fe28e	0.05465942
242	0x3dcc2a25	0.09968976
243	0x3cd757aa	0.026286919
244	0x3decbc6e	0.115593776
245	0xbdcdb008	-0.10043341
246	0xbd3ab5cc	-0.04558353
247	0xbcaf7118	-0.021416232
248	0xbd96c757	-0.0736224
249	0x3dc9513e	0.09829949
250	0x3dd6689e	0.10469173
251	0x3d453b89	0.04815248
252	0x3dbe7c80	0.0930109
253	0x3d30c7ff	0.04315948
254	0xbdcf7498	-0.1012966
255	0xbdcc63d1	-0.09979976

backbone.model.2.1.model.0.bias f4 [8]
0	0x3d063a2e	0.03277033
1	0x3ddf3344	0.1089845
2	0xbdee3ab0	-0.116322875
3	0x3d4ab078	0.0494847
4	0x3de271e0	0.11056876
5	0xbdd41ce1	-0.10357071
6	0x3d99bdcd	0.07506905
7	0x3d63cf8c	0.055617854

backbone.model.3.0.model.0.weight f4 [16, 8, 3, 3]
0	0xbbb4db1d	-0.0055192844
1	0x3dc32080	0.09527683
2	0x3d3031a2	0.043016084
3	0x3d61ed0c	0.055157706
4	0xbaa7330f	-0.0012756306
5	0xbda1e99f	-0.07905888
6	0xbce3bfd0	-0.027801424
7	0xbca03c5b	-0.01956003
8	0xbddd5f91	-0.108092435
9	0xbd86c069	-0.06579668
10	0x3dc05265	0.093907155
11	0x3d961b14	0.073293835
12	0xbdac17b9	-0.08402962
13	0xbd58bdfe	-0.052915566
14	0xbc99d9e8	-0.018780664
15	0x3d9dbd2f	0.077020995
16	0xbd45bdca	-0.0482767
17	0xbda39d84	-0.07989028
18	0xbdb569c7	-0.08858066
19	0x3d8ca250	0.06866896
20	0x3cc809a5	0.024418661
21	0x3d6b51f6	0.05745121
22	0xbd52c9e6	-0.051462077
23	0x3d8250b4	0.06363049
24	0x3cb94b05	0.02261878
25	0xbd13516c	-0.03596632
26	0xbc15410c	-0.009109747
27	0x3dccbfa9	0.09997494
28	0x3d808696	0.0627567
29	0xbd584ccc	-0.052807614
30	0xbdd53715	-0.10410897
31	0xbd91bcd9	-0.07116098
32	0x3bfd2857	0.007725756
33	0xbd284855	-0.041084606
34	0x3de665cf	0.11249887
35	0x3d1ca6b1	0.038244907
36	0xbd76c0ea	-0.06024257
37	0xbd07b03d	-0.03312706
38	0xbd46f90b	-0.04857735
39	0x3debcd36	0.1151375
40	0x3d3c3c48	0.045955926
41	0x3db87c60	0.09008098
42	0x3d8c7fea	0.06860335
43	0x3d6ac805	0.05731966
44	0x3de3b4b6	0.11118452
45	0x3ab61402	0.0013891461
46	0x3cd7e69e	0.026355084
47	0x3d0aac66	0.03385582
48	0x3daa292c	0.08308634
49	0x3c14efc9	0.009090372
50	0xbded5e8e	-0.115903005
51	0xbab43f6f	-0.0013751815
52	0xbd144b9f	-0.03620493
53	0xbc84746c	-0.016168796
54	0x3dd933b0	0.10605562
55	0xbd728bd0	-0.059215367
56	0x3da970ff	0.082735054
57	0xbdaf5fa2	-0.085631624
58	0x3dab184b	0.08354243
59	0xbd9f5565	-0.077799596
60	0xbd6f4a2a	-0.058420338
61	0xbd808daf	-0.06277024
62	0x3c6f7819	0.014616036
63	0x3dc87e26	0.09789686
64	0x3cb162aa	0.021653492
65	0x3d549801	0.051902775
66	0x3d13ddf2	0.036100335
67	0xbd3ce99c	-0.046121225
68	0xbdc98259	-0.09839315
69	0xbda4f299	-0.08054084
70	0x3c9b01a7	0.018921686
71	0xbdd3acf4	-0.103357226
72	0xbc4e7293	-0.012600559
73	0x3dac570d	0.08415041
74	0xbddd318e	-0.108004674
75	0x3dc76690	0.09736359
76	0xbde9c026	-0.114136025
77	0xbd2f5252	-0.042803116
78	0xbdb082ee	-0.08618723
79	0xbd49063f	-0.049078222
80	0xbbbbe277	-0.005733784
81	0x3dbc1770	0.09184158
82	0xbc91c61f	-0.017794667
83	0xbdd19791	-0.10233987
84	0x3d36f042	0.04466272
85	0xbdc3e646	-0.095654055
86	0xbd57de80	-0.052702427
87	0x3aa47961	0.0012548381
88	0x3dc8047b	0.097664796
89	0xbcddf5bf	-0.02709472
90	0x3d1e46aa	0.03864161
91	0xbd50b344	-0.05095221
92	0x3dcebaff	0.100942604
93	0xbbf178cf	-0.007369138
94	0x3db16df1	0.08663548
95	0xbcf5d6c6	-0.030009639
96	0x3dec8e3b	0.11550566
97	0xbda6b3cb	-0.081397615
98	0x3da500d4	0.080567986
99	0xbda4c4dd	-0.08045361
100	0xbde0bff2	-0.10974111
101	0x3bd37c38	0.006454017
102	0xbdbe1514	-0.09281364
103	0xbd91758e	-0.071025
104	0x3d57723e	0.052599184
105	0x3d28fb9a	0.04125557
106	0xbc1fe42c	-0.00975899
107	0x3db42dce	0.08797799
108	0xbcc314dc	-0.023813657
109	0xbc533a0c	-0.012892257
110	0x3d9e0aa4	0.07716873
111	0x3c960d2a	0.018316824
112	0x3c3d24ba	0.011544401
113	0xbdd5e928	-0.10444862
114	0x3d8e22a4	0.06940201
115	0x3d745593	0.059651922
116	0xbd838a6a	-0.06422885
117	0xbddb0323	-0.10693958
118	0xbd3b30c6	-0.04570081
119	0x3a7df092	0.0009687032
120	0x3dde4cf5	0.10854522
121	0x3ccf3cc7	0.025297536
122	0x3d4cdec2	0.050017126
123	0x3d8e9768	0.06962472
124	0x3d934cf5	0.07192413
125	0x3d12056c	0.035649702
126	0xbd4d3ee1	-0.050108794
127	0xbdaff712	-0.08592047
128	0xbcb3c7c9	-0.02194585
129	0x3cb0e3a6	0.021592926
130	0x3d5a572c	0.05330579
131	0x3db3506c	0.08755574
132	0xbdc9b713	-0.09849372
133	0xbccbb1b5	-0.02486501
134	0x3db4e5f6	0.08832924
135	0xbdd0f3b3	-0.10202732
136	0x3d8a4f4e	0.067534074
137	0x3d5c5948	0.053796083
138	0xbd9a6c93	-0.0754024
139	0x3db07307	0.0861569
140	0xbd9ced23	-0.07662418
141	0xbcb86691	-0.022509845
142	0xbc8eefce	-0.017448332
143	0x3d90c98f	0.07069694
144	0x3d970a01	0.07374955
145	0x3de5ab91	0.11214364
146	0xbcc407df	-0.023929534
147	0x3db6a971	0.08919037
148	0x3ddcab56	0.10774867
149	0xbd858965	-0.065203466
150	0xbc9c873e	-0.019107457
151	0xbd75ecc8	-0.060040265
152	0xbd6d870f	-0.05799013
153	0xbb839e58	-0.004016679
154	0xbda621d6	-0.081119224
155	0xbdd46608	-0.103710234
156	0xbd824a9c	-0.06361887
157	0xbc57fd56	-0.013182959
158	0xbd48684b	-0.048927587
159	0xbb3282a9	-0.0027238524
160	0xbcaaac65	-0.020834157
161	0x3d606986	0.054788135
162	0xbdce40c1	-0.100709446
163	0x3cabf9a6	0.020993065
164	0x3c585130	0.01320295
165	0x3bbe6df2	0.0058114463
166	0xbd9baaa0	-0.076009035
167	0xbd9a6d71	-0.075404055
168	0xbdb009e7	-0.08595639
169	0x3c8b7b4d	0.017026568
170	0x3de5dd1c	0.11223814
171	0x3d9eb24a	0.0774885
172	0x3de8a149	0.11358888
173	0x3d16c3ce	0.036807828
174	0xbcf5d335	-0.030007938
175	0x3dbecbd8	0.09316224
176	0xbd628146	-0.055299066
177	0xbc051988	-0.008123763
178	0x3ce247a2	0.027622048
179	0xbd241855	-0.040062267
180	0x3d3f5ca0	0.046719193
181	0xbdafdb00	-0.08586693
182	0xbd8db54a	-0.06919344
183	0xbd99c095	-0.07507435
184	0xbdb713a0	-0.0893929
185	0x3d72c4e9	0.05926982
186	0xbde4493e	-0.11146782
187	0x3ddf42c7	0.10901409
188	0x3d9b2c0d	0.075767614
189	0xbd5534de	-0.05205237
190	0x3d055316	0.03254994
191	0x3d1a3f8e	0.037658267
192	0xbdca4915	-0.098772205
193	0x3dd43840	0.10362291
194	0x3de817ff	0.11332702
195	0x3dc57a76	0.09642498
196	0xbdd48004	-0.103759795
197	0xbd8cb18d	-0.068698026
198	0x3d00fac7	0.03148916
199	0x3db37f4c	0.08764514
200	0x3dbcd060	0.09219432
201	0xbd6cf8fd	-0.05785464
202	0x3db558d8	0.08854836
203	0xbdc6c612	-0.09705748
204	0xbd2ce923	-0.042214524
205	0xbd46b8fd	-0.048516262
206	0x3cf6367f	0.030055283
207	0xbdc49f42	-0.096006885
208	0xbdd01eba	-0.101621106
209	0xbd27af19	-0.04093847
210	0x3bed9734	0.007250691
211	0x3db026c3	0.08601143
212	0xbd80d2b4	-0.062901884
213	0x3dc95b84	0.09831908
214	0x3da380fd	0.07983587
215	0x3dc1b285	0.09457878
216	0x3d10ea7d	0.035379875
217	0x3d91fbf3	0.071281336
218	0xbde8f650	-0.113751054
219	0xbd5402ff	-0.05176067
220	0x3da54f04	0.08071712
221	0xb9d55345	-0.00040688567
222	0x3d1e9322	0.038714536
223	0x3dc7201c	0.09722921
224	0xbd2f39c0	-0.042779684
225	0xbd277b09	-0.04088882
226	0x3dbbe766	0.09174995
227	0x3c19e474	0.009392846
228	0xbd055261	-0.032549266
229	0xbdd70eec	-0.10500893
230	0x3d51cac0	0.051218748
231	0xbde64f8f	-0.11245643
232	0xbdc8a588	-0.097971976
233	0x3cfe8fe7	0.031074477
234	0x3cd2ec00	0.0257473
235	0x3db47714	0.08811775
236	0xbc04ad67	-0.008097983
237	0xbd9f2fa9	-0.07772762
238	0xbd312d16	-0.043255888
239	0x3d0d7cfc	0.034543023
240	0xbca0f6ad	-0.019648874
241	0xbdc2fb4d	-0.09520588
242	0x3d0b3abc	0.03399156
243	0x3d93db1e	0.07219528
244	0xba951562	-0.001137417
245	0xbc95c765	-0.018283555
246	0xbdc08ac9	-0.09401471
247	0xbd64d827	-0.0558702
248	0xbb1ff451	-0.0024407099
249	0xbd571a5e	-0.05251538
250	0xbd9b20e1	-0.075746305
251	0xbb1c2b1c	-0.0023829406
252	0x3ca90547	0.0206324
253	0xbdd5123b	-0.10403868
254	0x3d758951	0.05994541
255	0xb9b1eee0	-0.00033938047

backbone.model.3.0.model.0.bias f4 [16]
0	0x3d402330	0.046908557
1	0x3c71d95e	0.014761297
2	0x3d489120	0.048966527
3	0x3d3c9db8	0.04604885
4	0xbcc2b9f4	-0.02377031
5	0xbdd8d939	-0.10588307
6	0xbc8b952f	-0.01703891
7	0xbd548ea1	-0.051893834
8	0xbd4cd90f	-0.05001169
9	0x3bc29953	0.005938688
10	0xbd256246	-0.040376924
11	0x3c2a8054	0.010406572
12	0x3d8c7dcd	0.06859932
13	0xbdc0d7bf	-0.0941615
14	0xbdc5aa2d	-0.09651599
15	0xbd2d07f1	-0.0422439
