software/logs/hyper_parameter_tuning/custom_model_hp/version_3/checkpoints/epoch=15-step=335.ckpt (torch, 195567 bytes, 54 tensors)

backbone.model.0.0.model.0.weight f4 [4, 2, 5, 5]
00000000: 4382 84bd 6d00 b63d b996 70bd 2010 aa3d
00000010: 3ae8 dfbd 65b0 a53d 1a6e 73bc 5296 00be
00000020: 4f06 a93d 48aa d4bd ffe8 0bbe 6371 c2bd
00000030: cee4 8abc e372 f23d d994 be3d a2fd 52bd
00000040: a213 dfbc 11ca 06be e067 ad3b 62c2 fc3d
00000050: baf5 8b3d 640d 9cbd 44e4 7abd 13b2 353d
00000060: eb68 e33d c825 093e f30d bdbd f162 c1bd
00000070: 9265 03be d7f3 e83d 29cd f5bd 8f91 a0bd
00000080: 6aa4 efbd 5f0c 98bd 3021 d33c 531c 983d
00000090: ad9a 1a3d a342 f8b9 7b84 9a3d c4bd 8cbc
000000a0: ee1f afbc e028 79bd c5cb 02be df70 a23b
000000b0: def5 873d 4033 6dbd 2067 fd3d b06d 563c
000000c0: 203d f5bd 9b18 d63d 9d69 d8bd d347 963c
000000d0: e523 993d 7534 6dbc ea98 b93d 9f16 083e
000000e0: 22f3 703d 7eb3 00bd 08fa debd 12e8 51bc
000000f0: 8cc2 13bc e2ad 7cbd 3155 edbd 608a 033e
00000100: bc64 dfbd 7d82 383d 181b 6bbd 1b95 eabd
00000110: bcd4 ff3c 9d78 02be c552 a63d 88b0 eabc
00000120: 6546 aabd 1457 cf3c 294d 49ba 05dc c6bc
00000130: 7043 d63d 822a 61bd f527 edbd 9aef 6a3d
00000140: 659c f63d a558 c93d 82ed ecbd af31 c7bc
00000150: 1a01 4e3d e3ee ef3d a01e ed3c 8a79 eb3d
00000160: cb54 293d bd0e d03d 60db c93d a6b6 c6bc
00000170: 6dd7 04be f9c3 afbd 7a84 0ebe a899 84bd
00000180: 9b91 81bd 6ca9 073d dd0f c83d cbdf 073e
00000190: b070 01be 03c4 f93d 8ef0 81bd 3f8e aabb
000001a0: be17 94bd 436b afbd d204 0cbe 5708 083e
000001b0: d2ba c5bc 6ea3 d4bd f161 f8bd d6ff b33c
000001c0: 3bbe 3cbd f43c fc3d f51c 493c 7972 0ebe
000001d0: 325e cdbd 7976 7b3d 55e1 013e 305d 2ebd
000001e0: e8e8 b8bd 255c 043e 3a8d adbd 1c16 603d
000001f0: 2313 34bc 0c51 89bd 6ec2 ccbd a5c8 833c
00000200: 6b09 ebbd 6fdb 0ebe cf5e ff3d 6035 5abd
00000210: a677 65bd 6d80 033e 8747 06bd e57e 7fbd
00000220: 09b3 afbd 659f 67bd 8cb0 04be 1cae c6bd
00000230: 49e4 103d 1f7b cebd f849 e9bd 00e8 11bd
00000240: c6f6 f83d 255a fd3d 1762 b1bd 3fb9 143d
00000250: 17ab 81bc 67f5 083d c87d 0ebe 8117 9bbc
00000260: 8774 c2bd 4363 0dbe 10a9 f63d 6727 8c3d
00000270: 0b90 023e 84ac 29bc b340 7cbd 9800 fe3d
00000280: 366d 343d 305c 223d 22c6 b93d 3989 5a3d
00000290: a0a3 8e3d 9197 0cbd 3fe7 883a 5c4a c1bc
000002a0: f5b7 09be f7c1 8fbd ae8d 6e3d 1471 9b3d
000002b0: 9142 c13d a00a ad3d 558d 0a3d a10f be3d
000002c0: bc47 bd3c 5024 20bd 6567 0b3e 00d6 c7bd
000002d0: faaa 013c 7364 efbd 9604 dabd 3356 07be
000002e0: ca38 2abd 2c0e 89bc 82a2 683d fbd4 b23c
000002f0: d893 803d b781 c83c 1b70 a6bd f8a3 12be
00000300: 10ba 563c 3446 8bbd b861 183d 7de0 ea3d
00000310: 7112 073e 2731 0cbe 5a76 c13d d5c0 e3bc
-0.06470158 0.088868 -0.05873749 0.08303857 -0.109329656 0.08090285 -0.014857793 -0.12557343
0.082531564 -0.10384041 -0.136631 -0.09494283 -0.016954806 0.11838319 0.09305734 -0.051511414
-0.027231041 -0.1316302 0.005291924 0.12341763 0.06833978 -0.076197416 -0.061252847 0.044359278
0.11103996 0.13393319 -0.09231176 -0.094427 -0.12831715 0.11374634 -0.12002022 -0.07840263
-0.11701281 -0.074242346 0.025772661 0.074272774 0.037745167 -0.00047351894 0.075448 -0.017180331
-0.02137753 -0.060829997 -0.12773044 0.004957303 0.06638692 -0.057910204 0.12373185 0.013087675
-0.11974549 0.10453912 -0.10567019 0.018344795 0.074775495 -0.014477839 0.09062369 0.1328988
0.05882562 -0.031421177 -0.108875334 -0.0128116775 -0.009018552 -0.061689265 -0.115885146 0.12845755
-0.109078854 0.04504632 -0.057398885 -0.11454221 0.03122937 -0.12741323 0.08121256 -0.02864863
-0.08314208 0.025310077 -0.0007679039 -0.024274835 0.104620814 -0.05497218 -0.11579887 0.057357408
0.12041549 0.09831361 -0.115687385 -0.024315683 0.05029402 0.11715486 0.028945267 0.11497791
0.04134063 0.10159061 0.098562956 -0.024257015 -0.12972803 -0.08582301 -0.13917723 -0.0647462
-0.063266 0.033120558 0.09768651 0.13268964 -0.12640643 0.121955894 -0.0634471 -0.0052049453
-0.07231091 -0.085653804 -0.13673714 0.13284431 -0.024136934 -0.10382734 -0.12128056 0.021972578
-0.046079855 0.123163134 0.01227497 -0.13910855 -0.10027732 0.06139228 0.12683614 -0.04256934
-0.09028798 0.12925775 -0.084742025 0.054708585 -0.010990891 -0.067049116 -0.09998022 0.016086886
-0.11476406 -0.13950895 0.12469255 -0.05327356 -0.05602231 0.1284196 -0.032783058 -0.062376875
-0.0857907 -0.056548495 -0.12957972 -0.097011775 0.03537396 -0.10082077 -0.113910615 -0.035621643
0.12156443 0.12370709 -0.08661287 0.036309477 -0.015828652 0.03343716 -0.13915169 -0.018932106
-0.09494882 -0.13807397 0.12043965 0.06843453 0.1275026 -0.010356072 -0.06158514 0.12402457
0.044049464 0.039638698 0.09070994 0.053353522 0.06964803 -0.034324232 0.0010444893 -0.023595028
-0.1344908 -0.07019418 0.058240585 0.07589927 0.09436525 0.08449292 0.03382619 0.09280325
0.023105495 -0.03909713 0.1361366 -0.09757614 0.007914299 -0.11689081 -0.10645406 -0.13216476
-0.041558065 -0.01673039 0.056795605 0.021830073 0.06278199 0.024475915 -0.08126851 -0.14320362
0.013105884 -0.068004996 0.037202567 0.11468599 0.13190629 -0.13690625 0.09446402 -0.02780191

backbone.model.0.0.model.0.bias f4 [4]
00000000: 4080 64bc 1ca6 873d e390 09bd bcfa bb3d
-0.013946593 0.0662348 -0.03358544 0.09178683

backbone.model.0.1.model.0.weight f4 [4, 4, 5, 5]
00000000: e152 babc d2b8 b93c 115e 67bd e202 aa3d
00000010: 38ae b1bd ea86 273d f39b b83d 25df c83d
00000020: 01aa 6c3d a7c0 033d b37f 31bd e258 8e3d
00000030: a4e6 603d 97a7 ab3d 1960 b63c ea22 66bc
00000040: a521 97bd 6745 0f3d 8be7 97bc f4b8 a0bd
00000050: e282 7c3d 4585 923d f7b4 bb3c dc62 7fbd
00000060: df58 1ebc ac92 d4bc 45cf 943d 3b6e c6bd
00000070: 9040 59bd 88a8 ed3c bb23 b0bb ccf4 603d
00000080: 68c2 eabc 4cf4 043d 6ef6 0d3d 176c 8fbc
00000090: 3587 523b a872 133d 319b 3bbd 4b8f b9bd
000000a0: b476 97bd e828 72bd 4253 aa3c c83f c4bd
000000b0: 8850 843d b3fd a23d 77ff 203d 7c38 e13c
000000c0: 2c48 5cbc f968 863d 244c b4bd 9d8b cc3d
000000d0: f32a 1a3c cf1e 843d cc15 b73d 3172 693c
000000e0: d51d a9bd 7e83 16bd f0fa b9bd 8f3f a4bd
000000f0: a3c5 bf3c f2f9 f0ba 3f13 adbd eebf 593b
00000100: 218f c03a 7dd7 76bd 6277 2b3d c03b 083d
00000110: 069a cc3d 1c43 883b 2dba 353a 54f7 6e3d
00000120: 8d32 063d 252e a0bd 385f 1abd 55ac 5a3d
00000130: 720b d73b b8a1 df3c ff3a 6fbc 99e6 903d
00000140: 1932 9d3d 924b a73d 285a fa3c 4f26 15bd
00000150: c729 a3bd 45d5 203d 702c 92bd bc5c 95bd
00000160: e337 683d 3915 bdbd bf32 32bd 6381 66bd
00000170: 3ece b7bd 4e59 523d cf0e 0c3d 30b2 0bbd
00000180: a3b4 dbbc 67e4 60bb b596 16bc 1889 91bd
00000190: 2a8d c13d fdc5 babc 6b4c 25bd c59c 3ebd
000001a0: 61fb 98bb 0a71 8e3a b09e 883c ea8b 803d
000001b0: c9fe 42bd 60b5 443d 8cb6 fd3c e19b cabd
000001c0: 7004 f43c 00b6 24bc 2038 94bc 9a73 ab3d
000001d0: 4419 aa3d cb40 8dbd 4802 7abd db3b da3c
000001e0: 3287 90bd 88dc 463c c53c 2ebd 282d 8ebc
000001f0: c2c6 6cba 05fa 3e3d df6c 413c 0a60 95bd
00000200: 6a4a 793c 1606 7d3d 5021 30bd 766f c6bc
00000210: 5ea2 793d 2825 bbbd 12f8 843c 2429 c73c
00000220: 95a2 3f3d b8de 8a3c 031a c8bd 99f4 803d
00000230: b576 3cbd 0f56 c23d d176 9abd e044 7e3d
00000240: 40b1 623d b76e a9bd 5ccd 763c 1cd1 743d
00000250: 1a5a 953d a6fc ca3d d2d3 9d3c 1712 343d
00000260: 235d efbc 64c7 6dbd 7cda 8abd 409a c03d
00000270: eac4 0e3b c185 0dbd 0a9e eaba 436b 0fbd
00000280: 4015 d9bc 243f 27bb 286c ff3c f17d d5bc
00000290: 5695 aabd 441b 013c fdee 8d3d 3e8b c2bd
000002a0: 40aa a9bd ca0d 413d c5ca 943d f369 20bc
000002b0: fef5 02bd c579 733c 52d5 8cbd 8c4e a1bd
000002c0: b71f 453c 2a6e d63c 1c81 9bbd f864 c6bd
000002d0: 8f7a 04bd 160d e1bc 8dda bcbc 9599 9abd
000002e0: 4d76 1ebc 5bcf e33c a211 7cbc 4f12 9abc
000002f0: 8234 31bd 1d56 4dbd d6f0 853b d609 a23d
00000300: ee99 babd ab94 c03c e654 253d fd59 0b3d
00000310: e89e cdbb 5d30 823c e37e c23d 407e b0bd
00000320: 6a08 3dbd 8cd2 a9bd a28d 84bd 42f0 903d
00000330: 4d3f 5e3c 6ad3 d23c 457d 953d 9f68 913c
00000340: b198 a83c bb69 8e3d 73c6 8cbd 40ed a03d
00000350: 8f5f 923d decb cbbd 02f1 9cbd f661 42bd
00000360: da3f dabc b561 c93d 689b 713c 7a89 ccbc
00000370: 9668 78bd c45f 80bd 63f3 853d 4502 c43d
00000380: eb32 c03d de9a af3d 1001 0abd 6eef e1ba
00000390: caa8 b83c 08fc 8a3d d6b5 fdbc 0e7c 8a3c
000003a0: e1d4 c33d 67d0 c03c f4e2 a3bd f52a 1abd
000003b0: 995d 963d f2a0 a3bc bda8 3cbc 41b2 e2bc
000003c0: c0ca 82bd 9722 a3bd 7036 5dbd e5bd 84bd
000003d0: e23b 873c 7b50 19bd 73c5 c4bd 7cee 7a3d
000003e0: 30a3 8ebd a240 703d 1196 46bd b284 3cbc
000003f0: a6b4 52bd 6de0 b83d 2596 913d 34be d13c
-0.022744598 0.022671137 -0.056486193 0.08301331 -0.08675808 0.04090015 0.0901412 0.098081864
0.057779316 0.03216615 -0.043334674 0.06950547 0.054907456 0.083815746 0.02226262 -0.01404641
-0.07379464 0.034978297 -0.018543025 -0.07847777 0.061648257 0.071543254 0.02291344 -0.06235014
-0.009664743 -0.025948845 0.07266096 -0.096889935 -0.053040087 0.029011026 -0.005375353 0.054920956
-0.028657153 0.032459542 0.03465884 -0.017507596 0.0032124047 0.035998017 -0.0458023 -0.09060534
-0.07395688 -0.059121042 0.020791654 -0.09582478 0.064606726 0.079585455 0.03930613 0.027492754
-0.0134449415 0.06562991 -0.08803585 0.099875666 0.009409654 0.06451189 0.08939704 0.014248417
-0.08257643 -0.036746494 -0.09081066 -0.08019935 0.02340967 -0.0018385036 -0.084509365 0.0033225971
0.0014691093 -0.0602641 0.0418619 0.033260107 0.09990315 0.0041583907 0.00069323444 0.05834134
0.032763053 -0.07821301 -0.037688464 0.053387005 0.0065626437 0.027298793 -0.014601468 0.07075233
0.07675571 0.08168711 0.030560568 -0.036413487 -0.07966953 0.03926589 -0.07137382 -0.07293078
0.056693923 -0.092325635 -0.043505426 -0.056275737 -0.089748845 0.0513547 0.03419381 -0.03410548
-0.026819533 -0.0034315826 -0.009191205 -0.07106227 0.09450753 -0.022799486 -0.04035608 -0.046536226
-0.0046686386 0.0010867429 0.01667723 0.062766865 -0.047606263 0.048024535 0.030970834 -0.09893013
0.029787272 -0.010053158 -0.018093169 0.083716586 0.083056 -0.06897124 -0.06103733 0.02663987
-0.070570365 0.01213754 -0.042538423 -0.017355517 -0.0009032303 0.046625156 0.011805742 -0.072937086
0.015215496 0.061773382 -0.04300052 -0.02422307 0.06094586 -0.09137946 0.01623157 0.02431161
0.04678591 0.016951904 -0.09770586 0.06296653 -0.046011645 0.094890706 -0.07542194 0.062077403
0.05534482 -0.0827307 0.01506361 0.059769735 0.07292576 0.0991147 0.019266043 0.043962564
-0.029219216 -0.05805148 -0.06779954 0.09404421 0.002178485 -0.034551386 -0.0017899883 -0.035014402
-0.02649939 -0.0025519812 0.031179503 -0.02606103 -0.08329265 0.007880036 0.06930349 -0.094992146
-0.08284426 0.04713229 0.07265238 -0.009790885 -0.031972878 0.014860575 -0.06876625 -0.0787631
0.012031487 0.026175577 -0.07592985 -0.09687227 -0.032343443 -0.02747206 -0.023053432 -0.07548825
-0.00967176 0.027808836 -0.015385063 -0.018807558 -0.043262966 -0.050130952 0.004087548 0.07912032
-0.09111391 0.02350839 0.04036417 0.034021366 -0.0062750466 0.015892202 0.09496858 -0.0861783
-0.046150602 -0.08292112 -0.06472327 0.070770755 0.013564897 0.025735576 0.07299284 0.017750083
0.020580621 0.0695376 -0.06873789 0.07857752 0.071471326 -0.09950994 -0.07663156 -0.047456704
-0.026641775 0.09833089 0.014746524 -0.024967898 -0.060646616 -0.06268266 0.06540563 0.095707454
0.09384712 0.085744604 -0.03369242 -0.0017237493 0.022541422 0.067863524 -0.030970495 0.016904857
0.09562088 0.023536874 -0.08002272 -0.037638623 0.07342071 -0.019974206 -0.01151484 -0.027672889
-0.06386328 -0.07965582 -0.054006994 -0.06481532 0.016508047 -0.037430268 -0.09607973 0.061262593
-0.06964719 0.05865539 -0.04848296 -0.011506246 -0.05144181 0.09027181 0.07108716 0.025603391

backbone.model.0.1.model.0.bias f4 [4]
00000000: 8fed d8bc 87b3 883c e1ff b6bd 1df4 bbbd
-0.026480464 0.016687168 -0.08935524 -0.0917742

backbone.model.1.0.model.0.weight f4 [8, 4, 5, 5]
00000000: a48d 12bc 53f8 9dbd f4cf 353d aec9 adbd
00000010: 1075 b13d fe04 8c3d aef7 96bd 54d9 78bd
00000020: b8f1 5c3d a862 abbc 29f6 dd3b 1ca7 c0bb
00000030: 173f f53b 1e89 bf3d f35c 7b3d be9c 143d
00000040: 9ea7 2b3d 4a07 1f3d c529 863c eee5 9b3b
00000050: db6e 7dbd f9ec c4bd 0efd a53d c8d8 753d
00000060: e200 bcbd 8b0c ba3d 6ae1 aebd 23da 46bd
00000070: 7b57 7d3c b563 f23c c34b f73b 730c 60bd
00000080: a4f1 923d 2ed8 103d 15f0 b2bd b0c9 c5bc
00000090: bb67 cb3c 2d8a be3c df2b b0bc 3e3c a63d
000000a0: 0f82 62bd 9f3a 9a3d 8936 443c bbdb 7a3d
000000b0: cbbe 39bd d846 78bd 2bae b63d 75f1 86bb
000000c0: 3531 a4bd 4854 143d f82e 773d acb9 743c
000000d0: c533 c8bc 9521 a6bd 8d59 c43d 4f15 c3bc
000000e0: 9c1c b5bd 7ce4 843d 0cd7 803d 964a 403d
000000f0: 81d7 903d 21cc 88bd 9050 4dbb 0839 ad3b
00000100: 6a19 60bd b824 ba3d 3be3 9b3b 3872 73bc
00000110: 63f3 813d 1138 abbd 258c 81bd cd19 c73d
00000120: d151 553d 5dfa 7bbd 4c0a a0bc 3129 0cbd
00000130: 1460 a3bd c424 773d e27a f63c 0347 b6bd
00000140: dc3c 863d 17ec 203c d07f af3d 7d0d 63bb
00000150: 9e79 a23c a8b8 91bd ca5f 58bd 24f5 923d
00000160: a6bb 85bd fd10 96bc f4e5 abbd db2e bf3c
00000170: c9e7 9b3d 5901 44bd a053 ae3d 397e 72bd
00000180: cf90 c93d 4275 d0bd cfbf 293d 6360 0fbb
00000190: 1d07 f2bb e9e8 c1bd f52d 14bc 4693 283d
000001a0: e479 26bc 09e3 573d 6c5f 02bd 5e83 bf3d
000001b0: 9752 93bb 5999 e53c 8de3 97bd b58d 883d
000001c0: 447f 653c 9a4e 753d b057 1cbd be02 b23d
000001d0: 668d b33d 6e3e 4abd d3b8 dc3b 2ff4 bd3d
000001e0: 0b3f ebbc 043b ac3d f54b 77bc 6b09 a2ba
000001f0: a904 8a3d 5d00 a53d eef4 f63c 7f0e 133d
00000200: 2e11 9e3d a08f 79bd 1f2f 2fbd 774f c2bd
00000210: 5bcd bcbd de35 b7bc 7ace c03d 61c5 8a3c
00000220: 85b1 323d e28d 5b3d 13ab 93bd ec8a 753c
00000230: 6700 063d cd38 0d3d e9e7 c3bd 54c0 a33d
00000240: 8e31 83bd dcb3 fd3c 3518 243d 06c0 97bd
00000250: 5d0e 3fbd a5cf a03c aab6 c83d 32af 63bd
00000260: 689b 123d 8082 8abd 35e0 bf3d 5749 5b3d
00000270: 359c fe3c 1406 563d 2f4c 873d 1bb3 b63d
00000280: 5ecf e83c 28c2 9a3c a0ee 80bc b7df 86bd
00000290: 4738 c8bd 8fd0 27bc e974 19bc a89c 12bb
000002a0: 5c4e e9bc 05c9 26bc 5f3a aa3c a647 16bc
000002b0: 14e7 7bbd 5e81 923d d3fc 7f3b 7925 bfbd
000002c0: 4bdc dabb ec8b 81bd f7d8 ac3d 860a 893c
000002d0: 3163 93bc 2900 b93a e32e 6e3c 12f9 e83b
000002e0: 48fa db3a 510a 72bd 6174 49bd 7516 80bc
000002f0: 1e69 a33d 5961 463d 5569 203d dc22 c43d
00000300: 2fb1 1a3d 9e24 babd fd52 a6bb 1cde bd3d
00000310: 84f0 00bd 52b7 ba3d 05c8 b43d c8f6 a1bd
00000320: 0052 a4bd deb4 73bc 3dca 29bd edb4 b1bb
00000330: d50d e43c 4ebd 3cbd ee71 8d3d 0424 01bc
00000340: 1b7a 0a3b b45a 5bbd bbb3 353c 699f 243d
00000350: b5cd 03bc 0c2f 2e3b 0b68 adbd 213e 33bd
00000360: ac55 abbd 875c a23d bc0a b03d 477b a1bc
00000370: 5a1c bbbd 099d 973c 39f3 563c 3ec8 253d
00000380: eec3 563c ed19 babd 34d2 debb ba6b 34bd
00000390: c3f1 023d b825 2cbd fd45 863d 7755 c53d
000003a0: 22bd bdbc 922a 67bd cda9 af3d 7c31 1c3d
000003b0: 3bbc e03c 6e5a 5c3d 5ed0 7dbc f594 083c
000003c0: 30ff ebbc 0323 19bd 70e0 34bc 04bf 9b3d
000003d0: ff67 223d 83b0 78bc 2d82 c4bc 1e84 bc3d
000003e0: fb02 b13d a0de aabd b230 93bd 0826 453d
000003f0: 957a 213d 0699 69bc bc0e cf3b 434c 7abd
-0.008944903 -0.0771338 0.044387773 -0.08485733 0.08664906 0.0683689 -0.0737146 -0.060754135
0.05394146 -0.020921066 0.0067737293 -0.005879296 0.0074843275 0.09352325 0.06136794 0.036282293
0.0419079 0.03882531 0.01637734 0.0047576344 -0.0618733 -0.096155114 0.08104907 0.06002119
-0.09179856 0.09084424 -0.08539088 -0.048547875 0.0154627515 0.02958856 0.0075468733 -0.054699373
0.071749955 0.035362415 -0.08737198 -0.024144024 0.024829736 0.023259247 -0.021505294 0.08116959
-0.055299815 0.07530712 0.011975893 0.061244708 -0.04534797 -0.060614437 0.08919939 -0.0041181394
-0.08017198 0.03621319 0.060347527 0.014936846 -0.024438748 -0.08111874 0.09587393 -0.023813872
-0.088433474 0.064888924 0.06291017 0.04694613 0.07072354 -0.066795595 -0.0031328537 0.0052863397
-0.054711737 0.09089035 0.0047573126 -0.014858775 0.063452505 -0.08360303 -0.063255586 0.09721718
0.05207998 -0.061518062 -0.01953616 -0.03421897 -0.0797731 0.060337797 0.030087892 -0.08900263
0.06554577 0.009821913 0.085693 -0.003464549 0.019833382 -0.071152985 -0.052825727 0.07175663
-0.06529932 -0.018318648 -0.083934695 0.023337772 0.07612569 -0.047852848 0.08512044 -0.059202407
0.09842073 -0.10178615 0.04144269 -0.002187752 -0.007386102 -0.09468252 -0.00904416 0.041156076
-0.010160897 0.052706752 -0.031829283 0.09351228 -0.0044959295 0.028027223 -0.07416449 0.066676535
0.014007393 0.059889413 -0.038169563 0.08691929 0.08767204 -0.049375944 0.0067359 0.0927509
-0.028716585 0.08409694 -0.015093793 -0.0012362426 0.0673917 0.0805671 0.030146088 0.035902496
0.077181205 -0.060927987 -0.042769548 -0.09487813 -0.09218856 -0.022364553 0.09414382 0.01693982
0.043626327 0.053602107 -0.07210364 0.014986735 0.032715227 0.034477998 -0.09565718 0.07995668
-0.06405936 0.030969553 0.040062148 -0.074096724 -0.046644557 0.019630263 0.098004654 -0.055587
0.03579274 -0.06763172 0.09368936 0.05353674 0.031080345 0.05225189 0.06606328 0.089208804
0.028419193 0.018891409 -0.015738785 -0.06585639 -0.09776359 -0.010242595 -0.009366252 -0.0022371206
-0.028479747 -0.010179763 0.020779787 -0.009172356 -0.06149967 0.07153581 0.0039060607 -0.09333319
-0.006679093 -0.06325516 0.0843982 0.01672865 -0.017991634 0.0014114428 0.014537546 0.0071097696
0.0016782964 -0.05909187 -0.049183253 -0.015635708 0.07979034 0.04843268 0.039162952 0.095769614
0.03776663 -0.090890154 -0.005075811 0.092708796 -0.031479374 0.09116997 0.08827213 -0.07908398
-0.08023453 -0.014874665 -0.041452635 -0.0054231794 0.027838627 -0.046078973 0.06906496 -0.007882122
0.002112991 -0.053553298 0.011090214 0.040191088 -0.00804465 0.0026578335 -0.0846711 -0.043760423
-0.0836595 0.079278044 0.085957974 -0.019712104 -0.09136267 0.018507497 0.013119512 0.04047417
0.013108237 -0.09086976 -0.0067999605 -0.04404805 0.031968843 -0.04202816 0.06556318 0.09635442
-0.023161475 -0.056437083 0.08577309 0.03813313 0.027433505 0.053797178 -0.015491573 0.008336295
-0.028808206 -0.037386905 -0.011039838 0.07604793 0.03964996 -0.015178802 -0.023987854 0.09204887
0.086431466 -0.083432436 -0.07187022 0.048131973 0.039423544 -0.014257675 0.006318895 -0.061107885

backbone.model.1.0.model.0.bias f4 [8]
00000000: b281 c93d 09a9 b13d 6b37 64bb f190 99bd
00000010: d7a0 71bd f632 35bd 5d9a b3bd 0fc7 a23d
0.098391905 0.08674819 -0.003482307 -0.074983485 -0.05899128 -0.044238053 -0.08769677 0.07948124

backbone.model.1.1.model.0.weight f4 [8, 8, 5, 5]
00000000: 55ab 663d 780a 723c bfbf 493b 2133 02bb
00000010: ef10 703d 5896 f53c 182d 2f3a 1b6b 9a3c
00000020: 4c8b 33bd 4bbd 5abb 8a4a 67bd 11c2 44bd
00000030: f5c9 35bd 12ca 63bb b2fc 513c c562 103d
00000040: b11d 95bd 08c7 1abd 966c 3bbd f257 3d3d
00000050: 043d f63c 2d39 743d 0c12 693b b4ee 40bd
00000060: 5db5 173b 91f3 403d 42fe cabc e26c 14bc
00000070: 408b 9a3b ead9 5dbd 63d0 84bb 4b20 1d3d
00000080: 180f 94bd 5d8e 2ebd 948f 2d3d b43f c0ba
00000090: c561 63bd 16ff a53b 5d09 57bd f233 653d
000000a0: ab2a 813d 0035 bbbc c8db e03c fea4 d83c
000000b0: 4612 e83b 84d8 1fbc c81f 92bc 28e3 603d
000000c0: d05f dd3c 2a58 683d 705b 45bd e08f 3fbc
000000d0: a369 6c3c 68c4 8abd 6d90 223d 0a47 aabc
000000e0: 8997 f33c 875e a9bc 4ef5 b5bc 6b20 d43b
000000f0: b56d 803d d20e 403d ac87 7b3c 6197 dfbc
00000100: 2baa f53c 5629 71bc cf4a 59bd 202f 0ebd
00000110: 559c 56bd 58f2 81bc f821 663d 56c7 0b3d
00000120: fa48 75bb 3648 f03c 0877 273d 4e33 0bbd
00000130: cb7b 92bc 7c24 263d 6432 80bc a3f3 683d
00000140: 48b3 8d3d 05cd 11bd d986 873c e603 483d
00000150: e844 2a3c cd4f 723c df5c 82bc d193 92bd
00000160: be6d 053d b5c2 1e3d 581c abbc 1beb 803d
00000170: 2d6d 15bd 8d62 4c3d 63c5 123d 66e0 ac3b
00000180: 8f94 e03c 492a 153d 9546 1b3d f7a2 82bd
00000190: 4242 dd3c 8291 973c 230d c5bc 1d91 833c
000001a0: 21e9 883d 94e3 173d 2402 f93c e9e1 7ebc
000001b0: cee3 883d 8607 5f3c 755a 57bc dac1 5abc
000001c0: 33e7 4ebd f2a8 873d 39e0 5c3d 4b04 593d
000001d0: ee33 813d e91a 0d3c 91eb 483c 1bf0 cf3b
000001e0: 5d26 6c3d d83a 433d 1759 0c3d 6581 e53b
000001f0: da35 883d f5a4 05bd 7d58 6a3d 308c 3c3d
00000200: b675 de3c 6c8e 273d fb4a de3c eda5 023c
00000210: d2e3 73bd 58b8 bbbc 37b0 8c3d 5303 9bbb
00000220: f422 153d f456 72bd 3830 cb3b df6a 47bd
00000230: 5478 7fbd 64c0 80bc 8e7d d53c 5f48 203a
00000240: d99d 5dbd 82e0 3ebd 833f cd3c 85cc 5fbd
00000250: 0024 10bd ffac 98ba 9c25 ccba f224 33bd
00000260: 7f96 7dbd 0e34 90bc ada0 04bd 5fdb 2fbd
00000270: 61e3 8b3d fe49 8e3d 34bf 873d fb26 e73b
00000280: 3ef4 7c3d 65b1 3e3d a580 743d 0887 fd3c
00000290: d5ae f8bc b4db 703d c848 86bd 8dc1 a73c
000002a0: a0b1 e6bc cee6 f63c 6801 99ba 6f56 81bd
000002b0: b66d d13c 2093 7cbd 09ec 03bc cc9a 5ebc
000002c0: 9ff2 243d 21a1 50bd 61fb 173a f470 b53b
000002d0: 4846 723d 049e 08bd 7a10 cabc 0709 84bd
000002e0: 2bb5 4b3d d84d 1bbd 39ac 8ebd 8c60 60bd
000002f0: a539 f03c 0d70 1d3d 2b76 5cbd 373d 713c
00000300: d8b7 41bc ca15 8dbd 25c4 ff3a b530 16bd
00000310: 67f0 883d f2d6 71bd 632b 7ebd 4eea 203c
00000320: 41d2 7f3d ff45 833d 678b 34bd 6307 e0bc
00000330: a69c af3c e058 20bd 21a4 0f3c 95c3 3a3d
00000340: e1f4 41bd bab5 5dbd 2833 563c f8eb ff3c
00000350: be22 c63c 1806 4dbd 4b5b 32bd e2a9 cb3c
00000360: 4ee2 7ebd db01 76bd 45a5 91bc fabb 653d
00000370: 4736 3b3d 6b75 59bd bc6c e33c 431c 323d
00000380: 9a7f 34bd ac4a 713d c4a8 2b3c 54c9 90bd
00000390: f982 3a3d 00c5 503c 2871 d53c e698 2ebd
000003a0: 7af2 443d fc1d f1bb f0e8 b73c 9f03 cf3c
000003b0: 9933 24bd e3cc fa3c 9739 783d 1982 05bd
000003c0: a55d e2bc 1163 24bd 08f4 8abc c596 183d
000003d0: 1355 92bb 8c5f 6e3d be86 613d 6df7 253d
000003e0: 30e8 5abd 218c 5a3d 497f 8d3d fe1e 44bd
000003f0: 195f 283d 70bc 463d 4cbd 0ebc 701a 363d
0.05631574 0.014773004 0.0030784456 -0.00198669 0.0586099 0.029978916 0.00066824397 0.0188499
-0.043834016 -0.0033376988 -0.05646757 -0.04803664 -0.044382054 -0.0034757894 0.012816595 0.035250444
-0.07281054 -0.037787467 -0.045757852 0.04622645 0.030058391 0.05962484 0.0035563735 -0.047102645
0.0023148872 0.047107283 -0.024779443 -0.009059163 0.004716307 -0.054162897 -0.004053162 0.038360875
-0.072294414 -0.042616237 0.042373255 -0.0014667423 -0.055513162 0.005065809 -0.052499164 0.055957742
0.063069664 -0.02285242 0.02744855 0.026445862 0.0070822565 -0.009756211 -0.01783742 0.054904133
0.027023226 0.056724705 -0.048182905 -0.011692017 0.014429483 -0.06775743 0.039688516 -0.020785827
0.029735344 -0.020674957 -0.022211697 0.006473591 0.06270925 0.046889134 0.015352171 -0.027293863
0.029988369 -0.014719328 -0.05304986 -0.03471291 -0.052395184 -0.015862629 0.05618474 0.03412565
-0.003742753 0.029331308 0.040885 -0.033984475 -0.017881295 0.040562138 -0.015649028 0.056872975
0.06918961 -0.035595912 0.016543793 0.048831843 0.010392405 0.014789534 -0.015913425 -0.071571
0.03257536 0.038759906 -0.020887539 0.06294843 -0.03648107 0.049898673 0.035832774 0.005275774
0.027414588 0.03641728 0.03790911 -0.06378739 0.027009133 0.018502 -0.024054116 0.016060406
0.06685091 0.03708227 0.030396529 -0.015556791 0.06684075 0.013612634 -0.013144125 -0.013351882
-0.050513458 0.06624021 0.053924773 0.05298261 0.06308733 0.008612373 0.012263195 0.0063457615
0.057653774 0.04766354 0.03426465 0.0070039504 0.06650896 -0.03262802 0.057213295 0.04603213
0.027155738 0.04090731 0.027135363 0.00797413 -0.05954344 -0.02291505 0.06869548 -0.004730621
0.036410287 -0.059164956 0.0062008165 -0.048685905 -0.062370613 -0.015716739 0.026060846 0.00061143
-0.054105613 -0.046600826 0.025054699 -0.054638404 -0.035190582 -0.0011648237 -0.0015575173 -0.043736406
-0.061911102 -0.017602947 -0.032379795 -0.042933818 0.068304785 0.06947707 0.06628266 0.0070542074
0.061756365 0.046555895 0.059692997 0.030948177 -0.030356804 0.058803275 -0.06556851 0.020478034
-0.02816087 0.030139353 -0.0011673393 -0.06315314 0.02556501 -0.061663747 -0.008051881 -0.013586711
0.040270444 -0.050934914 0.0005797651 0.0055371467 0.059149057 -0.03335382 -0.02466606 -0.06447034
0.049733322 -0.037916034 -0.069664426 -0.054779574 0.029324362 0.038436938 -0.05382363 0.014724067
-0.011823617 -0.068889216 0.0019513412 -0.036667544 0.06686478 -0.05904288 -0.062053096 0.009821488
0.062456373 0.06409835 -0.044078257 -0.027347272 0.021437 -0.039147258 0.008767159 0.045596678
-0.047352675 -0.054128386 0.01307372 0.031240448 0.024186488 -0.05005464 -0.043544095 0.02486128
-0.06222754 -0.060060363 -0.017779002 0.05608747 0.04570606 -0.053090494 0.02776181 0.043483984
-0.044067003 0.058909103 0.010477249 -0.0706965 0.04553506 0.012742281 0.026054934 -0.042626284
0.048082806 -0.0073583107 0.02244994 0.025270281 -0.04008827 0.030615276 0.060601797 -0.032594774
-0.027632544 -0.04013354 -0.016962066 0.03725316 -0.004465708 0.05819659 0.05506014 0.040519167
-0.053444088 0.053356294 0.06909043 -0.04788112 0.041106317 0.04851955 -0.008712124 0.044458807

backbone.model.1.1.model.0.bias f4 [8]
00000000: 0ed4 503d 9572 8b3d 8a46 363d f265 09bd
00000010: d988 1cbd 36f5 4ebc e177 373d 5cb1 283c
0.05098348 0.06808964 0.044500865 -0.03354449 -0.038216446 -0.012631705 0.04479206 0.010296192

backbone.model.2.0.model.0.weight f4 [8, 8, 3, 3]
00000000: 4f72 b5bd c57d aebd e984 45bd 77d2 b73d
00000010: 343a 7fbd cb3e cbbd 653e a23d 55cf c4bd
00000020: 703a bebd 452d cfbd 9d18 cfbd 2dae 623c
00000030: b3d1 f1bd 691d 353d edf4 ecbd 2251 a33d
00000040: d455 16bd f0fe 53bd eb6e de3d ab51 afbd
00000050: 3747 e8bc 3acb d1bd 11b0 91bd 83cd 81bd
00000060: 9cc0 da39 b17f 17bd 807a ecbc 9c0a 30bd
00000070: bcd3 853d ee14 ae3d 0fca 87bd bcbb 0f3c
00000080: a7b4 89bd de88 90bd ebd8 143d abe6 1cbd
00000090: 2631 d93c 40ad 66bc 333c 94bd 361d b23c
000000a0: 6f9c e63c 2425 9cbd 177b eabd 1cef 2e3d
000000b0: 7d8a 57bd 4994 43bd 7525 d5bd db2c a43d
000000c0: 6b19 113c 5dca d5bd a217 e43d ba2f e03c
000000d0: 57fd e3bd 7512 8fbd 9dce 603c c54d 973d
000000e0: d243 cb3c d54b e63c 231a c9bc 7db3 b5bd
000000f0: 5928 aa3b 211c a13d dc7f a93d a88a b5bb
00000100: 789a a5bd 5023 6bbd fc2a 053d cbab cf3c
00000110: 3e8e 90bc c85c 433d b944 a73d 03e1 143d
00000120: 353c 24bd 76b2 abbd e9fe 383c 96b5 adbd
00000130: fac8 f2bb 16a5 e83d 2e6f e5bb 8ec2 8f3d
00000140: e0c0 6d3d 6a01 3c3d 5245 923d 93fd b83d
00000150: 3c0e df3d 3d2b 19bd ebaa 0b3d 1b33 e1bd
00000160: 75f2 553d c077 5bbd 059c 113d 6251 d2bd
00000170: b692 34bc a76c c1bd 2f90 7abd 95d8 403d
00000180: 8d4b b93c 9e59 0abc b757 b33b 3e02 77bd
00000190: 4558 69bd 1473 c03d aa59 d33c e917 84bd
000001a0: 7b68 e9bd 8725 5abc 6f8e 22bd f085 e2bd
000001b0: 43d2 66bc 3ca8 163c c917 6fbd 34f5 edbc
000001c0: 6431 d4bd f6b1 d2bd 87a3 18bc c95e 8fbd
000001d0: 7175 d63d ebe8 b1bc 592e 56bd 7359 3dbc
000001e0: 233a c83c acac 483c ee24 e3bd efab 253d
000001f0: b190 6fbd 3a9c 803d 4dcb 183b 942d 13bd
00000200: 3e99 11bc cb24 cdbd 6f15 44bc 8703 8f3d
00000210: 5727 05bd b1af 1f3d e44e bf3d ed70 b7bd
00000220: 594b e73d b2ff 873c 055f a7bd b1d7 643d
00000230: 5a38 a5bb caec 743d 57aa f0bd 3dc2 6f3d
00000240: ad67 0a3d d7f7 fb3a 7e8e b73d 6d58 c6bd
00000250: 5e44 d23d 0f57 ab3d 6146 b53d e776 3bbd
00000260: b077 e6bc 22ab 23bd f841 dcbd 8311 493d
00000270: 193b 4c3d a5a2 d23d debf 143d 5037 ca3d
00000280: b56a f1bc 9f0d 323d fa1e f33c 2c97 803d
00000290: 581e 65bc 25f1 8e3d 6e14 ed3d 0f07 993d
000002a0: b43d 74bc 1687 37bc c8d3 973c c585 623d
000002b0: b5e5 ad3d 4c45 b0bd 4fad e83d e066 493d
000002c0: cbc1 8a3d 3630 e1bd e4d7 9c3d d853 6a3c
000002d0: fffb e13d 74c6 e93d 6993 a2bd cfed 833b
000002e0: 4f3b c4bd 94ad 233c c26a 72bd 9201 90bb
000002f0: 354d 803d fc7e d4bd a86a d9bc e5a6 c43d
00000300: 7fe2 78bd e737 d33d 5dbb 703c 123f 7d3d
00000310: ee44 d83d 6735 563d ef0b b5bd 5c6d 0e3d
00000320: 85c3 b13d 5e52 4abd 42d4 1fbd be86 123d
00000330: 2ead 20bc b3a4 c1bd 826f e63c 5e90 93bd
00000340: fbba a4bd 55eb c73d 108e 88bd 8765 b73c
00000350: 6f88 983d 8a9e ec3d eedb b7bd bf2e cb3d
00000360: e7cf 04bd 4c02 02bd 5bfb c1bd 669d fb3c
00000370: 7fb6 b23d 3f5d b4bb 43b5 83bc 0fe6 eeba
00000380: f23f 993d 81f7 1b3b 1fb8 043d bc34 ca3d
00000390: e467 debd ea14 f43d a415 18bd fd54 473b
000003a0: 1622 bb3d 0920 c73d f343 9bbd c0a1 a5bb
000003b0: c835 863d ea1a eebd 4610 043c 2e00 a2bc
000003c0: 7a8f c83d abea 8e3d 5fec f4bc dfd0 e53d
000003d0: bdfc 3bbd 5e69 ea3d 7e30 e33c b763 cf3c
000003e0: 4087 853d 4a67 dbbd 222a 31bc 4a1f a53d
000003f0: 7ebd be3d f0bb a2bc fe30 473d 4bb8 213c
-0.08859693 -0.085200824 -0.048222456 0.0897569 -0.062311366 -0.09924086 0.07922057 -0.09609858
-0.0928849 -0.10116056 -0.101121165 0.013835472 -0.11807575 0.0442175 -0.115701534 0.07974459
-0.036702946 -0.0517568 0.10861 -0.08560499 -0.02835427 -0.102438405 -0.0711366 -0.063380264
0.00041723705 -0.03698701 -0.028867006 -0.042978868 0.06534526 0.08500086 -0.066303365 0.008772787
-0.0672391 -0.07057355 0.03633968 -0.03830592 0.026512694 -0.014079392 -0.072380446 0.021742444
0.028150765 -0.076242715 -0.11449259 0.0427085 -0.052622307 -0.047748838 -0.10407535 0.08016368
0.008856158 -0.10438988 0.1113732 0.027366508 -0.11132305 -0.06985942 0.013721135 0.0738788
0.024812613 0.028112331 -0.024548596 -0.08872125 0.005192798 0.07866693 0.0827634 -0.0055402108
-0.08086103 -0.057406723 0.032511696 0.025350472 -0.017645951 0.047695905 0.08167405 0.0363474
-0.04009648 -0.08383648 0.011291244 -0.084819004 -0.007409212 0.11359613 -0.007001779 0.0701953
0.058045268 0.045899786 0.07142128 0.090327404 0.10891387 -0.03739475 0.034098547 -0.10996076
0.05223318 -0.053581 0.035549182 -0.10269429 -0.011021307 -0.09444552 -0.06117266 0.04708155
0.022619033 -0.008444218 0.005473103 -0.060304873 -0.056968946 0.093969494 0.025799591 -0.06449873
-0.11396881 -0.013314611 -0.039686617 -0.11060703 -0.014088216 0.009195384 -0.058372293 -0.029047586
-0.10360983 -0.102878496 -0.009316332 -0.07000501 0.10471619 -0.02171751 -0.052290294 -0.011556971
0.024441784 0.012248199 -0.11091028 0.04044717 -0.058487598 0.06279798 0.0023314536 -0.03593214
-0.008886633 -0.10016783 -0.011968001 0.06983095 -0.03250822 0.03898591 0.09341219 -0.08957086
0.11293668 0.016601417 -0.081724204 0.05586976 -0.005042118 0.059796132 -0.1175124 0.05853485
0.03379028 0.0019223642 0.08962725 -0.09684835 0.10266946 0.083662145 0.08851314 -0.04576769
-0.028133243 -0.039958127 -0.1075477 0.049088966 0.049861047 0.10284928 0.03631579 0.09873831
-0.029469827 0.04347002 0.029677857 0.06278834 -0.013984285 0.069795884 0.11576162 0.074720494
-0.014907289 -0.011201641 0.018533602 0.055303354 0.08491079 -0.08606967 0.11361181 0.049170375
0.06775244 -0.10995524 0.07658365 0.0143022165 0.110343926 0.11414805 -0.079382725 0.0040261517
-0.09581625 0.009990115 -0.059183843 -0.0043947184 0.06264726 -0.10375783 -0.026540115 0.09602145
-0.06076288 0.10313397 0.014693108 0.061827727 0.10560022 0.052297022 -0.08840167 0.034772262
0.086798705 -0.049394958 -0.039020784 0.03577303 -0.009806914 -0.09455242 0.028129343 -0.0720527
-0.08043476 0.09761683 -0.06667721 0.02238728 0.07447898 0.115536764 -0.08977495 0.099210255
-0.032424834 -0.03174047 -0.094717704 0.030714702 0.087262146 -0.00550428 -0.016077643 -0.0018226522
0.074829 0.0023798647 0.032402154 0.098733395 -0.10859659 0.119180515 -0.037130013 0.0030415647
0.09137361 0.09722907 -0.0758132 -0.0050546825 0.06553227 -0.11626227 0.0080605205 -0.019775476
0.09792991 0.06978353 -0.029897867 0.112214796 -0.045895327 0.114458784 0.027733084 0.025316102
0.065199375 -0.1071306 -0.010813268 0.080626085 0.093134865 -0.019865006 0.048630707 0.009870599

backbone.model.2.0.model.0.bias f4 [8]
00000000: 0366 e1ba 0920 90bd 9cb6 aa3d 5c5d e1bd
00000010: 788d e53d 97b9 debc df4f 16bd 8b56 ec3c
-0.001719654 -0.0703736 0.08335611 -0.11004135 0.11208624 -0.027188106 -0.036697265 0.02884986

backbone.model.2.1.model.0.weight f4 [8, 8, 3, 3]
00000000: d1c4 c8bd 2629 a5bd d413 b93d 6b95 89bc
00000010: 0c32 c23d 5aa9 24bd 9d39 aa3d 0f24 b33d
00000020: 1e8d b3bd 8831 8ebd 2867 e3ba 5daf 123c
00000030: c7e6 fc3b 410e c9bd 4a15 b23b 2bfe c93d
00000040: 7e1f 5c3d b738 543d 022c 01bd 0144 513d
00000050: 4080 b23c 2152 bbbd aa2a 08bb 1dc6 2e3d
00000060: 4c2c e73b b74d 8b3d 48ab e63c edbd d23c
00000070: 87b8 01bd 542c 96bd 0089 86bd 3cc7 7c3d
00000080: 6247 c5bc 0511 16bd e908 403d f39d aebd
00000090: f953 b73c 2d76 aebd fbb8 c93d 7f79 aebd
000000a0: 4b36 f2bc ffae 40bd f0aa b93d 8f8c 543d
000000b0: ec3d d93d 519a a6bd 26a8 dbbd 5301 2bbd
000000c0: 200b 23b8 7801 51bd 8283 833c 0889 8ebd
000000d0: 522f 36bd d83e 33bd 537e 5a3d dd18 e9bd
000000e0: bd4c 823d 5602 29bd 2e2d 493d 772f 843d
000000f0: 7f36 efbd cacd ae3c 23c5 ed3d f913 cebd
00000100: 19b6 2f3c 443b efbc bcbb 783d d496 dcbd
00000110: 411d 0fbd d5b3 e4bc 70f7 05bd 46f9 053d
00000120: cd46 9bbc 0745 0cbc 435c 7ebd e987 a2bc
00000130: 4818 a33d c106 bcbd 5e2b e7bd 720d 42bd
00000140: b6c6 a33d 0747 d03d 54cf 5f3d f7e0 eb3c
00000150: 671a 2fbd 5824 5c3d 0965 9d3c 8dad aa3d
00000160: fe4c 55bd b9d2 e63d c151 20bd ba15 acbc
00000170: c566 c33d 8729 153d a23b e3bc 5363 85bd
00000180: 747d 663d 1e48 0ebd 79cd ce3d dfe8 b43b
00000190: 283f 913c 7072 383d a2b3 b73d 899d a7bc
000001a0: 582b b03d 6019 e43c aad7 1cbd c62d c13d
000001b0: 78b6 7c3d 4bb6 d3bc 38b9 9c3c 2ee0 e33d
000001c0: 8c1a bb3d e930 99bd 0fea fdbc ff4a 0d3b
000001d0: a8b5 49bd a9df 63bd 90f6 9dbc 1188 dd3c
000001e0: d192 27bb 4ced eabc 0f83 f1bb 4ce0 5d3d
000001f0: dc20 41bd e726 26bd 9435 87bd 288a a2bc
00000200: 7224 453d df64 18bc 528b a43d 193c d2bd
00000210: 1aeb 91bc 6423 e3bd 6416 d3bd 8e6a aa3d
00000220: 8099 bb3d 99a8 c9bd 7393 b23d e0c0 563d
00000230: 3d19 58bb f2d1 153c 0049 d23d e666 063d
00000240: a4f1 efbd f8a7 f3bd ad13 9a3d 8170 63bd
00000250: 2010 d1bd 23b0 d4bd 0e85 513d de7a c9bd
00000260: 65bf d0bc b1d8 15bd 81d5 7abc d765 dabc
00000270: 44ce 6ebd 17df 0abd 47e9 92bc 962b 69bd
00000280: 92f8 e63c 32f3 2abc 9769 c4bd 3c4e dc3d
00000290: bc24 d13d 68db 60bd 7796 43bd 22fe 93bd
000002a0: c205 af3c 034d 0ebd d1e3 cdbd 01df b9bc
000002b0: dc9f 11bd 2e0e c63d e9cb 93bb 1b8b f33c
000002c0: 8e9b 9cbd f309 e53d f0eb 3e3d 4f04 74bc
000002d0: 335c 8b3d 2a6e 8f3d edc3 d53d 2967 8fbd
000002e0: a535 a93d f986 91ba 5803 96bd 51cd 67bd
000002f0: 8e76 70bd 09b2 e4bd 4586 9cbd 69d7 5b3c
00000300: bc6f a8bd 97b7 4d3d 4dd5 adbd f83d 4e3d
00000310: 15f1 98bd 830f 923d ee86 d73d 0fd7 c53d
00000320: 635d 1d3d 768a d4b9 e3bf ec3d cc95 963d
00000330: 30b1 93ba 6ca9 a63d d807 5ebd 6e8d d2bd
00000340: db2d 4d3d 0887 8b3d d3a7 0bbd 9b9c 84bd
00000350: 3e90 d9ba 7f23 7ebc 19d0 5cbd 8617 a6bd
00000360: 1968 babd 1648 41bd 2923 e2bd 62e4 8cbd
00000370: 5e9d 8e3d 55ba cc3c 44f7 5a3d fd07 97bd
00000380: 44f7 e83d af07 f23d 3424 163d 9b50 83bd
00000390: b88e 823d 8b31 eb3d 9fc2 75bd f74d 97bd
000003a0: 60ec bd3d 346a 413d 3256 eabd e5a3 cebd
000003b0: 966c 20bd d972 acbc a41b c33c cf55 dbbd
000003c0: c85a 6bbd 4817 003d 65ec 25bd 9813 debd
000003d0: e07d 073d 6b99 f4bc 2eb3 e63c 9689 813d
000003e0: 9917 b5bd 5c3b 89bd c38a 92bd 1fc7 283d
000003f0: 978d d4bc 0ac2 053b 14b1 d43b 3ea4 ec3d
-0.09803165 -0.08064489 0.09036985 -0.01679488 0.09482202 -0.04020057 0.0831177 0.08747112
-0.0876715 -0.06943041 -0.0017349469 0.008952943 0.0077179405 -0.09817172 0.0054346668 0.09862932
0.05374097 0.0518119 -0.03153611 0.051090244 0.02178967 -0.09146524 -0.0020777383 0.042669404
0.007054841 0.06801932 0.028157845 0.02572533 -0.03167012 -0.07332674 -0.065690994 0.061713442
-0.02408189 -0.036637325 0.046883497 -0.0852622 0.022378908 -0.08518634 0.09849735 -0.08519267
-0.029566905 -0.04704189 0.09065807 0.05189186 0.10607514 -0.08134902 -0.10725431 -0.04174931
-3.887259e-05 -0.05102679 0.016053919 -0.069597304 -0.044478722 -0.043761104 0.05334313 -0.113816954
0.06362293 -0.041261993 0.049115352 0.06454366 -0.11680316 0.021338362 0.116098665 -0.10062403
0.010724568 -0.029203065 0.060725912 -0.10770956 -0.034940008 -0.027917782 -0.032706678 0.03270843
-0.018954659 -0.008561379 -0.062099706 -0.019840198 0.07963616 -0.09180976 -0.112875685 -0.047376104
0.079968855 0.101697974 0.054641083 0.028793795 -0.04274979 0.053745598 0.019213216 0.083338834
-0.05207538 0.11270661 -0.039140467 -0.021006454 0.09541086 0.036416557 -0.027738396 -0.06513085
0.056271985 -0.034736745 0.100977845 0.0055209245 0.01773031 0.04503101 0.08969809 -0.02046086
0.08602017 0.027844131 -0.03829161 0.09432559 0.061697453 -0.02584376 0.019131288 0.11126743
0.09135923 -0.07480032 -0.030995397 0.0021559594 -0.049245507 -0.05563322 -0.01928261 0.02704242
-0.0025569687 -0.028677605 -0.0073703597 0.054168984 -0.047150478 -0.040564444 -0.06602016 -0.019841269
0.04813046 -0.009301393 0.08034386 -0.10265369 -0.0178123 -0.110907346 -0.10307005 0.08321105
0.09160137 -0.098466106 0.0871953 0.052430034 -0.0032974028 0.009144293 0.1026783 0.032812975
-0.11716011 -0.11897272 0.07523284 -0.055527214 -0.10208154 -0.10385158 0.05115228 -0.09837888
-0.025481889 -0.036583606 -0.015309692 -0.02665989 -0.05830218 -0.03390416 -0.0179335 -0.056926332
0.0281947 -0.010433959 -0.09590452 0.107571095 0.10212085 -0.054896742 -0.047750916 -0.07226206
0.02136505 -0.034741413 -0.10053218 -0.022689344 -0.035552844 0.09670673 -0.004510392 0.029729417
-0.07646857 0.11183538 0.046611726 -0.014893605 0.06804695 0.07003434 0.104377605 -0.07002098
0.08262185 -0.0011102847 -0.073248565 -0.05659229 -0.058706813 -0.1116677 -0.076427974 0.013418057
-0.08224437 0.050223913 -0.084879495 0.050352067 -0.07467858 0.07131865 0.10523783 0.0966016
0.03841914 -0.00040538952 0.11560037 0.0735279 -0.0011268016 0.081377834 -0.0542067 -0.10280882
0.05009256 0.068128645 -0.034095597 -0.064751826 -0.0016598774 -0.015511393 -0.053909395 -0.081099555
-0.09101886 -0.047187887 -0.110418625 -0.06879498 0.06963609 0.024991194 0.053458467 -0.073745705
0.11375287 0.11817872 0.03665562 -0.06411859 0.06374878 0.11484059 -0.06000006 -0.073879175
0.092736006 0.047220424 -0.11442222 -0.10089854 -0.039166056 -0.021050857 0.023816891 -0.10709726
-0.057459623 0.031272203 -0.040508647 -0.10843581 0.033079028 -0.029858312 0.028161611 0.063250706
-0.088423915 -0.06700775 -0.07155373 0.04120552 -0.025946422 0.0020409846 0.006490836 0.11554764

backbone.model.2.1.model.0.bias f4 [8]
00000000: 8ecf b43c 1a2d 683c 511f a03b 9dd7 0a3c
00000010: 089a 55bd 88ee 6f3d 42e9 cfbc 141e c4bd
0.022071626 0.014170909 0.0048865457 0.008474258 -0.05214885 0.05857709 -0.02537978 -0.095760494

backbone.model.3.0.model.0.weight f4 [16, 8, 3, 3]
00000000: 41e3 ba3d 7cc5 cebd 6f38 21bd c5b3 8f3d
00000010: 117d eabd d11c b8bc 68fd 61bd 49eb a4bd
00000020: ead0 f5bc 5028 4cba fbeb 913d bc9f ebbd
00000030: 2778 9f3d 6355 923d 37c1 be3d e0b0 b9bd
00000040: 5acf a0bd 7c1d de3d 21e8 8bbd 071b 64bd
00000050: 14f7 98bd c405 11bd ff4e 61bc 391a 8bbd
00000060: 9cc0 e9bd 4062 e93d 5113 6b3d 957c 3c3d
00000070: 1735 adbd 3b66 9b3c 9245 933c 7ee7 b33b
00000080: 1923 19bd 9527 8a3c faef df3d 2d66 cb3d
00000090: c194 ccbd 63a2 9f3d 2454 2e3d 2c5c c13c
000000a0: 563d c1bd 408e 4cbd 546a 713d 0417 e13c
000000b0: 42f4 ebbc 5ee1 bbbd c93e c8bd 88d5 443d
000000c0: 47ce 663d 8044 32bd 62c6 da3c 2583 613c
000000d0: 7fb5 573d 0d33 d2bd 80ac a43b 97fd ca3d
000000e0: 08ad 69bd 3a63 633d 12d7 a03c 65e6 e93d
000000f0: d797 3bbc d08b a6bd 7cd5 93bc 3265 5b3d
00000100: 29a2 82bd 5b67 e83d 9450 ecbd b516 32bd
00000110: 7d84 833c 7e53 00bc 71de 2a3d 752e aabd
00000120: 712c 733c 023a 8e3d 4b2d 89bd 86dd df3d
00000130: 6fa8 923c 2e56 643c 0e22 d4bc 2a79 823d
00000140: 648b bcbd b148 bfbd 636f f3bc 9d6e 7a3b
00000150: 8bf2 e93c 15b6 043d b7d2 9c3d 5f76 483d
00000160: d286 dbbd 27be e6bd d690 a93c fd2f 2d3d
00000170: f7d0 c0bd f5b0 05bd dd4f e93d 89d4 803d
00000180: e9e6 bb3d 4b4c 9fbb 0bdc 853d fe03 f23d
00000190: abd0 09bc a1d0 d9bc 4ba8 abbd d99d d83d
000001a0: a9be 95ba e5b0 bcbd b3cb ffbc 8928 39bd
000001b0: fe32 abbd a286 d1bd 8085 6e3d 9c0f e6bd
000001c0: 0a58 34bd ceed df3d 4693 e5bd 7d16 4bbc
000001d0: 377e 453d ce2d e03d fa6b 95bc da93 8c3d
000001e0: 5de2 313d 72fe 5f3d 67df 91bd 0ab1 bd3c
000001f0: 4bf6 a43d 6baa 4fbd 131c 74bd f747 c1bd
00000200: 3ef7 8a3c 42dd 373d 61f6 b33c f3b6 48bd
00000210: a690 d6bd a506 473d 6f5c 87bd bdf8 4e3d
00000220: 8297 f4bc b23d a63d 1e0b 833d 67f0 ec3d
00000230: 5250 af3c 4fcc 4c3c 654b c23d 8226 803d
00000240: 927d b0bd 3766 ea3d 7b2e 2bbd 7c02 553d
00000250: 340c afbc 1669 ac3d ed37 afbd 00bb 193d
00000260: 4038 043d 3d08 a53d d788 823d 2970 993b
00000270: 97d9 efbd 4fd6 a33d 51ed 2ebd 9c64 a5bd
00000280: bef0 703d 6b44 54bd e14c 033c 0581 763d
00000290: f4c5 7a3b e8b2 d73d 43db d6bd 240b 51bc
000002a0: fe4c d33d 2697 8ebd fd00 65bd b46c ed3c
000002b0: 04b0 69bd b7c9 b13c 0f21 c73d f31b ad3d
000002c0: 7b23 283d 53f4 6abd 1439 af3d 3d52 9e3d
000002d0: 0682 f9bc 46c4 cbbd 61ab a6bd 06d8 d83d
000002e0: 3ba1 5cbd d506 c13d 3226 cabd 5dd1 d9bd
000002f0: 1c1e 57bd 2f06 273d 82db 69bc 016c 9e3d
00000300: 06bb d7bd af98 c4bd a7aa 3fbc 73a6 733d
00000310: e064 e33d 1d72 613b d1b8 d13d 488f 813c
00000320: f801 713d f50e 4f3c 56f4 ea3c adf0 9e3c
00000330: 0e21 e33d 4498 9b3d b896 cc3d b445 2bbd
00000340: 33b1 603d 8b4c c0bd dfaa 523d a4e1 34bd
00000350: 120f 5c3c 35a4 843d f978 7fbc 5c28 b0bd
00000360: 9075 e83d 9a5d bcbd b6e0 213d 0522 d6bd
00000370: 00d6 873c 6f95 4d3c 5161 c1bd 6b89 10bc
00000380: faf4 ea3d 0997 58bd 0f38 903c 37d7 b63d
00000390: d891 8f3d ad96 db3b 3abd 7dbd 5e31 a83d
000003a0: b1a9 aebc d8ec c33d afd3 5c3d 9540 8e3d
000003b0: 3fd6 79bd e8f8 933d 2924 7dbd e651 843c
000003c0: 524e abbd 4670 963d 3458 723d 939d 9f3d
000003d0: b96f c6bd 8c24 e23d 75de f3bb 9fc8 ac3d
000003e0: af70 06bd d18b 85bc ddff cd3b e513 aabd
000003f0: 43d6 73bd a2b8 7a3d 3509 113d 5550 5cbd
0.091253765 -0.10096261 -0.03936046 0.0701671 -0.11449636 -0.022474678 -0.055173308 -0.080526896
-0.030006845 -0.00077879895 0.07125088 -0.11505076 0.07786589 0.071451925 0.093141966 -0.09066939
-0.07852049 0.108454674 -0.068313845 -0.055689838 -0.074690014 -0.03540589 -0.013751744 -0.06792111
-0.114136904 0.11395693 0.05739147 0.04601725 -0.08457392 0.018969646 0.01797751 0.0054902425
-0.037386987 0.016864577 0.10934444 0.09931598 -0.0998931 0.07794645 0.04256071 0.023603521
-0.09435527 -0.049940348 0.058939293 0.027476795 -0.028802995 -0.09173845 -0.097776 0.0480552
0.056349065 -0.043522358 0.026705924 0.013764177 0.052663323 -0.102636434 0.0050254464 0.0991165
-0.05704978 0.05551455 0.019633804 0.114208974 -0.011449776 -0.08132136 -0.018046133 0.053563304
-0.06378586 0.113478385 -0.115388066 -0.043478686 0.016054386 -0.007832406 0.041716043 -0.08309642
0.014842139 0.06944658 -0.06698092 0.10930924 0.017902581 0.013936562 -0.025895145 0.063707665
-0.09206274 -0.09340037 -0.0297162 0.0038212903 0.028558036 0.03240021 0.07657378 0.048941012
-0.10719074 -0.112667374 0.020698946 0.042282093 -0.09414857 -0.032639463 0.11392186 0.06290538
0.09174902 -0.0048613898 0.065361105 0.11817168 -0.008411567 -0.02658874 -0.08381709 0.10576982
-0.0011424619 -0.092134275 -0.031225061 -0.045204673 -0.08359335 -0.10230757 0.058232784 -0.11233446
-0.044029273 0.109340295 -0.11209731 -0.012395498 0.04821607 0.109462366 -0.018239964 0.06864138
0.043428767 0.054686017 -0.07122689 0.023155708 0.08054789 -0.050699633 -0.059597086 -0.09437554
0.016963597 0.044888742 0.021968069 -0.0490026 -0.10476808 0.04859032 -0.06609427 0.050530184
-0.0298574 0.08117236 0.06398605 0.115692906 0.021400604 0.012499883 0.094870366 0.06257345
-0.08617701 0.11445277 -0.041792374 0.052004322 -0.021368124 0.08418481 -0.08555589 0.037531853
0.032280207 0.08058212 0.063737564 0.00468256 -0.11711424 0.079998605 -0.04270679 -0.0807583
0.05882334 -0.05182306 0.008013935 0.060181636 0.0038264962 0.105321705 -0.104910396 -0.012759004
0.103174195 -0.06962423 -0.055909146 0.028982498 -0.057052627 0.02170263 0.09723102 0.084525965
0.04104946 -0.057361912 0.08555809 0.077305295 -0.030457508 -0.099495456 -0.08138157 0.10588078
-0.0538647 0.09425131 -0.098705664 -0.10635636 -0.05251895 0.04077738 -0.014273526 0.07735444
-0.10533719 -0.095994346 -0.0116984015 0.05948491 0.11103225 0.0034400292 0.10240329 0.015815392
0.05883977 0.012637843 0.028680962 0.019401873 0.11090289 0.07597402 0.09989685 -0.04181452
0.05485649 -0.093895994 0.051432487 -0.0441605 0.013431327 0.064766325 -0.015592807 -0.08601448
0.11350548 -0.091975406 0.03952094 -0.104557075 0.016581535 0.012547835 -0.0944239 -0.0088218255
0.11472507 -0.052878413 0.017604856 0.08927768 0.07010239 0.0067013116 -0.06194804 0.08212541
-0.02132115 0.09566659 0.053912815 0.06945912 -0.060995337 0.072252095 -0.061802063 0.016152333
-0.08364548 0.07345633 0.05916615 0.07793727 -0.09689278 0.11042127 -0.0074422904 0.08436703
-0.032822307 -0.016302021 0.006286605 -0.08304576 -0.059530508 0.061211236 0.03540917 -0.053787548

backbone.model.3.0.model.0.bias f4 [16]
00000000: 5bcf 8dbd 3004 9dbd 09f6 91bd 22ef 18bd
00000010: 1091 093d f855 35bd 0394 97bd ab4f 713d
00000020: 39fc 4bbd 62a4 df3d 4f40 e7bc 6b4e d93d
00000030: 83b6 db3d 8bfc c5bd f2b3 6bbd c871 1fbd
-0.069243155 -0.07666814 -0.071270056 -0.03733743 0.033585608 -0.04427144 -0.07401278 0.058913868
-0.049801085 0.109200254 -0.028228907 0.1061066 0.10728171 -0.096673094 -0.057544656 -0.03892687
