software/logs/hyper_parameter_tuning/custom_model_hp/version_15/checkpoints/epoch=0-step=20.ckpt (torch, 195567 bytes, 54 tensors)

backbone.model.0.0.model.0.weight f4 [4, 2, 5, 5]
0	0xbe03a69a	-0.12856522
1	0x3db3b229	0.08774216
2	0x3dedbd03	0.11608317
3	0x3d44a751	0.048011128
4	0x3e0980af	0.13427995
5	0xbdcdf832	-0.10057105
6	0x3be5288d	0.0069933594
7	0xbe062b7a	-0.13102522
8	0x3dda1cfd	0.1065006
9	0xbde6db6e	-0.11272322
10	0xbde06022	-0.10955836
11	0xbd588225	-0.05285849
12	0x3dd572df	0.104223005
13	0x3d8dea19	0.06929416
14	0xbd03de0a	-0.032194175
15	0x3e00ccc8	0.12578118
16	0x3c967f36	0.018371206
17	0x3ac8f887	0.0015332856
18	0x3d68af04	0.056807533
19	0xbd76fbac	-0.060298607
20	0x3d47b142	0.04875303
21	0x3dd6d41c	0.104896754
22	0xbd9c00b2	-0.0761732
23	0xbdc25df1	-0.09490574
24	0xbdfa42cb	-0.12219771
25	0xbd6963a9	-0.05697981
26	0xbd5a9eec	-0.053374216
27	0x3da7d62c	0.08195147
28	0xbd422067	-0.047394183
29	0xbddf7e27	-0.109127335
30	0x3daf4749	0.085585184
31	0x3c5f5b8e	0.013632668
32	0x3d9c1d57	0.07622784
33	0x3d128c4b	0.035778325
34	0xbda2e334	-0.07953492
35	0xbe093d8e	-0.13402387
36	0x3e0d80f8	0.13818729
37	0xbcd7fa19	-0.026364373
38	0x3cf9324b	0.03041949
39	0xbde1339f	-0.10996174
40	0x3ccad444	0.02475942
41	0xbdfbd9dc	-0.12297413
42	0xbdb2be62	-0.08727719
43	0xbdf9577a	-0.12174888
44	0xbdcea12f	-0.10089337
45	0xbb28c635	-0.0025752906
46	0xbb1270d3	-0.002234508
47	0xbdc654d1	-0.09684146
48	0x3df05691	0.11735261
49	0xbe0f3523	-0.13985114
50	0xbd2a4e6c	-0.041578695
51	0x3da28446	0.079353854
52	0x3d1d454d	0.03839617
53	0xbd4d8920	-0.0501796
54	0xbd1ac149	-0.037781987
55	0xbdff0cf2	-0.12453641
56	0xbcd48457	-0.02594201
57	0x3e01fc94	0.12694007
58	0x3c7d8231	0.015472935
59	0xbdf7b603	-0.12095263
60	0x3d80c6eb	0.062879406
61	0xbd9272fd	-0.071508385
62	0xbe020e2a	-0.12700716
63	0x3ccddf13	0.025130784
64	0x3d8d93a5	0.069129266
65	0x3d9f750e	0.07785998
66	0xbd56f25d	-0.05247723
67	0x3d6da78a	0.058021106
68	0xbd88bc4e	-0.06676541
69	0x3dfbc5e0	0.12293601
70	0xbdc729db	-0.0972478
71	0xbd0061b5	-0.03134318
72	0xbde1d81f	-0.1102755
73	0x3bbf03d5	0.0058293142
74	0xbc55cf71	-0.013049946
75	0x3db27f5d	0.08715699
76	0xbdcc389d	-0.099717356
77	0x3d7b3191	0.061326567
78	0xbc220786	-0.009889489
79	0xbbed758c	-0.0072466787
80	0xbd8c1aa4	-0.06841019
81	0x3ddb5ee7	0.107114606
82	0x3c97afcc	0.018516444
83	0xbd6c0dab	-0.057630222
84	0x3dbe010c	0.092775434
85	0xbd2d154b	-0.042256635
86	0x3e02272e	0.12710258
87	0xbe08a8c2	-0.13345626
88	0xbd130aba	-0.0358989
89	0xbdecd305	-0.11563686
90	0x3c518377	0.012787691
91	0xbe0026f1	-0.12514855
92	0xbd2e7cd2	-0.042599507
93	0xbd46e168	-0.048554808
94	0xbb8c18be	-0.0042754104
95	0xbd51cf1c	-0.051222906
96	0xbd414291	-0.047182623
97	0xbd9eee5f	-0.077603094
98	0x3d6149c1	0.055001978
99	0xbcc2e2f2	-0.023789857
100	0xbd87df17	-0.06634348
101	0x3e09a89f	0.1344323
102	0xbde3ae9f	-0.11117291
103	0xbd8aeba8	-0.06783229
104	0xbac4165c	-0.0014960277
105	0x3e034f95	0.12823327
106	0x3dc6d4e1	0.09708572
107	0xbc16257a	-0.009164209
108	0x3d6499c0	0.05581069
109	0x3dcb5b5c	0.09929535
110	0xbde16934	-0.11006394
111	0xbd79def3	-0.061003637
112	0x3e102e89	0.14080252
113	0xbd7735c7	-0.06035402
114	0xbd9e3155	-0.07724253
115	0x3e03671c	0.12832302
116	0xbcc3c2c8	-0.02389659
117	0xbd16f37e	-0.036853306
118	0xbd844484	-0.06458381
119	0x3c466e45	0.012111251
120	0x3e0ddeee	0.13854572
121	0x3da30990	0.07960808
122	0xbdf8b644	-0.121441394
123	0x3b485c66	0.0030572652
124	0x3d04a3cd	0.032382775
125	0xbe078ceb	-0.1323735
126	0xbd353eeb	-0.044249456
127	0xbd077445	-0.033069868
128	0xbdb1ad00	-0.08675575
129	0xbc7fd0e9	-0.015613773
130	0xbb9182ab	-0.0044406257
131	0xbd07483c	-0.033027872
132	0x3dbb21a6	0.09137277
133	0x3dd1c346	0.102423236
134	0xbc466ced	-0.012110931
135	0xbd30b320	-0.043139577
136	0x3e0ebe23	0.13939719
137	0xbdfba382	-0.12287046
138	0xbcc77ccf	-0.024351506
139	0x3d9d383a	0.0767674
140	0x3d9f8e28	0.07790786
141	0x3c83c147	0.016083373
142	0x3dfa1967	0.12211876
143	0x3dde0988	0.10841662
144	0xb9cd9be6	-0.000392168
145	0xbde7730b	-0.113012396
146	0xbddc2ee3	-0.107511304
147	0x3dc44add	0.095845915
148	0xbdeb95b0	-0.1150316
149	0x3e0ff161	0.14056922
150	0x3e0a5d7f	0.13512228
151	0x3de14585	0.10999588
152	0x3ddf8fb7	0.10916083
153	0x3d52b737	0.05144426
154	0x3d876ea4	0.066129
155	0xbdec3544	-0.11533597
156	0xbd5e2d4e	-0.054242425
157	0xbb6a40e1	-0.0035744237
158	0x3d0f14f2	0.034932084
159	0x3ddd0c63	0.10793378
160	0x3b4ba34f	0.0031072681
161	0x3da56b15	0.08077065
162	0xbd15b8c7	-0.03655317
163	0x3db4c0c7	0.08825832
164	0x3d10d044	0.035354868
165	0x3d8e9560	0.06962085
166	0x3d232f92	0.03984029
167	0xbd8086ef	-0.062757365
168	0xbd387239	-0.045030806
169	0xbd40897b	-0.04700611
170	0x3c78ec9c	0.015193131
171	0x3e0cb2e7	0.13740121
172	0x3da92594	0.082591206
173	0xbdef218b	-0.1167632
174	0xbdb2e7b5	-0.08735601
175	0x3d23c97d	0.039987076
176	0xbde10035	-0.109863676
177	0xbd7cf904	-0.061760917
178	0x3cf302f0	0.029664487
179	0x3df6904c	0.12039241
180	0xbdf41c6c	-0.119194835
181	0x3d16c305	0.03680708
182	0xbdaf4f91	-0.08560098
183	0x3d0ed5b7	0.034871783
184	0xbddd61e1	-0.108096845
185	0xbdc65604	-0.09684375
186	0x3ddc472f	0.10755765
187	0x3ca0292a	0.019550879
188	0xbd3e661c	-0.046484098
189	0x3cb87087	0.022514595
190	0x3d8f8b0f	0.07008945
191	0xbdc2d7f1	-0.09513844
192	0xbb2eb23e	-0.0026656534
193	0x3de26a99	0.11055488
194	0x3dcc70b7	0.09982436
195	0xbcb314eb	-0.02186056
196	0xbdad717e	-0.084689125
197	0x3da90618	0.082531154
198	0xbd7f1a9a	-0.06228123
199	0x3dd663d2	0.10468258

backbone.model.0.0.model.0.bias f4 [4]
0	0xbdfdfed0	-0.12402117
1	0x3d0e4f86	0.03474381
2	0xbe0e953f	-0.1392412
3	0xbcf02c6c	-0.029318057

backbone.model.0.1.model.0.weight f4 [4, 4, 5, 5]
0	0x3c6ce2e7	0.014458395
1	0xbda73027	-0.08163481
2	0x3d99f0c0	0.075166225
3	0xbd600027	-0.054687645
4	0x3c974e7a	0.018470038
5	0xbdba5428	-0.09098083
6	0xbd803690	-0.06260407
7	0x3bf19d00	0.007373452
8	0x3d0d78ca	0.03453902
9	0xbd98a277	-0.07452863
10	0x3dc00158	0.09375256
11	0xbd47b2ca	-0.04875449
12	0x3d328cc0	0.04359126
13	0x3cba7fd3	0.02276603
14	0xbcd46287	-0.025925888
15	0x3d345b43	0.044032346
16	0xbdc30305	-0.0952206
17	0xbd7370e0	-0.059433818
18	0xbcc51dcd	-0.024062062
19	0xbd4d546d	-0.050129343
20	0xbd32117a	-0.0434737
21	0x3c04a9b3	0.0080971
22	0x3da069d5	0.07832686
23	0xbd5896dd	-0.05287825
24	0x3d8c450b	0.068491064
25	0x3da0a6ad	0.07844291
26	0xbcfc8bc7	-0.03082837
27	0xbd685b43	-0.05672766
28	0x3d12dcb7	0.03585502
29	0xbc4ab8b3	-0.012373137
30	0xbd6f1b23	-0.05837549
31	0xbcc8e34d	-0.024522448
32	0x3c9e7187	0.019341243
33	0xbcce95d3	-0.025217926
34	0x3cb3a913	0.021931207
35	0x3c15291a	0.009104038
36	0xbd186e03	-0.03721429
37	0xba664e67	-0.00087854866
38	0xbd0425d0	-0.032262623
39	0x3dc59925	0.096483506
40	0x3d714523	0.058903825
41	0xbaf19267	-0.0018430472
42	0xbd9d8c30	-0.07692754
43	0x3c8a5d00	0.016890049
44	0x3d854f87	0.06509309
45	0xbcef8bc7	-0.029241456
46	0x3d95792d	0.07298503
47	0x3cd68eba	0.026191104
48	0x3d36744d	0.044544507
49	0xbd96caf7	-0.07362931
50	0x3d5fd930	0.054650486
51	0xbc64f7cd	-0.013975096
52	0x3b8ee24d	0.0043604732
53	0xbce88ad3	-0.028386509
54	0xbb9bcfe7	-0.0047550085
55	0x3c011940	0.007879555
56	0xbd0a3063	-0.03373755
57	0x3d9793bb	0.07401224
58	0x3d8e36fb	0.069440804
59	0xbd9f27b3	-0.07771244
60	0x3db7cd4a	0.08974703
61	0x3d31c2d7	0.043398704
62	0x3d37de97	0.044890013
63	0x3d91ae5a	0.07113333
64	0x3dcb0fd2	0.09915127
65	0xbdb5033d	-0.08838508
66	0x3d47cda3	0.048780095
67	0xbb520233	-0.0032044768
68	0xbd1fdc3d	-0.039028395
69	0xbc8d41ba	-0.017243255
70	0xbdc6ded2	-0.09710468
71	0x3d398140	0.045289278
72	0xbdbb24ad	-0.09137855
73	0x3d554747	0.05206993
74	0x3da83d85	0.08214859
75	0xbc84a520	-0.016192019
76	0x3c9b79c7	0.018978966
77	0x3db53bf8	0.08849329
78	0xbd5ba39d	-0.05362283
79	0x3da622cb	0.08112105
80	0x3d5288b7	0.051399913
81	0xbda125b2	-0.07868518
82	0x3da72e3d	0.08163116
83	0xbdbccf73	-0.09219255
84	0xbd9cd635	-0.07658044
85	0x3cb0b787	0.021571888
86	0x3d092567	0.033482935
87	0xbd689603	-0.056783687
88	0x3db7bc53	0.08971467
89	0xbbb9c9b3	-0.0056697964
90	0x3cf32e60	0.0296852
91	0xbcdd85fa	-0.027041424
92	0x3dc34be3	0.095359586
93	0xbd58b07d	-0.052902687
94	0x3d874e22	0.066066995
95	0x3d86e277	0.065861635
96	0x3d94b7c7	0.07261615
97	0xbc049d1a	-0.008094097
98	0x3c873293	0.016503608
99	0xbd7e7e43	-0.06213213
100	0xbd7b2947	-0.061318662
101	0xbd8c03e5	-0.0683668
102	0xbd78125d	-0.060564388
103	0xbd9bf06f	-0.076142184
104	0xbc67f440	-0.014157355
105	0xbd44e5d7	-0.048070755
106	0xbc4b5d73	-0.012412417
107	0xbdc8d58a	-0.09806354
108	0xbc061bf3	-0.008185375
109	0xbd9c306d	-0.07626424
110	0xbd6df660	-0.05809629
111	0x3d9ca19b	0.07648011
112	0xbd21f97a	-0.03954456
113	0x39ae219a	0.000332129
114	0xbd41b300	-0.04728985
115	0xbc8d6ec0	-0.017264724
116	0x3d4665bd	0.04843687
117	0xbd4f0be7	-0.05054846
118	0x3d23587a	0.0398793
119	0x3db6a0c2	0.08917381
120	0x3d878bf3	0.0661849
121	0xbcc714ad	-0.024301851
122	0xbc3b2a5a	-0.011423672
123	0xbc40938d	-0.011753929
124	0xbcc502d3	-0.024049198
125	0x3cb56287	0.022141708
126	0x3d0bcef3	0.03413291
127	0x3d8de2fa	0.06928058
128	0x3d12ccfd	0.035840023
129	0x3ce633da	0.028100897
130	0xbb865d4d	-0.004100478
131	0xbb1e3367	-0.0024139525
132	0x3d2c953a	0.0421345
133	0xbda110fd	-0.078645684
134	0x3c8b5847	0.017009867
135	0xbdbe59a8	-0.09294444
136	0xbd25175a	-0.040305473
137	0x3dbc990f	0.09208881
138	0xbab6aecd	-0.0013937593
139	0xbd7f8f87	-0.062392738
140	0xbc0df9c0	-0.008665502
141	0x3c9348a0	0.017978966
142	0x3d2a4b7a	0.041575886
143	0x3cf4b03a	0.029869188
144	0x3b01c200	0.001979947
145	0xbdadf25a	-0.084934905
146	0xbda9e3ca	-0.082954004
147	0x3d36d6c7	0.04463842
148	0x3da6f1f5	0.081516184
149	0xbd822943	-0.06355526
150	0x3d439653	0.047750782
151	0x3c48791a	0.012235904
152	0xbd071610	-0.032980025
153	0x3da27b53	0.079336785
154	0x3d92fb35	0.0717682
155	0x3a930f9a	0.001121986
156	0x3d550cb7	0.05201408
157	0xbd90d62b	-0.07072099
158	0xbd06c807	-0.032905605
159	0x3ca325a7	0.019915415
160	0xbda573df	-0.08078741
161	0xbd98602d	-0.07440219
162	0x3c81b9c0	0.015835643
163	0x3dca97c8	0.09892231
164	0x3cf11087	0.029426826
165	0x3c0a9300	0.008457899
166	0x3daafba7	0.0834878
167	0x3b114f33	0.002217245
168	0xbd637aea	-0.05553714
169	0x3d49e580	0.049291134
170	0x3db97f00	0.090574265
171	0xbd0195b0	-0.031636894
172	0xbcd2ab93	-0.025716579
173	0x3a11dc00	0.00055640936
174	0x3dbc9690	0.09208405
175	0xbb96d39a	-0.0046028616
176	0x3d2dc32d	0.042422462
177	0x3dc892ad	0.09793601
178	0x3dba258d	0.090891935
179	0x3d93a8ad	0.07209907
180	0xbda107f5	-0.07862846
181	0xbd8d1103	-0.0688801
182	0x3d8ece92	0.06972994
183	0xbc94690d	-0.018116498
184	0xbd70e413	-0.05881126
185	0xbda26752	-0.07929863
186	0xbb72e7cd	-0.0037064434
187	0xbd8d9f42	-0.06915142
188	0xbd988f75	-0.07449237
189	0xbcd60ec0	-0.02613008
190	0x3cb1c380	0.021699667
191	0xbd84d5cf	-0.06486093
192	0x3db28520	0.08716798
193	0xbdace9ca	-0.08443029
194	0x3d22418d	0.039613295
195	0x3ca87800	0.020565033
196	0x3d29855a	0.04138694
197	0x3d7aa83a	0.06119559
198	0xbcc33fa7	-0.023834063
199	0xbdbacedb	-0.09121486
200	0x3d901200	0.07034683
201	0xbc9c6567	-0.019091321
202	0x3db04c58	0.086083114
203	0x3d8afa10	0.06785977
204	0x3d56ffaa	0.052489914
205	0x3c9ec493	0.019380843
206	0xbcc8f24d	-0.0245296
207	0xbd497820	-0.049186826
208	0x3c0f3d5a	0.008742655
209	0xbd8d7b3f	-0.06908273
210	0x3cceed53	0.02525965
211	0xbd3bad47	-0.045819547
212	0xbc1e8e67	-0.009677506
213	0x3d3e9850	0.046531975
214	0xbdaf4517	-0.085581
215	0xbd8616f3	-0.06547346
216	0xbcb1efda	-0.021720815
217	0x3d8ae9ca	0.06782873
218	0x3d0173c3	0.03160454
219	0x3dcc98c7	0.099900775
220	0x3d797450	0.06090194
221	0x3d99dec8	0.07513195
222	0xbce0a400	-0.027421951
223	0x3d5cf010	0.05393988
224	0x3cf13080	0.029442072
225	0xbb249333	-0.0025112152
226	0x3d100ca0	0.03516829
227	0x3db05ed7	0.08611839
228	0xbd19fe73	-0.037596177
229	0x3d3c41ea	0.045961298
230	0xbc5f60da	-0.013633931
231	0x3d3a2540	0.04544568
232	0x3cadb6d3	0.021205341
233	0x3d8c70f3	0.06857481
234	0x3d38037d	0.0449252
235	0x3d2850dd	0.041092742
236	0x3d9b8003	0.07592776
237	0x3d0f1b7d	0.034938324
238	0x3d754583	0.059880745
239	0x3da3ebc3	0.08003952
240	0xbcd09800	-0.025463104
241	0x3d403690	0.046927035
242	0xbcaf5227	-0.021401478
243	0x3db8b75d	0.09019349
244	0xbd1e0677	-0.038580384
245	0xbdc0fe20	-0.094234705
246	0x3cedb307	0.029016031
247	0x3d9458af	0.072434776
248	0x3bb03533	0.0053774356
249	0x3d62f4fa	0.05540941
250	0xbd857ce3	-0.06517961
251	0xbd2b0d0d	-0.041760493
252	0x3dc9b4b8	0.098489225
253	0x3dba5403	0.09098055
254	0xbcb3a280	-0.021928072
255	0xbc172fda	-0.009227717

backbone.model.0.1.model.0.bias f4 [4]
0	0xbdbef3c5	-0.09323839
1	0xbda7b77f	-0.08189296
2	0xbdab9a47	-0.083790354
3	0x3ce52ad3	0.027974522

backbone.model.1.0.model.0.weight f4 [8, 4, 5, 5]
0	0xbd9b5d43	-0.07586148
1	0xbc13dcb3	-0.009024787
2	0x3d59fc3a	0.053219058
3	0xbd155310	-0.036456168
4	0x3d8cbea7	0.068723015
5	0xbd381f1a	-0.044951536
6	0xbdc1061f	-0.09424996
7	0xbd911a00	-0.07085037
8	0xbd94b25b	-0.07260581
9	0xbcfedfe7	-0.031112624
10	0x3d4332d0	0.04765588
11	0xbcbb385a	-0.022854019
12	0xbc885280	-0.016640902
13	0x3d8ef0d5	0.06979529
14	0x3ca0bd80	0.01962161
15	0xbd6fe44a	-0.058567323
16	0xbcaf3480	-0.021387339
17	0xbd97b08f	-0.07406723
18	0x3d1a086d	0.03760569
19	0x3b9ccf4d	0.0047854544
20	0xbdbd9d07	-0.09258466
21	0x3cf77c80	0.030210733
22	0xbdaf06a2	-0.08546187
23	0xbd00bb6a	-0.031428732
24	0xbd2223a0	-0.039584756
25	0x3dbf7dfa	0.093502
26	0x3dbc611a	0.09198208
27	0x3c1b45e7	0.009477115
28	0x3c860f60	0.016364753
29	0xbc4536e7	-0.0120370155
30	0x3d1b3980	0.037896633
31	0x3d1449b7	0.036203112
32	0x3d7303ea	0.059329905
33	0x3c20580d	0.009786618
34	0x3da0cd5a	0.07851668
35	0x3c0f450d	0.00874449
36	0x3db28797	0.08717268
37	0xbdaa3b7b	-0.08312126
38	0x3d991faa	0.074767426
39	0x3c954f73	0.01822636
40	0xbb2a8733	-0.0026020526
41	0xbd4537d0	-0.04814893
42	0x3d03c4c0	0.032170057
43	0x3d009dca	0.03140048
44	0xbb26b6cd	-0.0025438548
45	0xbdabb26b	-0.0838364
46	0xbcc62347	-0.024186743
47	0x3cff68d3	0.031177914
48	0xbc126d40	-0.00893718
49	0xbda68e95	-0.08132664
50	0x3db430e0	0.08798385
51	0xbd9a9afa	-0.07549091
52	0xbb8a2933	-0.004216337
53	0xbdbf1f8f	-0.09332191
54	0xbca071e0	-0.01958555
55	0xbc0ea18d	-0.008705509
56	0x3da56a8b	0.08076962
57	0xbbb76ae7	-0.0055974605
58	0x3cce3d67	0.025175763
59	0x3ca9657a	0.02067827
60	0x3d44c250	0.048036873
61	0x3cdf00e7	0.02722211
62	0x3b92e300	0.004482627
63	0xbc7f77c0	-0.0155925155
64	0x3c386ce7	0.011256433
65	0x3b95c91a	0.0045710923
66	0x3d626b20	0.055277944
67	0xbd05277d	-0.032508362
68	0xbc50714d	-0.0127223255
69	0xbcf421ed	-0.029801333
70	0x3d917815	0.07102982
71	0xbc7b77cd	-0.015348387
72	0xbcff192d	-0.031139934
73	0x3d76a937	0.06021997
74	0x3d95ac82	0.07308294
75	0x3dac6bea	0.084190205
76	0xbc2a53f3	-0.010395992
77	0x3d83f7f7	0.0644378
78	0xbdc450a2	-0.09585692
79	0xbd8c3bc3	-0.06847336
80	0x3c326e40	0.010890543
81	0x3ceec673	0.029147362
82	0xbce805f3	-0.02832315
83	0xbd008a87	-0.03138211
84	0x3dc0c547	0.09412628
85	0xbd88f93f	-0.06688165
86	0xbc5cd027	-0.013477362
87	0xbdbe5bf2	-0.09294881
88	0x3dc31b62	0.09526707
89	0xbd0c45ed	-0.034246374
90	0x3d104023	0.035217416
91	0x3db5371d	0.08848403
92	0x3c69769a	0.014249468
93	0x3d6fa5c3	0.058507692
94	0x3c9dcc93	0.019262588
95	0x3d7bc4aa	0.06146685
96	0xbdb927cf	-0.09040796
97	0xbd49a62d	-0.049230743
98	0x3b981667	0.0046413424
99	0x3c2925a7	0.010323918
100	0xbdb7b88a	-0.08970745
101	0x3d9d092f	0.07667767
102	0x3d8a9948	0.06767517
103	0x3d7c8af3	0.06165595
104	0x3d364733	0.044501495
105	0x3d938a67	0.072041325
106	0x3d4a3867	0.049370196
107	0xbd8957a3	-0.067061685
108	0xbd1cb570	-0.03825897
109	0xbdbbbaa8	-0.09166461
110	0x3da39538	0.079874456
111	0xbb6b359a	-0.0035890103
112	0x3dc29848	0.095017016
113	0x3d40ad9d	0.04704057
114	0x3d4b3a4a	0.049616136
115	0xbdc1d060	-0.094635725
116	0x3c7a07f3	0.015260684
117	0x3db2711a	0.08712979
118	0xbd0c1d7d	-0.03420781
119	0xbdb5f38f	-0.08884346
120	0xbcae6307	-0.021287454
121	0x3d930cb2	0.07180156
122	0x3cb7d4a0	0.022440255
123	0x3db9f8ad	0.09080634
124	0x3d669fe7	0.05630484
125	0xbd8c8c38	-0.06862682
126	0x3a248800	0.0006276369
127	0x3d8b426d	0.06799779
128	0x3dad5675	0.08463756
129	0xbdc063ab	-0.0939401
130	0x3d746be3	0.0596732
131	0xbd6113e7	-0.05495062
132	0x3c41a240	0.011818469
133	0x3d3b037a	0.045657612
134	0x3d07efb7	0.033187594
135	0xbc539ea7	-0.012916244
136	0xbdc24473	-0.09485712
137	0x3d3e0cf7	0.046399083
138	0xbc94ae07	-0.018149389
139	0x3c670af3	0.014101732
140	0xbc94920d	-0.018136049
141	0xbd09e117	-0.033661928
142	0xbd3109f3	-0.04322238
143	0xbcf173a0	-0.02947408
144	0xbd82d4c5	-0.06388239
145	0xbda67e5d	-0.08129571
146	0xbd62c383	-0.055362236
147	0x3d0b1dc3	0.03396393
148	0xbd3a283d	-0.04544853
149	0xbd2adfa0	-0.04171717
150	0xbcefb353	-0.029260313
151	0xbdb8e4c2	-0.09028007
152	0x3dae12d5	0.08499686
153	0xbd80e12a	-0.06292947
154	0xbdaa6fe0	-0.0832212
155	0xbdc889ca	-0.09791906
156	0xbd9dbd50	-0.07702124
157	0x3ceabf2d	0.028655613
158	0x3dba4920	0.09095979
159	0x3d9a02ea	0.07520087
160	0x3bc91667	0.006136704
161	0xbdc6d303	-0.09708216
162	0xbd2e4be3	-0.04255284
163	0x3d0a8120	0.03381455
164	0xbcd21dc7	-0.025648965
165	0xbcce2560	-0.025164306
166	0x3da9eeab	0.082974754
167	0x3d479c30	0.048732936
168	0x3d7d02bd	0.06177019
169	0x3cecf4c0	0.0289253
170	0x3d87d620	0.06632638
171	0x3d554c6d	0.05207484
172	0x3c99d47a	0.018778075
173	0xbd46be0d	-0.04852109
174	0x3c025a00	0.007956028
175	0xbdbe3fc5	-0.09289507
176	0x3dba52f5	0.09097854
177	0xbd28fb7d	-0.041255463
178	0xbd3fbb30	-0.046809375
179	0xbd7e695a	-0.06211219
180	0x3d9c64a2	0.07636382
181	0xbd5c4fb3	-0.053786945
182	0x3c7f4bda	0.015582049
183	0xba684e67	-0.00088617805
184	0x3cd49d60	0.025953948
185	0x3d8107fb	0.0630035
186	0x3cf724c0	0.030168891
187	0xbd370297	-0.044680204
188	0xbd9e9bbd	-0.077445485
189	0x3d0f7ac3	0.035029184
190	0xbd80d6c7	-0.062909655
191	0x3d3c1fdd	0.045928825
192	0x3d64b22a	0.055833973
193	0x3d93d173	0.07217684
194	0xbd1a9e30	-0.037748516
195	0xbd3c0280	-0.04590082
196	0xbd0e3d6a	-0.034726538
197	0xbc35a440	-0.0110865235
198	0xbc21a25a	-0.009865368
199	0xbd42e547	-0.047581937
200	0x3d83668a	0.06416042
201	0x3d91be6b	0.071163975
202	0xbd9b8c03	-0.075950645
203	0xbd0b6b4d	-0.034037877
204	0x3b858780	0.0040749907
205	0xbc93840d	-0.018007303
206	0xbda11a7b	-0.07866379
207	0x3dc71603	0.09720995
208	0xbd706620	-0.058691144
209	0xbd3b66d7	-0.045752373
210	0xbcd46fe7	-0.025932265
211	0xbd69aaea	-0.057047762
212	0x3c34de5a	0.011039341
213	0x3d9daf3d	0.0769944
214	0xbd3d4103	-0.046204578
215	0x3db0f017	0.086395435
216	0x3d8ded12	0.06929983
217	0xbd542910	-0.051796973
218	0xbce2f9da	-0.02770703
219	0x3d716e40	0.058943033
220	0x3d2994dd	0.041401733
221	0x3c314b27	0.01082114
222	0x3d865502	0.06559183
223	0x3d067993	0.032830786
224	0x3cb04ccd	0.021520996
225	0x3d00142a	0.03126923
226	0xba2be19a	-0.00065567496
227	0x3d9d4add	0.07680295
228	0x3cf7cb33	0.03024826
229	0x3d0183f7	0.031619992
230	0x3d9ceebd	0.07662723
231	0xbd4df490	-0.05028206
232	0xbd214abd	-0.039377917
233	0x3bb1369a	0.0054081203
234	0xbd8f0e6d	-0.069851734
235	0x3cee3a9a	0.029080678
236	0x3baad0cd	0.0052128793
237	0x3d408d9d	0.047010053
238	0x3d7c471a	0.061591245
239	0x3d8e0160	0.06933856
240	0xbd6b923a	-0.0575125
241	0xbd0d85e3	-0.034551512
242	0x3b5ff633	0.0034173846
243	0xbd1db4ba	-0.038502432
244	0xbd40fe0d	-0.04711728
245	0x3d855e3b	0.06512114
246	0xbd08dcd0	-0.03341371
247	0xbda363b2	-0.07978
248	0x3db323cf	0.08747064
249	0x3d4ca190	0.049958766
250	0xbd2457aa	-0.040122665
251	0x3db73cbb	0.0894713
252	0x3d4cee9d	0.050032247
253	0x3cbbd8ed	0.022930587
254	0xbbae759a	-0.005324078
255	0xbc0f3d1a	-0.008742595

backbone.model.1.0.model.0.bias f4 [8]
0	0xbd74ceda	-0.05976758
1	0x3d2854a3	0.04109634
2	0x3d72543a	0.059162356
3	0x3b0ad500	0.0021184087
4	0x3d47c947	0.048775937
5	0x3d2801ea	0.04101745
6	0x3d5d0be7	0.05396643
7	0x3c9a30e0	0.018822134

backbone.model.1.1.model.0.weight f4 [8, 8, 5, 5]
0	0xbd678f58	-0.056533188
1	0xbc93ad0b	-0.01802685
2	0xbd7d9985	-0.061913986
3	0x3d1ca25e	0.038240783
4	0xbd16226b	-0.036653917
5	0x3d01513d	0.031571615
6	0x3d090a54	0.033457115
7	0x3d85898c	0.065203756
8	0xbcee1e28	-0.029067114
9	0xbd8e3e87	-0.0694552
10	0x3bada311	0.00529898
11	0x3ce24769	0.027621942
12	0xbcbed357	-0.023294134
13	0xbd675b6d	-0.056483675
14	0xbd423561	-0.047414187
15	0xbd5fc2d9	-0.05462918
16	0xbcc4fa11	-0.024045022
17	0xbd508a95	-0.050913412
18	0x3c986f48	0.01860775
19	0xb9b2d188	-0.0003410692
20	0xbb85cdbd	-0.004083364
21	0x3d6dd8a2	0.058067925
22	0xbc96dde0	-0.018416345
23	0xbd1a39e0	-0.03765285
24	0x3d4906db	0.049078804
25	0x3d0d4914	0.03449352
26	0xbd2772b7	-0.040880885
27	0xbd6f657d	-0.058446396
28	0xbd236851	-0.039894406
29	0x3cba8a68	0.022771075
30	0xbd61f7e5	-0.05516805
31	0xbd3a95ab	-0.04555289
32	0x3d337feb	0.043823164
33	0x3d88877d	0.06666467
34	0x3c510079	0.01275646
35	0x3c10bc26	0.008833921
36	0x3cc3c150	0.02389589
37	0xbbbabdde	-0.0056989035
38	0xbcca2d56	-0.024679821
39	0x3d3df9cf	0.046380814
40	0xbcfb32b3	-0.030663824
41	0xbd55055a	-0.052007057
42	0xbd146b75	-0.03623529
43	0xbd4f88af	-0.05066746
44	0x3d508e32	0.050916858
45	0x3d233835	0.039848525
46	0x3d8b8d69	0.06814081
47	0xbd499325	-0.049212594
48	0xbd8822ca	-0.066472605
49	0x3cdb462b	0.026766857
50	0x3ceba4c4	0.02876509
51	0xbd26a11f	-0.040681
52	0x3d4e760b	0.050405543
53	0xbbc3eca4	-0.0059791375
54	0xbc0bb263	-0.008526417
55	0xbc24956b	-0.01004539
56	0x3d2c755d	0.042104114
57	0x3a072c1c	0.0005156414
58	0xbd88de03	-0.066829704
59	0xbd88c142	-0.06677486
60	0xbd4b6893	-0.049660277
61	0xbc95d7cd	-0.018291378
62	0xbc30b157	-0.010784469
63	0x3ad702e4	0.001640406
64	0xbca9c5c1	-0.02072418
65	0x3c77f54c	0.015134167
66	0x3c710289	0.014710077
67	0xbd5e550f	-0.054280337
68	0xbd4fa8a5	-0.05069794
69	0x3cfb3eaa	0.030669529
70	0x3d52b441	0.051441435
71	0xbd621a60	-0.055200934
72	0x3ccba80c	0.024860404
73	0x3ceae462	0.028673355
74	0xbd196345	-0.037448186
75	0x3d29e2b4	0.041475967
76	0x3d7fd2ad	0.062456775
77	0xbcba54e5	-0.022745559
78	0xbc712ad7	-0.0147196865
79	0xbbfe93fc	-0.007769106
80	0x3ccabfa3	0.024749583
81	0x3b96c01f	0.0046005393
82	0x3c3d2c31	0.011546181
83	0x3d35f55c	0.044423446
84	0x3d5d2572	0.05399079
85	0x3d4df17f	0.050279137
86	0xbd7ba494	-0.06143625
87	0x3c62457c	0.013810512
88	0xbc7470f0	-0.0149195045
89	0x3cbb3d45	0.022856364
90	0x3cb02fb6	0.021507125
91	0xbd26a845	-0.040687818
92	0x3d2070d0	0.039170086
93	0xbc00eeaf	-0.007869407
94	0x3c85d443	0.016336566
95	0x3d556c2e	0.05210512
96	0x3d05b9ca	0.032647885
97	0x3cce840b	0.025209447
98	0x3cf05cb3	0.029341077
99	0xbd0d86ed	-0.034552503
100	0xbc1065d0	-0.0088133365
101	0x3d12775b	0.035758357
102	0x3d0577d6	0.032584988
103	0x3d57b1c5	0.05265977
104	0x3cbc549c	0.022989564
105	0x3c0302c9	0.0079962695
106	0x3cb6ed4c	0.022329949
107	0xbc239314	-0.009983797
108	0x3cd71562	0.026255313
109	0x3cfaf0c7	0.03063239
110	0x3d006333	0.031344604
111	0xbc5df160	-0.013546318
112	0x3d695994	0.056970194
113	0x3d2d3e94	0.042296007
114	0x3d8d1d84	0.06890395
115	0xbd062719	-0.03275213
116	0x3cd722d6	0.026261728
117	0x3d1ec44c	0.038761422
118	0x3c837770	0.016048163
119	0xbcd83660	-0.026393116
120	0x3d3bc4ae	0.045841865
121	0x3d81c885	0.06337074
122	0xbd896302	-0.06708337
123	0xbc16a5a4	-0.009194765
124	0xbce37d7a	-0.027769793
125	0x3d810422	0.062996164
126	0x3d3edcf5	0.04659744
127	0xbc980d15	-0.018560925
128	0x3d4b2918	0.049599737
129	0x3d1e59e7	0.038659956
130	0xbbeb31cb	-0.0071775666
131	0xbc059b92	-0.008154767
132	0x3b96ee94	0.0046060774
133	0xbd773604	-0.060354248
134	0xbca9d953	-0.020733511
135	0xbd5e7ae4	-0.054316416
136	0x3beea0a8	0.0072823353
137	0xba77068b	-0.0009423277
138	0xbd4891eb	-0.048967283
139	0x3c1b2b48	0.009470768
140	0x3d471b6a	0.04861013
141	0x3d1f0d62	0.038831122
142	0xbd5613b0	-0.05226487
143	0x3b46ac37	0.003031505
144	0x3cec43a3	0.028840845
145	0x3d5c1ebf	0.05374026
146	0xbc9814dc	-0.018564634
147	0xbd3e719c	-0.046495065
148	0xbc0de234	-0.008659888
149	0x3d2f72de	0.042834155
150	0x3d4d5d2c	0.050137684
151	0x3d0140c8	0.03155592
152	0xbcda9d4b	-0.026686331
153	0x3c244ad2	0.010027604
154	0x3d7ba097	0.061432447
155	0x3c87820b	0.016541502
156	0x3d80c5fa	0.06287761
157	0xbc916fa6	-0.017753433
158	0xbd7b0f48	-0.06129387
159	0xbb58c1ed	-0.0033074573
160	0x3d39c07e	0.04534959
161	0x3d1af3fe	0.037830345
162	0xbd2344b2	-0.039860435
163	0xbd5aac47	-0.053386953
164	0x3d572aa8	0.052530915
165	0xbb87af6c	-0.004140785
166	0xbcabb555	-0.02096049
167	0x3d6e23d5	0.05813964
168	0x3b8296f3	0.0039852797
169	0xbcb2ae2d	-0.02181157
170	0x3d8dfb33	0.06932678
171	0x3ca2fcf1	0.019896002
172	0xbd7efd00	-0.062253
173	0x3ca9cf5f	0.020728765
174	0xbd53c79a	-0.051704027
175	0xbcac9506	-0.021067154
176	0x3c9390e6	0.018013429
177	0x3c13e72a	0.009027282
178	0x3d37cd2f	0.044873413
179	0xbcdf1a4a	-0.027234215
180	0xbd609bf7	-0.05483624
181	0xbd19910e	-0.03749185
182	0xbd8ca717	-0.06867807
183	0x3d1bb207	0.038011577
184	0x3d6baec1	0.057539705
185	0xbd30a702	-0.04312802
186	0xbd8770ab	-0.066132866
187	0x3c7e2a58	0.015513025
188	0x3d8b4692	0.068005696
189	0x3d536443	0.05160929
190	0x3be72800	0.007054329
191	0x3d6c30f3	0.05766387
192	0xbba79931	-0.0051146974
193	0x3d38bcca	0.04510192
194	0x3d3ab56d	0.045583177
195	0x3d1e1d30	0.038602054
196	0x3d39e4df	0.045384284
197	0xbd34dba4	-0.044154778
198	0xbd23dbeb	-0.040004652
199	0x3cbd320f	0.023095159
200	0xbcd095ee	-0.025462117
201	0x3d25d6e3	0.040488135
202	0x3d254d32	0.040356822
203	0x3aab11ac	0.0013051531
204	0x3d60a41f	0.054844018
205	0xbd806f44	-0.06271222
206	0xbc7877cb	-0.01516528
207	0x3d867d2b	0.06566843
208	0xbbb9b6e4	-0.005667554
209	0x3bab5ba2	0.0052294293
210	0x3d3fe4a8	0.046848923
211	0xbc41673b	-0.011804397
212	0xbcc78caf	-0.024359075
213	0x3b2f539b	0.0026752714
214	0xbc4353f1	-0.011921869
215	0xbc86456b	-0.016390523
216	0x3d45e599	0.048314665
217	0x3d89b7e1	0.06724525
218	0x3cecf2ae	0.028924312
219	0x3d656d1f	0.05601227
220	0xbc9a4190	-0.01883009
221	0x3d12a606	0.035802864
222	0x3d827e97	0.06371801
223	0x3c119ccc	0.008887481
224	0x3d114b67	0.0354723
225	0xbbba832d	-0.005691907
226	0x3b919928	0.0044433065
227	0x3cdbe255	0.026841322
228	0x3cf212c5	0.029549966
229	0xbbbb398a	-0.0057136463
230	0x3ce8a245	0.028397689
231	0xbcc923fa	-0.024553288
232	0xbd2835a6	-0.041066788
233	0x3bbf3f83	0.0058364286
234	0xbd86b843	-0.06578114
235	0xbc95ed7a	-0.018301714
236	0x3c8ae835	0.016956428
237	0x3c6b216c	0.01435123
238	0x3cb18b26	0.021672796
239	0xbd377087	-0.04478505
240	0x3ba4a168	0.005024124
241	0x3c3c45ec	0.01149128
242	0x3c8d5926	0.017254423
243	0xbd465e18	-0.04842958
244	0x3d62d39f	0.0553776
245	0xbd8aabc1	-0.06771041
246	0x3d48dd32	0.049039073
247	0xbd096fd0	-0.0335539
248	0x3d1c4775	0.038154084
249	0xbccfb9e1	-0.025357189
250	0xbc922de5	-0.01784415
251	0xbd157f31	-0.036498252
252	0xbd4fe8b7	-0.050759044
253	0xbc1c128a	-0.009525904
254	0x3d28cb85	0.041209716
255	0x3caef985	0.021359215

backbone.model.1.1.model.0.bias f4 [8]
0	0x3d0c6d20	0.034283757
1	0xbd6153ae	-0.055011444
2	0xbd8b0ddb	-0.06789752
3	0x3d6d4e49	0.057935987
4	0x3d55ee2d	0.052229095
5	0x3ce75c22	0.028242175
6	0xbcf62a9d	-0.030049616
7	0xbbc63413	-0.006048688

backbone.model.2.0.model.0.weight f4 [8, 8, 3, 3]
0	0xbbac8c7d	-0.005265771
1	0xbce9669d	-0.028491313
2	0xbde9b6bc	-0.11411807
3	0x3d64d6d7	0.05586895
4	0x3dab44e1	0.08362747
5	0xbbf28217	-0.007400762
6	0x3ca4ca9c	0.020116143
7	0x3d90afe7	0.07064801
8	0xbda66f4d	-0.08126698
9	0x3c9fc69f	0.01950389
10	0xbdbffd90	-0.09374535
11	0xbded51f2	-0.115878955
12	0xbcc32ebb	-0.023825994
13	0xbd651af5	-0.05593391
14	0x3d920d8c	0.0713149
15	0x3dba49dc	0.09096119
16	0xbddd72b6	-0.10812895
17	0xbc9f2978	-0.019428954
18	0xbd4d3561	-0.050099734
19	0x3d8b32af	0.067967765
20	0xbda834ba	-0.08213182
21	0xbdd14f62	-0.10220219
22	0xbcb4a2aa	-0.02205022
23	0xbd99f75d	-0.07517884
24	0xbce878e0	-0.02837795
25	0x3d70300c	0.05863957
26	0x38b5414a	8.6429136e-05
27	0xbd825a74	-0.06364909
28	0xbc42c155	-0.011886914
29	0x3db0ace1	0.08626724
30	0x3dc7229f	0.097234
31	0xbb8624e0	-0.0040937513
32	0x3c98985a	0.018627334
33	0x3c63c708	0.013902433
34	0xbc8a90c0	-0.016914725
35	0xbde87d2c	-0.11352
36	0xbd0f89e5	-0.035043616
37	0xbde4c889	-0.111710615
38	0x3d983459	0.074318595
39	0x3c0269fd	0.00795984
40	0x3defcb2c	0.11708674
41	0x3cbecbc9	0.023290532
42	0xbd88c262	-0.066777006
43	0x3d0546a4	0.03253807
44	0xbde11695	-0.10990635
45	0x3c87d244	0.016579755
46	0x3cde7670	0.027156085
47	0xbd3ef274	-0.04661794
48	0x3d3a162f	0.045431312
49	0xbc122cbd	-0.008921799
50	0x3d2ba920	0.041909337
51	0xbb90d415	-0.0044198134
52	0xbddf0a7f	-0.10890674
53	0x3d3b981a	0.045799352
54	0x3d953e34	0.07287255
55	0x3d8a0da4	0.06740883
56	0x3db6939e	0.089148745
57	0xbdaa3da8	-0.08312541
58	0x3d03b645	0.032156248
59	0x3db97abb	0.09056612
60	0xbcc6a5da	-0.024249006
61	0x3debe045	0.115173854
62	0x3daf5bb8	0.08562416
63	0xbd3ba33d	-0.045809973
64	0xbd719e32	-0.058988757
65	0xbdb5334f	-0.08847677
66	0xbd1b39b9	-0.037896845
67	0xbc17d88c	-0.009267937
68	0x3d8890b7	0.06668227
69	0x3b05f361	0.0020439255
70	0x3da16314	0.07880226
71	0xbdc26229	-0.09491379
72	0x3d983d15	0.074335255
73	0x3d01569d	0.03157674
74	0x3d8651ab	0.06558546
75	0x3d844ee3	0.06460359
76	0x3defd927	0.117113404
77	0xbd7e12f0	-0.06202978
78	0x3c08baf7	0.008345357
79	0x3bcbfb9a	0.0062250616
80	0x3c11a262	0.008888813
81	0xbdd82323	-0.10553577
82	0x3dafe334	0.085882574
83	0x3d8d479f	0.06898426
84	0x3d1484d3	0.036259484
85	0xbd07210c	-0.0329905
86	0xbd91b313	-0.07114234
87	0xbda94cdc	-0.08266613
88	0x3dc268c3	0.09492638
89	0xbd9fec04	-0.07808688
90	0xbd029ba2	-0.031886704
91	0xbbab080d	-0.0052194656
92	0x3deeca71	0.116597064
93	0x3d599cb7	0.05312797
94	0x3cc39cc6	0.023878466
95	0xbd94ccf8	-0.07265657
96	0x3c930e03	0.017951017
97	0x3c69c574	0.014268268
98	0xbdcb2bbc	-0.09920451
99	0x3d146e58	0.036238045
100	0x3de26ec0	0.1105628
101	0x3d19aaee	0.037516527
102	0xbdcce5cf	-0.1000477
103	0xbd01df87	-0.031707313
104	0xbdcb7425	-0.09934262
105	0x3958af1d	0.000206646
106	0x3dee6893	0.1164104
107	0x3d9a36a8	0.07529956
108	0xbcad92a6	-0.021188091
109	0x3d4d818a	0.050172366
110	0x3d8e7e2c	0.06957659
111	0xbde6f0c0	-0.11276388
112	0xbdb44d5a	-0.08803816
113	0xbd854a3c	-0.065083
114	0x3d18ba4b	0.037287038
115	0x3df0ed95	0.11764065
116	0x3d5d1a65	0.05398025
117	0x3db4ae07	0.088222556
118	0x3d5db4c4	0.05412747
119	0xbdb18891	-0.08668626
120	0xbd37567a	-0.044760205
121	0x3d3c28a9	0.045937214
122	0xbd8fa686	-0.07014184
123	0xbd88af63	-0.06674077
124	0x3dc17071	0.094452746
125	0x3da556a0	0.08073163
126	0xbd9c1974	-0.07622042
127	0xbd868766	-0.06568794
128	0xbc13c719	-0.009019637
129	0xbdc4571a	-0.09586926
130	0x3d1e661d	0.0386716
131	0x3d9e955d	0.077433325
132	0x3dc916c0	0.09818792
133	0x3dbd309e	0.092377886
134	0xbda35599	-0.07975311
135	0x3dbf5792	0.093428746
136	0xbc75628b	-0.014977108
137	0xbd4e0338	-0.05029604
138	0xbda18de3	-0.07888391
139	0xbdbe25b2	-0.092845336
140	0xbde3d5cb	-0.11124762
141	0x3dc3d5e1	0.095622785
142	0xbccfe74f	-0.025378851
143	0xbd536e49	-0.051618848
144	0x3cec1730	0.02881965
145	0xbc9827d5	-0.01857368
146	0xbd8ff140	-0.07028437
147	0xbd46048f	-0.04834419
148	0xbd3f039a	-0.046634294
149	0xbdd61eef	-0.10455119
150	0xbd6ff974	-0.058587506
151	0xbd1bbd8e	-0.03802257
152	0xbd115547	-0.035481717
153	0x3de294f5	0.110635675
154	0x3d45e7a0	0.048316598
155	0xbd588001	-0.05285645
156	0x3cee07e6	0.0290565
157	0xbcd6aa4e	-0.026204254
158	0x3d714443	0.05890299
159	0xbd292d7f	-0.041303154
160	0xbda17cb8	-0.07885116
161	0xbc9fd1e0	-0.019509256
162	0xbdb76bd9	-0.08956117
163	0xbc2bc4bb	-0.010483916
164	0xbdbc0192	-0.09179987
165	0xbd8aa377	-0.0676946
166	0x3d0a34d7	0.0337418
167	0xbaa16f17	-0.0012316433
168	0x3af6f84e	0.0018842311
169	0xbc9e7290	-0.019341737
170	0xbbfe3017	-0.0077571976
171	0x3caf28f1	0.021381827
172	0xbc9cf8f0	-0.019161671
173	0x3be92b3e	0.0071157506
174	0x3ddafd57	0.10692852
175	0xbd706934	-0.05869408
176	0x3d1a8023	0.037719857
177	0xbca91848	-0.020641461
178	0x3c92177f	0.01783347
179	0xbd486835	-0.048927505
180	0xbd1b73d6	-0.037952267
181	0xbd43fa0d	-0.04784589
182	0x3d9c1b5f	0.07622408
183	0x3cc0955f	0.023508726
184	0xbb9017a4	-0.0043973494
185	0xbda27173	-0.07931795
186	0xbd29d04b	-0.04145841
187	0xbde6cf97	-0.11270063
188	0x3c8e9635	0.017405609
189	0xbd983d5b	-0.074335776
190	0x3dab8e5f	0.083767645
191	0xbbf1ba19	-0.007376921
192	0x3dd342bb	0.10315462
193	0xbdae3c95	-0.08507649
194	0xbbfb1fad	-0.007663688
195	0xbc8fe980	-0.017567396
196	0x3d539587	0.051656272
197	0x3dc9aa44	0.09846929
198	0xbde70dc5	-0.11281923
199	0xbccd9d26	-0.025099348
200	0x3dc06b4e	0.09395467
201	0xbc8426bb	-0.01613175
202	0xbde8fb5c	-0.11376068
203	0x3d43df6b	0.04782049
204	0xbdbe2e0c	-0.092861265
205	0xbda05ceb	-0.07830223
206	0x3da5b623	0.080913804
207	0x3a7fe716	0.00097619125
208	0x3c8a5ec8	0.016890898
209	0x3da33f1c	0.079710215
210	0x3dccf601	0.10007859
211	0xbcba76ec	-0.022761784
212	0xbd4483b7	-0.047977176
213	0xbd3628a5	-0.044472355
214	0x3d814e2c	0.06313738
215	0xbdb9f655	-0.09080187
216	0x3c8a9768	0.0169179
217	0xbdbde269	-0.092717
218	0xbd1fb03b	-0.038986426
219	0xbdabe842	-0.08393909
220	0xbc99ff3c	-0.018798463
221	0x3d37f024	0.04490675
222	0xbbdf659e	-0.0068175336
223	0xbd04939c	-0.032367334
224	0x3d30413c	0.043030962
225	0x3d890c5b	0.0669181
226	0x3d00ddeb	0.031461637
227	0x3c8f8a83	0.017522102
228	0xbcc66217	-0.024216695
229	0x3d41aeb6	0.047285758
230	0x3d89d3b0	0.06729829
231	0x3de48e97	0.11160009
232	0x3d989ba1	0.07451559
233	0xbda9f618	-0.08298892
234	0xbdb78c7c	-0.08962342
235	0xbd39831b	-0.045291048
236	0x3db5e4e7	0.0888155
237	0xbda34e5b	-0.079739295
238	0xbd86a784	-0.0657492
239	0xbd7b431a	-0.06134329
240	0x3cb93c2c	0.0226117
241	0xbd972497	-0.07380026
242	0xbd3982f5	-0.045290906
243	0x3b272e1c	0.002550966
244	0x3d611565	0.054952044
245	0xbad7caf4	-0.0016463683
246	0xbc0e0dea	-0.00867031
247	0xbc3c0f03	-0.011478188
248	0xbd803fc5	-0.06262163
249	0x3d2eb33d	0.042651404
250	0x3bd31647	0.0064418647
251	0x3d1924eb	0.037388723
252	0xbde19845	-0.11015371
253	0x3d8a21f2	0.06744756
254	0xbd2779be	-0.040887587
255	0xbde7fd62	-0.11327626

backbone.model.2.0.model.0.bias f4 [8]
0	0xbdd232ec	-0.10263619
1	0xbd71e3ab	-0.05905501
2	0x3d08e2ee	0.033419542
3	0x3dda1b24	0.10649708
4	0x3c1f1795	0.009710212
5	0xbd8bdb58	-0.06828946
6	0xbd600ba0	-0.054698586
7	0xbd9050d0	-0.07046664

backbone.model.2.1.model.0.weight f4 [8, 8, 3, 3]
0	0x3de36283	0.11102774
1	0x3d4ec7cc	0.05048351
2	0x3d6e95e5	0.05824842
3	0xbd5b9df5	-0.053617436
4	0xbd6d57b6	-0.057944976
5	0xbddd8cc9	-0.10817868
6	0x3dd60ea4	0.10452011
7	0x3de75bea	0.11296828
8	0x3dbf9d33	0.09356155
9	0xbd4c1f3c	-0.049834475
10	0x3d0bc362	0.03412188
11	0x3d189a31	0.037256423
12	0x3cf70177	0.030152066
13	0xbd789ed4	-0.060698345
14	0xbdc98015	-0.09838883
15	0xbc5a47ff	-0.013322829
16	0x3d52fb07	0.05150893
17	0x3da4c494	0.08045307
18	0xbdd0cc55	-0.10195223
19	0x3dcb05b4	0.09913197
20	0x3dbbb8b0	0.09166086
21	0x3ded6091	0.11590684
22	0xbd698e7a	-0.057020642
23	0xbd72f926	-0.059319638
24	0x3da5b8b3	0.08091869
25	0x3bed63f0	0.0072445795
26	0x3d841251	0.06448806
27	0x3d7bf9fa	0.061517693
28	0x3d12cf7a	0.035842396
29	0x3d796559	0.06088767
30	0x3d85aa39	0.06526608
31	0x3dd20282	0.102543846
32	0x3de4ce3d	0.11172149
33	0xbd7a1a0f	-0.061060008
34	0x3cfe4dac	0.031042896
35	0x3c13578d	0.008993042
36	0x3dc200ba	0.09472795
37	0x3dcdb6a2	0.100446
38	0x3de1dd7a	0.110285714
39	0xbd890f64	-0.06692389
40	0x3ccc946c	0.024973117
41	0xbd9792f1	-0.07401074
42	0x3dc2bcc2	0.09508659
43	0x3d18de31	0.037321273
44	0x3de3239a	0.11090775
45	0xbd8dd85d	-0.06926034
46	0xbd7d614b	-0.061860364
47	0xbd1ab57e	-0.03777074
48	0x3ded9d53	0.11602273
49	0xbdcb09ae	-0.09913956
50	0xbd859d77	-0.06524175
51	0xbcb21ace	-0.021741297
52	0x3daff85c	0.08592293
53	0x3db106ac	0.08643851
54	0x3de0cc74	0.10976496
55	0x3c3a62be	0.011376081
56	0xbda9d1dc	-0.082919806
57	0x3de3bc5f	0.11119913
58	0x3d18c4ea	0.037297167
59	0x3d9fcdd7	0.07802933
60	0x3d8ed5d9	0.06974382
61	0x3d8c4576	0.06849186
62	0x3de547f6	0.11195366
63	0xbd9262a0	-0.071477175
64	0x3c33df26	0.010978496
65	0xbd265496	-0.04060801
66	0xbb445a1a	-0.0029960931
67	0xbccf5461	-0.02530879
68	0xbc4d0aa8	-0.012514748
69	0xbcc46710	-0.023974925
70	0xbd7e3d28	-0.062070042
71	0xbdd7f631	-0.10545004
72	0xbd58a861	-0.052894954
73	0x3dc8d0ed	0.098054744
74	0xbd4570bb	-0.04820321
75	0x3ce2cc8a	0.027685422
76	0x3de5cd86	0.11220841
77	0x3d4e3ec8	0.05035284
78	0xbdab12b8	-0.0835318
79	0xbd9e84f4	-0.077402025
80	0xbd9cd703	-0.07658198
81	0xbc909a12	-0.017651591
82	0xbda89209	-0.08230979
83	0x3ccc9328	0.024972513
84	0xbde2b855	-0.11070315
85	0xbd52022f	-0.051271614
86	0x3cf175a0	0.029475033
87	0xbdd0e452	-0.10199799
88	0x3da8d519	0.0824377
89	0x3db111aa	0.08645947
90	0x3da468f8	0.08027834
91	0xbd0e149e	-0.03468763
92	0xbdcf2ac3	-0.10115578
93	0xbd00f7c2	-0.03148628
94	0x3da73bec	0.08165726
95	0xbce38479	-0.027773129
96	0x3df067db	0.11738559
97	0x3cb90abc	0.022588126
98	0xbb3b07da	-0.0028538615
99	0xbd9fe0de	-0.07806562
100	0x3c2c95fa	0.010533804
101	0x3dc3af28	0.09554893
102	0xbda03fe2	-0.07824685
103	0xbd2d75c7	-0.04234865
104	0xbd741460	-0.059589744
105	0xbd60a290	-0.05484253
106	0xbd39edf7	-0.045392957
107	0xbd7846d7	-0.060614433
108	0x3da73ef4	0.08166304
109	0xbd876d10	-0.06612599
110	0x3c13cf68	0.0090216175
111	0x3ddb4b0d	0.10707674
112	0x3d306c75	0.043072183
113	0x3de2df3d	0.110777356
114	0xbda8a74f	-0.082350366
115	0xbdd5d817	-0.104416065
116	0x3de8a9b8	0.11360496
117	0x3da16a41	0.078815944
118	0x3db42b04	0.08797267
119	0x3d8bd017	0.06826799
120	0x3d92fe86	0.07177453
121	0x3d840177	0.06445592
122	0xbda23b36	-0.0792145
123	0x3b5371bb	0.0032263834
124	0xbde1a1ed	-0.11017213
125	0x3da28266	0.07935028
126	0xba2e57a3	-0.0006650632
127	0x3c3df28e	0.011593474
128	0xbda9ad52	-0.08285011
129	0x3c29b53b	0.01035815
130	0x3daa999c	0.0833008
131	0x3c0733ef	0.008252128
132	0xbccd8f63	-0.025092786
133	0x3dc0f527	0.09421759
134	0xbdae82f6	-0.085210726
135	0x3d81ba3a	0.06334348
136	0x3d35b7ff	0.044364925
137	0xbd9ccaf8	-0.07655901
138	0x3d7ffaa3	0.062494885
139	0xbdbce2b7	-0.0922293
140	0x3c8acc16	0.016943019
141	0x3ceecdaf	0.029150812
142	0xbd8569af	-0.06514298
143	0x3c0cdedc	0.008598056
144	0xbdd3d153	-0.1034266
145	0x3d2e20a5	0.0425116
146	0x3dc1a00f	0.09454357
147	0x3d33ae01	0.043867115
148	0x3dbe1625	0.092815675
149	0xbd14c9f1	-0.0363254
150	0x3d6e7f0c	0.05822663
151	0xbdf15371	-0.11783493
152	0xbbe81dd6	-0.007083635
153	0x3db3af45	0.087736644
154	0x3c994d93	0.018713748
155	0x3db3eb9c	0.08785173
156	0x3d82c4eb	0.06385215
157	0x3d8902da	0.06689997
158	0xbd508f1d	-0.050917733
159	0x3db6c881	0.08924962
160	0xbd736001	-0.05941773
161	0x3dbfcb94	0.09365001
162	0xbd535293	-0.05159242
163	0xbd84f7f9	-0.064926095
164	0xbcd9c33d	-0.026582355
165	0xbc450081	-0.012024046
166	0xbde4d242	-0.11172916
167	0xbc6afd67	-0.014342642
168	0xbcba9a74	-0.022778727
169	0xbdc46411	-0.09589399
170	0xbd54c857	-0.05194887
171	0xbdf15afe	-0.117849335
172	0xbcde010f	-0.027100114
173	0xbd910d54	-0.0708262
174	0xbd4e1033	-0.050308418
175	0x3d56980e	0.052391104
176	0x3d0ea1fa	0.03482244
177	0xbd9f384d	-0.077744104
178	0x3da9d99a	0.08293457
179	0xbd8ad1c0	-0.06778288
180	0x3b57abd7	0.003290882
181	0xbd99c446	-0.07508139
182	0xbda86af9	-0.082235284
183	0xbdabb4a5	-0.083840646
184	0xba8bbc88	-0.0010661045
185	0x3c01181c	0.007879283
186	0x3dbf08ad	0.09327827
187	0xbdb39a80	-0.08769703
188	0xbde5741f	-0.11203789
189	0xbdd26e5f	-0.10274958
190	0x3d12fce9	0.035885725
191	0x3d39261e	0.045202367
192	0xbd92b043	-0.071625255
193	0x3d8e8259	0.069584556
194	0xbd2b0a1d	-0.04175769
195	0xbd11b3ad	-0.035571743
196	0x3d233d30	0.039853275
197	0xbd86c33f	-0.06580209
198	0x3d9c869b	0.076428615
199	0xbb955305	-0.004557016
200	0x3c06bcba	0.008223707
201	0xbd7b32c8	-0.061327726
202	0x3dadba09	0.08482749
203	0x3de26f37	0.11056369
204	0x3d9f2c73	0.0777215
205	0x3d5c78cf	0.05382615
206	0x3dc80038	0.09765667
207	0x3c5d7c7a	0.013518447
208	0xbddbef8c	-0.10739049
209	0xbc2eb417	-0.010663054
210	0xbd9e83ce	-0.077399835
211	0xbd5f8118	-0.054566473
212	0x3cf8a995	0.0303543
213	0xbd811c65	-0.06304244
214	0x3d90ab4f	0.070639245
215	0xbd072b6b	-0.03300039
216	0x3c019654	0.007909376
217	0xbca90e0f	-0.020636586
218	0xbd835894	-0.06413379
219	0x3d050534	0.032475665
220	0x3d92376d	0.07139478
221	0xbde48e22	-0.11159922
222	0xbd638134	-0.05554314
223	0x3cf69137	0.03009854
224	0x3dda7ed0	0.10668719
225	0x3a580a1f	0.0008241254
226	0x3d71d0a3	0.059036862
227	0xbc879237	-0.016549213
228	0xbdd07132	-0.1017784
229	0x3d68dad3	0.056849312
230	0x3de7fbf1	0.11327351
231	0xbd533415	-0.05156334
232	0xbdab542d	-0.08365665
233	0xbd640b93	-0.0556751
234	0xbc70083a	-0.014650399
235	0x3d3b87ed	0.045783926
236	0x3cf4e90a	0.029896278
237	0xbd8f5088	-0.06997782
238	0x3b908ce7	0.004411328
239	0xbc145ff3	-0.009056079
240	0x3ceb5680	0.02872777
241	0xbd9b7610	-0.07590878
242	0xbde8cdc4	-0.11367372
243	0xbd95cbe7	-0.07314282
244	0x3d85d21a	0.06534214
245	0x3dec3d06	0.11535077
246	0xbd878b8b	-0.066184126
247	0xbdaa440b	-0.083137594
248	0xbdcd2d83	-0.10018446
249	0x3daf30d1	0.08554233
250	0xbd3930ae	-0.04521244
251	0xbc665e79	-0.01406061
252	0x3cf78a3b	0.03021728
253	0x3cddf289	0.027093189
254	0x3d9d9e1f	0.07696175
255	0xbdce4348	-0.10071427

backbone.model.2.1.model.0.bias f4 [8]
0	0x3d846df5	0.06466285
1	0x3d3f4ac2	0.046702154
2	0x3c22725c	0.009914961
3	0xbd4c0e38	-0.049818248
4	0x3da93474	0.08261958
5	0x3db80275	0.08984844
6	0x3d749db3	0.059720706
7	0x3d96790a	0.07347305

backbone.model.3.0.model.0.weight f4 [16, 8, 3, 3]
0	0xbd822da6	-0.06356363
1	0x3de60587	0.11231523
2	0xba90f405	-0.0011059052
3	0xbd7e2b77	-0.06205317
4	0xbca1f396	-0.019769471
5	0x3dd22a04	0.1026192
6	0x3dc6ced6	0.097074196
7	0xbc3332e8	-0.01093743
8	0xbb773e8b	-0.0037726487
9	0x3d961469	0.07328112
10	0xbc29e03f	-0.010368406
11	0xb9f78632	-0.00047211495
12	0x3d205aac	0.03914897
13	0xbd1d0e2a	-0.038343586
14	0x3d85f1e0	0.065402746
15	0xbdac4569	-0.084116764
16	0xbc38375e	-0.011243669
17	0x3d9a17fc	0.07524106
18	0xbd8f4bb7	-0.06996863
19	0x3a3904d7	0.0007057911
20	0x3c8d445c	0.01724451
21	0x3d2a59f5	0.041589696
22	0xbdda58fd	-0.106615044
23	0x3deb3895	0.114854015
24	0x3d43d741	0.047812704
25	0xbd0dbbbe	-0.034602873
26	0x3de5323c	0.11191222
27	0xbdeceeec	-0.11569008
28	0x3d42c3c0	0.047549963
29	0xbc148832	-0.009065675
30	0xbc12f3e8	-0.008969285
31	0x3dc181cb	0.09448584
32	0xbd82c5b8	-0.06385368
33	0x3d857ec0	0.06518316
34	0x3dd31918	0.10307521
35	0x3d1d3e8b	0.038389724
36	0x3d6c2fc6	0.057662748
37	0x3ddf1eb4	0.10894528
38	0xbcd8f8c5	-0.02648581
39	0x3d8a70a2	0.06759764
40	0xbde6da10	-0.11272061
41	0x3d5fc8d6	0.05463489
42	0x3d7d0a1d	0.061777223
43	0x3d02a334	0.031893924
44	0x3db1073d	0.08643959
45	0xbd66587e	-0.056236736
46	0xbd89dbf3	-0.06731405
47	0xbde44f66	-0.111479566
48	0xbd129b36	-0.035792552
49	0x3cb93246	0.02260698
50	0xbdd8effc	-0.105926484
51	0x3b8e40b5	0.00434121
52	0x3dcaa093	0.09893908
53	0x3c153616	0.009107133
54	0xbda11144	-0.07864621
55	0x3ce5345e	0.027979072
56	0xbd6b17ec	-0.05739586
57	0x3d1c1f17	0.038115587
58	0xbca883ff	-0.020570753
59	0x3d9b885f	0.0759437
60	0x3d21d768	0.039512068
61	0xbdef0c78	-0.116723
62	0xbdc5c475	-0.09656612
63	0xbddb1957	-0.106981926
64	0xbc344e1b	-0.01100495
65	0x3d9fcd26	0.07802801
66	0xbd267e4e	-0.040647797
67	0xbd720cae	-0.059094124
68	0xbd8e9f8a	-0.069640234
69	0xbcb49dbe	-0.022047874
70	0x3ddf4ef4	0.10903731
71	0x3dc1d5cd	0.094646074
72	0x3dbdd820	0.09269738
73	0x3de185cf	0.1101185
74	0x3ddd05b8	0.107921064
75	0x3c6dfa60	0.014525026
76	0x3b8fcd0a	0.0043884562
77	0xbd4eda23	-0.050501
78	0xbd81fa5e	-0.06346582
79	0x3d26a82c	0.040687725
80	0x3caa24a1	0.02076942
81	0x3db7a3ec	0.089668125
82	0x3d677133	0.05650444
83	0x3dbc8488	0.09204966
84	0x3c520994	0.012819666
85	0x3dca7afa	0.09886737
86	0xbd4f7b36	-0.050654612
87	0xbca87270	-0.02056238
88	0xbcab9919	-0.020947026
89	0x3bec5ae4	0.0072129834
90	0xbc949f8f	-0.01814249
91	0xbd5bc54e	-0.05365496
92	0x3db8570e	0.09000979
93	0x3d26881a	0.04065714
94	0xbde10e4a	-0.109890535
95	0x3d8a89e0	0.06764579
96	0x3caae7e1	0.020862522
97	0x3d91b462	0.071144834
98	0x3d603825	0.054741044
99	0xbdbe31d2	-0.09286846
100	0x3b0f9911	0.0021911303
101	0xbdba1395	-0.09085766
102	0x3c4086fe	0.011750935
103	0xbc81c050	-0.015838772
104	0xbd897b65	-0.06712989
105	0x3b8bbac4	0.0042642076
106	0xbdd0a134	-0.10186997
107	0xbd9f8411	-0.077888615
108	0xbd5c8cfd	-0.053845394
109	0xbbbb9e95	-0.0057256916
110	0xbdabdbad	-0.08391509
111	0x3dccd23e	0.10001038
112	0xbd7627a6	-0.060096405
113	0xbd43a3eb	-0.047763746
114	0x3cc03f93	0.023467815
115	0xbba38a9d	-0.004990889
116	0x3d87e6c2	0.066358104
117	0xbd884a32	-0.06654777
118	0x3d52a96a	0.051431097
119	0xbdc88a68	-0.09792024
120	0xbd8fce3e	-0.070217595
121	0x3cf2b161	0.029625596
122	0x3dd2fec8	0.10302502
123	0xbd1415f4	-0.03615375
124	0x3d1a2e0d	0.037641574
125	0xbcdaeb5e	-0.02672356
126	0xbdec2a6d	-0.115315296
127	0xbdae8795	-0.08521954
128	0xbcf8410d	-0.030304456
129	0x3d137155	0.035996754
130	0xbd7dc844	-0.061958566
131	0xbce575ec	-0.028010331
132	0x3d5dbb52	0.05413372
133	0x3caae934	0.020863153
134	0x3d94b28b	0.07260617
135	0xbd546d09	-0.051861797
136	0xbb99758e	-0.004683203
137	0x3c095d3f	0.008384048
138	0xbc84400a	-0.016143817
139	0x3ded199b	0.115771495
140	0xbbe60b45	-0.0070203864
141	0xbd3753a6	-0.044757508
142	0x3cc00672	0.023440573
143	0xbd05cde0	-0.03266704
144	0x3c8c9981	0.01716304
145	0xbd898bb5	-0.067161
146	0xbdca4d1f	-0.09877991
147	0x3dd78cf5	0.10524932
148	0xbca2e481	-0.01988435
149	0xbd0515a4	-0.03249134
150	0xbd83ef75	-0.06442157
151	0xbb874d09	-0.0041290564
152	0x3deb7e1f	0.11498665
153	0xbdd1fd76	-0.10253422
154	0xbd8145df	-0.06312155
155	0xbdb948fd	-0.090471245
156	0xbdaef9fe	-0.08543776
157	0x3d776f33	0.060408782
158	0xbcc2e68b	-0.023791572
159	0xbd42a069	-0.04751626
160	0x3da6f37e	0.08151911
161	0xbdb149aa	-0.086566284
162	0xbd324e5a	-0.043531753
163	0xbda37e72	-0.07983102
164	0xbdd37937	-0.10325854
165	0xbd6b2c0f	-0.057415064
166	0xbda13da3	-0.078730844
167	0xbd083671	-0.033255044
168	0xbd43fed7	-0.047850456
169	0x3db148f1	0.086564906
170	0xbdc8d407	-0.09806066
171	0x3d8d0e3c	0.068874806
172	0x3cccce77	0.025000794
173	0x3cc875dd	0.024470264
174	0xbd767cea	-0.06017772
175	0x3dc9a5b4	0.098460585
176	0xbb1ac3aa	-0.002361516
177	0x3c02fe6c	0.007995229
178	0xbc401508	-0.011723764
179	0xbd1ecf2a	-0.038771786
180	0x3d379c92	0.04482705
181	0x3de244f3	0.11048307
182	0xbb1f224f	-0.0024281924
183	0xbb5ea6b3	-0.0033973872
184	0xbd238b52	-0.039927788
185	0x3d28f4fc	0.04124926
186	0x3da07dae	0.078364715
187	0xbd5ef848	-0.054436
188	0xbdb9dbed	-0.09075151
189	0x3d01b640	0.031667948
190	0x3da15ae3	0.078786634
191	0x3dcf491a	0.10121365
192	0x3dd5dff5	0.10443107
193	0x3c587e80	0.013213754
194	0xbdb1eab5	-0.08687345
195	0xbd614239	-0.054994795
196	0xbdbdf7b4	-0.09275761
197	0xbd8e8a26	-0.069599435
198	0x3cb9b60f	0.02266982
199	0x3ca3a35d	0.019975359
200	0x3d848f76	0.064726755
201	0x3cf26437	0.029588802
202	0x3d8d792a	0.06907876
203	0x3dd4cc39	0.10390515
204	0xbd92f339	-0.07175297
205	0x3ccde721	0.025134625
206	0x3aeb8595	0.0017968888
207	0xbdee8a48	-0.11647469
208	0x3d9b7ef6	0.07592575
209	0x3ddac55e	0.10682176
210	0xbdedf0a3	-0.116181634
211	0xbd09e185	-0.033662338
212	0xbda15395	-0.0787727
213	0x3dd0f6ef	0.10203349
214	0x3daf4b28	0.08559257
215	0xbdb8b870	-0.09019554
216	0x3dc6228b	0.09674557
217	0x3c0eb232	0.008709477
218	0xbd4292cc	-0.047503278
219	0x3d124300	0.035708427
220	0x3d8f3e4d	0.06994305
221	0x3c5f155d	0.013615933
222	0x3d96cf07	0.07363706
223	0x3db09d0e	0.08623706
224	0xbbc604f5	-0.0060430714
225	0x3dc631d4	0.09677473
226	0xbd440eb1	-0.047865573
227	0x3d0dc22e	0.034609012
228	0x3db80ccf	0.08986818
229	0x3d824fde	0.0636289
230	0xbd8181ad	-0.06323562
231	0x3d88b93c	0.06675956
232	0x3dc57c29	0.09642822
233	0x3d8357a6	0.06413202
234	0xbd5754cb	-0.0525711
235	0xbd0f9a99	-0.035059545
236	0x3daadad2	0.08342518
237	0xbc2bdd5d	-0.010489789
238	0x3c55dc82	0.013053061
239	0xbdc91c5d	-0.09819863
240	0x3d9fdece	0.078061685
241	0x3d42d7fd	0.047569264
242	0x3d79322c	0.060838863
243	0x3cfa0000	0.030517578
244	0x3db5906a	0.088654354
245	0xbdd6d388	-0.10489565
246	0xbd14f6a7	-0.03636804
247	0xbd026aea	-0.031840242
248	0x3d9f9984	0.07792953
249	0xbd828a80	-0.06374073
250	0xbdc72023	-0.097229265
251	0x3cd1930d	0.025582815
252	0xbd31ab7f	-0.043376442
253	0x3de68267	0.11255341
254	0xbdeb4350	-0.11487448
255	0xbce0c08b	-0.027435562

backbone.model.3.0.model.0.bias f4 [16]
0	0x3c22e24f	0.0099416515
1	0xbca379ce	-0.019955542
2	0x3dd5e128	0.10443336
3	0xbda942f4	-0.082647234
4	0xbdddb556	-0.10825603
5	0xbd84ddd3	-0.06487622
6	0x3db0c666	0.086315915
7	0xbd1b458b	-0.03790812
8	0xbcac95db	-0.02106755
9	0x3db43121	0.08798433
10	0x3dc6c331	0.097051986
11	0xbd0f8b35	-0.035044868
12	0xbd9924ee	-0.07477747
13	0x3c632b7d	0.013865349
14	0x3d7d327d	0.061815728
15	0x3d05958f	0.032613333
