software/logs/hyper_parameter_tuning/custom_model_hp/version_10/checkpoints/epoch=0-step=20.ckpt (torch, 195567 bytes, 54 tensors)

backbone.model.0.0.model.0.weight f4 [4, 2, 5, 5]
0	0xbdad0594	-0.084483296
1	0x3da6b3ac	0.081397384
2	0xbd30e800	-0.043190002
3	0x3e0b84b1	0.13624837
4	0xbdd888af	-0.10572945
5	0xbd9e5757	-0.077315025
6	0xbde80772	-0.11329545
7	0x3dc19027	0.09451323
8	0xbd2e1a7b	-0.042505722
9	0xbcc1a660	-0.023638904
10	0xbd3c0405	-0.04590227
11	0x3dc0feda	0.09423609
12	0xbd8491b0	-0.064731
13	0x3d4dde3f	0.05026078
14	0xbde18808	-0.11012274
15	0x3e03c03a	0.12866297
16	0xbce5a306	-0.028031837
17	0xbdb0e4ff	-0.086374275
18	0x3de8628f	0.113469236
19	0x3b94a90e	0.0045367545
20	0xbdbd528d	-0.09244261
21	0x3d8db133	0.06918564
22	0x3c8520b6	0.01625095
23	0x3de89fd0	0.11358607
24	0x3dd662a7	0.10468035
25	0x3c24dea4	0.010062847
26	0x3dfd4b37	0.12367862
27	0xbda869f7	-0.08223336
28	0xbca68c74	-0.020330645
29	0xbd3f1c67	-0.046657946
30	0xbe0e3b00	-0.13889694
31	0xbdf8f00c	-0.1215516
32	0x3dd72c6d	0.105065204
33	0xbd14380b	-0.03618626
34	0xbce2334f	-0.027612356
35	0xbd995b1a	-0.07488079
36	0xbda6e79c	-0.08149645
37	0x3e08f88a	0.1337606
38	0xbdb966bc	-0.09052798
39	0xbe10b8ca	-0.14132991
40	0x3d3f2af3	0.04667182
41	0x3c8c4eb1	0.017127367
42	0xbd294b91	-0.04133183
43	0x3db0abfa	0.08626552
44	0xbcca0f45	-0.024665484
45	0x3de1c6e7	0.11024266
46	0x3dbb910f	0.09158527
47	0xbdb0e88a	-0.08638103
48	0xbce75225	-0.028237412
49	0xbcff31ab	-0.031151613
50	0x3dc9ede2	0.09859826
51	0x3cfce017	0.030868573
52	0x3ce449fd	0.027867312
53	0xbe0011ca	-0.12506786
54	0xbb702a5f	-0.003664635
55	0xbc14adef	-0.009074672
56	0x3dac2bb8	0.08406776
57	0x3d97554c	0.07389316
58	0xbd76e8af	-0.060280498
59	0x3ca774f4	0.02044151
60	0xbdef7733	-0.11692657
61	0xbe0d3e73	-0.13793354
62	0xbd7a4efe	-0.06111049
63	0x3c3dc9bc	0.011583742
64	0x3dfbeaa5	0.12300614
65	0x3dcd9752	0.10038628
66	0x3e07ec96	0.13273844
67	0xbe0f7ad6	-0.14011702
68	0x3d89af27	0.06722861
69	0x3d04290c	0.032265708
70	0xbdc5eb9b	-0.09664079
71	0xbd614ae2	-0.055003054
72	0xbe04d8e7	-0.12973367
73	0xba3de945	-0.00072445377
74	0xbe0dea39	-0.1385888
75	0xbd6aa3f2	-0.057285257
76	0xbdc2dfda	-0.095153525
77	0x3e0a2877	0.13491999
78	0xbd992723	-0.07478168
79	0xbbca1a95	-0.0061677196
80	0x3df5a543	0.11994412
81	0xbb759b5f	-0.0037476642
82	0xbb1cb395	-0.002391075
83	0xbd9296b9	-0.07157654
84	0x3d3c9d8d	0.04604869
85	0x3bfb8a19	0.0076763746
86	0x3da2bc35	0.07946054
87	0xbe02bd09	-0.12767424
88	0xbe0918c0	-0.13388348
89	0x3d2ce3ac	0.042209312
90	0xbca38ae0	-0.019963682
91	0x3cdd8214	0.027039565
92	0x3dc30e88	0.09524256
93	0xbdcd3b9a	-0.10021134
94	0xbde9cd23	-0.1141608
95	0x3d73a55d	0.059483875
96	0x3d2aa60d	0.041662265
97	0x3d56d403	0.052448284
98	0xbe0ce702	-0.13759997
99	0x3c4d3845	0.012525623
100	0xba8e7c87	-0.0010870852
101	0xbd89f869	-0.067368336
102	0x3de24c38	0.11049694
103	0x3cf10989	0.029423492
104	0x3df5c6d5	0.12000815
105	0xbdd0b72a	-0.10191186
106	0x3dc8ab9a	0.097983554
107	0xbe03e8b2	-0.12881735
108	0x3ca91b97	0.020643039
109	0xbc699d2f	-0.014258667
110	0xbe0c3a31	-0.13694073
111	0xbd717750	-0.058951676
112	0xbd5d26c1	-0.053992037
113	0xbdefaa0d	-0.117023565
114	0xbc4769dc	-0.012171235
115	0x3d4f0e44	0.050550714
116	0x3d5e065c	0.054205284
117	0x3cd746ea	0.026278932
118	0xbc9303de	-0.01794618
119	0x3d9cfa84	0.076649696
120	0xbd0cde38	-0.03439161
121	0xbd69ee38	-0.05711195
122	0xbd9656bf	-0.07340764
123	0xbdf48e5d	-0.11941216
124	0xbe0a967b	-0.13533966
125	0x3d0d3d89	0.034482513
126	0x3c5fac18	0.01365187
127	0xbd07869f	-0.03308737
128	0x3dfbcb48	0.12294632
129	0xbd638b4d	-0.05555277
130	0x3db0a4c5	0.08625177
131	0xbd0e955e	-0.034810416
132	0x3db7082f	0.08937108
133	0x3dd9104c	0.105988115
134	0xbe0c4358	-0.13697565
135	0xbdb098fb	-0.08622929
136	0xbdc542d4	-0.09631887
137	0x3d26df46	0.040740274
138	0xbaac264a	-0.001313397
139	0xbe070da6	-0.131888
140	0x3dd0cebb	0.10195681
141	0x3cdd9add	0.027051384
142	0xbdea2010	-0.11431897
143	0x3db903c6	0.09033923
144	0xbc8023da	-0.015642095
145	0xbdb28b99	-0.087180324
146	0xbd3f6584	-0.046727672
147	0xbdc89c34	-0.097954184
148	0x3d40acae	0.04703968
149	0xbdcc74c3	-0.09983208
150	0xbdeb6c23	-0.11495235
151	0x3d809725	0.062788285
152	0xbc33ecde	-0.0109817665
153	0x3d6b452b	0.05743901
154	0xbdb6d2d3	-0.0892693
155	0xbd5c558f	-0.053792533
156	0x3e02a6ca	0.12758937
157	0xbcf0a106	-0.029373657
158	0xbdd0b259	-0.10190267
159	0xbd5f4ceb	-0.054516714
160	0x3d8ede2a	0.06975968
161	0x3d2f04f0	0.04272932
162	0x3c2f576c	0.010701995
163	0x3d7d0e55	0.061781246
164	0x3c8862ac	0.016648613
165	0xbdb7c7d4	-0.08973661
166	0x3e0d0d87	0.13774692
167	0xbdff8012	-0.12475599
168	0x39c6383f	0.0003780741
169	0x3de8cf96	0.11367719
170	0x3cb250df	0.021767078
171	0xbcaa4ac3	-0.020787602
172	0x3bf3cb83	0.007440032
173	0xbd6630f9	-0.056199048
174	0xbd01e88b	-0.03171591
175	0x3e006080	0.12536812
176	0x3dd57da6	0.10424356
177	0x3db3fae7	0.0878809
178	0x3da8634d	0.08222065
179	0xbe096462	-0.13417199
180	0xbe0b48a9	-0.13601936
181	0xbdc8f39d	-0.098120905
182	0xbd958a2c	-0.07301745
183	0xbc2a89c4	-0.010408822
184	0x3cc2d215	0.023781816
185	0x3d44d3c3	0.048053514
186	0x3db966ce	0.090528116
187	0x3d64eb43	0.055888426
188	0x3a884542	0.0010396617
189	0x3d11c02c	0.03558366
190	0xbdca562c	-0.09879717
191	0x3da9890a	0.08278091
192	0x3d2c602f	0.042083915
193	0xbe079082	-0.13238719
194	0x3dde879a	0.10865708
195	0xbde79b7d	-0.11308954
196	0x3e01899f	0.12650155
197	0xbe014831	-0.12625195
198	0xbdd190f2	-0.10232724
199	0x3cfe0201	0.031006815

backbone.model.0.0.model.0.bias f4 [4]
0	0x3da766cd	0.081739046
1	0x3df3d6ce	0.11906205
2	0xbd1b607e	-0.03793382
3	0x3d802fa0	0.06259084

backbone.model.0.1.model.0.weight f4 [4, 4, 5, 5]
0	0xbd23aa2a	-0.039957203
1	0x3d2ce7fa	0.042213418
2	0x3d633c9d	0.055477727
3	0x3dc41298	0.09573859
4	0xbd43242a	-0.04764191
5	0xbd057337	-0.03258058
6	0xbdc6c868	-0.09706193
7	0x3d737d8a	0.059445895
8	0xbd3efeca	-0.046629705
9	0x3d854dab	0.065089546
10	0xbda6319b	-0.0811493
11	0xbd80efed	-0.06295762
12	0x3daffd45	0.08593229
13	0x3d5a9cb7	0.05337211
14	0x3c07c540	0.008286774
15	0x3cb97de0	0.02264303
16	0xbca83120	-0.020531237
17	0xbc53e140	-0.012932122
18	0xbccf6e13	-0.025321042
19	0x3d623f7d	0.05523633
20	0xbbf46d00	-0.007459283
21	0x3dabe9a7	0.08394175
22	0xbd10ea07	-0.035379436
23	0x3d7bafb7	0.06144687
24	0x3d8fbf20	0.07018876
25	0x3da70562	0.081553236
26	0x3da67aff	0.081289284
27	0xbdadb622	-0.08482005
28	0x3d22cf07	0.039748218
29	0xbc57d733	-0.013173866
30	0xbd8e9dab	-0.069636665
31	0x3d9aef4d	0.07565174
32	0x3d0db3d3	0.034595322
33	0xbd60f2b3	-0.054918956
34	0xbc024f5a	-0.007953489
35	0xbdaffa9a	-0.0859272
36	0xbcf047e0	-0.029331148
37	0xbdc75595	-0.0973312
38	0xbd142cbd	-0.03617548
39	0xbdc9d41a	-0.09854908
40	0x3d28a0e7	0.041169073
41	0xbc2a1be7	-0.010382629
42	0x3bf680cd	0.0075226785
43	0xbda122a8	-0.07867938
44	0x3dc3256a	0.095286205
45	0x3d8b6bd3	0.06807675
46	0x3cb27860	0.021785915
47	0xbd155513	-0.036458086
48	0x3d8420d7	0.06451576
49	0x3d8ce178	0.06878942
50	0xbd364493	-0.04449899
51	0xbb0a289a	-0.002108133
52	0xbccd864d	-0.025088454
53	0xbd3ddbb3	-0.0463521
54	0x3d13c26a	0.03607408
55	0xbd0945fa	-0.033514
56	0xbdb126d5	-0.08649985
57	0xbbdcba67	-0.006736088
58	0xbdc37e2f	-0.09545552
59	0x3dc788d2	0.09742893
60	0x3d9e4620	0.07728219
61	0x3c01bd73	0.007918703
62	0x3d6cf570	0.057851255
63	0xbc3cab4d	-0.011515451
64	0xbdc9d9d2	-0.09855999
65	0xbda1d86a	-0.07902606
66	0xbcdd971a	-0.02704959
67	0x3b93c31a	0.004509342
68	0xbdc126a2	-0.09431197
69	0x3d842993	0.06453242
70	0x3d739253	0.059465718
71	0xbd64b90d	-0.05584054
72	0x3c149b5a	0.009070242
73	0xbc90bde0	-0.017668664
74	0x3ceda0b3	0.029007291
75	0xbd0a23fa	-0.033725716
76	0x3c68049a	0.014161253
77	0xbda720aa	-0.08160527
78	0xbd0b582a	-0.034019627
79	0xbdbe49a7	-0.09291392
80	0xbccc744d	-0.0249578
81	0xbd441327	-0.047869828
82	0x3da406f5	0.080091394
83	0xbcb69093	-0.022285735
84	0xbd807bc2	-0.06273605
85	0x3dad1fef	0.084533565
86	0x3cfb4753	0.030673658
87	0xbdabd8f3	-0.08390989
88	0xbcc1f7ad	-0.023677671
89	0x3da594e2	0.08085038
90	0x3d8ba60b	0.068187796
91	0xbdc98057	-0.09838932
92	0xbca016e7	-0.01954217
93	0x3d5d8607	0.054082897
94	0x3d2f1bf7	0.04275128
95	0x3c3bd15a	0.0114634875
96	0xbd9e7e58	-0.07738942
97	0xbd8e8ea5	-0.06960801
98	0x3b55d29a	0.003262675
99	0xbd9f2da3	-0.077723764
100	0xbd337c3d	-0.043819655
101	0x3c8883e0	0.016664445
102	0x3d56353d	0.052296866
103	0x3d4a762d	0.049429107
104	0x3d1e988d	0.038719703
105	0xbc417e73	-0.011809933
106	0x3ceca580	0.02888751
107	0xbc05f5da	-0.008176291
108	0xbd927a82	-0.07152273
109	0x3d0f198d	0.034936476
110	0x3a814ecd	0.0009865403
111	0xbd9276fb	-0.071516
112	0x3d25ddfa	0.040494896
113	0xbd809da2	-0.06280066
114	0x3dba6e40	0.0910306
115	0xbd1d7880	-0.038444996
116	0xbdbbedc8	-0.091762125
117	0x3d52eead	0.05149715
118	0xbcc7df1a	-0.024398375
119	0xbcc4f2d3	-0.024041569
120	0xbc918380	-0.0177629
121	0x3d8097bd	0.06278942
122	0xbd84a19d	-0.06476138
123	0x3b856acd	0.0040715695
124	0x3ce6385a	0.028103042
125	0xbd8d42d0	-0.06897509
126	0xbd26dca0	-0.04073775
127	0xbdcc4105	-0.09973339
128	0x3c278b4d	0.010226083
129	0x3d82af68	0.06381112
130	0xbd87e74f	-0.066359155
131	0xbd637c07	-0.055538204
132	0xbdbfd208	-0.09366232
133	0x3d851702	0.06498529
134	0xbd39e9ea	-0.045389093
135	0x3d5dd053	0.05415375
136	0xbdb4aa4f	-0.08821546
137	0x3d279e1d	0.040922273
138	0x3dc95ff8	0.09832758
139	0x3d9d38a5	0.0767682
140	0x3d707baa	0.058711685
141	0x3d7b6e43	0.06138445
142	0xbcc629c7	-0.024189843
143	0x3ca6d01a	0.020362902
144	0x3cff5f53	0.031173384
145	0xbdb36ef8	-0.087614
146	0x3da52680	0.08063984
147	0x3d53d093	0.051712584
148	0xbdbe0815	-0.09278885
149	0x3d6952c0	0.056963682
150	0x3c78e90d	0.015192282
151	0x3d1cf9a7	0.038324025
152	0xbdbf1f43	-0.093321346
153	0xbdbf9d88	-0.093562186
154	0xbd6c9f80	-0.0577693
155	0x3d109380	0.035296917
156	0xbd855025	-0.06509427
157	0xbd7fa1e7	-0.06241026
158	0x3dc40e10	0.09572995
159	0xbd971830	-0.0737766
160	0xbdcbd4a2	-0.09952666
161	0xbd939b08	-0.07207304
162	0xbda0d1e2	-0.07852532
163	0x3dbd639a	0.09247513
164	0xbd824a9f	-0.06361889
165	0xbdbf453b	-0.093393765
166	0xbbda3767	-0.0066594365
167	0x3d44665d	0.047949184
168	0xbdcbdef5	-0.09954635
169	0xbda51caa	-0.08062108
170	0xbcdbb7e0	-0.026821077
171	0xbd75722a	-0.05992333
172	0xbdb1958a	-0.086711004
173	0xbd19f8a3	-0.037590634
174	0x3d74f52a	0.05980412
175	0xbda65005	-0.08120731
176	0x3d08faf0	0.033442438
177	0x3af45d33	0.0018643498
178	0x3cf60e0d	0.030035997
179	0xbd8f2c4b	-0.0699087
180	0x3d8f1da2	0.06988074
181	0xbd87d7ba	-0.066329435
182	0x3db2e7e3	0.08735635
183	0xbd4619d3	-0.04836447
184	0x3c8df96d	0.01733085
185	0xbd1f17a0	-0.03884089
186	0x3dcac68b	0.0990115
187	0xbd85c8c5	-0.065324344
188	0x3d268ac3	0.040659677
189	0x3c4523c0	0.012032449
190	0x3ac04133	0.0014667868
191	0xbd9f6ccf	-0.077844255
192	0xbd5f9ddd	-0.05459391
193	0xbd6e373d	-0.058158148
194	0x3db1e41f	0.08686089
195	0x3c1e6df3	0.009669769
196	0xbc98f37a	-0.018670786
197	0xbd5ae727	-0.0534431
198	0x3ba93a33	0.0051644086
199	0xbd4004da	-0.046879627
200	0xbd5a3b63	-0.05327929
201	0x3c28cb8d	0.010302437
202	0xbcdef11a	-0.027214576
203	0x3d9005e3	0.07032373
204	0xbd8e2c18	-0.06942004
205	0x3daa993d	0.08330009
206	0x3da11217	0.078647785
207	0x3d78c10d	0.060730983
208	0x3d5ce61a	0.05393038
209	0x3cc1db47	0.02366413
210	0xbd161de3	-0.036649596
211	0xbc1ef2c0	-0.009701431
212	0x3daa92bb	0.08328768
213	0x3cc847ba	0.024448264
214	0x3d56054a	0.052251138
215	0xbd500a47	-0.05079105
216	0x3dc774b2	0.09739055
217	0xbd70e68d	-0.05881362
218	0x3b620067	0.0034485103
219	0xbda71202	-0.081577316
220	0xbd3757c7	-0.044761445
221	0xbda6b8ff	-0.08140754
222	0xbaf3a867	-0.0018589617
223	0xbda25782	-0.07926847
224	0xbd19034a	-0.037356652
225	0xbc9a428d	-0.018830562
226	0xbb2dafcd	-0.002650249
227	0xbd538730	-0.051642597
228	0x3d8db0d0	0.0691849
229	0x3d0790e7	0.033097174
230	0xbd6558b3	-0.055992793
231	0x3bb86a00	0.0056278706
232	0x3dcb6992	0.09932245
233	0xbd1beeb3	-0.03806944
234	0x3d5c30c7	0.053757455
235	0xbdc29ecf	-0.095029466
236	0x3c53f88d	0.012937677
237	0x3c5097da	0.012731517
238	0x3d3db63d	0.046316374
239	0x3b072733	0.002062273
240	0x3da014fb	0.07816502
241	0xbd1e3970	-0.038628995
242	0xbdc22538	-0.09479755
243	0xbcdcc3d3	-0.026948845
244	0x3d9577e0	0.07298255
245	0xbd8ea3b7	-0.0696482
246	0xbdbe0f2d	-0.09280238
247	0xbdbffc6b	-0.09374317
248	0xbd998353	-0.07495751
249	0x3d7abc30	0.061214626
250	0xbda586d7	-0.08082359
251	0xbbf4adcd	-0.0074670077
252	0xbca61f00	-0.020278454
253	0x3d8e05bd	0.06934688
254	0x3d864220	0.06555581
255	0x3c5ef71a	0.013608718

backbone.model.0.1.model.0.bias f4 [4]
0	0x3c7a10da	0.015262807
1	0xbd119b93	-0.035548758
2	0x3da51bd8	0.080619514
3	0x3bce8867	0.0063028815

backbone.model.1.0.model.0.weight f4 [8, 4, 5, 5]
0	0xbd20ed9d	-0.039289106
1	0x3c6c08f3	0.014406431
2	0xbd2b432a	-0.0418121
3	0x3cf04ffa	0.02933501
4	0xbc9a5a40	-0.018841863
5	0x3d121390	0.035663188
6	0xbcee9f53	-0.029128706
7	0xbd25cd03	-0.040478718
8	0x3d84afed	0.06478868
9	0xbd96a3db	-0.07355472
10	0xbd6dd8c3	-0.05806805
11	0xbc89e8d3	-0.016834652
12	0xbd4f63c0	-0.05063224
13	0xbd520d73	-0.051282357
14	0xbc96f540	-0.018427491
15	0x3d924c22	0.071434274
16	0xbd7e314d	-0.062058736
17	0x3cac1173	0.021004414
18	0x3cbe08c0	0.023197532
19	0x3da21747	0.07914596
20	0xbd691487	-0.056904342
21	0xbceb53da	-0.028726507
22	0x3da3bd90	0.079951406
23	0xbd0cb8d7	-0.034355965
24	0xbaa46a67	-0.0012543917
25	0xbdc41012	-0.09573378
26	0xbd146637	-0.036230292
27	0x3d032180	0.03201437
28	0xbc7a8fb3	-0.01529305
29	0xbd0dccbd	-0.03461908
30	0xba53a733	-0.0008073926
31	0xbd42e9b7	-0.04758617
32	0x3d0a5be3	0.033779036
33	0xbdb58992	-0.0886413
34	0xbd78b4e7	-0.060719397
35	0xbdbd5c2a	-0.092460945
36	0x3d196643	0.03745104
37	0x3d760fa3	0.060073506
38	0xbdc16d5d	-0.094446875
39	0xbda2cbe2	-0.07949044
40	0xbda2618b	-0.07928761
41	0xbd9b51e8	-0.07583982
42	0x3c288bda	0.010287249
43	0x3d72b9cd	0.059259225
44	0xbcbce56d	-0.023058617
45	0xbd454110	-0.04815775
46	0x3db4d303	0.0882931
47	0x3d283047	0.041061666
48	0xbd84fc77	-0.06493466
49	0xbd7a6640	-0.06113267
50	0xbcd73aad	-0.026273096
51	0x3d11486a	0.03546945
52	0x3d92035b	0.07129546
53	0x3d8d3312	0.068945065
54	0xbd857902	-0.06517221
55	0x3d7dfdb3	0.062009525
56	0xbd4d4b47	-0.05012062
57	0xbd63f087	-0.055649307
58	0x3bdacc67	0.0066771987
59	0x3db5587a	0.08854766
60	0x3cfb63da	0.030687261
61	0x3c6c5e33	0.014426756
62	0x3d7dc38d	0.06195407
63	0x3cd5266d	0.0260193
64	0xbd5ff803	-0.05467988
65	0x3d8fdf4b	0.07025012
66	0xbc2cda8d	-0.010550153
67	0xbc986be0	-0.018606126
68	0xbdc4cad8	-0.09609002
69	0x3c308db3	0.010775971
70	0x3d4f46f3	0.05060477
71	0xbcea7c33	-0.028623676
72	0x3c00c100	0.007858515
73	0x3d9c4227	0.07629805
74	0xbd889127	-0.066683106
75	0x3c07b65a	0.008283222
76	0xbbc3a867	-0.005971003
77	0xbd61075d	-0.054938663
78	0xbd14271d	-0.036170114
79	0x3cd4b840	0.025966763
80	0x3cd2fe6d	0.025756085
81	0xbd66bcca	-0.056332387
82	0x3da3fdbf	0.080073826
83	0xbcde731a	-0.027154494
84	0xbd894823	-0.06703212
85	0xbda4203f	-0.08013963
86	0x3db57a73	0.08861246
87	0xbd94afa0	-0.0726006
88	0x3bbe6367	0.0058101895
89	0xbdaae610	-0.08344662
90	0x3dc4caa7	0.09608965
91	0xbd30e4da	-0.043187
92	0x3dc7b2d7	0.09750908
93	0xbcd88d67	-0.026434613
94	0x3cca79ed	0.024716342
95	0xbc5d665a	-0.013513172
96	0xbd469d6a	-0.048489965
97	0xbd745aa0	-0.05965674
98	0x3d104137	0.035218444
99	0xbd32b113	-0.043625902
100	0x3d730063	0.05932654
101	0xbcff59a7	-0.03117068
102	0xbd874cf7	-0.06606477
103	0xbcebe387	-0.028795017
104	0xbda9ab35	-0.08284608
105	0x3d44a337	0.048007216
106	0x3dc6f82a	0.09715302
107	0x3d915d37	0.070978574
108	0xbd02239d	-0.031772245
109	0xbd85efdf	-0.065398924
110	0xbc095bcd	-0.008383703
111	0x3d9f7318	0.07785624
112	0x3d96b3f5	0.07358543
113	0x3dc01110	0.093782544
114	0x3b040d00	0.002014935
115	0x3d4babda	0.049724437
116	0x3dc9fc13	0.098625325
117	0xbda95b13	-0.08269324
118	0xbca054fa	-0.01957177
119	0x3d9a35c5	0.07529787
120	0xbd84f540	-0.0649209
121	0x3d89b4d3	0.067239426
122	0x3da8a472	0.082344905
123	0xbd3e1ded	-0.04641526
124	0x3d8846d3	0.06654134
125	0x3dc8495b	0.097796164
126	0xbd1a7eb3	-0.037718486
127	0xbd9054fa	-0.07047458
128	0x3d43cf4a	0.047805108
129	0xbd9e7243	-0.077366374
130	0xbd94cba3	-0.07265403
131	0xbd625f67	-0.055266764
132	0x3d77869a	0.0604311
133	0xbdb3512a	-0.08755715
134	0x3c2b1a8d	0.010443342
135	0x3b9a534d	0.0047096373
136	0x3cfa591a	0.030560065
137	0x3b86951a	0.0041071298
138	0xbdc588c7	-0.09645229
139	0xbcde4f5a	-0.027137447
140	0xbd4c99ca	-0.049951352
141	0x3d93d4cf	0.072183244
142	0xbcb2d3b3	-0.021829462
143	0x3dc25fc2	0.094909206
144	0xbdb73d42	-0.08947231
145	0x3a41c8cd	0.00073922874
146	0xbd4b0cd7	-0.049572792
147	0x3c322173	0.010872233
148	0xbdb5d828	-0.08879119
149	0x3db0d247	0.08633857
150	0xbd56f04a	-0.05247525
151	0x3d217a57	0.039423313
152	0xbd0c8a03	-0.034311306
153	0xbc22d0a7	-0.009937442
154	0xbca9b5b3	-0.020716524
155	0x3d81eca8	0.06343967
156	0xbd6ea6fa	-0.05826471
157	0x3d699c73	0.057033967
158	0xbbc80533	-0.0061041354
159	0x3da0d10b	0.07852372
160	0x3c8f41e0	0.017487466
161	0x3d713207	0.0588856
162	0x3cc506a7	0.024051024
163	0xbd6577d3	-0.056022476
164	0x3c744027	0.014907873
165	0xbca2df4d	-0.019881869
166	0xbd9c1873	-0.07621851
167	0xbc97c45a	-0.018526245
168	0xbd54b8b3	-0.051933955
169	0x3d9cf3ea	0.076637104
170	0x3d72470d	0.05914979
171	0xbd8aa89b	-0.0677044
172	0x3d26e34d	0.040744115
173	0xbdc6de6f	-0.097103946
174	0xbdc82d75	-0.09774295
175	0x3d343070	0.043991506
176	0x3d29c120	0.041443944
177	0xbd33a68a	-0.043859996
178	0xbda2d4ef	-0.0795077
179	0x3cc1f06d	0.023674214
180	0x3d8b278a	0.06794651
181	0x3c67335a	0.014111364
182	0x3cc8fbba	0.024534095
183	0xbcbeb17a	-0.023277987
184	0x3d09e400	0.033664703
185	0x3d8c295d	0.06843827
186	0x3d9dd9e5	0.07707576
187	0x3d927167	0.07150536
188	0x3db524fb	0.08844944
189	0xbb1516cd	-0.0022749186
190	0x3ce151c7	0.027504815
191	0x3cb2f047	0.021843089
192	0xba8b8a00	-0.0010645986
193	0x3c02c880	0.007982373
194	0x3da42398	0.080146015
195	0x3ccd3dda	0.025053907
196	0xbd9c33b8	-0.07627052
197	0xbca7aee0	-0.02046913
198	0x3dbac03b	0.09118696
199	0xbc12885a	-0.008943642
200	0x3d83ddef	0.06438815
201	0x3d6efc6d	0.0583462
202	0xbdc0e17a	-0.09418006
203	0x3dc3efcb	0.09567221
204	0x3db57f53	0.08862176
205	0xbbb6a267	-0.005573559
206	0x3c930533	0.017946815
207	0xbdbd1027	-0.092315964
208	0xbb8f4fcd	-0.0043735267
209	0x3d6acea7	0.057325985
210	0x3d309c43	0.043117773
211	0x3b9253b3	0.004465544
212	0x3d4e5afa	0.05037973
213	0xbc99083a	-0.01868068
214	0xbd35fb77	-0.04442927
215	0xbdaa3078	-0.08310026
216	0x3dbccd33	0.09218826
217	0x3d2c6add	0.0420941
218	0xbd8e6d3b	-0.06954428
219	0xbd1288d0	-0.035775006
220	0xbd1ad390	-0.037799418
221	0x3d23b717	0.03996953
222	0x3dcc4550	0.09974158
223	0xbc8c49a7	-0.017124964
224	0x3c5f685a	0.013635719
225	0xbd9ffc1b	-0.07811757
226	0xbcd784ad	-0.026308382
227	0xbc7b8480	-0.015351415
228	0xbdb0fc92	-0.08641924
229	0xbc89f03a	-0.016838182
230	0x3d8ac3db	0.06775638
231	0x3d3b6c67	0.045757677
232	0xbc9c8087	-0.019104255
233	0xbd009c70	-0.03139919
234	0xbd5bba8d	-0.053644706
235	0x3cf14c20	0.029455245
236	0xbd8f2d65	-0.0699108
237	0x3d7a2033	0.061065864
238	0x3d5f83c7	0.054569032
239	0x3d9fc6f8	0.07801622
240	0x3cbf8187	0.023377193
241	0xbdb8cbd5	-0.09023253
242	0xbad89ccd	-0.0016526222
243	0xbd746567	-0.059667017
244	0xbda9b723	-0.08286884
245	0x3d55b0bd	0.052170504
246	0xbd9d3bc5	-0.07677416
247	0xbd9785a0	-0.07398534
248	0xbd97dc93	-0.07415118
249	0xbc2f4b27	-0.01069907
250	0x3b417767	0.0029520632
251	0x3d3eb8d3	0.04656298
252	0xbd43aa83	-0.047770035
253	0x3dc4c5a0	0.096080065
254	0x3d43b8e0	0.047783732
255	0x3cdfb487	0.027307762

backbone.model.1.0.model.0.bias f4 [8]
0	0x3d31248d	0.04324775
1	0xbdc2c9f2	-0.09511174
2	0x3d9bdc7f	0.07610416
3	0xbd0b191d	-0.033959497
4	0xbcf47d4d	-0.029844904
5	0xbd165140	-0.03669858
6	0x3d938aad	0.07204185
7	0x3d8fa472	0.07013787

backbone.model.1.1.model.0.weight f4 [8, 8, 5, 5]
0	0x3d363272	0.044481702
1	0x3c3a005c	0.011352625
2	0x3cb0bb39	0.02157365
3	0xbd908df7	-0.07058328
4	0xbd80ee4f	-0.06295454
5	0xbd8f204d	-0.06988583
6	0x3d903189	0.07040698
7	0x3cd78a1c	0.026310973
8	0x3ccaf745	0.02477611
9	0x3cdd8fd9	0.027046131
10	0xbc6b420e	-0.01435901
11	0x3d682fba	0.05668614
12	0xbd292507	-0.041295078
13	0x3d6c5e39	0.057707045
14	0xbd2acd20	-0.04169953
15	0xbd4e3689	-0.050344978
16	0xbc9241e4	-0.017853685
17	0x3d865470	0.06559074
18	0x3d85d7ea	0.06535323
19	0xbce3bde5	-0.02780051
20	0xbd1a2ecd	-0.03764229
21	0x3d4c6d96	0.049909197
22	0x3d49f39a	0.049304582
23	0x3cbb1d18	0.022841021
24	0xbd65b8e8	-0.056084543
25	0x3caa8c30	0.0208188
26	0xbd611ccc	-0.054959103
27	0x3a002d26	0.000488954
28	0xbd6877fc	-0.05675505
29	0x3aa585cd	0.0012628377
30	0xbd07614d	-0.033051778
31	0x3d49b45e	0.049244277
32	0x3d4f307d	0.05058335
33	0xbd2532ac	-0.040331528
34	0xbc9632f3	-0.018334841
35	0xbd08a5d9	-0.03336129
36	0xbd605ac9	-0.05477408
37	0x3c48fe2f	0.012267633
38	0xbcd28a87	-0.02570082
39	0x3d6b530d	0.05745225
40	0x3ce699d6	0.028149527
41	0xbd36ef33	-0.044661712
42	0x3c906a64	0.017628856
43	0xbcce735b	-0.02520149
44	0xbd8d1f9d	-0.068907954
45	0x3d246795	0.040137846
46	0xbd46efa5	-0.048568387
47	0xbd79f3a2	-0.061023362
48	0x3d1ec7f7	0.03876492
49	0xbd2b1fd5	-0.041778404
50	0x3d68d826	0.05684676
51	0xbd4fe3ab	-0.05075423
52	0x3cd84981	0.026402237
53	0xbd1bf596	-0.038076006
54	0xbd905ce9	-0.07048971
55	0x3d34ba9c	0.044123277
56	0x3d88ee4b	0.06686076
57	0xbb81f1e9	-0.0039656055
58	0x3d84d734	0.06486359
59	0x3c077f05	0.00827003
60	0xbcef0460	-0.02917689
61	0xbd821ab8	-0.063527524
62	0xbc15c22a	-0.009140531
63	0x3c06ad1d	0.008219984
64	0xbd55a0ba	-0.052155234
65	0x3d64ad50	0.055829346
66	0x3b5e9a2a	0.00339664
67	0xbc8ffc15	-0.017576257
68	0x3ce82ac9	0.028340714
69	0xbc2b5a14	-0.010458488
70	0x3d413df4	0.047178224
71	0xbc8ddb54	-0.017316498
72	0xbc27334c	-0.010205101
73	0xbc8c0b2a	-0.017095167
74	0xbb835bab	-0.0040087304
75	0x3cc9dcd5	0.024641434
76	0x3d4ccec2	0.050001867
77	0xbb3a8efc	-0.0028466573
78	0xbbb4f870	-0.00552278
79	0xb9bc7ab5	-0.00035949578
80	0x3c308fee	0.010776503
81	0x3d5c80d9	0.053833816
82	0xbcba9cef	-0.02277991
83	0xbc1ea101	-0.009681941
84	0xbd528740	-0.051398516
85	0x3d874fd3	0.06607022
86	0xbcbe9e1d	-0.023268754
87	0x3c1ebdd1	0.00968881
88	0x3d8607e0	0.06544471
89	0xbcd4a8cf	-0.0259594
90	0x3d314d93	0.04328687
91	0x3c830cee	0.015997376
92	0xbd631adf	-0.05544555
93	0xbd584a6c	-0.05280535
94	0x3d29f9c8	0.041497976
95	0x3beb6e52	0.007184782
96	0x3d83f980	0.06444073
97	0x3d730d93	0.059339117
98	0x3d6ec7a7	0.058295872
99	0xbd5bc090	-0.05365044
100	0xbcb5d7b0	-0.022197574
101	0x3d583bfb	0.052791577
102	0xbd2f428a	-0.042788066
103	0x3d39ebed	0.045391012
104	0xbd0914a2	-0.033466943
105	0xbc5525a1	-0.01300946
106	0x3bb24c19	0.0054412005
107	0xbd5f1fe9	-0.05447379
108	0x3d3d06d4	0.04614909
109	0xbcb4cef2	-0.022071335
110	0x3d2e0d10	0.042492926
111	0x3d18c352	0.037295647
112	0xbb955cdf	-0.0045581902
113	0x3ca8a0c8	0.020584479
114	0x3cc5617b	0.024094334
115	0xbcd006be	-0.02539384
116	0x3d815ee4	0.06316927
117	0xbd2efc15	-0.042720873
118	0x3d1b1711	0.037863795
119	0x3cf142c2	0.029450778
120	0xbcbc151d	-0.022959286
121	0x3d5c38a1	0.053764943
122	0x3d8c13b4	0.068396956
123	0xbd078f61	-0.03309572
124	0x3d826774	0.06367388
125	0x3cbc09fe	0.022953983
126	0xbd5d735a	-0.054065086
127	0xbd071a56	-0.0329841
128	0x3d0e082a	0.034675755
129	0x3d1aae9c	0.037764177
130	0x3cff23b4	0.031144954
131	0x3d21a85d	0.039467204
132	0x3ce7a4d3	0.028276836
133	0xbd8268b6	-0.06367628
134	0xbcc6df3b	-0.024276366
135	0xbd8a51c0	-0.06753874
136	0x3d8428f6	0.06453125
137	0xbbb3cbd8	-0.0054869466
138	0xbd6133a6	-0.054980896
139	0xbd66782c	-0.05626695
140	0x3d4a16f7	0.049338307
141	0x3d84f65b	0.06492301
142	0xbd4b89fc	-0.04969214
143	0xbb3496a5	-0.0027555611
144	0x3d3748a6	0.044747017
145	0x3ce73007	0.028221143
146	0xbd6ff3c2	-0.058582075
147	0xbd3ea19f	-0.046540853
148	0xbd7693f5	-0.060199697
149	0x3d1597f1	0.036521856
150	0xbd87e3ff	-0.06635284
151	0x3d03f552	0.032216378
152	0xbd1924fd	-0.03738879
153	0x3d305f7a	0.043059804
154	0xbd6a56bb	-0.05721162
155	0xbca34613	-0.019930875
156	0x3d0af1d3	0.033922028
157	0xbd86dc58	-0.06584996
158	0xbd549a45	-0.051904935
159	0x3b8f5706	0.0043743877
160	0x3be2a5ef	0.0069167535
161	0xbd077fe7	-0.03308096
162	0xbd81602c	-0.063171715
163	0x3d5b0106	0.053467773
164	0xbd092c8d	-0.033489753
165	0x3d56f978	0.052484006
166	0xbd6d756d	-0.057973314
167	0xbd1478a3	-0.03624786
168	0xbd807f16	-0.0627424
169	0xbc3507ec	-0.011049252
170	0xbcd4df73	-0.025985455
171	0x3cfbf0f6	0.030754548
172	0xbc91b3f0	-0.017785996
173	0xbd54d58f	-0.051961478
174	0x3d853168	0.06503564
175	0x3d82026e	0.0634812
176	0x3c4ee091	0.012626783
177	0xbc31767b	-0.010831471
178	0xbb92f215	-0.004484425
179	0x3d384cc8	0.0449951
180	0x3d871247	0.06595283
181	0x3bc00513	0.00585998
182	0x3d090d33	0.033459853
183	0x3c172835	0.009225895
184	0x3c7788f8	0.0151083395
185	0x3cb89ebd	0.02253663
186	0xbd1bf3b8	-0.038074225
187	0xbd49e0c2	-0.04928661
188	0x3d6d82f7	0.057986226
189	0x3cccb856	0.024990242
190	0x3d82d4d1	0.06388248
191	0x3bddccd2	0.0067688012
192	0x3d35e6ef	0.04440969
193	0x3c645aad	0.013937634
194	0xbcb93d6e	-0.0226123
195	0xbd1c279f	-0.038123723
196	0x3c8cf6a6	0.017207455
197	0x3bc94b66	0.0061430214
198	0xbd482efe	-0.04887294
199	0x3d8457a4	0.064620286
200	0x3d6685cd	0.056279946
201	0xbad79c31	-0.0016449747
202	0xbd41e5ae	-0.04733818
203	0xbd33d895	-0.04390772
204	0x3d433a36	0.047662936
205	0xbd4b5e57	-0.049650516
206	0x3d4c1712	0.04982669
207	0x3d1f611b	0.038910966
208	0xbd1142d8	-0.035464138
209	0xbbf5f17f	-0.007505595
210	0x3d4e5e6f	0.050383028
211	0xbd7ec297	-0.062197294
212	0xbcd7fdfc	-0.026366226
213	0xbd356390	-0.044284403
214	0x3d4e50c3	0.05036999
215	0xbd267e21	-0.04064763
216	0xbd6942ca	-0.05694846
217	0xbd817deb	-0.06322845
218	0x3d2de725	0.042456765
219	0x3ab5ac65	0.0013860582
220	0xbcd7e713	-0.026355302
221	0x3bfe5391	0.0077614267
222	0xbd8df2eb	-0.069310986
223	0x3d2da1e7	0.04239073
224	0x3d87aeb8	0.06625122
225	0xbc15f77b	-0.009153242
226	0xbd039e6b	-0.0321335
227	0xbd490c6c	-0.049084112
228	0x3c098722	0.008394035
229	0x3d520bd3	0.051280808
230	0x3c7d7757	0.015470347
231	0xbd5198ed	-0.051171232
232	0xbc0080df	-0.007843225
233	0xbb06f4d1	-0.00205927
234	0x3cc21282	0.023690466
235	0xbce84364	-0.028352447
236	0xbd467611	-0.04845244
237	0x3d0c0cab	0.03419177
238	0x3d8cef24	0.0688155
239	0x3d3f62a7	0.04672494
240	0xbd3cafc2	-0.046066053
241	0x3cae6b7b	0.021291485
242	0xbd22c984	-0.03974296
243	0x3b3dd214	0.0028964328
244	0xbca26806	-0.019824993
245	0x3c9c31f0	0.01906678
246	0x3d29aa8a	0.041422404
247	0x3c6bcea1	0.014392526
248	0xbcd50bfb	-0.02600669
249	0x3d57f0af	0.052719768
250	0xbd4828e7	-0.048867133
251	0x3c62c3c6	0.013840621
252	0x3d2e8b5f	0.042613383
253	0x3d13c518	0.036076635
254	0x3cb6e8ab	0.022327742
255	0xbd2cc5d0	-0.042180836

backbone.model.1.1.model.0.bias f4 [8]
0	0xbd7b5a74	-0.06136556
1	0xbd746ccb	-0.059674066
2	0xbc4187dd	-0.0118121775
3	0xbd0c4d82	-0.034253605
4	0xbd2b405b	-0.04180942
5	0x3d54e172	0.051972814
6	0xbd1ccd8b	-0.03828196
7	0xbce28f3c	-0.02765619

backbone.model.2.0.model.0.weight f4 [8, 8, 3, 3]
0	0x3dd0e5e9	0.10200102
1	0xbde67bf9	-0.11254115
2	0xbcf81e41	-0.030287864
3	0xbcda2880	-0.02663064
4	0xbd6f9958	-0.05849585
5	0xbcbf1bec	-0.023328744
6	0xbd4a473a	-0.049384333
7	0x3c309fe2	0.0107803065
8	0xbde6868b	-0.11256131
9	0x3dab22b3	0.08356228
10	0xbd3fbc0e	-0.046810202
11	0xbd145609	-0.036214862
12	0x3d2c4bb3	0.04206438
13	0x3d9bf9d2	0.07616009
14	0xbc83bd31	-0.016081424
15	0x3c1c4519	0.009537959
16	0x3dda8c65	0.106713094
17	0xbddb8a9a	-0.107197955
18	0x3daee1bb	0.085391484
19	0xbc0f4c1c	-0.008746173
20	0x3c6c6fdf	0.014430969
21	0x3d4e9906	0.050438903
22	0xbdeb1360	-0.11478305
23	0x3de861f1	0.11346806
24	0x3da747a5	0.08167962
25	0x3de3108a	0.11087139
26	0xbd64572a	-0.05574719
27	0x3dac6729	0.08418114
28	0xbdb82f11	-0.08993352
29	0xbcb204a6	-0.021730732
30	0xbde5f1cb	-0.11227759
31	0xbd5f3706	-0.054495834
32	0x3de1ef06	0.11031918
33	0xbc9e5245	-0.019326339
34	0x3cccd6a0	0.025004685
35	0x3d7c7672	0.061636396
36	0xbd3d8adc	-0.046275005
37	0x3cfc18aa	0.03077348
38	0x3cc5c887	0.02414347
39	0x3daf34a7	0.085549645
40	0x3ba3fda3	0.005004601
41	0xbc28d1a9	-0.010303893
42	0xbb089e72	-0.0020846394
43	0xbd5e7f8b	-0.054320853
44	0xbd8d1ff1	-0.06890858
45	0x3d9fc38b	0.07800969
46	0x3ca2f9a1	0.019894423
47	0x3d9e366a	0.077252224
48	0xbd98bfa3	-0.07458427
49	0x3c362245	0.011116569
50	0x3c24295c	0.0100196265
51	0xbc1ef20c	-0.009701263
52	0x3cf300cf	0.029663472
53	0xbd455974	-0.048181012
54	0x3d175242	0.03694368
55	0x3d9dd04e	0.077057466
56	0xbd5dc04d	-0.05413847
57	0xbda13120	-0.07870698
58	0x3de6e885	0.11274818
59	0x3da5c22a	0.080936745
60	0x3daa5695	0.083172955
61	0xbaae10ed	-0.0013280191
62	0xbd91c32b	-0.071173035
63	0xbd15fb84	-0.036616817
64	0x3dbe8440	0.093025684
65	0x3d480786	0.0488353
66	0xbdeda1a2	-0.11603095
67	0xbd2b6188	-0.04184106
68	0x3d1c63e6	0.038181208
69	0x3db43995	0.088000454
70	0x3d28983d	0.04116081
71	0x3def3e1f	0.116817705
72	0xbd27baed	-0.04094975
73	0x3d7e799a	0.062127687
74	0x3de42165	0.11139182
75	0x3d8ccb7e	0.068747506
76	0xbd3cc62b	-0.046087425
77	0xbc6fb013	-0.014629382
78	0x3d8566b6	0.06513731
79	0xbd299793	-0.041404318
80	0xbc4669c7	-0.01211018
81	0xbd8b85a8	-0.06812602
82	0x3d8ced5e	0.06881212
83	0x3d9884e8	0.07447225
84	0xbd38a333	-0.045077514
85	0x3dd03767	0.10166817
86	0x3dcae68a	0.09907253
87	0x3d418d72	0.047254033
88	0xbdbdf6d2	-0.09275593
89	0xbd9e1b02	-0.07719995
90	0x3cbaca3e	0.022801515
91	0xbd0dcce0	-0.034619212
92	0x3da51c64	0.08062056
93	0xbd0e8d26	-0.03480258
94	0xbd7470fa	-0.059678055
95	0xbd720a04	-0.059091583
96	0xbdb3292f	-0.087480895
97	0xbdeb7e4e	-0.114987
98	0xbdd9d423	-0.10636165
99	0x3cf8f135	0.030388454
100	0xbcdb4c64	-0.026769824
101	0x3c24b741	0.010053457
102	0xbd6b3aac	-0.057429
103	0xbc3e85b1	-0.011628554
104	0xbd595aa5	-0.05306496
105	0xbd95b399	-0.07309646
106	0xbd537b3f	-0.05163121
107	0x3cfb53d3	0.030679619
108	0x3bca4af8	0.0061734878
109	0x3d35c9f4	0.04438205
110	0xbd478f27	-0.048720505
111	0xbda58414	-0.080818325
112	0x3d38ecb6	0.04514762
113	0x3d83fc75	0.06444637
114	0x3d964685	0.07337669
115	0x3d93913d	0.072054364
116	0xbc90e70f	-0.017688302
117	0xbddec5d9	-0.1087758
118	0xbdb0298e	-0.08601676
119	0xbdeb9aef	-0.115041606
120	0x3db1e17a	0.08685584
121	0xbdcb6002	-0.099304214
122	0x3d2f2c27	0.042766716
123	0xbd56f7cf	-0.052482422
124	0xbd60777d	-0.054801453
125	0x3ddc0ab1	0.10744227
126	0xbde00762	-0.10938908
127	0x3d073bf3	0.033016156
128	0xbdbd7ef9	-0.09252734
129	0xbd86dc10	-0.06584942
130	0x3d9d9d71	0.07696045
131	0xbdaeda2e	-0.08537708
132	0xbddd4976	-0.10805027
133	0xbdb71b22	-0.08940722
134	0xbd8c5e0a	-0.06853874
135	0x3de77d6f	0.113032214
136	0xbde7a557	-0.11310833
137	0xbdede9f3	-0.11616888
138	0xbd944b15	-0.07240883
139	0x3d24abd2	0.040202923
140	0xbc789aad	-0.015173596
141	0x3de3071e	0.11085342
142	0x3db4c495	0.088265575
143	0x3cdccaf7	0.02695225
144	0x3dc610a4	0.09671143
145	0x3d97f206	0.07419209
146	0xbd6840cb	-0.056702416
147	0x3dc896cf	0.097943895
148	0xbdbd1bcf	-0.0923382
149	0xbceadcb3	-0.02866969
150	0x3deff85b	0.11717292
151	0x3da4e252	0.0805098
152	0x3d56b7d8	0.05242142
153	0xbdb5a301	-0.08868981
154	0x3d84b079	0.06478972
155	0x3c9e2723	0.019305771
156	0x3d8dc005	0.069213904
157	0x3d38d92a	0.04512898
158	0xbcc879ee	-0.024472203
159	0x3cdbdff8	0.026840195
160	0x3a72d23b	0.0009262894
161	0xbd971ddb	-0.07378741
162	0xbde91c98	-0.11382407
163	0x3c7d1d16	0.015448829
164	0x3de2f0ba	0.11081071
165	0xbdd74b61	-0.10512424
166	0xbd4f29c3	-0.050576936
167	0x3d981720	0.07426286
168	0xbd7b0b42	-0.061290033
169	0x3c9bb43a	0.019006837
170	0x3d8b6d96	0.06808011
171	0x3db32694	0.087475926
172	0x3d149bce	0.0362814
173	0xbd1b783e	-0.03795647
174	0xbd6e47ff	-0.05817413
175	0x3d1a7666	0.03771057
176	0xbdc437ca	-0.095809534
177	0xbafc1656	-0.0019232731
178	0xbc7afbf7	-0.015318862
179	0x3dadb2e9	0.0848139
180	0x3da805b6	0.08204214
181	0x3d1d805d	0.038452495
182	0xbc2e5be1	-0.010642023
183	0x3cd2e42a	0.025743563
184	0xbdd61a56	-0.10454242
185	0xbdd3a3f5	-0.10334007
186	0xbd2a6d67	-0.04160824
187	0xbd042c13	-0.032268595
188	0xbd9f057c	-0.07764718
189	0x3dc9474b	0.09828051
190	0x3dd00d20	0.101587534
191	0xbda2905f	-0.07937693
192	0xbdaca926	-0.084307
193	0x3dc7874d	0.097426035
194	0x3d779be9	0.060451422
195	0xbda9937b	-0.08280083
196	0x3d1bb06d	0.03801005
197	0xbdf0b0b0	-0.117524505
198	0xbd52dcc1	-0.05148006
199	0x3c8e089c	0.01733809
200	0xbdeb025e	-0.11475061
201	0xbd3bc937	-0.04584619
202	0x3dc720ed	0.09723077
203	0xbcd7da5d	-0.02634924
204	0xbdb4446f	-0.08802115
205	0xbd9951b3	-0.07486286
206	0x3dae2c7b	0.08504578
207	0xbcacbe8c	-0.021086954
208	0xbda231d7	-0.079196624
209	0x3d6e0f3c	0.058119997
210	0x3debb6bc	0.11509463
211	0xbde7361e	-0.11289619
212	0x3d091504	0.033467308
213	0x3d9ff2f3	0.07810011
214	0xbd1c213e	-0.03811764
215	0xbdb4e012	-0.088318005
216	0x3dbafb70	0.09129989
217	0xbc53c6ff	-0.012925862
218	0x3dc83485	0.09775642
219	0x3db29ebd	0.08721683
220	0xbd0dbc51	-0.03460342
221	0xbd35d6b2	-0.044394203
222	0xbd860b0c	-0.06545076
223	0x3daf50ff	0.08560371
224	0x3dc09ce8	0.094049275
225	0x3cea8f91	0.02863291
226	0x3d961655	0.07328478
227	0x3d0d7a43	0.034540426
228	0x3caa2fe2	0.020774785
229	0x3ddc1265	0.10745696
230	0xbd0c0e29	-0.03419319
231	0xbd86a4b9	-0.06574387
232	0x3d825cf7	0.06365388
233	0x3ccc6df2	0.02495477
234	0xbdd0d144	-0.10196164
235	0xbc18c504	-0.009324316
236	0x3d80d604	0.0629082
237	0xbc4168f9	-0.011804813
238	0xbddaac93	-0.10677447
239	0xbce069b0	-0.027394146
240	0x3c18d6df	0.009328573
241	0x3d4c6187	0.049897697
242	0x3defcd46	0.11709075
243	0x3c9945e3	0.018710082
244	0xbc8bfd16	-0.017088454
245	0x3decf0c7	0.11569362
246	0x3de13995	0.10997311
247	0xbd88e53e	-0.066843495
248	0x3de321a0	0.11090398
249	0xbc9a341f	-0.018823681
250	0xbd4742b3	-0.048647594
251	0x3d81edde	0.06344198
252	0x3d8d096b	0.06886562
253	0xbdef4d5e	-0.116846785
254	0xbcdd6769	-0.027026849
255	0x3b2b54e4	0.0026143128

backbone.model.2.0.model.0.bias f4 [8]
0	0x3d4b921d	0.04969989
1	0xbd1c8188	-0.038209468
2	0xbd13c7b6	-0.03607913
3	0x3ddedaea	0.10881598
4	0x3ddba3a2	0.1072457
5	0x3dd2c7e2	0.10292031
6	0xbd613626	-0.05498328
7	0x3bbd13bc	0.005770175

backbone.model.2.1.model.0.weight f4 [8, 8, 3, 3]
0	0xbce1727f	-0.027520416
1	0x3db318b5	0.08744947
2	0x3dad8444	0.08472493
3	0xbd30e7d5	-0.043189842
4	0x3d9f7d6a	0.07787593
5	0xbd89c876	-0.06727688
6	0xbddb7167	-0.10714989
7	0xbc1195b7	-0.008885792
8	0x3d5c283e	0.053749315
9	0x3c6c6416	0.014428159
10	0x3d71b96b	0.05901472
11	0x3d40a3fc	0.047031388
12	0x3df017c3	0.11723282
13	0x3d3bc55f	0.045842525
14	0x3bdaea56	0.006680767
15	0x3dd19312	0.102331296
16	0xbda5d850	-0.08097899
17	0x3d38ca81	0.045114998
18	0xbd16621f	-0.03671467
19	0xbcc43cc9	-0.023954766
20	0x3d84eb1b	0.06490155
21	0xbda6ed2c	-0.08150706
22	0x3d0d750c	0.034535453
23	0xbd4fa7fb	-0.050697308
24	0xbd4614da	-0.04835973
25	0xbd008bc3	-0.031383287
26	0xbcf48a3a	-0.029851068
27	0x3d8e8c76	0.069603845
28	0x3d436b2c	0.04770963
29	0xbc1fc195	-0.009750743
30	0x3dbb09b1	0.09132708
31	0xbc437b11	-0.011931197
32	0x3d8ae821	0.06782556
33	0x3cbb6c51	0.022878798
34	0xbce6e7fa	-0.028186787
35	0x3defe490	0.11713517
36	0xbd7ca3be	-0.061679594
37	0x3d9a9f80	0.075499535
38	0x3d8200db	0.063478194
39	0xba00a817	-0.000490786
40	0xbd38fcd7	-0.045163002
41	0xbd3f1a51	-0.046655957
42	0xbd95aee8	-0.07308751
43	0xbdcf6e06	-0.10128407
44	0xbdc0ba22	-0.09410502
45	0xbda7ee00	-0.08199692
46	0x3d540eaa	0.051771797
47	0xbcdf9616	-0.027293246
48	0x3d8f3253	0.069920205
49	0x3d0fa867	0.03507271
50	0xbd52d5ab	-0.0514733
51	0x3dd9b288	0.10629755
52	0x3db3659b	0.08759614
53	0x3d4f96a8	0.050680786
54	0xbd76cd19	-0.06025419
55	0xbda40c09	-0.08010108
56	0xbd19fbe4	-0.037593737
57	0xbd004f5d	-0.031325687
58	0xbcdbe200	-0.026841164
59	0x3cff6dd1	0.031180294
60	0xbde50062	-0.11181714
61	0xbd95c864	-0.07313612
62	0xbc73d142	-0.014881434
63	0xbd138801	-0.036018375
64	0xbdac70d5	-0.084199585
65	0x3d7b81be	0.06140303
66	0x3c888bbc	0.016668193
67	0xbc33c474	-0.010972131
68	0x3daec740	0.08534098
69	0x3dd492e1	0.103795774
70	0xbcba8ac0	-0.02277124
71	0xbde73401	-0.11289216
72	0x3d1e3c8f	0.038631972
73	0x3d6e869e	0.05823385
74	0x3d66c929	0.056344185
75	0xbd5e2e63	-0.054243457
76	0xbd611f66	-0.054961585
77	0x3be26498	0.0069089644
78	0x3de2c48c	0.110726446
79	0xbd665a46	-0.056238435
80	0xbd81fd72	-0.06347169
81	0x3d9d33f0	0.07675922
82	0xbd2811db	-0.041032653
83	0xbd45c3f2	-0.04828257
84	0x3d3c0eac	0.04591243
85	0x3c3d570d	0.011556399
86	0xbd51687a	-0.051125027
87	0xbc9d7947	-0.019222869
88	0x3d1844a5	0.03717484
89	0x3dac156a	0.08402522
90	0x3d05d632	0.032674976
91	0xbde59838	-0.11210674
92	0xbd7c8805	-0.061653156
93	0x3dcf3f99	0.10119552
94	0xbd10b299	-0.035326574
95	0x3d9c21fa	0.07623668
96	0x3dd40192	0.10351862
97	0x3dcf0c34	0.101097494
98	0xbc8b7258	-0.017022297
99	0x3de681fa	0.1125526
100	0x3d641db2	0.055692382
101	0xbc17fa04	-0.009275917
102	0x3dec1923	0.11528232
103	0x3d271463	0.040790927
104	0xbd0c827a	-0.03430412
105	0x3d2361ad	0.039888073
106	0x3dc9a447	0.098457865
107	0x3d47631f	0.048678514
108	0xbd106944	-0.03525664
109	0xbdc4a9ee	-0.09602724
110	0x3ca6b7ba	0.02035128
111	0x3d8f76b5	0.070050634
112	0xbd3724c2	-0.04471279
113	0xbd0469af	-0.03232735
114	0xbd1088b0	-0.035286605
115	0x3da0c28d	0.078496076
116	0x3d9843a7	0.07434779
117	0x3c93ab6e	0.01802608
118	0x3d473960	0.0486387
119	0xbd1893f2	-0.037250467
120	0xbb28bacc	-0.0025746105
121	0xbde2841b	-0.11060353
122	0xbde417a4	-0.111373216
123	0x3de058b5	0.109544195
124	0x3da2de36	0.079525396
125	0xbd299120	-0.041398168
126	0xbd4ea3c3	-0.050449144
127	0x3dc94fa3	0.098296426
128	0xbdcea5e2	-0.100902334
129	0xb9da9f08	-0.00041698688
130	0x3d71c4cb	0.059025567
131	0x3d12c90e	0.035836272
132	0x3d6ba65c	0.0575317
133	0x3d93a19f	0.07208561
134	0x3da9fe3f	0.08300447
135	0xbda98916	-0.082781
136	0xbdbcfad7	-0.092275314
137	0xbd15c205	-0.036561985
138	0xbddaa647	-0.10676246
139	0xbdc67e94	-0.096921116
140	0xbc9ae76f	-0.018909184
141	0xbd16d110	-0.03682047
142	0x3d53751f	0.051625367
143	0x3d7df742	0.06200338
144	0x3d6c8cb3	0.05775137
145	0xbdec0e99	-0.11526222
146	0xbd627a3c	-0.055292353
147	0x3dcd9a46	0.10039191
148	0xbdc31469	-0.09525377
149	0x3dd30b01	0.10304833
150	0x3c62b434	0.013836909
151	0xbdb077f6	-0.08616631
152	0xbd75f9c6	-0.060052656
153	0xbc94cc5f	-0.018163858
154	0x3d6db2ea	0.058031954
155	0xbd724c9d	-0.059155095
156	0x3dc14d5f	0.094385855
157	0xbdc04b04	-0.09389308
158	0xbb820494	-0.003967831
159	0x3de95a17	0.113941364
160	0x3c8f4117	0.017487092
161	0xbdefbb45	-0.11705641
162	0xbdc94bfa	-0.098289445
163	0xbd00312a	-0.031296887
164	0x3d80e7d2	0.06294216
165	0xbde12da1	-0.10995031
166	0xbd9d57cf	-0.07682764
167	0xbd6ebef4	-0.058287576
168	0xbd5f5ebd	-0.05453371
169	0xbc02e944	-0.007990185
170	0x3b438105	0.002983154
171	0x3c6a3700	0.01429534
172	0x3d07498c	0.033029124
173	0xbddf70b0	-0.10910165
174	0xbde3fa4c	-0.11131725
175	0x3db7dcda	0.08977671
176	0x3d9f04de	0.077646
177	0xbd96878f	-0.073500745
178	0x3d660b6b	0.056163233
179	0xbd58cdd0	-0.052930653
180	0xbdc2db26	-0.095144555
181	0xbda28aaa	-0.07936604
182	0xbd88773b	-0.066633664
183	0x3db4b2da	0.08823176
184	0xbcd674af	-0.026178686
185	0xbdedb927	-0.11607581
186	0x3dac5775	0.084151186
187	0x3db3eb62	0.0878513
188	0x3d078049	0.033081327
189	0xbdc001cb	-0.09375342
190	0x3dcaa1a8	0.09894115
191	0x3d60f14a	0.05491761
192	0x3d9c49ae	0.07631241
193	0xbd31f532	-0.043446727
194	0x3caaf642	0.020869378
195	0xbd7339b8	-0.059381217
196	0xbda8e221	-0.08246256
197	0x3ca7b9cb	0.020474335
198	0x3cdb4962	0.02676839
199	0x3c32301b	0.010875727
200	0xbd1529ba	-0.036416747
201	0x3b6d5dee	0.0036219317
202	0xbd4c2a1f	-0.049844857
203	0xbcc26295	-0.023728648
204	0x3d8fd05d	0.07022164
205	0xbde75d5b	-0.11297103
206	0xbdb96ae8	-0.09053594
207	0xbd098be6	-0.033580683
208	0xbdd3ef82	-0.10348417
209	0x3dacec5b	0.08443519
210	0x3de56308	0.11200529
211	0xbdcbf372	-0.09958543
212	0x3d4f031f	0.050540086
213	0xbd38be4f	-0.045103367
214	0x3d5717d2	0.05251295
215	0xbc70a8af	-0.014688655
216	0xbc05058e	-0.008119
217	0x3dbfc8f1	0.093644984
218	0xbb437359	-0.0029823391
219	0xbd23337a	-0.039844014
220	0x3ddc975c	0.10771057
221	0xbd00cd77	-0.031445947
222	0xbdaffadf	-0.08592772
223	0x3db41aa4	0.08794144
224	0x3d14367f	0.036184784
225	0xbdceb370	-0.10092819
226	0x3d65d37c	0.05610989
227	0x3c501eca	0.012702653
228	0xbd3af9f5	-0.045648534
229	0x3c82aa83	0.015950447
230	0x3d7c0675	0.061529595
231	0x3dbf87b8	0.09352058
232	0x3d496aa0	0.04917395
233	0x3d501240	0.050798655
234	0x399d497d	0.00030000127
235	0x3d4dc6d6	0.050238453
236	0x3c999e30	0.018752187
237	0xbdd659c9	-0.10466344
238	0x3db26084	0.08709815
239	0x3d05e55f	0.03268945
240	0x3c2163f4	0.009850491
241	0x3ce26208	0.027634636
242	0xbd69234e	-0.056918435
243	0x3c8544d0	0.016268164
244	0x3d98f3ad	0.074683525
245	0x3dbce15e	0.09222673
246	0xbde2159c	-0.11039278
247	0x3d5fee6a	0.05467073
248	0x3d035428	0.03206268
249	0x3bad0be3	0.005280958
250	0x3d275b70	0.040858686
251	0x3b9a4335	0.0047077187
252	0x3d9378f4	0.07200804
253	0x3d31593c	0.04329799
254	0x3c058c06	0.00815106
255	0x3b5c5c46	0.0033624335

backbone.model.2.1.model.0.bias f4 [8]
0	0xbd16e615	-0.036840517
1	0x3c142c75	0.0090438025
2	0x3d4d958f	0.05019146
3	0xbdd884c5	-0.10572199
4	0x3cd732f8	0.026269421
5	0x3cfbff22	0.030761305
6	0x3d8388c6	0.06422572
7	0x3da19551	0.07889808

backbone.model.3.0.model.0.weight f4 [16, 8, 3, 3]
0	0xbd218662	-0.039434798
1	0xbd2c426f	-0.042055544
2	0x3cf73a6b	0.030179223
3	0x3d1d6bcc	0.03843288
4	0x3dc788a6	0.097428605
5	0xbc64341a	-0.013928438
6	0x3cb9a8eb	0.022663554
7	0x3d8cf902	0.06883432
8	0x3db591c6	0.08865695
9	0xbc8abf89	-0.016937034
10	0xbdc996f0	-0.09843242
11	0xbdde7998	-0.10863036
12	0x3d933acc	0.07188949
13	0x3de739dc	0.11290333
14	0x3cc0fd49	0.023558276
15	0xb9d7761a	-0.00041095988
16	0x3cb249fa	0.02176379
17	0xbde7ef80	-0.11324978
18	0x3d903757	0.07041805
19	0x3db5102b	0.088409744
20	0x3d2c7de8	0.04211226
21	0xbd253b15	-0.04033955
22	0xbd1c7b66	-0.03820362
23	0xbbcc95c0	-0.0062434375
24	0xbdaa3f4b	-0.083128534
25	0xbd4aee6a	-0.049543776
26	0xbda95c2e	-0.08269535
27	0x3da0076b	0.07813915
28	0x3d40612d	0.046967674
29	0xbc84b76c	-0.016200744
30	0xbd86d4b4	-0.06583539
31	0xbd280fa6	-0.04103055
32	0x3d82031e	0.06348251
33	0xbda184bf	-0.078866474
34	0xbd82ad20	-0.06380677
35	0x3bd2b476	0.006430204
36	0x3d4a9db0	0.04946679
37	0xbd8dbc64	-0.06920698
38	0x3d008a9d	0.031382192
39	0x3dcae460	0.0990684
40	0x3d374b8c	0.04474978
41	0x3dc260bb	0.09491106
42	0xbd1878ee	-0.037224703
43	0xbc450684	-0.012025479
44	0xbdca884c	-0.09889278
45	0x3c35f0c5	0.011104767
46	0xbd39b2bf	-0.04533648
47	0x3d8e6286	0.069523856
48	0xbd6c5bce	-0.05770474
49	0xbd263db1	-0.040586177
50	0xbd9f13fb	-0.07767483
51	0x3d886138	0.06659168
52	0x3cf02985	0.029316673
53	0xbce380ff	-0.027771471
54	0x3d89021e	0.06689857
55	0x3dbe1598	0.092814624
56	0x3dd1bb0f	0.10240757
57	0xbdb7eeb4	-0.08981076
58	0xbdb1a772	-0.08674516
59	0x3daa7e6b	0.083248936
60	0x3d00c446	0.03143718
61	0x3dbb0ca7	0.091332726
62	0xbdce99bb	-0.100879155
63	0x3dbc839c	0.0920479
64	0x3d70cdd9	0.05879006
65	0x3cdf4937	0.027256591
66	0xbd5feffd	-0.05467223
67	0xbdcb064b	-0.0991331
68	0xbd8d8069	-0.06909258
69	0x3d88956c	0.06669125
70	0x3d9d9267	0.0769394
71	0xbd164320	-0.03668511
72	0xbd74d0f0	-0.05976957
73	0xbb521e52	-0.003206153
74	0xbc407b71	-0.011748181
75	0x3dc3e5d9	0.09565324
76	0x3dc4e7a4	0.096144944
77	0x3c3146b4	0.01082008
78	0xbdb9717a	-0.09054847
79	0x3df13d01	0.11779214
80	0x3d9b6629	0.07587845
81	0xbd424ae8	-0.047434717
82	0x3d6356bc	0.05550264
83	0x3c8fec72	0.0175688
84	0xbd39ea85	-0.04538967
85	0xbd3421cb	-0.04397754
86	0xbc828ed9	-0.015937256
87	0xbdd1bf8c	-0.10241613
88	0xbde7776e	-0.11302076
89	0xbd7e0028	-0.062011868
90	0x3de12046	0.10992484
91	0x3d6cd6ee	0.05782216
92	0x3c1be32a	0.009514609
93	0xbdd9cde9	-0.10634977
94	0x3dc6f2c8	0.097142756
95	0x3c51a139	0.012794786
96	0x3d1882f2	0.037234254
97	0xbdef3398	-0.116797626
98	0xbdd86502	-0.10566141
99	0xbd334750	-0.04376918
100	0x3b41cde9	0.0029572195
101	0x3de6c362	0.11267735
102	0xbdb0c9af	-0.08632218
103	0xbdeee0ca	-0.11663969
104	0xbce7783a	-0.02825557
105	0x3d4f32b4	0.050585464
106	0xbd9b3f65	-0.07580451
107	0xbd3661a8	-0.044526726
108	0xbd40997f	-0.047021385
109	0x3da79a99	0.08183784
110	0xbd6bdfdf	-0.057586547
111	0xbdea77f0	-0.114486575
112	0x3dbdcd47	0.09267669
113	0xbd447748	-0.047965318
114	0x3d67c379	0.0565829
115	0x3c6c3cb9	0.014418774
116	0xbdbaabc7	-0.09114795
117	0xbc365a3f	-0.011129915
118	0x3d93c879	0.072159715
119	0x3ae1554d	0.0017191559
120	0x3d5c9e89	0.05386213
121	0xbb70f4ef	-0.0036767086
122	0x3c6fbd28	0.014632501
123	0x3c98c650	0.01864925
124	0x3dc8fef4	0.098142534
125	0x3c8c8452	0.017152939
126	0xbd80374b	-0.06260546
127	0xbdc6b9a7	-0.09703379
128	0xbd7b468d	-0.06134658
129	0xbcc84ab3	-0.024449682
130	0xbd8b6cb8	-0.06807846
131	0x3dd96c02	0.10616304
132	0x3c8777ba	0.016536582
133	0x3d0ebc60	0.034847617
134	0xbc41ca06	-0.011827951
135	0xbd276f90	-0.04087788
136	0xbd520708	-0.051276237
137	0xbbd58f06	-0.006517294
138	0xbdb345af	-0.087535255
139	0xbcaa52db	-0.020791462
140	0xbde3782c	-0.11106905
141	0xbdcc2260	-0.09967494
142	0xbd1b2aba	-0.037882544
143	0xbdaa847c	-0.08326051
144	0xba96794b	-0.001148024
145	0xbbb68836	-0.005570437
146	0x3c91b88a	0.01778819
147	0xbd8f2d16	-0.06991021
148	0xbd46db1f	-0.048548814
149	0xbcba493a	-0.022739995
150	0x3cfda5f8	0.03096293
151	0x3d3e1bb7	0.04641315
152	0x3d134efe	0.035964005
153	0xbda53673	-0.08067026
154	0x3d8f2208	0.06988913
155	0x3dd53aa8	0.104115784
156	0x3b876952	0.004132428
157	0x3d426b7e	0.047465794
158	0xbcd9a3cd	-0.026567364
159	0xbdb4a751	-0.088209756
160	0x3d3552ca	0.044268407
161	0x3d8e1374	0.06937304
162	0x3d3ed606	0.046590827
163	0x3dc546f9	0.096326776
164	0x3b07731a	0.002066797
165	0x3dbd4317	0.09241312
166	0xbdd8b637	-0.1058163
167	0x3d068d52	0.032849617
168	0x3d570301	0.0524931
169	0x3dadbea1	0.08483625
170	0xbc979d54	-0.018507637
171	0xbdd4bfde	-0.10388158
172	0x3d8d4994	0.068987995
173	0x3d93c0bf	0.07214498
174	0xbde880c8	-0.11352688
175	0x3df0fdc3	0.11767151
176	0x3dcfa945	0.101397075
177	0xbda36233	-0.079777144
178	0x3dee32f9	0.11630816
179	0x3db9c5a7	0.09070902
180	0xbd9c0836	-0.076187536
181	0x3dab94e6	0.083780095
182	0x3dac88d4	0.084245354
183	0x3d8f83f5	0.07007591
184	0xbd4ba285	-0.049715538
185	0x3c9ba95b	0.019001653
186	0x3dadeea6	0.08492784
187	0xb9887313	-0.00026025678
188	0x3d255430	0.04036349
189	0x3dbf9d53	0.09356179
190	0x3dc5b64b	0.0965391
191	0xbd89c8f8	-0.06727785
192	0x3d60dbea	0.054897226
193	0xbd7f5ce8	-0.06234446
194	0xbdc7f369	-0.09763224
195	0xbcd5ddfb	-0.026106825
196	0xbd976fcb	-0.0739437
197	0x3c79ce44	0.015246931
198	0x3da49479	0.080361314
199	0xbdcbef12	-0.099577084
200	0x3dc5f3ab	0.096656166
201	0x3d3fe1bc	0.046846136
202	0xbc602bc9	-0.013682314
203	0xbd58d4b9	-0.052937243
204	0xbd00813f	-0.03137326
205	0xbde6c6ba	-0.11268373
206	0xbd447b0e	-0.047968917
207	0x3c12ad32	0.008952426
208	0x3b9ae2a9	0.004726727
209	0xbde693c7	-0.11258655
210	0x3c8679ac	0.01641544
211	0x3db94059	0.090454765
212	0x3db86ac6	0.090047404
213	0x3dd97cd2	0.10619511
214	0x3ce34ac9	0.027745621
215	0x3c61fd10	0.013793245
216	0x3dbc3caa	0.09191258
217	0xbd4456af	-0.04793423
218	0xbd6450df	-0.055741187
219	0x3da593a8	0.08084804
220	0xbd1ffe83	-0.03906108
221	0xbdb6745a	-0.08908911
222	0x3dbf4e48	0.09341103
223	0xbdae7e82	-0.08520223
224	0xbd57ae82	-0.052656658
225	0xbd3fdcfe	-0.046841614
226	0x3d8eb4e8	0.06968099
227	0x3dbbb5d6	0.09165542
228	0x3b2f45ef	0.0026744565
229	0x3c40dcf7	0.011771432
230	0x3dd5d1ff	0.10440444
231	0xbb9876a5	-0.0046528154
232	0x3d3b0b2a	0.045664944
233	0x3db88424	0.09009579
234	0xbcae89df	-0.021305976
235	0x3d8ba3b0	0.0681833
236	0xbde016e0	-0.10941863
237	0x3dc87612	0.09788145
238	0xbd093f6e	-0.033507757
239	0xbd5f0d0a	-0.054455794
240	0xbd7bf2fb	-0.06151102
241	0xbde39e0c	-0.111141294
242	0xbdbb3c24	-0.0914233
243	0x3dbc3890	0.09190476
244	0xbdafe342	-0.08588268
245	0xbd228c61	-0.039684657
246	0x3d2b7143	0.04185606
247	0x3d81f4b6	0.06345503
248	0xbda8c7b7	-0.082412176
249	0x3c6b19ed	0.014349443
250	0x3cb4cbbc	0.022069804
251	0xbcdcca33	-0.026951885
252	0xbdb27ff2	-0.0871581
253	0x3c117c24	0.008879695
254	0xbdd9df29	-0.106382675
255	0x3c9d7153	0.019219076

backbone.model.3.0.model.0.bias f4 [16]
0	0x3ccc387a	0.024929274
1	0xbc97cd07	-0.018530382
2	0x3ce96d9b	0.028494647
3	0x3b557e06	0.0032576337
4	0x3c8baf1d	0.017051274
5	0xbd844381	-0.06458188
6	0x3c9ddc80	0.019270182
7	0x3d955e16	0.07293336
8	0xbd980ec1	-0.07424689
9	0xbd54ae00	-0.05192375
10	0x3d5de572	0.054173894
11	0x3d840743	0.064466976
12	0xbc131c11	-0.0089788595
13	0x39c87808	0.00038236403
14	0x3c33cd9e	0.010974316
15	0x3ce1aeeb	0.027549228
