software/logs/hyper_parameter_tuning/custom_model_hp/version_13/checkpoints/epoch=0-step=20.ckpt (torch, 195567 bytes, 54 tensors)

backbone.model.0.0.model.0.weight f4 [4, 2, 5, 5]
00000000: 3466 a13d d8e0 043e 69bf fbba a0ce 02be
00000010: 7258 9fbd cf4a fbbd 9ab7 943d 868c 043e
00000020: dd1c 083e 81a2 6d3d 474b 913d 0158 0ebe
00000030: 90b6 e63d a0f5 c0bd 739c 09be 8397 9cbd
00000040: 8a03 613d ca86 5e3b 66f3 f5bd 65ac 89bc
00000050: 140c 88bd 7c26 02be 9e0b 00bd 7bec afbc
00000060: 23c6 3e3d 1568 32bd 2c49 0d3e d1d6 ae3d
00000070: 2f9c 6c3c 38d9 eb3d 5dde 89bd 8854 533d
00000080: 38b8 8bbc 96e7 033e 9abb 123d b663 ae3d
00000090: c53e c73d da0e 013e 651a d63c 8267 d33d
000000a0: e9f9 0cbe b0f8 8439 4e2c 903d f1b9 503c
000000b0: 0822 ecbc 0518 603d 939e ba3c db49 913c
000000c0: d3dc ebbd 9ef4 153d 7767 87bd ac2c e33c
000000d0: 6e78 173d 977f 4e3d 472e 09be e2f8 993d
000000e0: 04c5 82bc ff20 0abe 5682 c33d e882 f5bc
000000f0: 9d3e dcbc a9a6 53bd da97 103e 4496 9ebd
00000100: 71b4 ddbd 46ef 52bd 3613 293c 0757 a1bd
00000110: 6ec2 abbd fee1 8b3d c4b4 6d3b 4e40 b53d
00000120: 4134 30bd c65d 933c 1008 423c 7776 0b3e
00000130: 59c9 c53d 6809 5fbd 7b65 bf3c b796 f6bd
00000140: ddc4 00be 5e4a e8bd ba02 753d 097f df3d
00000150: dff8 9d3d 8a19 ca3d 58a9 8d3d 9333 da3d
00000160: c230 09bd 533a 3e3d 96c4 d5bd e347 f93d
00000170: 5ede 8fbc c287 57bc 439d 023d 9447 cabd
00000180: 8590 a6bb 3d62 f3bd 68da ef3d 3ee2 013e
00000190: aa6f 57bd b38b 363c 6a47 f3bd 50ad d7bd
000001a0: c0d8 073d 3404 a7ba db2d d8bd 2f76 8dbd
000001b0: e6f5 003d 5403 dfbd 6905 973d b49c d93b
000001c0: 41f1 cebc 2212 b3bd 37e8 c33d b744 5fbc
000001d0: 7bcb 2b3d b21a e1bd 9149 ed3d 2c9f 6a3d
000001e0: 4b3f c7bc f66a d73d 2a01 0fbe 29a4 c7bd
000001f0: 68c0 163d fa35 503d 8052 8f3b ea37 e33c
00000200: 2b79 543d e8db d2bd 7759 90bd 75c3 8a3d
00000210: 67c2 0abe 714a ad3d 71f3 cc3d 9c88 7bbd
00000220: c5ca ba3c 7ef0 7ebd ab24 e0bd 6156 7cbd
00000230: a2c8 38bd bd29 c0bc b95e f0bd 7fbd 153d
00000240: e99c 93bd bd9e 383c d661 78bd bcda 0cbe
00000250: 00d0 873d a7a6 053d 6e47 89bd bc2d 96bd
00000260: 0390 0d3e b900 fc3d 73ac f5bc e32b 41bd
00000270: 6d98 d63d 28e1 4abd 31e2 bcbc af46 e6bc
00000280: 9cf9 18bd aee0 f13d cbf5 9dbd 56ef 8f3b
00000290: 5fef 1abd 0907 c33d 48a0 db3d 439d 023d
000002a0: 60d4 883d 1707 96bd e47a eabd 648d 7c3c
000002b0: ef4d 893d 3792 88bd 2c29 03be 87b8 efbb
000002c0: 0eab 9d3d 4b7d 76bd f755 f23d 3103 78bd
000002d0: cab9 84bc 1421 dfbd 6993 fd3c 7d53 9bbd
000002e0: fe66 613d 5006 5fbd 6d24 a03d a33c 0fbe
000002f0: a505 7cbd 312d ef3d 7a3b 2f3d 8653 f33d
00000300: 634b e23d ecdd 0d3e 8823 d83c 6abd 1cbc
00000310: d59a 803d 7364 6abd 4437 c73d 0b94 363c
0.07880822 0.12976396 -0.0019206825 -0.12774134 -0.077805415 -0.12270128 0.07261582 0.1294423
0.1329226 0.058016304 0.07094436 -0.13900758 0.1126529 -0.09421849 -0.13438587 -0.07646086
0.054935016 0.0033954852 -0.12009315 -0.016805837 -0.06642929 -0.12709993 -0.03126108 -0.021475067
0.046575677 -0.04355629 0.13797444 0.08537067 0.014441534 0.115160406 -0.067318656 0.051594287
-0.017055616 0.12881312 0.035823442 0.08515112 0.09728769 0.12603322 0.026135633 0.10322477
-0.13767208 0.0002536229 0.070397004 0.012739644 -0.028824821 0.054710407 0.022780692 0.017735412
-0.11516728 0.03661024 -0.06611531 0.027731262 0.036980085 0.050414648 -0.1339656 0.07518174
-0.015963085 -0.1348915 0.09546344 -0.029969648 -0.026885325 -0.05167261 0.14120427 -0.07743505
-0.10825432 -0.05149772 0.010319522 -0.07877927 -0.08386694 0.06830214 0.0036271075 0.08850156
-0.043018583 0.01798905 0.011842743 0.1361941 0.09657545 -0.05445233 0.02336382 -0.12040465
-0.12575097 -0.113423094 0.059817053 0.10912902 0.07713484 0.098681524 0.069170654 0.10654368
-0.033493765 0.04644234 -0.104378864 0.121719144 -0.017562088 -0.013154926 0.031888258 -0.09876934
-0.005083146 -0.11883972 0.117115796 0.12683961 -0.052596726 0.011141705 -0.118788555 -0.105311036
0.033165693 -0.0012742341 -0.10555621 -0.06907307 0.031484507 -0.10889307 0.07374079 0.006640995
-0.025261523 -0.08743693 0.09565776 -0.013627223 0.0419421 -0.1099142 0.11586297 0.057280704
-0.024322173 0.10518448 -0.13965288 -0.09748108 0.036804587 0.050832726 0.0043738484 0.027736623
0.051873367 -0.1029585 -0.07048314 0.06775562 -0.13550721 0.08461464 0.1000737 -0.061409578
0.022801766 -0.06224107 -0.10944494 -0.061605815 -0.045113213 -0.023457402 -0.11736817 0.03655767
-0.072076626 0.011268315 -0.06064018 -0.13755316 0.0663147 0.032629635 -0.06703077 -0.07332942
0.13824467 0.12304825 -0.029989457 -0.047160994 0.10478292 -0.049531132 -0.023057075 -0.028109876
-0.03734742 0.118104324 -0.07712897 0.0043925447 -0.03782594 0.09522826 0.107239306 0.031888258
0.06681132 -0.07325571 -0.11449221 0.0154145695 0.06704318 -0.06668513 -0.12808675 -0.0073156985
0.07698642 -0.060178082 0.11832803 -0.06054992 -0.016201872 -0.10894981 0.03095408 -0.075842835
0.05502986 -0.05444938 0.07819448 -0.13987975 -0.06152882 0.116785415 0.04278133 0.11881165
0.11049535 0.13854188 0.02638413 -0.009566644 0.06279532 -0.057224702 0.09727338 0.011143695

backbone.model.0.0.model.0.bias f4 [4]
00000000: bc52 353b 0ef6 82bd 70fa 0a3e 278e dbbd
0.0027667722 -0.063945875 0.13572097 -0.10720473

backbone.model.0.1.model.0.weight f4 [4, 4, 5, 5]
00000000: f0ec 293d fa6c 84bd f301 9fbc 034d 1b3d
00000010: 5a8b 24bc c0a8 383d c321 6b3d 1316 56bd
00000020: 6714 a93c f359 913d a792 5ebc 5aaf 95bc
00000030: 0342 8dbd 2738 28bc 673e 5d3b afac c7bd
00000040: adb9 a6bd 9a99 0136 70da be3d b308 babc
00000050: f795 5cbd 73f4 30bd 3d61 b0bd 70cc 0abd
00000060: e717 86bd 0a3d a23d e089 db3c 5af3 9fbd
00000070: cddc 843b ed7f 42bd cd22 91ba a746 373c
00000080: 801f 35bc 0074 1bbd d376 1cbd bdbc 363d
00000090: b74d 4d3d 2786 a33c 1ab4 f6bb f881 a8bd
000000a0: 33bf 34ba adec fa3c faff 113d 80b7 acbb
000000b0: 13c1 c3bc 023b 84bd 0039 363c 4d4a 8cbc
000000c0: 0037 c73c 55dc 9c3d 10b4 63bd 688d b1bd
000000d0: a34e 3cbd a3bd ae3d 40cf 453c 4279 89bd
000000e0: adf6 df3c 9a02 163b 539a 243d c74d 733d
000000f0: c353 273d 634a 05bd e280 863d 733f ce3c
00000100: 1a94 ff3b 070f aebc 3797 b3bd c0ad 123d
00000110: e06a 9fbc 2faf 9c3d 5a7c 11bc fd61 c53d
00000120: 0d71 203c e7d9 29bd 9746 c8bd 82a4 a1bd
00000130: 529d b2bd 734d 13bc 9a39 933c cdfc dc3b
00000140: 65cc b1bd c7ae 9dbd 0d24 cebc d284 9f3d
00000150: 8a7d 76bd 8f76 87bd b31f e33b 7a73 0fbd
00000160: 6725 b23c 05ca 813d 40b2 20bc 8d07 da3c
00000170: bac8 b7bc 75ab 933d 7a7e c53d e791 c5bc
00000180: 186f a8bd f060 953d cde4 c9bc a77e 7abd
00000190: dda3 b73d b3ca 653d c5ef c3bd 9797 87bd
000001a0: 9a57 5b3d 52d7 bfbd 08d7 8a3d 9a4f 6bbb
000001b0: b226 93bd 937b acbd 8dd6 443c d399 633d
000001c0: 1060 383d 33b3 ffbc 4b03 aabd c313 683d
000001d0: ea34 7cbd 2007 e8bc 67d3 2bbc bdcd a4bd
000001e0: 2d47 a6bd 3fe4 b7bd 0d4d c03d e7f7 d13b
000001f0: 107a 723d 8b69 abbd 809b 81bd 3365 26bc
00000200: 9af5 63bc e745 d8bb 0014 efba 5879 b0bd
00000210: aad3 1b3d f012 743d 1a1e e3bc 4700 82bc
00000220: 4306 9e3d dd7c 7e3d 0ff4 89bd cd6e c8bd
00000230: 6a1c b5bd ba12 b03d 38df c1bd 6763 b8bd
00000240: 73d2 45bd 0d52 c23c cab8 6d3d 8d0c 31bc
00000250: 330b 0abd 90e6 c8bd 8dcc 553d e70e 513c
00000260: 87dd e03c b3ae 81bb 007c de3b cd13 7cbb
00000270: 4dbc fdbc 7fe2 bf3d aa64 b13d 27e1 9d3c
00000280: 4d43 6dbd f750 a9bd a074 b33d 5766 c6bd
00000290: 1360 793d 3d2f 1ebd edf2 483d bd0a 83bd
000002a0: c33b 9b3d 2a90 3c3d 9ad6 653d 7fa1 8b3d
000002b0: 4d78 9b3b 0da5 f43c 30fc b23d 4762 883d
000002c0: 459c a2bd b397 bfbc df1b a63d ab98 9c3d
000002d0: a54d 81bd e7b4 003c 4322 9b3d c0be 59bc
000002e0: b318 e83c 40fd 2abc 6d1e bb3c ad27 aa3c
000002f0: ad9f 4b3d 9dab 203d a792 bf3c aa65 a2bd
00000300: fa39 693d 8d63 563d 7bdb 8c3d 1a39 f0bc
00000310: 9afb 763c 60f8 173d 1a97 2c3d 20cc 91bd
00000320: 5706 5bbd 9d07 a1bd 0595 be3d f786 873d
00000330: 5ddc aabd 1a53 fe3b dad9 45bd 5aa8 9dbd
00000340: 43ef a5bd 9d23 00bd e57f 87bd c2ba bd3d
00000350: 725c a6bd c328 a43d 0055 2c3b 72de b83d
00000360: a03f af3d e268 b03d 055b 813d 7a78 aabd
00000370: 2761 8fbc e031 df3c cdcd e5bb 90e9 85bd
00000380: 9a29 bb3b 675e 5a3d 2dfa afbc 6d53 553d
00000390: e349 453d e0b8 90bc 9acd 963d 805a 5abd
000003a0: 7f33 a23d 2779 36bc 10e3 753d f30f 1dbd
000003b0: edc0 923c 5366 a3bc a008 d73c cdb0 f73c
000003c0: cb71 c83d 00ef ff3b 2ae1 ca3d 3a96 5fbd
000003d0: 256f b53d a789 6dbd 2dc4 873d 5385 283d
000003e0: 7abf 3f3d cdc5 f8bb 6370 273d 10b6 1dbd
000003f0: b511 bd3d 7a48 46bd 27d2 dd3c 5f5c 97bd
0.041485727 -0.06466098 -0.01941011 0.03791524 -0.01004299 0.045082808 0.057405245 -0.052267145
0.020639611 0.070972346 -0.013584769 -0.01827209 -0.06897356 -0.010267294 0.0033759119 -0.09749734
-0.081408836 1.9311906e-06 0.093190074 -0.022709226 -0.053853955 -0.043201875 -0.08612297 -0.033886373
-0.06547528 0.079217985 0.026799142 -0.078100875 0.004054642 -0.04748528 -0.0011072994 0.011186278
-0.0110548735 -0.037952423 -0.038199257 0.04461359 0.050122943 0.01996143 -0.007528794 -0.082279146
-0.0006894946 0.030630434 0.03564451 -0.0052708983 -0.023895776 -0.06456567 0.011121988 -0.017125273
0.024318218 0.076592125 -0.055591643 -0.08669549 -0.04597343 0.08532264 0.012073338 -0.06712581
0.027339304 0.0022889734 0.040186238 0.059400346 0.040851366 -0.032541644 0.06567551 0.02517674
0.0077996375 -0.0212474 -0.08769076 0.035810232 -0.019460142 0.07650601 -0.008879745 0.096378304
0.009792578 -0.041467573 -0.09779089 -0.078927055 -0.08721413 -0.008990633 0.017971803 0.0067440034
-0.08681563 -0.07699352 -0.025163675 0.07789005 -0.060178317 -0.0661441 0.006931269 -0.035022236
0.02174635 0.0633736 -0.009808123 0.026614929 -0.022434581 0.07210437 0.09643264 -0.024117423
-0.082243145 0.0729388 -0.024645234 -0.06115594 0.08966801 0.056101512 -0.09567217 -0.0662071
0.05355034 -0.09367241 0.06779295 -0.00359056 -0.07185115 -0.084220074 0.0120140435 0.05556662
0.045013487 -0.031213379 -0.08301409 0.05665947 -0.0615739 -0.02832371 -0.010487414 -0.08047054
-0.081190445 -0.08979081 0.09389696 0.006407726 0.05919844 -0.0836974 -0.063284874 -0.010155964
-0.013913536 -0.00660013 -0.0018240213 -0.086168945 0.038043655 0.059588373 -0.027724314 -0.015869273
0.07716038 0.062130798 -0.067360036 -0.097867586 -0.0884331 0.08597322 -0.09466404 -0.090033345
-0.048296403 0.023720765 0.058037557 -0.010806215 -0.033702087 -0.09809601 0.052197028 0.012759901
0.027449382 -0.0039575933 0.0067896843 -0.003846395 -0.030973578 0.093693726 0.08661778 0.0192724
-0.05792551 -0.08267396 0.08762479 -0.096874885 0.06088264 -0.03861927 0.049059797 -0.063985325
0.07579758 0.046035923 0.056112863 0.06817912 0.0047445656 0.029863859 0.08739507 0.0665937
-0.07939962 -0.023387766 0.08110785 0.076463066 -0.06313638 0.0078556305 0.07574894 -0.013290107
0.02833209 -0.010436356 0.022841657 0.020770872 0.049712826 0.039226163 0.023385359 -0.07929547
0.056940056 0.052341033 0.068778 -0.029324103 0.015074635 0.037102103 0.04213629 -0.07119012
-0.053472843 -0.0786278 0.09305767 0.066175394 -0.08342812 0.0077613713 -0.048303463 -0.07698126
-0.08102276 -0.031283963 -0.06616191 0.09264137 -0.08123101 0.08015587 0.002629578 0.09026803
0.085570574 0.08613755 0.06316189 -0.0832376 -0.01750238 0.027245462 -0.0070130588 -0.06538689
0.0057117464 0.053312685 -0.021481598 0.052081514 0.048166167 -0.01766628 0.07363434 -0.053308964
0.07919978 -0.011137283 0.060030997 -0.03834529 0.01791426 -0.019946253 0.02624923 0.030235672
0.09787329 0.0078104734 0.09906228 -0.054586627 0.0885909 -0.057992604 0.066292144 0.041142773
0.046813466 -0.007591939 0.040878665 -0.038503706 0.09231893 -0.048408963 0.027077748 -0.07390665

backbone.model.0.1.model.0.bias f4 [4]
00000000: e3ee 783d 4090 033d cdac c73b 8787 1c3d
0.060774695 0.03211999 0.0060935975 0.038215186

backbone.model.1.0.model.0.weight f4 [8, 4, 5, 5]
00000000: c7a4 48bd 9d8e cb3d 9fdb bbbd f3f3 5dbc
00000010: f306 3e3c ed18 2dbd 1a11 86bd 0398 31bd
00000020: 0376 0bbd 0758 9dbd b3a3 37bd 4a04 513d
00000030: 0de1 5ebd 0045 34bb 07c4 c9bd cd8e 053c
00000040: e727 ff3b 2f18 83bd 8d3b 1abd 33cb 613c
00000050: f3a4 60bd 73a7 bfbd 372a 5f3d 4d91 a53c
00000060: 6f34 a1bd 00c8 e13a ed71 653d c5e5 97bd
00000070: fd80 48bd 573f c23d 27b6 563d 1ad2 b2bb
00000080: 6839 a9bd 60c0 113d e0b9 e63c 3375 833c
00000090: 5d6e 71bd a01b aebd b34d 393d 335c 353b
000000a0: d7de c5bd 580a b83d 7308 3abd 6d6c 38bd
000000b0: 9a38 07bd 1d24 71bd 5a1b 8a3c ed4f 3abd
000000c0: d39f 58bd 1006 7a3d 0da2 063d 87c6 b2bd
000000d0: 9a37 f1bc 334d 233d 6701 4cbc 50a5 103d
000000e0: efcf a7bd c764 c13c e7da 243d 77c2 7c3d
000000f0: d397 dc3c f360 36bc adc3 34bd 5da0 473d
00000100: 8073 febc c2b3 923d 0065 0cbc 1dd2 1cbd
00000110: 0775 883c 33e3 8cb9 ede9 fd3c a78b 5d3d
00000120: d3ee 563d fb8a cb3d 03b1 823d da94 643c
00000130: 80cb bb3b 9b54 a33d 800c f13c f746 a9bd
00000140: 7373 12bd cdfb edbb 8331 833d bf13 813d
00000150: 17ce 5bbd 1f44 b9bd 8db0 de3c 674e fb3c
00000160: 77f1 9ebd f3e3 aabd dafc 5dbd 5711 a33d
00000170: 5af2 febc 5a18 773c e0dc 243d 0ac7 6f3d
00000180: 50e0 623d 727e 8b3d 4034 983d 2d8b af3d
00000190: fa80 7dbd 282e 813d 1ad6 4b3d 3783 b6bd
000001a0: d3f7 47bd 4b0e 803d e79b febb 2d8d 39bd
000001b0: 0d29 c9bc 13d6 90bd cd53 a23b 5a78 a43c
000001c0: f8ff c93d 1a34 b43b 401f 2e3d 9a69 843b
000001d0: faf1 d23c 8a68 4d3d 58ca a3bd cd0c 74bb
000001e0: 858f 98bd da11 f33c 73a0 b73c 300a c6bd
000001f0: b37f 183c 0b56 863d 8d17 d93c 3db7 8a3d
00000200: fa84 4a3d eace c43d 7d5d bc3d 8d11 6a3c
00000210: 77fc 03bd 3227 bc3d 38e5 c1bd a5a3 a6bd
00000220: 9765 383d c083 943d 0d84 813d 4d87 493c
00000230: 757f c63d 259b 8ebd 037c afbd 37b8 1bbd
00000240: 4de0 163d c0e3 8abd 7502 87bd e7c6 a63c
00000250: 6740 45bc d3cf 4a3d 82c9 a9bd 7a6f b03d
00000260: e8bf c43d 3337 183b 002c 413a 67a1 c03d
00000270: f01c 61bd 8ac7 4dbd 8346 c0bd 6554 c33d
00000280: f056 093d 8088 dcbc 1a1b 463d 355b b13d
00000290: 8072 a23d 1011 75bd 3334 e83c 67a5 05bd
000002a0: c213 9a3d 3216 983d a39a 09bd 2b2b b33d
000002b0: 1add 6f3d 304c 6b3d 9a25 b3bb 00e7 66bc
000002c0: ddbe 85bd 5ad6 9dbd 67f9 7c3c 9aed eb3a
000002d0: aa28 28bd fac4 503d 400b 95bd 9ad9 c3bc
000002e0: 1aab f8bc 37e0 8abd 18e6 93bd f34d 9abd
000002f0: 8ad9 3b3d 4da3 9d3b 8d5f f93c 3ab6 9fbc
00000300: 6a26 233d e01d 443d ebb0 9c3d cac0 1d3d
00000310: 4dff a53b 53b3 e53c 8a8a 4bbd fd8f ca3d
00000320: 9da0 4b3d ada4 7cbd bd60 91bd 9d6c b53d
00000330: f732 6c3d c87d cabd 3df8 493d c704 2dbd
00000340: 4b17 83bd 6b7f ccbd 9adb e83a 10e6 3cbd
00000350: cd4a 54bb 9a59 4fba b3d0 9f3d 60ba bcbd
00000360: 3569 a2bd e55d b8bd 4578 9f3d 230d 0d3d
00000370: b33e 94bd c7ac fd3c d37e 233d 20c3 d8bc
00000380: a398 2d3d 50b2 3e3d 4d6e ec3c fa03 b9bc
00000390: 07d6 623d a310 273d 90dc a13d 9a91 81b9
000003a0: cda4 3dba 3002 663d 6a58 1b3d 9d06 a03d
000003b0: d2fe 9cbd 3341 3bbc b32a 35bd b09c 033d
000003c0: 4db9 f23b 6d81 603d 6720 9abd 6d8b 6c3d
000003d0: f773 6bbd 308f 503d c794 3dbd 33eb 7b3d
000003e0: 67c5 a1bc 5a1a 8a3c 677a c0bd 3dce 2fbd
000003f0: 3f98 a93d 1bf4 b43d 1bfa 8d3d c7e8 023d
-0.04898527 0.09939311 -0.09172749 -0.013546932 0.0115983365 -0.0422601 -0.065462306 -0.04335786
-0.03404809 -0.076828055 -0.04483385 0.05102948 -0.054413844 -0.0027506948 -0.098518424 0.008151722
0.007786739 -0.06401097 -0.03765445 0.013781357 -0.054844808 -0.0935811 0.05448362 0.020210886
-0.07871329 0.0017225742 0.05601685 -0.07416872 -0.048951138 0.09484737 0.052419808 -0.005457175
-0.082629025 0.035583854 0.028164804 0.016047096 -0.05894314 -0.08501363 0.045240115 0.0027673363
-0.09661644 0.08986348 -0.045418214 -0.045025278 -0.033012964 -0.05887233 0.016858745 -0.04548638
-0.052886795 0.061040938 0.032869387 -0.08729272 -0.029445458 0.039868545 -0.012451506 0.035313904
-0.08193957 0.023607625 0.040247824 0.061708894 0.026927864 -0.011131513 -0.044131923 0.04873692
-0.031060934 0.07163192 -0.008569002 -0.038286317 0.016657365 -0.00026872157 0.030995334 0.05408826
0.052473854 0.09938618 0.063814186 0.013951505 0.005731046 0.079751216 0.029424906 -0.082654886
-0.035754632 -0.007262683 0.06405928 0.063025944 -0.05366334 -0.09046196 0.027183795 0.030677034
-0.077608995 -0.08344259 -0.054196216 0.07962292 -0.031121422 0.015081489 0.040249705 0.058539428
0.055389702 0.06811227 0.07431841 0.085714675 -0.06189058 0.06307632 0.04976473 -0.08911746
-0.048820328 0.06252726 -0.00777005 -0.04530065 -0.024555707 -0.070720814 0.0049538375 0.02007692
0.09863275 0.005499375 0.04251027 0.004040909 0.025750149 0.050148524 -0.079975784 -0.0037239075
-0.07449249 0.029671598 0.022415375 -0.09669912 0.00930779 0.0655938 0.026500488 0.06773231
0.049443223 0.09609778 0.09197519 0.014286411 -0.03222319 0.091871634 -0.09467548 -0.081366815
0.04501876 0.07251692 0.06324015 0.012300325 0.09692279 -0.06963185 -0.08568575 -0.038017478
0.036835004 -0.06781721 -0.065922655 0.020358516 -0.0120392805 0.049514603 -0.08290388 0.086150125
0.09606916 0.002322626 0.0007368922 0.09405785 -0.054959238 -0.050239123 -0.09388449 0.09537581
0.033530176 -0.026920557 0.04836569 0.086599745 0.079319954 -0.059830725 0.028345203 -0.032628443
0.075233 0.074261084 -0.03359474 0.08748468 0.05856047 0.057445705 -0.005467129 -0.014093161
-0.06530545 -0.077069 0.0154403215 0.0017999888 -0.041054405 0.0509691 -0.072775364 -0.023907471
-0.030355025 -0.06781047 -0.07221621 -0.07534399 0.04586176 0.0048107267 0.03044107 -0.019496072
0.039831556 0.047880054 0.07650932 0.038513936 0.0050658346 0.02803961 -0.049692668 0.09890745
0.04971372 -0.061680485 -0.070985295 0.08858607 0.05766579 -0.09887272 0.049309004 -0.042240884
-0.06400927 -0.099852405 0.0017765642 -0.046117842 -0.0032393218 -0.0007909775 0.07803478 -0.09215236
-0.07930223 -0.09002284 0.077866115 0.034436356 -0.072385214 0.030966176 0.03991587 -0.02646023
0.042381894 0.04655677 0.02886119 -0.022584904 0.055379894 0.04078735 0.07903397 -0.0002471328
-0.0007234335 0.05615443 0.037926115 0.078137614 -0.076657906 -0.011429119 -0.044230174 0.03213185
0.0074073435 0.05481093 -0.075257115 0.057750154 -0.05748364 0.050917804 -0.046284463 0.0615036
-0.01974745 0.016858269 -0.093983464 -0.042921294 0.08280992 0.08835622 0.069324695 0.031960275

backbone.model.1.0.model.0.bias f4 [8]
00000000: 6ace 52bd 8053 bd3d 3328 703c 53f4 f9bc
00000010: 87b0 843d 102a 3c3d e7a0 38bd bd3e 5ebd
-0.051466383 0.09244442 0.014658022 -0.03051201 0.064789824 0.04593855 -0.045075323 -0.05425905

backbone.model.1.1.model.0.weight f4 [8, 8, 5, 5]
00000000: 8996 f63b 7df7 37bd ea6c f5bc f036 dcbc
00000010: 94e9 0a3d d9b0 0dbc d06a 5ebd 1de5 d5bc
00000020: f4dc 02bd 9d1a 4ebd 6091 debc e3b7 893d
00000030: 97d9 51bb a4f5 413c 1f91 05bd 1c5e 4abc
00000040: e94d 103c 3b8f c73c 4f9a 573d e10e 4abc
00000050: da11 3bbd ab98 123d 1854 0c3d 894f 293d
00000060: ba80 8abd 6120 833d 4a03 4c3d 1033 013d
00000070: 65df 6cbc 0394 703d cc0c 5b3d f798 39bd
00000080: 4cc0 46bc e0cd 213d f911 8bbd 56d6 3dbd
00000090: 454a 49bd b136 07bd 0902 33bc 968b 54bc
000000a0: 214f 733d 66b5 f8bc 76cb 453c 09a9 17bd
000000b0: 49c8 30bd fba2 64bc 7aff 23bd 7a03 c8bc
000000c0: ff79 e1bc 8b56 953c cd28 6cbd 8380 1ebd
000000d0: 59fe 23ba 7b0d 0a3c b997 53bd 00ae 183d
000000e0: a218 01bd 0a66 12bc 1770 7d3d 2b48 843d
000000f0: ee90 43bd e280 353d 2358 d33a e9d1 1abd
00000100: 63f3 41bd 50ce 673d dc6d 6c3d 678e 813d
00000110: fc34 f5b8 93ea 413d 392a 39bd d97b 273b
00000120: bd41 1c3c a224 dd3c f2cf 12bd 8437 3abd
00000130: e1e3 33bd 36f2 2f3c c6af febb 66bf 133d
00000140: 5dd2 103d 7e12 b5bc 10ab 813d 8d63 813d
00000150: c92f 4cbd febe aa3c d4a1 af3c ec73 823d
00000160: 798c fe3c 8b78 84bd c5a7 373d 4345 0dbd
00000170: a94e 153d 606b 1fbb dc84 28bd d480 87bd
00000180: fe93 bd3b f08a 57bb 7186 483d bc15 0e3d
00000190: e842 93bb 9bc9 973c 0559 873d 7178 eabc
000001a0: 359c 8bbd 59a0 f8bc 09bb 0fbd 2f09 0d3d
000001b0: 1f73 533d ad33 733d f50c 8abd a460 7f3d
000001c0: cfd8 953c 1663 83bd 066d 123d 1434 003c
000001d0: cbd7 8cbd 2dc2 87bc fddc 3abd f4f5 073c
000001e0: 8855 67bd 2895 ed3b 6e4b 37bc b0f4 843d
000001f0: 51d3 8abd 9320 323d 78e5 7fbd fb8a 22bd
00000200: 963d 3bbd b656 60bd 7884 23bd f46f 403c
00000210: 6a24 31bd 2359 1b3d 3918 903d 11c2 f9bc
00000220: 61b3 873c 4665 863d 1c39 833d 0f00 f33c
00000230: 5b27 3dbd d230 76bd f9d6 9e3c 97c1 2c3d
00000240: 3b70 8f3d 9424 cbbc b71c 53bd f1b5 3d3d
00000250: fedb 8abd 70ca 223c 5697 d13b 3918 083d
00000260: 1e4c 1cbd 73c8 213c 0f69 413d e026 3fbd
00000270: 5234 3dbc 315f 7d3b 2f49 9c3c b8aa 52bc
00000280: 7a46 ff3c 79e1 bf3c 476b 40bd ebdb d0bc
00000290: 4849 0f3d 928b 81bd aa2f 85bc a7d8 563d
000002a0: 14bf 773d 6b34 683d 7ec5 5cbc 7974 d53c
000002b0: 1c4a 493d fa53 0cbd 4f49 2e3b de4c ddbc
000002c0: 4564 38bd 083c bb3c 1f02 03bd ecd3 773c
000002d0: 5ef0 3cbb e173 a13b 8cc2 df3c 97f8 48bd
000002e0: ac3b 0cbd d0e1 843c dea0 c2bc bad3 2abb
000002f0: 04fa 0abd 412c 7abd 7560 c5bc 3e17 7c3d
00000300: 034b 26bc ee2d 80bb 8f14 823c f91e eebc
00000310: cce2 c13b 2212 51bd 42fb 923c fde7 c93c
00000320: 81cf 3f3d bf5d cd3b 0705 bc3c 3302 59bc
00000330: 185c 343b ea6c ac3c 000f e23c 8762 8c3d
00000340: ccb2 8d3d bcdd 7ebc 7b72 36bd b324 0d3d
00000350: 1578 8b3d 9361 2c3d 7fb7 08bd 0d25 84bd
00000360: 5a59 81bd 097c e4bc b28f bfbb 9b86 84bd
00000370: d5e5 273d 9c12 9ebc 896c 763d 4813 723d
00000380: a555 d1bc 880f 6d3d 8de9 573c 6c5c 20bd
00000390: fe1a 4fbd 0847 3e3d 6b01 3fbd b341 0dbd
000003a0: 10ad 8abd 4f1f 8ebd e5c6 2a3d 600f 723d
000003b0: d9ab f53b e2c3 5cbd 4b7b 243d 0c83 e1bc
000003c0: b7f2 563d 6581 143d 0dfe 68bd 3f1d afbc
000003d0: 220e 423d 7f60 e9bc 44c6 093d 421d 9fbc
000003e0: 2c14 173d 7fbe 8fbd 8ea8 023b eb2f 853d
000003f0: 3065 2c3d 16ff 3cbd 03d8 c53c 624d 10bd
0.0075252694 -0.044913758 -0.02995916 -0.026881665 0.033914164 -0.008648121 -0.054301083 -0.026110226
-0.031949 -0.05031835 -0.02716893 0.06724527 -0.0032020563 0.01183835 -0.0326091 -0.012351539
0.008807638 0.02436029 0.052637395 -0.012332649 -0.04567132 0.035790127 0.034259886 0.041335616
-0.06762834 0.0640266 0.049807824 0.031542838 -0.014457558 0.058734905 0.053479 -0.045311894
-0.012130808 0.03950298 -0.067905374 -0.046346985 -0.049143095 -0.033011142 -0.010925778 -0.012972733
0.059401635 -0.030359935 0.012072435 -0.03702644 -0.043159757 -0.013954873 -0.040038563 -0.02441572
-0.027523993 0.018229743 -0.0576561 -0.038696777 -0.00062558573 0.008426066 -0.051658366 0.037275314
-0.031517632 -0.008935461 0.061874475 0.064590774 -0.047745638 0.044312365 0.0016124289 -0.037797842
-0.047351252 0.05659324 0.057721958 0.06325989 -0.000116923795 0.047342848 -0.045206282 0.0025555997
0.009537158 0.026995007 -0.035842843 -0.0454631 -0.043918494 0.0107389 -0.0077724187 0.036071204
0.035356868 -0.022103544 0.06331456 0.06317816 -0.04985026 0.020843025 0.02143947 0.063697666
0.031072842 -0.06468304 0.044837732 -0.03448988 0.03645197 -0.0024325475 -0.04114233 -0.06616369
0.0057854643 -0.003288921 0.04895634 0.034688696 -0.00449406 0.01852875 0.06608776 -0.028621884
-0.068169035 -0.030349897 -0.03509048 0.034432586 0.05162346 0.059375454 -0.067407526 0.062348023
0.018291859 -0.064153835 0.035748504 0.007824916 -0.06877097 -0.016572082 -0.045620907 0.008298386
-0.056478053 0.007250447 -0.011187417 0.06491983 -0.06778587 0.043488096 -0.062474698 -0.039683323
-0.04571303 -0.054770194 -0.039921254 0.011745442 -0.043247618 0.037926804 0.0703587 -0.030488046
0.016565027 0.06562285 0.06407377 0.029663114 -0.04618011 -0.060105152 0.019389616 0.04217681
0.07003828 -0.024797715 -0.051541056 0.04631609 -0.067802414 0.00993596 0.0063962145 0.033226226
-0.03815853 0.009874451 0.047219332 -0.046667933 -0.011548119 0.0038661475 0.019077865 -0.012858085
0.031161536 0.023422943 -0.046977308 -0.02549549 0.034981996 -0.06325449 -0.01625808 0.05245271
0.06048496 0.056690615 -0.01347482 0.026056515 0.04914294 -0.034259774 0.0026593988 -0.027014192
-0.0450175 0.022855774 -0.031984445 0.01512621 -0.0028829793 0.004927144 0.027314447 -0.0490652
-0.034236595 0.016220957 -0.023758348 -0.002606614 -0.03392984 -0.06107736 -0.024093846 0.061545603
-0.01014972 -0.0039117252 0.015878944 -0.029067503 0.005916929 -0.051042683 0.017942075 0.024646753
0.04682875 0.006267279 0.022951616 -0.013245153 0.0027520712 0.021048028 0.027595043 0.0685473
0.069188684 -0.015555795 -0.04454277 0.034458827 0.06810013 0.04208524 -0.03337812 -0.064523794
-0.063158706 -0.027891176 -0.0058459872 -0.064709865 0.04099067 -0.019295983 0.0601621 0.05910042
-0.025553534 0.05787614 0.013178241 -0.03915064 -0.05056285 0.04645446 -0.04663221 -0.034486484
-0.0677129 -0.069395654 0.041693587 0.059096694 0.0074972925 -0.053897746 0.040156644 -0.027528308
0.052477565 0.036256213 -0.056882907 -0.02137625 0.04737676 -0.028488396 0.033636346 -0.01942313
0.03688447 -0.07018756 0.0019936892 0.0650328 0.042088687 -0.046141706 0.024150854 -0.035230048

backbone.model.1.1.model.0.bias f4 [8]
00000000: a22c 87bd 9be6 4e3d 5adc 2539 e710 403d
00000010: e42d b93c 863f ce3b 6908 b2bc 8d07 9dbc
-0.0660031 0.05051289 0.00015817714 0.04689112 0.02260489 0.0062941937 -0.021732526 -0.01916864

backbone.model.2.0.model.0.weight f4 [8, 8, 3, 3]
00000000: a2cd 9bbd e4bb 7d3c abe3 febc 90d9 33bd
00000010: ff4c b93c edcc bebd 908e dabc 4240 653d
00000020: a7b5 de3d a16f 6abd 6745 863a 27bd 353c
00000030: 34a2 4f3d 480e b8bd 5e9c bf3d 9054 c4bc
00000040: 64ff 2bbd ef65 c23d 3b93 c53c 777d 793d
00000050: ad1a 02bc 84de 0bbd 1dbe 233d 2473 8bbc
00000060: 6a6f 043a c746 aabb 51ed bdbd 7693 d83d
00000070: e35d babd 5f97 9cbd d7d6 d63d d250 36bd
00000080: 9168 59bd 5524 cf3d a8ed ac3c ae62 abbc
00000090: 73d2 563d e921 7a3d 8d8f 0ebc 705b 2d3b
000000a0: b847 8bbd 5e62 a2bd 0964 c33d 5821 ca3d
000000b0: 2c28 d4bd 342c f1bc ccd6 eb3d f698 763d
000000c0: ad98 493d 77a2 6fbb fd69 55bd 5b61 d5bc
000000d0: 00c3 c93c 1890 be3c cb2f 0e3c 9327 bebd
000000e0: 9ab1 c3bd f23d a7bd 54d4 e5bd 93d7 96bd
000000f0: 589d bebd 4e5b e1bd f5e1 fdbc 82a9 463d
00000100: 4f84 b8bd 52d3 a93d 03bb 783d a548 893d
00000110: d64f 08bc 30dd 97bd a6ba 4b3d 41bf 9f3d
00000120: fb39 0abc 2fb8 9ebd ebbc 51bd 5c34 d9bd
00000130: 2336 c6bd cbdb 873d 9952 bebd 72ef d2bd
00000140: 36de c43c 10aa 533b 8a59 fcbc d8e4 e53d
00000150: 474f 873d 75d2 d2bc f897 e63d da64 7bbd
00000160: 3d17 f6bc 4992 5fbd 1aa2 8dbd 817a a6bb
00000170: e43a a4bd af25 fbbc 7154 c43d 4b73 c5bd
00000180: 74de 713c fb8e 79bc c78d 51bc 1c7b 91bd
00000190: e003 923d c285 b6bd c64f 0c3d 9125 82bd
000001a0: 4a49 d1bd 2afe d9bd e97b e8bc d3b2 aa3d
000001b0: 4276 c03c 4a63 343d 464e 533d b033 6bbd
000001c0: 1e1e da3d 4179 9fbc 645a 8a3b dc9d ad3d
000001d0: 5b3d 11bd a4b8 79bc 13eb 4cbd b820 49bd
000001e0: dc9e 4fbb ac01 963c 7be9 c8bd 65a6 ccbd
000001f0: 2233 0bbd f0c1 a93d 83af a83d 0aaf 8bbd
00000200: 621b 423d 8a57 ad3d a6ef 26bd 1544 6a3d
00000210: 1793 82bc 0580 5abd 6eb9 b13d 0d70 8dbc
00000220: ff56 e8bc e1bc b23b a74e d9bd 237e ecbd
00000230: c18c af3d 6721 b5bd dca1 29bd 6502 2bbb
00000240: f351 f0bd 60e2 0abd 9011 59bd a360 a0bd
00000250: 723c 063d d017 46ba b032 e7bd 0a10 9f3c
00000260: 92ac a4bd f98d 913d 64a8 9ebc 9546 1abd
00000270: 220a bfbd 7e9f 2b3d 4e7f 48bd 5384 e13d
00000280: 6ce8 863c 5238 b3bd 762a acbd c36e b0bd
00000290: 00f5 86bd 8eca b13d f7bc 3e3d 0a11 aebd
000002a0: 9600 c1bd 6509 863d ac2c 81bd 6c49 cabd
000002b0: b97e e03c 0555 3e3d 75cc b43d 9f8e 5bbd
000002c0: 52b1 c93c c733 173d 435e c8bd 5a70 333d
000002d0: e573 82bd 293e 7fbd e6b5 39bd 8bc5 89bb
000002e0: 5a0d fc3c a462 18bd f097 cd3d 05e4 e23d
000002f0: e52f ed3d 5724 723d 8e70 243d 653d edbd
00000300: 4d76 38bd 1d1e 8c3b 2abc 12bd 045e 2dbd
00000310: a385 e9b9 48a4 a63d 4059 92bd 1870 513d
00000320: 97e6 d73c 3b91 2a3d 8b15 9fbd d953 bb3d
00000330: 5821 7e3d 25d4 b1bd c5ca 38bd 7907 8dbd
00000340: e2e8 10bd 4221 2cbd a3b7 abbd 23c5 8bbc
00000350: 0246 00bd bab9 323d 3c2b 33bd 3116 bf3d
00000360: 65d7 b53d f11e fcbc ea95 e9bd 8e49 133d
00000370: 16c2 aabd f9cc 26bd c197 b83d 2878 693d
00000380: 5151 fabb 6e77 743b 3039 e33d c148 56bc
00000390: 2fc8 d03d 8439 613d 890f 703d 532f d1bd
000003a0: ec49 b13d e10e edbc b334 2a3d 31ad 923d
000003b0: 70c4 90bd 2557 5c3d a8f2 b6bd 5a7a a33a
000003c0: d57a 283d d292 e63d 599d ca3d 6d58 af3d
000003d0: 0173 413d 2035 ba3d 7341 1f3d 6625 64bd
000003e0: de4c 0bbc c088 8abd 2638 313d fb6e ae3d
000003f0: 2b93 74bd 520b b73c 69e7 903b 4e30 d13d
-0.07607581 0.015486691 -0.03111442 -0.043908656 0.022619722 -0.0931643 -0.026679307 0.055969484
0.10874491 -0.057235364 0.0010244072 0.011092461 0.0506918 -0.08987099 0.093559965 -0.023966104
-0.041991606 0.094920985 0.024118057 0.06091067 -0.00794093 -0.034147754 0.039976228 -0.017022677
0.00050520024 -0.0051964256 -0.0927378 0.10575001 -0.09099939 -0.07646059 0.10490196 -0.04451067
-0.053078238 0.10114352 0.021109417 -0.020921078 0.052446794 0.061067495 -0.008701217 0.0026452206
-0.06800789 -0.07928918 0.095405646 0.09869641 -0.10359225 -0.029440023 0.11515579 0.06020447
0.04921787 -0.0036565342 -0.05210303 -0.0260474 0.024629116 0.023262069 0.008678387 -0.09284892
-0.09555359 -0.08166112 -0.11222139 -0.07365336 -0.09307355 -0.11003743 -0.030991534 0.0485015
-0.09009611 0.08292259 0.060725223 0.06703309 -0.008319816 -0.07415235 0.04973855 0.07800151
-0.008436675 -0.07749974 -0.051205557 -0.1060569 -0.096782945 0.06633719 -0.09293098 -0.10299577
0.02403174 0.003229741 -0.030804414 0.11225289 0.06606918 -0.02573512 0.112594545 -0.061375476
-0.030040378 -0.054582868 -0.06915684 -0.0050805216 -0.08019045 -0.030657617 0.095864184 -0.09641131
0.01476251 -0.015231843 -0.01279015 -0.071035594 0.07129645 -0.08912231 0.034255765 -0.063548215
-0.10219057 -0.10644181 -0.028379397 0.08334889 0.02349389 0.044040002 0.05158832 -0.05742234
0.10650276 -0.019466998 0.004222201 0.08477375 -0.035458904 -0.015241776 -0.05002887 -0.04910347
-0.003168038 0.018311344 -0.09810158 -0.09992675 -0.03398431 0.08288944 0.08236601 -0.068204954
0.047389396 0.084639624 -0.04075589 0.057193834 -0.015939279 -0.053344745 0.08677946 -0.017265344
-0.028361795 0.005454645 -0.10610705 -0.11547496 0.085717686 -0.088442616 -0.041414127 -0.0026093957
-0.117343806 -0.033907294 -0.052995265 -0.07830932 0.03277249 -0.0007556649 -0.11288965 0.019416828
-0.08040728 0.07107157 -0.019367404 -0.03766497 -0.093281046 0.04190015 -0.048949532 0.11011567
0.01646825 -0.087509766 -0.08406536 -0.08614876 -0.06589699 0.08681212 0.04656693 -0.08499344
-0.0942394 0.065447606 -0.063073486 -0.09877285 0.027404176 0.0464678 0.088280596 -0.05360281
0.024620686 0.036914613 -0.09783604 0.04380832 -0.063697614 -0.06231514 -0.045339487 -0.004204457
0.030768085 -0.037203446 0.100387454 0.110786475 0.11581401 0.059116688 0.040146403 -0.11583976
-0.045034695 0.0042760507 -0.03582398 -0.04232599 -0.0004454079 0.08136803 -0.07145929 0.05113229
0.026355071 0.04164241 -0.07767781 0.09146852 0.062043518 -0.086830415 -0.04511525 -0.06886191
-0.035378344 -0.042023905 -0.08384635 -0.017061776 -0.031316765 0.043634154 -0.043742403 0.093304045
0.08878974 -0.030776473 -0.11405547 0.03595882 -0.083378 -0.04072282 0.0901332 0.056999356
-0.007639088 0.003730263 0.11094892 -0.013078869 0.10194432 0.05498649 0.058608565 -0.102141045
0.086566776 -0.028937759 0.041554164 0.0716194 -0.070687175 0.053794045 -0.08933002 0.0012472377
0.041132767 0.112584725 0.09893293 0.08561788 0.047228817 0.09092164 0.038880777 -0.05569973
-0.008502213 -0.06764364 0.043266438 0.085172616 -0.059710663 0.022344265 0.0044221175 0.102142915

backbone.model.2.0.model.0.bias f4 [8]
00000000: f91c e4bd b3b7 20bd e3b4 c73d d738 febc
00000010: 2e0e bc3d c493 08bd 16b5 01bd b187 cdbd
-0.111383386 -0.03923769 0.09751298 -0.031032963 0.09182392 -0.033344045 -0.031666838 -0.10035647

backbone.model.2.1.model.0.weight f4 [8, 8, 3, 3]
00000000: b897 653d 0c73 17bd 343e 24bd 45c9 bdbd
00000010: 8d13 aebd 1719 c4bd 01ee e13c f22c 963d
00000020: 46da f3bc d426 8a3c 25d4 f2bc b94d 51b7
00000030: c872 403d a571 703c 306d c53d 385a a83d
00000040: 39d8 d53d 98a7 82bc 5955 09ba c3c0 353d
00000050: f7b5 b63d 5632 c9bc 5984 84bd 6478 e1bc
00000060: 39e0 47bd 3a27 48bd 2519 9c3d 0555 5abc
00000070: c7b9 503d 6cda f33c 2353 88bc 837e 73bd
00000080: 5f16 853d 1535 2abd 75a9 7b3d 8bfa 22bd
00000090: 7557 d63c 9902 80bc 4912 303d c50d 6a3d
000000a0: b30e 093c eae1 0fbd 9d93 2a3b 3487 0abd
000000b0: 0286 7f3d fa1b c0bd 48d3 29bc 0573 babd
000000c0: 98cc ac3d 7338 3bbd dfd2 153d 8447 88bd
000000d0: 2fef 873d 830b 5bbc d730 94bc cd80 76bd
000000e0: 7d29 9bbd d80a b53b 1b81 1fbd aadf e7bd
000000f0: 3262 4e3c 49e4 703d f7b4 cf3d c3db 0abd
00000100: f154 433c 3fdf a6bd b953 443d 094d 953c
00000110: 39a3 e43d 0f1b 91bc f6f5 b43d 4693 b33d
00000120: 1c7a 213d 8030 c4bd 4edc 903c 425b 83bd
00000130: 08a8 ba3d 6b0d 1ebd a137 b33d 1723 d03b
00000140: 638d 783d 66bf 7f3d 89c4 b3bd 01d4 4bbb
00000150: eb17 5cbb b9e2 a7bd bc97 b93d c23e 133d
00000160: 915d b23d 8d85 47bd 6b4a c33d f503 4e3d
00000170: f558 c7bc 11ca 4ebd b646 58bd bd23 c73d
00000180: e195 7cbd 65e3 743d c8d7 973b 1e0a b43d
00000190: 13b9 4c3d 28da 3bbc 94b5 6c3d 1e9c 7ebd
000001a0: a0f5 d83d 7745 d43d 499f 89bd d2be c13d
000001b0: 1795 b23d 7ef0 ed3d fc5e 6b3d 24a3 8d3d
000001c0: a0c3 f6bc f25c debd d332 123d c079 3abd
000001d0: 237c 90bc 43f0 993d af58 653d 14ed 9b3d
000001e0: 2f6c 8abb 1aa5 bf3d 7cf1 c6bb 3c60 c63d
000001f0: 8326 9a3d 1021 84bd e0a0 8f3c 76de 813d
00000200: 89d7 d83b 4bff c9bd 7b8f 783d 743d 7fbd
00000210: c230 89bc 51fe 693a 40da 863b d66a d3bd
00000220: ac2b 9c3d 6797 32bb ed45 f2bc 9d6e 93bd
00000230: bf8b 363c e8d5 3f3d 4f3a c43c c01d 313c
00000240: f9f3 e43d 07c8 4cbd 2d9f 303d fe54 5bbb
00000250: 9202 efbd 45ac debd e830 c2bd b14e 8dbd
00000260: 1c80 0e3a bd81 bb3d 62f1 e0bd 4fc9 3dbd
00000270: 7148 623d 257b b43d 96c7 0ebc 1b70 b8bd
00000280: 31b4 423b 9310 97bd 6cf4 a6bd 80a9 d0bd
00000290: 719e 23bd c0bf 833d 01d0 c13d da4f 00bd
000002a0: 4d02 2f3d 46f1 abbd 0d33 cabd 65d6 313d
000002b0: bb40 de3d d9f8 d7bd 4610 cbbd 99ad ed3d
000002c0: 7b96 da3d 3cff a33d 407f 92bd d7f8 033d
000002d0: 036e 9cbd 0390 973d f61f dc3d 59ac 6fbd
000002e0: 8120 d43d 033b 6c3c c6b1 a83d 1a7d 60bd
000002f0: a679 86bd 0873 9abd 57e5 c3bc c05d c93d
00000300: 942b d63d a125 1cbd 0ca6 b23c fae6 13bd
00000310: f4f8 b1bd a2b3 e5bd ef25 6d3d c41a 87bd
00000320: 4c43 9bbb 395e bfbd e65f d0bc e30a dbbd
00000330: 6f17 9b3d b134 9c3d f74b e3bc af3f ad3d
00000340: 7b8b 76bd 427c bf3d bcc1 3c3c b11b 26bc
00000350: 50df 4a3d 0517 9e3a 6523 dcbd da88 e83d
00000360: 80d2 823d f6aa abbd d3ea 463c 731e 96bd
00000370: 9f4c 9b3d 8135 273d cc93 c5bd 89bf a53d
00000380: c05e c8bd 3f53 cc3d 93a3 bebd 8348 3ebd
00000390: 9748 383d 4278 cf3d dcc5 97bd 5c78 30bd
000003a0: 39bc b13d c341 5ebd de5b dfbc 1987 113a
000003b0: ff82 c43b 1fa7 81ba 1279 153d 97bb ea3d
000003c0: b09d 933d 204b 633d 9351 15bd e993 883d
000003d0: e487 3fbd 1a7c 863d 053c dc3d 397a d53c
000003e0: c2c4 5b3d a84a da3d 9e1a d0bd 00af 3ebc
000003f0: 4a61 abbd 2f5c a03d f73b 9c3d 0956 8dbd
0.056052893 -0.03697495 -0.040098384 -0.09266905 -0.08499823 -0.09575098 0.02757931 0.073327914
-0.029767167 0.016864218 -0.029642174 -1.2475467e-05 0.046984464 0.0146755325 0.096399665 0.08220333
0.10441632 -0.015949056 -0.0005238853 0.044373285 0.08921426 -0.024560135 -0.06470556 -0.027523227
-0.04879782 -0.048865534 0.076219834 -0.013325934 0.05095842 0.029767238 -0.016641205 -0.059446823
0.064984076 -0.04155453 0.061440904 -0.039789718 0.02616475 -0.015626239 0.042986188 0.057142038
0.008365321 -0.035127558 0.0026027926 -0.033820346 0.06238366 -0.09380336 -0.010365315 -0.091039695
0.08437461 -0.04570813 0.036578055 -0.066542655 0.066374175 -0.013369444 -0.018089695 -0.060181428
-0.07576273 0.0055249743 -0.038941484 -0.113219574 0.012596654 0.05881146 0.10141938 -0.033900987
0.011922107 -0.081480496 0.047931407 0.01822521 0.11163945 -0.017713098 0.08835976 0.087683246
0.039423093 -0.09579563 0.017683174 -0.064138904 0.09114081 -0.038587015 0.08750845 0.0063518393
0.060681712 0.06243839 -0.087777205 -0.0031101706 -0.0033583592 -0.08197541 0.09062144 0.035948522
0.087092526 -0.04871135 0.095356785 0.050296742 -0.02433441 -0.050485674 -0.05280181 0.097236134
-0.061666373 0.059787173 0.0046338774 0.08790992 0.049981188 -0.011465587 0.057790354 -0.062160604
0.10593724 0.10364812 -0.06719834 0.09460224 0.08719843 0.11618136 0.05746363 0.06915882
-0.030122578 -0.10857572 0.035693 -0.045526266 -0.017637318 0.075165294 0.05599278 0.076135784
-0.0042243223 0.093576625 -0.0060712676 0.09686324 0.07526877 -0.06451619 0.017532766 0.06341259
0.0066174907 -0.098631464 0.06068371 -0.062314466 -0.016746882 0.0008926141 0.004115373 -0.10323112
0.07625517 -0.0027250887 -0.029574359 -0.07198832 0.0111417165 0.046834856 0.023953585 0.010810316
0.111793466 -0.04999545 0.04312055 -0.0033467407 -0.11670412 -0.108727016 -0.094819844 -0.06899775
0.000543596 0.09155605 -0.1098354 -0.04633456 0.055244867 0.088125505 -0.008714577 -0.090057574
0.0029709453 -0.07376208 -0.081520885 -0.101885796 -0.039946023 0.06433058 0.09463502 -0.031326152
0.042726804 -0.08395629 -0.098730184 0.043417353 0.1085219 -0.10545511 -0.09915213 0.11605377
0.10673233 0.080076665 -0.07153177 0.032219734 -0.076381706 0.07400515 0.107482836 -0.058513973
0.10357762 0.014418366 0.082370326 -0.054806806 -0.06566171 -0.07541472 -0.023913069 0.098323345
0.104575306 -0.038121823 0.021807693 -0.03610895 -0.08690062 -0.11215903 0.057897504 -0.06596902
-0.004738247 -0.093441434 -0.025436353 -0.10695436 0.07572829 0.076272376 -0.027746184 0.08459412
-0.060191613 0.09349872 0.011520799 -0.010138438 0.049529374 0.0012061304 -0.107489385 0.11354227
0.06387806 -0.083822176 0.012140947 -0.073300265 0.07582974 0.04082251 -0.09647331 0.08093173
-0.09783697 0.099768154 -0.09308543 -0.04645587 0.044991102 0.10130359 -0.074107856 -0.043083534
0.08678479 -0.054261934 -0.027265485 0.0005551442 0.0059970613 -0.0009891725 0.036492415 0.11461561
0.07207811 0.055491567 -0.03645475 0.066688366 -0.046760455 0.06566639 0.10753635 0.026059257
0.05365444 0.10658771 -0.10161327 -0.011638403 -0.08368166 0.078300826 0.07628625 -0.069011755

backbone.model.2.1.model.0.bias f4 [8]
00000000: 01bb 52bd 575f 173b 54d7 a43d 8b00 833d
00000010: deeb c7bd 72b0 96bc db30 adbd 6b05 e03d
-0.051447872 0.0023097598 0.08048883 0.06396588 -0.09761785 -0.018394683 -0.08456584 0.109385334

backbone.model.3.0.model.0.weight f4 [16, 8, 3, 3]
00000000: a8f2 f0bd 9de3 cdbd cc46 ecbc 46d8 2fbd
00000010: 5032 313d 55bb 0fbd 45bc 60bc 9889 44bc
00000020: e2f4 be3c a55e 8c3d 5e12 e53d 245b 1ebd
00000030: 4244 b2bd f51c b33d cd9f 853d 1b4e 6c3d
00000040: 1df6 b2bd 5d7a d3bd 61ea 053d d366 0abd
00000050: 29e3 a5bd d887 623d 439a a53c b109 b7bd
00000060: 2557 a0bd af09 ee3d aff0 b93d ba72 c9bd
00000070: 5151 d4bd 774c ffbb 097e 77bd 346a e7bc
00000080: 6228 d33d b543 89bd 34f5 913c 36ca d43d
00000090: 9b9c 83bd 6027 913c d7ba 8f3d b6c4 9bbd
000000a0: 4da1 88bc 382f d9bb 89fa 0b3d 5c13 1a3d
000000b0: da07 66bd 65bb 5c3d 069d 20bc b96f b2bd
000000c0: 05d4 953d 4098 13bd 22c6 97bd 8e09 e6bd
000000d0: 24de aabd a65e 2d3d 5e25 a1bd d1ce 133d
000000e0: a444 08bc 8d83 b5bc 55da babd 2aea 5cbb
000000f0: c808 823d c33d 81bd c044 b03d 3882 ce3c
00000100: 0f88 4abd 0d6b b73d b7dc 543b 9a48 3e3d
00000110: 6b8a 993b 4771 a03d 4d28 a5bc c367 a13d
00000120: 5eaf cbbd 33b4 1b3c c77d 8c3d 0f18 67bd
00000130: 8884 d0bd 8445 7a3d 54ff 363d 4d49 25bd
00000140: 4e52 b8bd 6a93 7f3b 5102 86bd 00d7 82bc
00000150: 894a 84bd 13df 91bc a179 d33b f8be 943d
00000160: 1fd6 8cbd f245 87bd a6ef babd 99c3 a8bd
00000170: e6b9 ea3d a9ac b8bd 264a d3bd 293b a3bd
00000180: 0c61 263d 2023 313d b9ba 813d ebd5 213d
00000190: ce64 873d 0d59 bcbc effa 57bd bbb4 1bbd
000001a0: 4b06 053d 7d13 2d3c 358f 863d f8de c0bc
000001b0: aa43 1b3d 2279 ffbc bad3 c2bd e336 1ebd
000001c0: 0194 a63d 4f34 563c d02a 9d3d 8d70 663d
000001d0: 3c49 45bd eaaf 07ba 89c6 df3d e977 26ba
000001e0: c4fe 8f3d 62dd 653d 53a7 9b3c 71e5 c63d
000001f0: 49a6 413d 9c40 953d 897e 39bd 19d5 153d
00000200: 779f 9e3d 48ff 843d 2804 d2bb 7f47 593c
00000210: f3de 293d b2de 653d ec62 cabc ddd0 52bc
00000220: 14ab ba3d 9f9a 92bd 9f1a 60bd 780c 533d
00000230: 48cc f43c 5d77 e6bd d329 58bd 5da0 a53b
00000240: c06d 27bb 2c54 973c 5639 e63d 6527 143d
00000250: 1583 9a3b bc20 fbbc 9137 f03d b3ad b53d
00000260: da13 c6bd 580b eabd 17bc 513c de2c 16bc
00000270: 3e89 8e3d 6e8e bc3d 5bab db3d 2dd0 153d
00000280: 9414 f2bc 00b8 0d3b a0d7 d93b fb48 743d
00000290: 7ab1 1c3d cc0f 943d 52bb 893d 57dd d73b
000002a0: 9bc8 71bd 6475 d6bc 5d3a e13d 3685 643d
000002b0: 5138 1f3d 21fc 4a3d 24ad 06bd 8282 213d
000002c0: 9bbe 6a3d 849e cfbd 1283 673d 3597 ad3d
000002d0: 306a 533c 66e8 a53d 5a12 55bd f4dd 0f3d
000002e0: fb9c a83b 736f 1c3d 8657 b63d 24ae dc3d
000002f0: 18e2 94bd cb11 2cbd 7e8a 51bd c518 b7bd
00000300: 9180 863d ada3 6abd 5624 023c 4dc9 853d
00000310: 159d b6bd 8627 e1bd 3d24 e5bd f4a3 3fbc
00000320: 345e a53d 282d 94bc 8bbd 933d 129a 1dbd
00000330: 2ee8 cd3d f191 97bd 905c 6f3d d6ec ad3c
00000340: e57c bc3d c5f2 e0bd 42e3 dd3d eb72 913d
00000350: b01c 1cbd f640 853d 1ca8 eabc 323c 36bc
00000360: edc1 dfbd 4d81 943c b2cb 9f3d 62ee ecbd
00000370: 2970 d63d 85b9 233d d62e f6bc 9649 813d
00000380: 374c b2bd 456a c23d 0fa0 51bd 62cd 5d3d
00000390: 8f6a b0bd c8c1 cfbd 2dbc a5bd d7d9 cabd
000003a0: 0b54 9d3d a09b d6bd a64e debd c0ac 7fbd
000003b0: 4f79 b2bd 9539 093d 4df0 7c3c f8cf b43d
000003c0: b813 b63d a1c7 8c3d a936 61b8 12f1 4cbd
000003d0: e9d3 58bd 4dfa b93d 7bd7 8a3d f015 a5bd
000003e0: 973b a4bd bc20 a13d 890a 8dbd bbc2 c73c
000003f0: 91c4 adbd 5ae1 3fbd 20f1 b53b 1961 743d
-0.11765033 -0.100531794 -0.028842352 -0.042930864 0.043260872 -0.035090763 -0.013716762 -0.0119956955
0.023310129 0.068539895 0.11185144 -0.038661137 -0.087044254 0.087457575 0.0652462 0.057691675
-0.08738349 -0.10326073 0.032694224 -0.033789467 -0.08099968 0.055305332 0.02021516 -0.08937395
-0.078291215 0.11622941 0.0907911 -0.098363355 -0.103670724 -0.0077910977 -0.06042293 -0.028248884
0.10310437 -0.06702367 0.017817117 0.10390131 -0.064263545 0.01771897 0.07018059 -0.07605879
-0.016678477 -0.0066279434 0.034174476 0.03761612 -0.05615983 0.05388965 -0.009803062 -0.08712716
0.0731583 -0.03603387 -0.07410838 -0.11232291 -0.08343151 0.042326592 -0.07868455 0.036085907
-0.008317146 -0.022157455 -0.09123675 -0.0033708909 0.06349331 -0.06310608 0.08606863 0.025208578
-0.04944616 0.08955965 0.003248019 0.046455957 0.00468569 0.07834106 -0.020160818 0.07881119
-0.09945558 0.009503412 0.068599276 -0.05641943 -0.10181528 0.06110145 0.044677094 -0.04035311
-0.090000734 0.0038997778 -0.065434106 -0.01597166 -0.06459529 -0.017806565 0.0064537083 0.07262987
-0.06876778 -0.06605138 -0.091277406 -0.08240432 0.114612386 -0.09017307 -0.10316877 -0.07970268
0.040619895 0.04324639 0.06334443 0.03951065 0.06611024 -0.022991681 -0.052729543 -0.038014155
0.032476705 0.010563728 0.06570283 -0.02354382 0.037906326 -0.03118569 -0.0951304 -0.038626563
0.08133698 0.013073995 0.076741815 0.05625968 -0.048165545 -0.00051760545 0.109265395 -0.00063502655
0.070310146 0.05611933 0.019000685 0.09711731 0.047277723 0.07287714 -0.04528669 0.03658018
0.07745259 0.064940035 -0.006409187 0.013261675 0.041472387 0.056120582 -0.024705373 -0.01286718
0.09114662 -0.07158398 -0.054712888 0.051525563 0.029882565 -0.112532355 -0.05277426 0.005054517
-0.0025547594 0.018472753 0.11241405 0.036170382 0.004715333 -0.030655257 0.117293485 0.08871021
-0.09671755 -0.11427945 0.012801192 -0.009165971 0.069597706 0.09206854 0.10726043 0.036575485
-0.029550828 0.0021624565 0.006648019 0.059639912 0.038255192 0.072295755 0.06725182 0.006587665
-0.059029203 -0.026179023 0.1099746 0.055791102 0.038872067 0.049556855 -0.032879964 0.039431103
0.05731068 -0.10137656 0.056521483 0.08476106 0.012903735 0.08100967 -0.052019455 0.03512378
0.0051456667 0.038192224 0.089034125 0.10775402 -0.072696865 -0.042009156 -0.051157467 -0.08940271
0.06567491 -0.057285 0.0079432335 0.06532536 -0.0891668 -0.109938666 -0.111885525 -0.011696804
0.080746084 -0.018087938 0.07213887 -0.03847701 0.100540504 -0.07400883 0.058437884 0.021231096
0.09203509 -0.109838046 0.108343616 0.07101997 -0.038113296 0.06506531 -0.028644614 -0.01112275
-0.1092566 0.018128062 0.07802524 -0.115689054 0.104706116 0.039971847 -0.03005163 0.063128635
-0.08705943 0.094929256 -0.051178034 0.054150946 -0.086140744 -0.10144383 -0.08092532 -0.09904831
0.076820455 -0.10478902 -0.10854845 -0.062420607 -0.08714544 0.03350218 0.015438152 0.088287294
0.0889048 0.06874014 -5.3695087e-05 -0.05003459 -0.05293647 0.09080944 0.06779381 -0.08060825
-0.08019178 0.07867572 -0.06886775 0.024384847 -0.08484758 -0.04684577 0.005552426 0.059662912

backbone.model.3.0.model.0.bias f4 [16]
00000000: b850 eb3d 3ed3 00bd 4d4d d63d 079f d0bd
00000010: f799 3ebb e913 dd39 27bd a53c dc40 babd
00000020: 1246 e4bd 377d df3d 16ca 6b3d 35cb cc3d
00000030: e4c0 873c 8be1 b23d 3659 2e3d 40d1 bd3d
0.11490005 -0.031451456 0.10463963 -0.10186582 -0.002908347 0.0004216724 0.020231796 -0.09094402
-0.11146177 0.10912555 0.05756577 0.09999696 0.01657147 0.08734425 0.042565547 0.09268427
