software/logs/hyper_parameter_tuning/custom_model_hp/version_18/checkpoints/epoch=0-step=20.ckpt (torch, 195567 bytes, 54 tensors)

backbone.model.0.0.model.0.weight f4 [4, 2, 5, 5]
0	0x3c9a6cf7	0.018850787
1	0xbd2a164b	-0.041525166
2	0xbc4416c9	-0.011968323
3	0x3bcb04a2	0.0061956206
4	0xbdb91f18	-0.09039134
5	0x3cc78856	0.024357002
6	0xbb9dac10	-0.004811771
7	0x3d8ff8f6	0.070299074
8	0x3e0742d7	0.13209091
9	0xbdfbc960	-0.122942686
10	0xbd0bce91	-0.034132544
11	0x3ca74953	0.020420706
12	0x3cecc1e8	0.028901055
13	0x3d69bd45	0.057065267
14	0x3c8de68d	0.01732185
15	0xbda08c34	-0.078392416
16	0xbd4159fd	-0.04720496
17	0x3d8573e0	0.06516242
18	0x3ce7d6b1	0.028300615
19	0x3d968bec	0.07350907
20	0xbd80c979	-0.06288428
21	0xbd93781d	-0.07200644
22	0xbd8c4dfa	-0.0685081
23	0xbd7e22d4	-0.062044933
24	0x3c819ab9	0.015820848
25	0xbdc90920	-0.098161936
26	0xbdad0039	-0.08447308
27	0xbcdfadf8	-0.027304634
28	0x3e08299b	0.13297121
29	0x3cc27e38	0.023741826
30	0xbda46c1b	-0.08028432
31	0xbe0c9263	-0.13727717
32	0xbdd1a624	-0.10236767
33	0x3d35e145	0.044404287
34	0xbe0009c6	-0.12503728
35	0xbd10e8a9	-0.035378132
36	0xbd57873a	-0.052619196
37	0xbde7a070	-0.11309898
38	0x3d82365c	0.063580245
39	0x3df23a73	0.118275546
40	0x3c54e192	0.012993233
41	0xbd1c66ea	-0.038184084
42	0xbda1a3bb	-0.07892557
43	0x3d270bae	0.040782623
44	0x3d9f85a3	0.07789161
45	0xbe074960	-0.13211584
46	0x3d5e7bd4	0.05431731
47	0xbde3b5a3	-0.11118629
48	0xbdf9c556	-0.12195842
49	0xbda42478	-0.08014768
50	0x3ddc53ca	0.10758169
51	0xbbf32cd6	-0.0074211163
52	0x3dabddf4	0.083919436
53	0xbd1d70af	-0.03843754
54	0x3da34d72	0.07973756
55	0x3ceb359c	0.028712086
56	0xbc9b6e6c	-0.018973552
57	0xbd1c83bb	-0.038211565
58	0xbd29efa7	-0.041488316
59	0x3c4d3aac	0.0125261955
60	0x3dbb9678	0.09159559
61	0xbcd6019c	-0.026123814
62	0xbd4fc735	-0.050727088
63	0x3de7ec20	0.11324334
64	0x3da8d702	0.082441345
65	0xbdb87af0	-0.090078235
66	0xbcf99f39	-0.030471431
67	0xbc95c45b	-0.018282106
68	0xbd6fd61a	-0.058553793
69	0x3d54b4b4	0.051930144
70	0xbd9c9795	-0.076460995
71	0xbdd18e86	-0.10232262
72	0xbcd3f38f	-0.025872974
73	0xbc61fa76	-0.013792625
74	0xbe04dac0	-0.12974072
75	0x3de766a7	0.11298876
76	0xbd96dd0b	-0.07366379
77	0xbd79e316	-0.06100758
78	0x3def8920	0.116960764
79	0xbd9b02b6	-0.075688764
80	0xbdbbf0a5	-0.09176759
81	0x3cceabda	0.02522843
82	0xbd13e85e	-0.036110274
83	0xbdf9206c	-0.12164387
84	0xbd3fa83c	-0.0467913
85	0xbda3eaeb	-0.080037914
86	0x3df04d49	0.11733491
87	0xbd5625e7	-0.05228224
88	0xbe0908a6	-0.13382205
89	0xbba819d0	-0.00513003
90	0xbc66bdb9	-0.014083319
91	0x3e050e13	0.1299365
92	0xbdc0c5aa	-0.094127014
93	0xbd3e5677	-0.046469178
94	0x3cfbe1eb	0.030747375
95	0xbdeae7bb	-0.1146998
96	0x3c7b1d7c	0.015326854
97	0xbd616d37	-0.055035796
98	0x3d944137	0.07239001
99	0x3d666c76	0.05625578
100	0xbd2fbc1e	-0.042904012
101	0x3de62293	0.11237063
102	0x3d868389	0.06568057
103	0xbddb8a5a	-0.10719748
104	0xbdb9fe1b	-0.0908167
105	0x3d8fa28e	0.07013427
106	0xbd6d445a	-0.057926513
107	0xbdfbd152	-0.12295784
108	0xbb4325a9	-0.0029777086
109	0xbe0e9b54	-0.1392644
110	0x3e0ca335	0.13734134
111	0x3dc51602	0.09623338
112	0xbc906371	-0.017625542
113	0xbc26c9cc	-0.010179948
114	0xbdd92dd0	-0.10604441
115	0xbd6ce4a5	-0.05783524
116	0xbdcfd24d	-0.101475336
117	0x3d188a7d	0.037241448
118	0xbc6e8209	-0.01455737
119	0xbd9e2e8f	-0.07723724
120	0x3ce79658	0.028269932
121	0xbde758dd	-0.11296246
122	0xbe10c3aa	-0.1413714
123	0xbc676c2b	-0.01412491
124	0xbdf8b35c	-0.12143585
125	0x3e03c257	0.12867104
126	0xbc9792bc	-0.018502586
127	0xbdc70060	-0.097168684
128	0x3de5d100	0.11221504
129	0x3c438860	0.01193437
130	0xbde0d1c4	-0.109775096
131	0x3dacf76f	0.08445632
132	0xbd6aad04	-0.057293907
133	0xbd76a129	-0.060212288
134	0x3ce25da1	0.027632536
135	0xbe0268ca	-0.12735286
136	0x3d2b67f5	0.041847188
137	0x3d007f12	0.031371184
138	0x3ccd0c64	0.025030322
139	0xbd8f40b7	-0.06994765
140	0x3a22a81b	0.0006204859
141	0xbd2a2e4d	-0.041548062
142	0x3d9c69f0	0.076373935
143	0xbdb99dc6	-0.09063296
144	0xbe01405b	-0.12622206
145	0xbdc60376	-0.09668629
146	0xbe0cbef0	-0.13744712
147	0xbe03281e	-0.12808272
148	0xbd1bf84e	-0.0380786
149	0xbd688fe2	-0.056777842
150	0xbd565406	-0.052326225
151	0x3dd33a5e	0.10313867
152	0xbe02ee09	-0.12786116
153	0x3dd33131	0.10312117
154	0x3c70d23d	0.014698562
155	0xbc0e2217	-0.00867512
156	0x3e056946	0.1302844
157	0xbe0f89fa	-0.14017478
158	0xbdb09b9d	-0.08623431
159	0xbd5e096f	-0.054208215
160	0x3e0a5c4a	0.13511768
161	0xbd4ab3a7	-0.049487736
162	0x3d705e97	0.058683958
163	0xbcc5e0d0	-0.02415505
164	0xbda00154	-0.07812753
165	0xbdc678e7	-0.09691029
166	0x3dab71a0	0.083712816
167	0xbd43bdd9	-0.047788475
168	0x3b14a8c6	0.0022683605
169	0xbd03672d	-0.032080818
170	0x3d66c08d	0.056335974
171	0xbdbd6be4	-0.09249094
172	0xbd651fd1	-0.055938546
173	0xbd390881	-0.045174126
174	0x3d121487	0.035664108
175	0xbc5bb7a9	-0.013410487
176	0x3d743d05	0.059628505
177	0xbdf4a454	-0.119454056
178	0xbd75767b	-0.059927445
179	0x3de20649	0.11036355
180	0xbc5eaf06	-0.0135915335
181	0x3ce85f45	0.02836574
182	0xbdb1febb	-0.08691164
183	0x3c91f3cf	0.017816452
184	0x3d70b8f6	0.058770142
185	0xbcef4fd7	-0.029212875
186	0x3d90acfe	0.07064246
187	0xbdd7efdf	-0.10543799
188	0xbde3450d	-0.11097155
189	0xbe0d3b5d	-0.13792177
190	0x3d6b0570	0.057378232
191	0xbdffe93a	-0.12495656
192	0xbdcff57d	-0.10154245
193	0xbda56609	-0.08076102
194	0xbc92f25e	-0.017937835
195	0xbdff8e38	-0.12478298
196	0x39fe882d	0.00048548114
197	0x3e030905	0.1279641
198	0xbdcda4a9	-0.10041172
199	0xbd8b0098	-0.067872226

backbone.model.0.0.model.0.bias f4 [4]
0	0xbe10b3ba	-0.1413106
1	0x3cbab3e5	0.022790859
2	0xbdfcebe1	-0.12349678
3	0x3d37ed57	0.04490408

backbone.model.0.1.model.0.weight f4 [4, 4, 5, 5]
0	0xbd94586f	-0.0724343
1	0x3c2dcdc0	0.010608137
2	0x3d62c22a	0.05536095
3	0x3c16b45a	0.009198273
4	0x3be2f233	0.006925845
5	0x3cf8a6ba	0.030352939
6	0x3dbdbc80	0.09264469
7	0xbd9b4b22	-0.0758269
8	0xbd1c42f7	-0.0381498
9	0x3d5418e7	0.05178156
10	0xbcc72807	-0.024311079
11	0x3dba30bf	0.09091329
12	0xbd9225a2	-0.07136084
13	0xbd90acca	-0.07064207
14	0xbcb60fa7	-0.02222426
15	0x3b213ccd	0.002460289
16	0x3cf822da	0.030290056
17	0x3d760053	0.060058903
18	0xbc911be0	-0.017713487
19	0x3d32cfed	0.043655325
20	0xbd28b36d	-0.04118674
21	0x3cc33fda	0.023834158
22	0x3d71cff3	0.059036206
23	0xbd3c77d0	-0.0460127
24	0x3d93b48b	0.0721217
25	0xbd7d259a	-0.061803438
26	0x3dca59e0	0.098804235
27	0xbc08f88d	-0.00836004
28	0x3dc08223	0.093998216
29	0x3d71dec3	0.059050333
30	0xbd5f8d67	-0.05457821
31	0x3c23fec0	0.010009468
32	0xbd273bca	-0.040828504
33	0x3d5e73b0	0.054309547
34	0xbc6c5227	-0.0144238835
35	0x3d57a21d	0.052644838
36	0x3d74dad0	0.05977899
37	0xbc98cb53	-0.01865164
38	0x3db4ca42	0.0882764
39	0x3d5c0123	0.05371202
40	0xbcf27c7a	-0.02960037
41	0xbd590763	-0.05298556
42	0x3d200407	0.03906634
43	0xbcaa406d	-0.020782674
44	0x3c8ce3d3	0.017198479
45	0xbdc6f883	-0.097153686
46	0xbcd072f3	-0.025445437
47	0x3dc35cff	0.09539222
48	0x3dbc1518	0.09183711
49	0x3d2f36ed	0.04277699
50	0xbdb8ee62	-0.09029843
51	0x3cf960c7	0.030441655
52	0x3d08baa0	0.033381104
53	0x3d8c034a	0.06836565
54	0x3dc5bc1b	0.09655019
55	0xbd4971fd	-0.049180973
56	0x3d82bb3f	0.063833706
57	0x3d7b79b3	0.06139536
58	0x3d9613af	0.07327973
59	0xbd9f5a2a	-0.07780869
60	0xbd892377	-0.066962175
61	0x3d4d1560	0.050069213
62	0x3da51ce7	0.08062153
63	0x3da58740	0.080824375
64	0xbd4ef3c0	-0.050525427
65	0x3b05e19a	0.0020428658
66	0xbda46df8	-0.080287874
67	0xbc790427	-0.015198744
68	0xbd8fe2d5	-0.07025687
69	0x3ca18087	0.019714607
70	0x3d11e2dd	0.035616744
71	0x3cca12a0	0.024667084
72	0xbca7a600	-0.020464897
73	0xbdad8297	-0.08472174
74	0x3d0ee270	0.034883916
75	0xbd04796d	-0.032342363
76	0x3d37138a	0.04469637
77	0xbd911187	-0.07083421
78	0xbd2b92c0	-0.041888
79	0x3c85b240	0.016320348
80	0xbdc5858f	-0.09644615
81	0xbd56b900	-0.052422523
82	0x3d280930	0.041024387
83	0xbd7868ba	-0.06064675
84	0x3dc906c2	0.09815742
85	0x3d0fdcd3	0.035122704
86	0xbce6d29a	-0.028176595
87	0xbcf38e80	-0.029731035
88	0xbdb58e68	-0.088650525
89	0xbd9d2d55	-0.07674662
90	0xbc62628d	-0.013817442
91	0x3d153190	0.03642422
92	0xbd5a68ba	-0.05332253
93	0xbd5c1037	-0.0537264
94	0xbda514ef	-0.080606334
95	0xbbeb80cd	-0.007186985
96	0x3d917038	0.07101482
97	0xbcb89de0	-0.022536218
98	0x3d382ee0	0.04496658
99	0xbd8265c2	-0.06367065
100	0xbdba741a	-0.09104176
101	0x3d9b096d	0.07570157
102	0xbdc2d497	-0.095132045
103	0x3d8a5f6f	0.06756484
104	0x3c8c224d	0.0171062
105	0xbc3ae467	-0.011406994
106	0xbdc29f5b	-0.09503051
107	0xbd8b3393	-0.067969464
108	0xbd1c09cd	-0.038095284
109	0x3d12d20a	0.03584484
110	0x3bba4d80	0.0056855083
111	0xbdc0e8f5	-0.09419433
112	0x3d92766a	0.07151492
113	0x3dc49788	0.09599215
114	0xbd5d6047	-0.054046895
115	0x3ca4962d	0.02009114
116	0x3bac0133	0.0052491664
117	0xbce82f00	-0.028342724
118	0xbdc9f0d0	-0.098603845
119	0x3cecffed	0.028930629
120	0x3d5ecb9a	0.05439339
121	0xbd8d6b5a	-0.06905241
122	0xbd89329a	-0.066991046
123	0xba47d8cd	-0.00076235534
124	0xbdc4e765	-0.096144475
125	0xbd7845fd	-0.06061362
126	0x3bc97b4d	0.006148732
127	0x3daecdd7	0.085353546
128	0xbd5622cd	-0.052279282
129	0x3c8205ad	0.015871847
130	0xbcbb1a1a	-0.022839595
131	0xbc21318d	-0.009838474
132	0xbd716a4d	-0.058939267
133	0x3cadf447	0.021234645
134	0x3da09d5d	0.07842515
135	0xbd5c5cb0	-0.05379933
136	0xbdbe22eb	-0.09284004
137	0x3d20d3f0	0.03926462
138	0xbd9b5bb8	-0.07585853
139	0xbc77b59a	-0.015118981
140	0xbd3d9d8d	-0.04629283
141	0x3c0b4567	0.0085004335
142	0xbdbe196a	-0.09282191
143	0x3d998893	0.074967526
144	0xbda6b3bf	-0.081397526
145	0x3dacd287	0.084385924
146	0xbd8ca467	-0.06867295
147	0x3d84ef73	0.06490984
148	0xbccba6ed	-0.02485987
149	0x3c95cf07	0.018287195
150	0xbdacf27a	-0.08444686
151	0x3d82def0	0.06390178
152	0xbdb8f5fa	-0.09031291
153	0xbc1c150d	-0.009526503
154	0x3d381550	0.0449422
155	0x3d33f270	0.04393238
156	0x3cff29b3	0.031147813
157	0x3d6ba073	0.057526063
158	0xbdbb76ad	-0.09153495
159	0xbdb6db1d	-0.08928511
160	0x3cea9300	0.028634548
161	0x3d896d97	0.06710356
162	0x3d80023f	0.062504284
163	0x3dc5a7a8	0.096511185
164	0xbdbf25ad	-0.09333358
165	0x3c32acf3	0.010905492
166	0xbcedb0cd	-0.02901497
167	0x3cc27ead	0.023742044
168	0xbd861da0	-0.06548619
169	0x3b826c67	0.0039802077
170	0xbccf842d	-0.025331581
171	0x3d41b017	0.047287073
172	0x3d85a3b2	0.06525363
173	0xbbb498cd	-0.0055113793
174	0xbdba52b7	-0.09097808
175	0x3d18afb0	0.037276924
176	0xbd35ac3a	-0.0443537
177	0xbd85b900	-0.065294266
178	0x3d0f067d	0.034918297
179	0xbda9dc47	-0.08293968
180	0xbd8ffab8	-0.07030243
181	0x3da86127	0.08221655
182	0xbdb11840	-0.086472034
183	0x3db9e4cf	0.09076845
184	0x3d490dc0	0.04908538
185	0xbcfcc8ed	-0.030857528
186	0x3dc3b2aa	0.09555562
187	0x3cadc713	0.02121309
188	0x3d4ca540	0.049962282
189	0xbd671470	-0.056415975
190	0x3db0f088	0.08639628
191	0xbd3a4c67	-0.04548302
192	0x3ced4a0d	0.028965974
193	0x3dc5b7a0	0.09654164
194	0x3d45a987	0.048257377
195	0xbdb582b8	-0.08862823
196	0xbcf896e7	-0.030345393
197	0xbcc10347	-0.023561133
198	0x3c891160	0.016731918
199	0x3d917508	0.071024
200	0xbc682827	-0.014169729
201	0xbd94aaef	-0.072591655
202	0x3dca27bb	0.09870859
203	0xbd4b0a4d	-0.04957037
204	0xbdc3bde8	-0.09557706
205	0x3ca8be8d	0.020598674
206	0x3d959ab0	0.07304895
207	0xbc913b53	-0.017728483
208	0x3da94170	0.08264434
209	0x3cd4fe67	0.026000215
210	0x3d8f5fbb	0.07000681
211	0xbd8df270	-0.06931007
212	0xbcea6113	-0.028610742
213	0xbd1f9570	-0.038960874
214	0x3cdba87a	0.026813734
215	0x3dc83f48	0.09777695
216	0xbdbbe913	-0.09175315
217	0xbd9b425a	-0.07581015
218	0x3c7433e7	0.014904953
219	0x3d7a2c20	0.061077237
220	0xbb9c0333	-0.0047611236
221	0xbc551f73	-0.013007986
222	0x39fbd000	0.00048029423
223	0x3d2d58f3	0.042321157
224	0x3d8f7e4a	0.070065096
225	0x3dc51785	0.096236266
226	0xbd37d947	-0.044884946
227	0x3da1ef18	0.07906932
228	0xbd3c0c4d	-0.04591017
229	0xbd535847	-0.05159786
230	0x3c3db29a	0.011578226
231	0xbd5bea30	-0.053690135
232	0x3d80b7e8	0.06285077
233	0x3d378587	0.044805076
234	0x3d4682f3	0.048464727
235	0x3c38f80d	0.011289609
236	0xbd1e896a	-0.038705267
237	0x3c3734f3	0.011182058
238	0xbd3d769d	-0.046255697
239	0x3dc1b9f7	0.09459298
240	0x3d146510	0.036229193
241	0x3d799377	0.06093165
242	0x3d9daeb0	0.076993346
243	0x3cf5544d	0.029947424
244	0x3d67f0f3	0.05662627
245	0xbdb038df	-0.08604597
246	0xbb87dfe7	-0.0041465643
247	0x3dba83f5	0.091072
248	0x3d7f2da7	0.062299397
249	0x3c01b20d	0.007915986
250	0xbd80ad68	-0.062830746
251	0x3d7e4927	0.062081482
252	0x3d22a7ed	0.039710928
253	0xbbc26f4d	-0.0059336782
254	0xbdba22bb	-0.090886556
255	0x3dc55f3f	0.096373074

backbone.model.0.1.model.0.bias f4 [4]
0	0xbc9b445a	-0.018953491
1	0x3da67b05	0.08128933
2	0x3d6bb9e3	0.057550322
3	0xbbc55180	-0.0060216784

backbone.model.1.0.model.0.weight f4 [8, 4, 5, 5]
0	0x3d8417a2	0.0644982
1	0x3cfa2227	0.030533863
2	0x3dbc6d20	0.092005014
3	0x3b69da9a	0.0035683275
4	0xbcfcf520	-0.030878603
5	0xbd637a8d	-0.055536795
6	0xbc820f0d	-0.015876317
7	0xbc8195ed	-0.01581856
8	0xbcfd25b3	-0.030901765
9	0x3d8e981a	0.06962605
10	0xbd6db223	-0.058031213
11	0xbd9744d3	-0.07386174
12	0x3dc58c37	0.096458845
13	0xbcbe0c80	-0.02319932
14	0x3c9d85a0	0.019228756
15	0xbc9eedfa	-0.019400585
16	0x3cfc8a93	0.030827796
17	0xbd12906d	-0.035782266
18	0xbd94d7a7	-0.07267695
19	0xbd4a848a	-0.049442805
20	0x3d58937a	0.05287502
21	0x3c2abc9a	0.010420943
22	0xbcd8dcba	-0.026472438
23	0x3d926c7a	0.071495965
24	0x3d133ae0	0.03594482
25	0xbbd83b1a	-0.0065988423
26	0xbd37df60	-0.04489076
27	0x3dc69d43	0.09697964
28	0xbdbbaf18	-0.09164256
29	0x3c75ad5a	0.0149949435
30	0x3d5db43d	0.054126967
31	0xbdac9f97	-0.08428877
32	0x3c774027	0.015090979
33	0xbdbd5657	-0.09244984
34	0xbd979080	-0.07400608
35	0x3d36ed83	0.044660103
36	0x3d3d7510	0.046254218
37	0x3d082fdd	0.03324877
38	0x3d930c30	0.07180059
39	0xbdc2252d	-0.09479747
40	0xbc70c627	-0.014695681
41	0x3cbce47a	0.023058165
42	0xbda3fd30	-0.08007276
43	0xbdac40bd	-0.08410785
44	0x3cde235a	0.027116466
45	0x3d94fa13	0.0727426
46	0x3dc9e3aa	0.098578766
47	0x3d976287	0.073918395
48	0x3c7a79b3	0.015287804
49	0x3d110153	0.035401653
50	0x3c623373	0.013806212
51	0x3cffbda7	0.031218363
52	0x3ca226fa	0.019793976
53	0xbd882fb5	-0.066497244
54	0x3c6d9eb3	0.014503169
55	0xbce87fa7	-0.028381182
56	0xbcb87640	-0.022517323
57	0xbd54f92d	-0.051995445
58	0x3cc7ec73	0.02440474
59	0x3d5e4ab3	0.054270457
60	0xbdb3e4a3	-0.08783843
61	0x3d4c1340	0.049823046
62	0x3cab5860	0.020916164
63	0xbd6d8bf0	-0.057994783
64	0x3c34f400	0.011044502
65	0xbd9d7ca0	-0.07689786
66	0x3d3cc523	0.04608644
67	0x3d85e125	0.065370835
68	0x3c45ddb3	0.012076783
69	0xbdabd38a	-0.08389957
70	0xbd692c50	-0.056927025
71	0x3c150eb3	0.009097743
72	0x3cd9e89a	0.02660017
73	0x3d08742d	0.03331392
74	0x3d4fe793	0.050757956
75	0x3b2fb0cd	0.0026808262
76	0x3b845ab3	0.0040391325
77	0x3d807c5f	0.06273722
78	0x3c067700	0.008207083
79	0x3dc90112	0.09814657
80	0xbdc84970	-0.09779632
81	0x3ca257a0	0.019817173
82	0x3d31db50	0.043422043
83	0xbc3f8280	-0.0116888285
84	0x3d897298	0.0671131
85	0xbdb1ed67	-0.08687859
86	0x3b9cfbb3	0.004790747
87	0xbca7fcf3	-0.020506358
88	0x3d4d4c37	0.050121512
89	0x3d846df2	0.06466283
90	0xbdb72ac2	-0.08943702
91	0xbd1d2673	-0.038366746
92	0x3d12fa90	0.035883486
93	0xbcc99ccd	-0.024610901
94	0xbd74dcd7	-0.05978092
95	0x3b57da00	0.0032936335
96	0x3d596527	0.053074982
97	0x3da2fa1f	0.07957863
98	0x3d22f433	0.039783668
99	0xbd3fa79a	-0.046790697
100	0x3d1c7f00	0.038207054
101	0x3dc27b55	0.0949618
102	0x3da318f7	0.07963746
103	0xbda2b992	-0.07945551
104	0x3dc7d4a5	0.097573556
105	0xbdc5e150	-0.096621156
106	0x3c0c91cd	0.0085796835
107	0xbd1844e0	-0.03717506
108	0xbdc3ac8f	-0.09554397
109	0x3d772497	0.06033763
110	0xbc6f00f3	-0.014587629
111	0xbca34c13	-0.019933736
112	0x3da493c7	0.08035999
113	0xbd87c2df	-0.066289656
114	0x3dc1abb5	0.09456579
115	0xbc215f4d	-0.009849382
116	0xbd1adb87	-0.037807014
117	0x3d313517	0.04326352
118	0xbdc39f53	-0.09551873
119	0x3d5911e7	0.05299559
120	0xbd77ffcd	-0.060546685
121	0x3bd58433	0.0065160035
122	0xbcbf9f40	-0.023391366
123	0x3da1b1ed	0.07895265
124	0x3d7495b0	0.059713066
125	0xbd507800	-0.05089569
126	0x3dc7da63	0.09758451
127	0xbd73707a	-0.059433438
128	0x3d7a9c43	0.06118418
129	0x3d8ce963	0.068804525
130	0x3c47ea9a	0.012201929
131	0x3d80408b	0.062623106
132	0xbabd92cd	-0.0014463306
133	0x3b8c1700	0.0042752028
134	0x3d1e4e33	0.038648795
135	0xbd950542	-0.072763935
136	0x3c9a5f73	0.018844342
137	0x3d8b31c7	0.06796604
138	0xbd0e26c0	-0.034704924
139	0x3d4f7ecd	0.050658036
140	0xbd16477d	-0.03668927
141	0xbdb1ce57	-0.08681934
142	0x3d8a6c8f	0.06758987
143	0xbc803b00	-0.015653133
144	0xbd95ac90	-0.07308304
145	0x3dade62b	0.08491167
146	0xbd4ab7f7	-0.04949185
147	0xbd513e23	-0.05108465
148	0x3b5270cd	0.0032110692
149	0x3d99c6d7	0.07508629
150	0xbd1eb523	-0.038746964
151	0xbae86d9a	-0.0017732859
152	0xbb820d1a	-0.003968847
153	0xbd518bca	-0.051158704
154	0x3d9af04d	0.07565365
155	0xbc929a60	-0.017895877
156	0xbcc63b3a	-0.024198163
157	0x3d3244c7	0.043522622
158	0x3d9b4050	0.07580626
159	0x3d5971a3	0.053086888
160	0x3cb6ff80	0.022338629
161	0xbcb0c93a	-0.021580327
162	0x3caba127	0.020950867
163	0xbdb3fecf	-0.08788835
164	0xbcc545c7	-0.024081124
165	0x3c4c164d	0.012456489
166	0xbd9c9e22	-0.07647349
167	0xbd802022	-0.06256129
168	0x3d2c5fc0	0.0420835
169	0x3da46dcd	0.08028755
170	0x3c80fb20	0.015744746
171	0xbd221fd0	-0.03958112
172	0x3d982ebb	0.07430788
173	0xbda55ccb	-0.080743395
174	0x3dca2cd3	0.09871831
175	0x3cf3ccc0	0.029760718
176	0xbdc4ad7d	-0.09603403
177	0xbd4f682d	-0.05063646
178	0x395fa333	0.00021327734
179	0xbd0251cd	-0.031816293
180	0x3dbf4438	0.093391836
181	0xbd8e13b5	-0.069373526
182	0x3dc0b320	0.094091654
183	0x3db2ae50	0.08724654
184	0x3d2c9ffd	0.042144764
185	0xbdb1a34a	-0.08673723
186	0xbd21ba53	-0.039484333
187	0xbd4b0310	-0.049563468
188	0x3d0a7823	0.033805978
189	0x3be6e980	0.0070468783
190	0xbd6384d0	-0.05554658
191	0xbcbd6c13	-0.023122823
192	0x3d3b011d	0.04565536
193	0x3cec6bad	0.028859938
194	0xbd6edfe7	-0.058319
195	0xbdab1512	-0.08353628
196	0x3d374817	0.044746485
197	0x3be5624d	0.0070002438
198	0x3cda0ee7	0.026618434
199	0xbd8a03d2	-0.0673901
200	0x3db57b9a	0.08861466
201	0x3d113e07	0.035459545
202	0x3cebea00	0.028798103
203	0x3bb63d00	0.005561471
204	0xbc18bc9a	-0.00932231
205	0xbd1fed3a	-0.039044596
206	0xbce78427	-0.028261257
207	0xbce5b100	-0.028038502
208	0x3b0cb900	0.0021472573
209	0x3dc878e8	0.09788686
210	0xbd83a163	-0.064272664
211	0x3c7fd7cd	0.015615416
212	0xbd9c1ce0	-0.07622695
213	0xbd84927a	-0.06473251
214	0x3d3e39ed	0.04644196
215	0x3d80af3a	0.06283422
216	0xbc2aefc0	-0.010433137
217	0xbca64a6d	-0.02029916
218	0xbd92f6c3	-0.07175972
219	0x3a7684cd	0.0009403944
220	0xbd3d33ba	-0.04619191
221	0xbdb96037	-0.09051555
222	0xb9c81b33	-0.00038167238
223	0xbd8536f0	-0.06504619
224	0x3d33d8dd	0.04390799
225	0x3d383c5d	0.044979442
226	0xbc1523cd	-0.009102774
227	0xbcbab19a	-0.022789765
228	0xbbd8341a	-0.006598008
229	0xbda8619b	-0.08221742
230	0x3d0f4bba	0.034984328
231	0x3d3f8b23	0.04676355
232	0x3d7951aa	0.060868897
233	0x3c6d0c80	0.014468312
234	0x3d144087	0.03619435
235	0x3d98c94d	0.0746027
236	0xbd9aac45	-0.07552389
237	0xbbfd6a33	-0.007733607
238	0xbd9ce80d	-0.07661448
239	0x3d872963	0.06599691
240	0xbdb3ece7	-0.0878542
241	0x3c8e7dba	0.017393935
242	0xbdbb385f	-0.09141611
243	0x3d630fad	0.05543487
244	0xbca0a280	-0.019608736
245	0xbd93777f	-0.072005264
246	0xbd12bbbd	-0.035823572
247	0xbd90b6d5	-0.070661224
248	0xbdb03d20	-0.08605409
249	0x3d05acb3	0.032635402
250	0xbd858a7b	-0.06520554
251	0x3d86bd4d	0.06579075
252	0xbc4e988d	-0.012609613
253	0x3d03e493	0.032200407
254	0x3d47bc63	0.048763644
255	0x3d35e4a7	0.044407513

backbone.model.1.0.model.0.bias f4 [8]
0	0xbd3e537a	-0.04646633
1	0x3c553e4d	0.013015342
2	0x3dca0f9a	0.09866257
3	0x3d32c1dd	0.043641914
4	0xbcfe42ba	-0.031037677
5	0x3db30c25	0.08742551
6	0x3d86967a	0.0657167
7	0x3d9812ff	0.07425498

backbone.model.1.1.model.0.weight f4 [8, 8, 5, 5]
0	0xbd42df33	-0.04757614
1	0xbd302144	-0.043000475
2	0xbd10d1f4	-0.035356477
3	0xbd510307	-0.051028278
4	0xbd3d0abe	-0.046152823
5	0xbd37650c	-0.0447741
6	0xbd6c1d62	-0.05764521
7	0xbb88553d	-0.004160552
8	0x3d88b112	0.066743985
9	0x3d72a245	0.059236784
10	0x3cc4cc8c	0.024023317
11	0xbd785311	-0.060626093
12	0x3d08cbe6	0.033397578
13	0x3d35a563	0.04434718
14	0xbbd77c17	-0.006576072
15	0x3d5a48a3	0.053291928
16	0x3d13d8ae	0.036095314
17	0x3ccb56cd	0.024821663
18	0xbd05bcaa	-0.032650627
19	0x3ad86b3c	0.001651145
20	0xbd8ee62c	-0.069774956
21	0xbca3944c	-0.019968174
22	0x3c1f5191	0.009724037
23	0x3c884969	0.016636567
24	0xbcec4689	-0.028842228
25	0xbd7a0b6d	-0.061046053
26	0x3d31cc33	0.04340763
27	0xbd284fe1	-0.041091803
28	0xbbf3bbd0	-0.0074381605
29	0x3d85cc3f	0.065330975
30	0xbcf4e738	-0.02989541
31	0x3bf9b21a	0.0076201083
32	0xbd0c2ed4	-0.034224346
33	0x3c886072	0.016647551
34	0x3d2a675b	0.041602474
35	0x3ad1fbad	0.001602044
36	0x3d247096	0.040146433
37	0x3c8e89dc	0.01739972
38	0xbd4054e6	-0.046955965
39	0x3d13e7ae	0.03610962
40	0xbd62336f	-0.055224832
41	0x3cf55419	0.029947327
42	0x3d8dc4e3	0.06922319
43	0xbd273995	-0.0408264
44	0xbcabf8b8	-0.020992622
45	0x3d343f51	0.044005696
46	0xbd082d60	-0.033246398
47	0xbd7db3d3	-0.061939072
48	0xbc6e0e64	-0.014529798
49	0x3d173bb5	0.036922175
50	0x3d6a1747	0.057151105
51	0x3aff1e15	0.0019463921
52	0xbd05c5ed	-0.03265946
53	0x3c7f0583	0.015565279
54	0x3d540799	0.05176506
55	0xbd85dc9b	-0.06536218
56	0xbd413b58	-0.047175735
57	0xbc63be56	-0.01390036
58	0xbd665fc0	-0.056243658
59	0x3d1d6d35	0.038434226
60	0xbd635365	-0.055499453
61	0x3d1f83c1	0.03894401
62	0xbc78671b	-0.015161301
63	0xbd32e83f	-0.04367852
64	0x3d8e9fff	0.069641106
65	0x3d1f28a9	0.038857136
66	0xbc869fb2	-0.01643357
67	0x3d4aab85	0.04947998
68	0x3cb35b19	0.021894025
69	0x3d7b5a23	0.061365258
70	0x3c76c4da	0.0150615815
71	0xbd1bd2e0	-0.038042903
72	0xbc3535fd	-0.011060235
73	0xbc838b4f	-0.016057638
74	0x3cf1573a	0.029460538
75	0x3cfe27ac	0.031024776
76	0x3d1084a9	0.035282765
77	0xbd6291c3	-0.05531479
78	0xbd8636aa	-0.06553395
79	0x3d264277	0.04059073
80	0xbcc628bf	-0.024189351
81	0x3d7d1d4c	0.061795518
82	0x3ca8c32a	0.020600874
83	0xbd40eae7	-0.04709902
84	0xbd135a7f	-0.035974976
85	0xbccbaba7	-0.024862124
86	0x3d6a23e4	0.057163134
87	0xbb1889b1	-0.002327543
88	0x3b84c55a	0.0040518465
89	0x3d7be39b	0.06149636
90	0xbd864e79	-0.06557936
91	0xbd4d360b	-0.050100368
92	0xbaf29cde	-0.0018509885
93	0xbd44477f	-0.047919746
94	0xbcc931bb	-0.024559846
95	0x3d81f4b0	0.063454986
96	0x3d0d9166	0.03456249
97	0x3d894b72	0.06703843
98	0xbced4560	-0.028963745
99	0x3d3f8564	0.04675807
100	0xbd38ac5b	-0.045086246
101	0xbcef488f	-0.029209403
102	0xbd228a5d	-0.039682735
103	0x3c9b2701	0.018939497
104	0x3d810387	0.06299501
105	0xbd7daad1	-0.06193048
106	0x3d33983c	0.043846354
107	0xbd8a3282	-0.06747915
108	0xbd8ccdda	-0.068752006
109	0xbd1e0502	-0.038578995
110	0xbd905025	-0.07046536
111	0x3d889dbe	0.06670712
112	0x39f6490a	0.00046975195
113	0xbd3ff040	-0.04685998
114	0x3bd7d0a9	0.0065861535
115	0xbccdcb39	-0.025121318
116	0xbd868307	-0.0656796
117	0x3c968220	0.018372595
118	0x3c773180	0.015087485
119	0x3c570293	0.013123172
120	0xbbfabc9c	-0.0076518785
121	0x3cca0d4a	0.02466454
122	0xbd7526b8	-0.05985138
123	0x3ae977c7	0.0017812186
124	0x3cd2f270	0.025750369
125	0xbcfbeece	-0.03075352
126	0x3d613033	0.054977607
127	0x3d313e03	0.04327203
128	0x3d5dfeb2	0.054197975
129	0xbd46189b	-0.04836331
130	0x3d014d2e	0.031567745
131	0xbca86723	-0.020556992
132	0xbd836399	-0.06415481
133	0x3cb37c3a	0.021909822
134	0xbbc56b30	-0.0060247406
135	0x3d338658	0.043829292
136	0x3c386baf	0.0112561425
137	0xbd89ddbe	-0.06731747
138	0x3ca76d94	0.020437993
139	0x3c271fad	0.010200423
140	0xbd668b9e	-0.056285493
141	0x3caf765c	0.021418743
142	0xbd59d495	-0.05318125
143	0x3d6d2595	0.05789717
144	0x3cc5b476	0.024133902
145	0x3d2e0301	0.042483333
146	0x3d8dda5c	0.06926414
147	0xbcda1cba	-0.026625026
148	0x3d38d74a	0.04512719
149	0xbd774ae0	-0.06037414
150	0xbd614dc9	-0.055005822
151	0x3d25898c	0.040414378
152	0xbd1e4d00	-0.03864765
153	0x3d4f59f1	0.050622884
154	0xbad4ee04	-0.0016245251
155	0xbce1f9a1	-0.027584853
156	0xbd6b2f61	-0.05741823
157	0x3d2edbd4	0.042690113
158	0xbd8c05c7	-0.068370394
159	0xbd76f31d	-0.060290445
160	0x3c1c1d5c	0.009528484
161	0x3bdfdb0c	0.0068315323
162	0x3d85f9be	0.06541775
163	0x3d6da246	0.058016084
164	0xbcb973fb	-0.022638312
165	0x3d4eefaf	0.05052155
166	0x3d37e592	0.04489667
167	0xbc4b18c9	-0.012396046
168	0x3c3202cf	0.010864927
169	0xbd6b053a	-0.05737803
170	0xbd4a202d	-0.04934709
171	0xbb9f687a	-0.0048647495
172	0xbc66bc98	-0.01408305
173	0x3b3f62b9	0.002920313
174	0x3cc31785	0.023814926
175	0xbbccd2ba	-0.0062507065
176	0x3cb17727	0.021663262
177	0x3d2f2577	0.04276034
178	0x3d02ed23	0.031964432
179	0xbc809b48	-0.015699044
180	0x3d22d4e9	0.03975383
181	0x3d8807d2	0.066421166
182	0x3d813b50	0.06310141
183	0xbc3c1c8e	-0.011481417
184	0xbd289f45	-0.041167516
185	0xbbee3e5e	-0.0072706183
186	0x3cddba2b	0.02706631
187	0x3d2592cd	0.040423203
188	0x3c236e19	0.00997498
189	0x3bc2c756	0.005944173
190	0x3d777901	0.060418133
191	0x3b220183	0.002472014
192	0xbd82fa6c	-0.063954204
193	0x3cbe9e80	0.023268938
194	0xbd15427d	-0.03644036
195	0xbc73f498	-0.014889859
196	0x3ca5c89b	0.020237258
197	0x3d759c46	0.059963487
198	0x3d178fb8	0.037002295
199	0x3d88203d	0.06646774
200	0x3d8f7242	0.07004215
201	0x3c9325ee	0.017962422
202	0xbc07a1ab	-0.008278291
203	0x3d2d07b7	0.042243686
204	0xbc45999c	-0.012060549
205	0x3aff1f7f	0.0019464343
206	0xbd065a9f	-0.032801267
207	0xbd4f2249	-0.050569806
208	0xbbc8e253	-0.0061304956
209	0xbd7e1069	-0.06202737
210	0xbd052655	-0.03250726
211	0xbce831f2	-0.028344128
212	0x3cd5947d	0.026071781
213	0xbca1312e	-0.019676771
214	0xbccfd438	-0.025369748
215	0x3d3baee6	0.045821093
216	0x3d657f0c	0.056029364
217	0x3d429356	0.04750379
218	0xbcef16c2	-0.029185656
219	0xbd3a32ce	-0.045458607
220	0xbd13b71e	-0.036063306
221	0xbbf1c00a	-0.007377629
222	0xbd600412	-0.05469138
223	0x3a4bed6a	0.0007779213
224	0x3c3eb68b	0.011640201
225	0xbd100439	-0.035160277
226	0x3cf8814e	0.030335095
227	0xbd8fd1a1	-0.070224054
228	0xbcf81ff9	-0.030288683
229	0xbd3048b7	-0.043038096
230	0x3d204d0f	0.03913599
231	0xbd8d0fb7	-0.06887763
232	0xbd6a4162	-0.05719126
233	0xbd1eba0d	-0.03875165
234	0xbd8286c6	-0.06373362
235	0x3c06c35a	0.008225286
236	0xbcf3b850	-0.029750973
237	0x3d624ad0	0.055247128
238	0xbc365ec3	-0.011130991
239	0xbd6f73af	-0.058459934
240	0xbd5d3e96	-0.054014765
241	0xbc0eb4a3	-0.008710059
242	0x3d11a374	0.03555627
243	0x3d13ac5c	0.036053047
244	0x3b83c847	0.0040216777
245	0x3caa24ab	0.020769438
246	0x3c6f2272	0.014595615
247	0x3b9a3b92	0.0047068084
248	0x3d28efc4	0.041244283
249	0x3d4f5ee9	0.050627623
250	0xbd6a942b	-0.05727021
251	0x3d83a103	0.06427195
252	0x3cc86e33	0.02446661
253	0x3d6dbea3	0.058043133
254	0x3c3ea830	0.011636779
255	0x3cb71dd3	0.022353088

backbone.model.1.1.model.0.bias f4 [8]
0	0x3d213733	0.039359283
1	0xbd193a9e	-0.037409417
2	0xbc6d950d	-0.0145008685
3	0xbd316d77	-0.043317284
4	0xbc94d216	-0.018166583
5	0x3c89ac89	0.016805904
6	0x3d171014	0.036880568
7	0x3cb41e62	0.021987144

backbone.model.2.0.model.0.weight f4 [8, 8, 3, 3]
0	0xbdd4cad0	-0.10390246
1	0x3dd35311	0.10318578
2	0x3ddef711	0.10886968
3	0x3d8bcd57	0.06826275
4	0x3de92432	0.11383857
5	0xbd3cc545	-0.04608657
6	0x3c67220c	0.0141072385
7	0xbd8089d5	-0.062762894
8	0xbbf87f55	-0.0075835385
9	0x3da3d91e	0.08000396
10	0x3d762d7b	0.060101967
11	0xbd6f7566	-0.05846157
12	0xbd2d7f30	-0.042357624
13	0xbc1a5601	-0.009419919
14	0xbd9f8fb4	-0.07791081
15	0x3d5de826	0.054176472
16	0x3ddec7ad	0.10877929
17	0xbd451220	-0.04811299
18	0x3d876dd4	0.06612745
19	0xbde8d1e2	-0.11368157
20	0xbdd9af9a	-0.106291965
21	0xbdea476d	-0.11439405
22	0xbdcee665	-0.10102538
23	0xbdb59e61	-0.08868099
24	0xbcd4de11	-0.025984796
25	0x3d6870ce	0.056748204
26	0x3cfea62e	0.0310851
27	0x3dd992d8	0.10623711
28	0x3d8142e9	0.0631159
29	0x3dbf8046	0.09350638
30	0x3de0b73b	0.109724484
31	0x3d99628a	0.07489498
32	0xbd9b18fd	-0.075731255
33	0xbc8718eb	-0.016491374
34	0xbdcfaf2b	-0.101408325
35	0x3dda0cbc	0.1064696
36	0x3d76de7b	0.060270768
37	0xbc27372f	-0.010206028
38	0xbda7ce94	-0.081936985
39	0xbda03636	-0.0782284
40	0x3d3e16e6	0.046408556
41	0xbcfef9f1	-0.03112504
42	0xbd026358	-0.031833023
43	0xbd9883be	-0.07447003
44	0xbd6f540c	-0.058429763
45	0x3d1cae78	0.038252324
46	0x3da7452c	0.0816749
47	0x3da7105c	0.08157417
48	0xbda5948a	-0.08084972
49	0xbd9c365e	-0.07627557
50	0xbdcee1ec	-0.10101685
51	0xbdbff5af	-0.09373032
52	0xbd997d16	-0.074945614
53	0x3d7dc460	0.061954856
54	0xbd40ed82	-0.047101505
55	0x3cc17ffc	0.023620598
56	0x3c44999f	0.011999517
57	0x3dd2a59f	0.10285496
58	0x3dee4b53	0.11635461
59	0xbd667eb8	-0.056273192
60	0x3d026edd	0.03184401
61	0x3d6755e3	0.056478392
62	0x3b486f34	0.003058386
63	0x3c6b212c	0.0143511705
64	0x3d86a21a	0.06573887
65	0xbd11a764	-0.035560027
66	0xbdd7bbcb	-0.105338655
67	0x3dac27b4	0.0840601
68	0x3d3f8649	0.046758924
69	0x3be2265e	0.0069015464
70	0x3cead78b	0.028667232
71	0xbc741013	-0.0148964105
72	0xbce82c28	-0.028341368
73	0xbde64bab	-0.11244901
74	0x3daf4ea0	0.085599184
75	0xbd454520	-0.048161626
76	0xbdecf0b2	-0.115693465
77	0xbdae8468	-0.08521348
78	0x3dd6538a	0.104651526
79	0x3d854e63	0.06509092
80	0x3d5e5639	0.054281447
81	0xbc1669da	-0.00918051
82	0x3dac6a83	0.08418753
83	0xbd87c9c4	-0.066302806
84	0xbb1d4320	-0.0023996308
85	0x3d38f54d	0.045155812
86	0x3ccdeebb	0.02513825
87	0x3de28475	0.110604204
88	0x3d8c4f8d	0.068511106
89	0x3dde1403	0.10843661
90	0xbd9fbb16	-0.07799356
91	0x3d583b13	0.052790713
92	0xbde73359	-0.11289091
93	0x3ddb391f	0.10704254
94	0xbd2b433a	-0.04181216
95	0xbd36b90f	-0.04461008
96	0xbdac91fa	-0.0842628
97	0xbd8e58c3	-0.06950524
98	0xbdbf9da0	-0.093562365
99	0x3c0bef08	0.008540876
100	0x3d1e79cc	0.038690373
101	0xbcaab3b3	-0.02083764
102	0xbd4bde2b	-0.049772423
103	0x3d81b1ab	0.063327156
104	0xbd9d0bab	-0.07668241
105	0xbcc73bca	-0.024320502
106	0xbdce2051	-0.100647576
107	0xbda43412	-0.08017744
108	0x3dd31810	0.10307324
109	0x3d0dc8a5	0.034615178
110	0x3d912448	0.07086998
111	0xbde1f753	-0.110335015
112	0x3cb370d7	0.021904392
113	0xbcd99fbc	-0.026565425
114	0xbdb54e74	-0.08852854
115	0x3d3242ef	0.043520864
116	0xbdd4658f	-0.10370933
117	0xbda39dc4	-0.07989076
118	0xbc8eb61e	-0.017420825
119	0x3db31032	0.087433234
120	0x3d6de5df	0.05808055
121	0x3c81e204	0.015854843
122	0xbddd6fc7	-0.108123355
123	0x3d65abf2	0.056072183
124	0xbce084da	-0.027407099
125	0xbde59f0a	-0.11211975
126	0x3d9dec67	0.07711106
127	0xbd27d98e	-0.04097896
128	0xbddc3da9	-0.10753948
129	0x3ddf1767	0.108931355
130	0xbd551c1e	-0.052028768
131	0x3db1019b	0.08642884
132	0xbd020509	-0.031743083
133	0xb94f5bec	-0.00019775302
134	0xbd492b2d	-0.04911344
135	0x3de61690	0.11234772
136	0xbd130090	-0.03588921
137	0xbd983515	-0.074319996
138	0x3c9a988f	0.018871574
139	0x3d2d6465	0.04233207
140	0xbd0a3ed8	-0.03375134
141	0x3da4e380	0.08051205
142	0xbdc01073	-0.093781374
143	0xbbeed384	-0.007288398
144	0x3d4c0177	0.049806084
145	0xbcc978fd	-0.024593825
146	0xbd5be6c3	-0.05368687
147	0xbdc63cb0	-0.09679544
148	0x3d1f5a02	0.038904198
149	0xbbd3f15d	-0.0064679817
150	0xbc4ac488	-0.012375958
151	0x3ccbcf9d	0.024879271
152	0x3d97fc96	0.07421224
153	0xbdc7e4b9	-0.09760422
154	0x3d16e60a	0.036840476
155	0xbd13002a	-0.03588883
156	0xbd38097e	-0.044930927
157	0x3dde9394	0.10867992
158	0xbd2042c0	-0.039126158
159	0xbd90cba1	-0.07070089
160	0xbd0a6c8e	-0.033794932
161	0x3d070431	0.03296298
162	0xb7c4ede3	-2.3475795e-05
163	0xbd17eba4	-0.03708996
164	0x3dc2e003	0.09515383
165	0x3d28965a	0.04115901
166	0x3c77c713	0.015123147
167	0x3dcc944e	0.099892244
168	0xbd9827d3	-0.07429471
169	0x3d113f50	0.03546077
170	0xbd5e2828	-0.054237515
171	0x3bf09ff6	0.0073432876
172	0x3d638974	0.055551007
173	0x3d7c5b8f	0.061610755
174	0x3d5a76ae	0.053335838
175	0x3d66d2a9	0.056353245
176	0xbde0b648	-0.109722674
177	0xbdd0dda2	-0.10198523
178	0x3dce734e	0.100805864
179	0x3decb947	0.11558776
180	0x3d708820	0.05872357
181	0x3deaf175	0.114718355
182	0xbd0f3f8f	-0.034972724
183	0x3da06286	0.07831292
184	0xbd657f6d	-0.056029726
185	0xbd775559	-0.06038413
186	0xbdc206ea	-0.09473975
187	0xbd7ce54c	-0.061742112
188	0x3db01691	0.08598054
189	0xbcdb6b79	-0.026784645
190	0xbcabaeaa	-0.02095731
191	0xbd34b1d6	-0.04411491
192	0x3b301f7c	0.0026874235
193	0xbd8cf080	-0.06881809
194	0x3d0c61ac	0.034272835
195	0x3db43d82	0.08800794
196	0xbd836cc8	-0.06417233
197	0x3d859082	0.06521703
198	0xbda41897	-0.08012503
199	0x3de337a3	0.11094596
200	0xbdeaaa87	-0.11458307
201	0xbd88b770	-0.06675613
202	0x3d4d2db4	0.050092414
203	0xbdd34913	-0.10316672
204	0x3db24901	0.08705331
205	0x3d521884	0.05129291
206	0x3c53e476	0.012932887
207	0x3da3798e	0.07982169
208	0xbd235997	-0.03988036
209	0xbca76b55	-0.020436922
210	0xbd9a54c2	-0.075356975
211	0xbd57c723	-0.052680146
212	0xbd01baa0	-0.03167212
213	0xbd1d526a	-0.038408674
214	0x3a95c446	0.0011426292
215	0xbd035de9	-0.03207198
216	0x3c8bab00	0.017049313
217	0xbc8d56d5	-0.017253319
218	0xbdad4dad	-0.08462081
219	0x3d134435	0.03595372
220	0xbc328842	-0.010896744
221	0x3d9a7253	0.07541337
222	0x3d9286d0	0.0715462
223	0xbd8b2974	-0.06795016
224	0x3da57f9b	0.080809794
225	0xbd9b27f5	-0.075759806
226	0x3bad554f	0.0052897106
227	0x3d3a3f90	0.045470774
228	0xbc027df7	-0.007964603
229	0x3dc9a330	0.09845579
230	0x3ddd9ab8	0.10820526
231	0xbdb45bf2	-0.088066
232	0xbc9e7528	-0.019342974
233	0x3d8fb268	0.0701645
234	0x3cb65234	0.022255994
235	0xbcffdcec	-0.031233273
236	0x3c774132	0.015091227
237	0xbc63f1b1	-0.013912604
238	0x3dcfb637	0.101421766
239	0x3b99a385	0.0046886825
240	0xbd9eb8da	-0.077501014
241	0xbbae0707	-0.0053108963
242	0x3cf62bdc	0.03005021
243	0xbc08da8c	-0.008352887
244	0x3dcbdc75	0.09954158
245	0x3c32da3a	0.010916287
246	0x3d1b52c0	0.037920713
247	0x3cae8884	0.02130533
248	0xbde4b9a1	-0.111682184
249	0xbda73bc8	-0.08165699
250	0xbd387bb5	-0.04503985
251	0xbc3f5b10	-0.011679426
252	0x3dac78cf	0.0842148
253	0x3cc6bfb9	0.024261342
254	0x3d4ae6ea	0.049536623
255	0x3cb5352e	0.022120085

backbone.model.2.0.model.0.bias f4 [8]
0	0xbdb50b1f	-0.08840012
1	0x3d11c5d3	0.03558905
2	0x3dd5c0ab	0.10437139
3	0xbd4a35f2	-0.049367853
4	0x3d40860d	0.04700284
5	0xbc7fc927	-0.015611923
6	0x3dbf868c	0.09351835
7	0x3dd02e45	0.10165075

backbone.model.2.1.model.0.weight f4 [8, 8, 3, 3]
0	0xbb9cebea	-0.0047888653
1	0xbc9ee6d2	-0.019397173
2	0x3d86138a	0.065466955
3	0x3de4a886	0.11164956
4	0x3c59e3d3	0.013298946
5	0x3c988f8a	0.018623132
6	0xbbb82fa6	-0.0056209145
7	0xbd954d97	-0.0729019
8	0xbda2d1d7	-0.0795018
9	0xbd60f9bf	-0.054925676
10	0xbbbe1cdd	-0.0058017806
11	0x3dc5e198	0.09662169
12	0x3d118a44	0.03553225
13	0x3d9e9c9f	0.07744717
14	0xbc863b72	-0.016385768
15	0x3d270e92	0.04078538
16	0x3c09ed7f	0.00841844
17	0x3d00e560	0.03146875
18	0xbc70da1f	-0.014700442
19	0x3d2d3feb	0.042297285
20	0x3dd541e1	0.10412956
21	0x3dcac0ff	0.09900092
22	0xbcfd67dd	-0.030933315
23	0xbd03fbf3	-0.0322227
24	0xbdd40ba7	-0.10353785
25	0x39a3ee51	0.00031267342
26	0xbde05e61	-0.10955501
27	0x3c5b879c	0.013399031
28	0xbc7c16a2	-0.015386255
29	0x3c0f58f5	0.008749236
30	0x3cf48731	0.02984962
31	0x3da88956	0.0822932
32	0xbd3412ad	-0.043963123
33	0x3db6b4f7	0.08921235
34	0xbd211d4e	-0.039334588
35	0x3d7eb9e7	0.06218901
36	0xbd819a65	-0.063282765
37	0xbd407d3a	-0.046994425
38	0xbd8e3b05	-0.06944851
39	0xbda225c1	-0.07917357
40	0xbdb04bd9	-0.08608217
41	0x3d8185c5	0.06324343
42	0x3c5d81e6	0.01351974
43	0x3a9764ff	0.0011550485
44	0x3d86eead	0.065884925
45	0xbdd89de6	-0.10576992
46	0xbd2f2004	-0.04275514
47	0x3da9f435	0.08298532
48	0xbdced3bc	-0.10098979
49	0xbdc93f6d	-0.09826551
50	0xbd91d405	-0.07120518
51	0x3ccdf335	0.025140384
52	0x3de1f8e6	0.11033802
53	0x3dbf4780	0.093398094
54	0xbdee7fc5	-0.11645464
55	0x3c4e55a5	0.012593661
56	0xbc2b9999	-0.010473632
57	0xbde10a4d	-0.10988293
58	0xbd99a66c	-0.075024456
59	0xbddff334	-0.10935059
60	0xbd3fd8f1	-0.04683775
61	0x3d5463a6	0.051852845
62	0x3da0f145	0.078585185
63	0xbd981c97	-0.07427328
64	0x3d4f0a4f	0.05054694
65	0x3c7bd1a1	0.015369804
66	0xbc785d73	-0.015158999
67	0xbc8bb231	-0.017052742
68	0x3cfdf833	0.03100214
69	0xbbcef3fa	-0.0063157054
70	0xbcb601dc	-0.022217683
71	0xbd83173d	-0.06400917
72	0x3b3fa8f6	0.0029244996
73	0xbd71a396	-0.0589939
74	0xbd04e739	-0.032447074
75	0xbdd7e54f	-0.10541784
76	0x3d45f4f9	0.048329327
77	0x3d82566d	0.06364141
78	0x3da463ae	0.08026825
79	0x3cacfe30	0.0211173
80	0x3d23ce8e	0.039991908
81	0x3d1e1ecd	0.038603593
82	0xbdeb1b5c	-0.11479828
83	0x3cf8e9c1	0.0303849
84	0xbdbeb30d	-0.09311495
85	0x3d03b92c	0.032159016
86	0xbddff213	-0.10934844
87	0x3d9cd056	0.076569244
88	0xbc99dd1e	-0.018782195
89	0x3d3093fb	0.043109875
90	0x3d920c38	0.07131237
91	0xbd18fac1	-0.037348513
92	0xbd866d28	-0.06563789
93	0xbc2cc1c2	-0.010544242
94	0x3d44295e	0.047891013
95	0xbcb4e1d5	-0.022080341
96	0xbd6af32e	-0.05736082
97	0xbd9b2793	-0.075759076
98	0x3d826af4	0.06368056
99	0x3c8cf97e	0.01720881
100	0xbd0ea994	-0.03482969
101	0xbd8b93d4	-0.06815305
102	0x3d12d824	0.03585066
103	0xbddd76ee	-0.108137
104	0x3d93f463	0.072243474
105	0x3d70999d	0.058740247
106	0x3dc5ae2e	0.09652363
107	0x3d20eaa8	0.039286286
108	0x3d870d13	0.065942906
109	0x3da8268a	0.08210476
110	0xbd7e1b78	-0.062037915
111	0xbced22db	-0.028947284
112	0x3d75ef3a	0.060042597
113	0x3be9ba8d	0.0071328343
114	0x3da3795f	0.07982134
115	0xbbeb36f9	-0.007178184
116	0x3dd73f32	0.105101004
117	0x3d80058f	0.0625106
118	0x3d19c4bd	0.03754114
119	0xbda5d1b6	-0.0809664
120	0xbb8af831	-0.0042410125
121	0x3d4da23b	0.050203543
122	0x3d987398	0.07443923
123	0x3da997d7	0.08280914
124	0xbd78dbdc	-0.06075655
125	0x3ddc17e5	0.10746745
126	0x3de20ad8	0.110372245
127	0x3da94989	0.08265979
128	0x3d9ee643	0.07758763
129	0x3dd51037	0.10403483
130	0xbd889557	-0.06669109
131	0xbde79e32	-0.1130947
132	0x3d108c72	0.03529019
133	0x3dbd3693	0.09238925
134	0x3cf4d764	0.029887863
135	0xbccef96d	-0.02526542
136	0x3b53ba90	0.0032307245
137	0x3dac2836	0.08406107
138	0xbbab9c31	-0.0052371253
139	0x3cf5bad7	0.029996319
140	0xbdd9b0b7	-0.10629409
141	0xbdf0ac6b	-0.11751636
142	0x3cddc40b	0.02707102
143	0x3d1fbc97	0.038998213
144	0xbd86cffd	-0.06582639
145	0xbdd695a9	-0.10477764
146	0x3de526ab	0.11189016
147	0x3cb67cd6	0.022276323
148	0xbdbae5b0	-0.09125841
149	0xbbd74a7f	-0.00657016
150	0xbdad45b9	-0.08460564
151	0xbdcde2ca	-0.10053022
152	0x3dc5d5d7	0.09659927
153	0xba8f72e2	-0.0010944272
154	0xbd9090ca	-0.07058866
155	0x3d907999	0.07054443
156	0x3d8d5249	0.0690046
157	0x3c767924	0.015043531
158	0xbc583021	-0.013195069
159	0xbd54d615	-0.051961977
160	0x3da97321	0.08273912
161	0xbd23a34e	-0.03995066
162	0x3d9fd396	0.07804029
163	0xbd4add93	-0.049527716
164	0xbde10f64	-0.10989264
165	0x3d8f9d6f	0.0701245
166	0x3dd2c410	0.10291302
167	0x3c0319c3	0.008001748
168	0xbcf96eb8	-0.030448303
169	0xbd4a9117	-0.049454775
170	0xbc60381a	-0.013685251
171	0xbda218ea	-0.07914908
172	0x3d345722	0.04402841
173	0xbde93dd4	-0.11388746
174	0x3d620161	0.055177096
175	0xba05df1c	-0.0005106793
176	0xbdaa4dec	-0.08315644
177	0x3d9245b7	0.07142203
178	0xbda48b86	-0.080344245
179	0xbde6c25e	-0.11267541
180	0xbd307772	-0.043082662
181	0xbd897076	-0.06710903
182	0xbdcd74e5	-0.100320615
183	0x3de8eae4	0.11372927
184	0xbdabc17a	-0.08386512
185	0xbdaa0cbe	-0.08303212
186	0x3d20f810	0.03929907
187	0xbcc7b8dc	-0.02438014
188	0x3db80186	0.089846656
189	0xbd3649c3	-0.04450394
190	0x3dd96919	0.10615749
191	0x3d797988	0.060906917
192	0xbd54d734	-0.051963046
193	0xbdaf982f	-0.085739486
194	0x3d85ce18	0.0653345
195	0x3d251de3	0.040311705
196	0x3c54bbb7	0.012984208
197	0x3c1c0ad2	0.009524064
198	0x3d0394a7	0.032124188
199	0x3ce29abf	0.02766168
200	0xbc89aa2c	-0.016804777
201	0xbd9eb89a	-0.07750054
202	0xbd8a638f	-0.067572705
203	0x3cc4f3b0	0.02404198
204	0xbd85596e	-0.06511198
205	0x3d4b9b99	0.049708936
206	0xbda97351	-0.08273948
207	0x3a9f909e	0.0012173837
208	0xbaefaf6d	-0.0018286534
209	0xbda55888	-0.080735266
210	0xbd146b1a	-0.036234953
211	0x3d26074e	0.04053431
212	0x3df066d9	0.11738367
213	0x3d948c14	0.0725328
214	0xbd68cbeb	-0.056835096
215	0xbdb44407	-0.08802038
216	0x3d92e5be	0.07172726
217	0x3b44e877	0.0030045786
218	0x3d90f1f5	0.070774
219	0x3dda9be1	0.10674263
220	0x3dace45f	0.08441996
221	0x3c332fc9	0.010936686
222	0x3d7ee743	0.062232267
223	0xbdb4a578	-0.08820623
224	0xbdda30e4	-0.106538564
225	0x3c08475a	0.008317793
226	0xbcd50d26	-0.026007246
227	0xbbe36838	-0.006939914
228	0x3d82122d	0.06351123
229	0xbdf14806	-0.117813155
230	0x3d5a4029	0.053283844
231	0xbd98c2d0	-0.074590325
232	0x3ce7a9b9	0.028279172
233	0x3d8dff09	0.0693341
234	0x3ddb79ce	0.10716592
235	0x3db942c2	0.09045936
236	0xbd9204f1	-0.07129849
237	0x3cae17d2	0.021251593
238	0xbcbc4229	-0.022980766
239	0x3c96285c	0.018329792
240	0xbd7f2776	-0.062293492
241	0xbd35529d	-0.04426824
242	0x3da60bb6	0.081077024
243	0x3c8aefdb	0.016960075
244	0x3d263130	0.040574253
245	0xbdc06f52	-0.09396233
246	0x3d81f11e	0.063448176
247	0xbd3d3398	-0.04619178
248	0x3de34dfa	0.11098857
249	0x3cbc2313	0.022965943
250	0x3d167585	0.03673317
251	0xbab16f20	-0.0013537146
252	0x3ddab8f1	0.10679806
253	0x3d90f6ac	0.07078299
254	0x3d44bdfe	0.048032753
255	0xbdc39738	-0.09550327

backbone.model.2.1.model.0.bias f4 [8]
0	0xbd9935e1	-0.0748098
1	0x3db1aa62	0.08675076
2	0xbdb0462d	-0.08607135
3	0x3ce89673	0.028392052
4	0x3bff13a2	0.007784323
5	0x3db1ee73	0.08688059
6	0x3d8f5782	0.06999113
7	0xbdbdb781	-0.09263516

backbone.model.3.0.model.0.weight f4 [16, 8, 3, 3]
0	0xbd91e8e1	-0.07124496
1	0x3d78f354	0.06077893
2	0xbdaff90f	-0.08592426
3	0x3dc34853	0.09535279
4	0x3d7cbd09	0.061703715
5	0xbde4d2c2	-0.11173011
6	0x3db8067f	0.08985614
7	0xbdbc86ab	-0.092053734
8	0xbd9e9daa	-0.07744916
9	0xbdd680dc	-0.10473797
10	0x3dcb0881	0.09913731
11	0xbc984343	-0.01858676
12	0xbd263749	-0.040580068
13	0x3d93de83	0.07220175
14	0x3cf698ba	0.030102123
15	0xbcfe9999	-0.0310791
16	0xbcba477d	-0.022739166
17	0xbcec3287	-0.028832687
18	0xba838ac8	-0.0010035867
19	0x3d70923f	0.05873322
20	0x3dd4948f	0.10379898
21	0x3cc87699	0.024470614
22	0x3de088a9	0.10963566
23	0x3d6e4f6c	0.05818121
24	0xbd2adda8	-0.041715294
25	0x3db5e295	0.08881108
26	0x3dca3430	0.09873235
27	0xbcbe537d	-0.02323317
28	0x3be72a5b	0.0070546097
29	0x3c20df41	0.009818853
30	0xbbdab8d7	-0.0066748667
31	0xbde625cb	-0.11237677
32	0x3ce347a2	0.027744118
33	0xbcddb08a	-0.02706172
34	0x3cc0bd78	0.023527846
35	0xbdc5b3a7	-0.096534066
36	0xbddbdf03	-0.107358955
37	0x3d958ff2	0.07302846
38	0x3dd412f4	0.103551775
39	0xbd92eabd	-0.07173679
40	0x3d0c26e1	0.034216765
41	0x3c02a0e8	0.007972933
42	0x3d871ac0	0.06596899
43	0xbcf0d79e	-0.02939969
44	0xbd8032fc	-0.062597245
45	0x3d5d6ce8	0.05405894
46	0xbcda83de	-0.026674207
47	0xbb753257	-0.0037414038
48	0xbcdacee1	-0.026709976
49	0xbd7e7b53	-0.06212933
50	0xbdb27657	-0.08713978
51	0xbd8e8980	-0.0695982
52	0xba7664c1	-0.0009399169
53	0xbdce84fb	-0.10083958
54	0x3d0011a0	0.03126681
55	0x3dd90078	0.105957925
56	0xbcb93430	-0.022607893
57	0x3d0cac18	0.03434381
58	0xbde87b6b	-0.11351665
59	0x3db2a3eb	0.08722671
60	0x3dc2c65b	0.095104896
61	0x3c3b5556	0.01143392
62	0x3db85887	0.0900126
63	0xbdee11a5	-0.11624459
64	0x3daeaaac	0.08528647
65	0xbd29f27f	-0.041491028
66	0x3dca533a	0.098791555
67	0x3d6d2e37	0.057905402
68	0x3de141f3	0.10998907
69	0x3da20323	0.079107545
70	0xbdb5fe67	-0.08886414
71	0xbdb04960	-0.08607745
72	0xbdd9351a	-0.106058314
73	0xbdaa4312	-0.08313574
74	0x3d8ff5cf	0.07029306
75	0xbdc85d89	-0.097834654
76	0x3c4d914e	0.01254685
77	0xbd992fd3	-0.07479825
78	0xbc3d51ce	-0.011555148
79	0x3c34e9ab	0.011042039
80	0x3d842be2	0.064536825
81	0xbdb85b34	-0.090017706
82	0x3b07835e	0.0020677666
83	0x3d03fd83	0.03222419
84	0xbd64c3da	-0.05585084
85	0x3c5d2535	0.01349764
86	0x3d63222c	0.05545251
87	0xbd1cfb75	-0.038325746
88	0x3de65b05	0.11247829
89	0x3d2291ef	0.039689954
90	0xba8ff31b	-0.0010982485
91	0x3daee8b8	0.08540481
92	0xbdc01243	-0.09378483
93	0xbc80164f	-0.015635638
94	0x3de6dbe7	0.11272412
95	0x3c3001f7	0.010742656
96	0xbdbe9b2e	-0.09306942
97	0xbd83fc0b	-0.06444558
98	0xbd89ef96	-0.067351505
99	0xbd5b74db	-0.05357824
100	0xbce1d449	-0.027567046
101	0x3d2ee2a1	0.0426966
102	0xbdd20746	-0.102552935
103	0x3bb38248	0.005478177
104	0x3da19dd9	0.07891435
105	0xbdd2a6cb	-0.102857195
106	0xbda00fef	-0.07815539
107	0x3da15c8b	0.07878979
108	0x3d052560	0.032506347
109	0xbd33e53b	-0.043919783
110	0xbc876eaf	-0.01653227
111	0x3c88b69b	0.016688636
112	0xbd20ccb9	-0.03925774
113	0x3d837cca	0.06420286
114	0xbdbeb687	-0.09312158
115	0x3c5191e7	0.0127911335
116	0x3d25988e	0.04042869
117	0x3d16b9e0	0.036798358
118	0x3dc26f42	0.09493877
119	0xbce141e2	-0.027497236
120	0x3d4aada0	0.049481988
121	0x3d8ddf8f	0.06927406
122	0xbdbe1d58	-0.092829406
123	0x3cf70369	0.030152993
124	0x3d86123e	0.06546448
125	0x3dd4b127	0.10385352
126	0x3d853414	0.06504074
127	0xba378bb8	-0.0007001716
128	0x3da15a98	0.078786075
129	0xbd96b726	-0.073591515
130	0x3d97bbf4	0.07408896
131	0xbd9571a1	-0.072970636
132	0xbdb836a5	-0.089947976
133	0x3d213912	0.039361067
134	0xbd162a55	-0.036661465
135	0xbcbf2ffd	-0.023338312
136	0xbda24359	-0.07923002
137	0x3dccdfe6	0.10003643
138	0xbccb3907	-0.024807466
139	0x3ccf5f6d	0.025314057
140	0x3dbb7a03	0.09154131
141	0x3db023e4	0.086005956
142	0x3de59a2e	0.11211048
143	0x3bb77fd0	0.0055999532
144	0xbbe18051	-0.0068817516
145	0x3dc0e919	0.0941946
146	0x3d90d2ed	0.07071481
147	0xbdb71854	-0.08940187
148	0xbde60c35	-0.11232797
149	0x3cef126b	0.029183587
150	0x3cf313e7	0.029672576
151	0xbd19ddf1	-0.037565175
152	0xbd8c9285	-0.06863884
153	0x3acdd86d	0.0015704759
154	0x3d2acb14	0.041697577
155	0xbdadd611	-0.084880956
156	0x3d89e356	0.06732814
157	0xbd720eba	-0.059096076
158	0x3ccb3d73	0.024809575
159	0x3d0118fa	0.03151796
160	0xbdc769d3	-0.09736981
161	0xbd3f614f	-0.04672366
162	0x3d5082ba	0.05090592
163	0x3d835b26	0.064138696
164	0x3d80d396	0.06290357
165	0x3d4b4969	0.049630556
166	0x3d336000	0.043792725
167	0xbcb144f7	-0.02163933
168	0xbd5ec369	-0.054385576
169	0xbc6d3061	-0.014476866
170	0xbcac9c7d	-0.021070713
171	0xbd294350	-0.04132396
172	0xbcf15281	-0.029458286
173	0x3dc35053	0.09536805
174	0x3d5b6b57	0.053569164
175	0x3d5cd83d	0.05391716
176	0x3c24e6b0	0.010064766
177	0xbdab0714	-0.083509594
178	0x3d5b8b1a	0.053599454
179	0x3c2dd989	0.010610946
180	0xbd908e38	-0.07058376
181	0x3d93119d	0.07181094
182	0xbca59d45	-0.020216594
183	0xbb8440a0	-0.004036024
184	0xbdd94f95	-0.10610882
185	0xbcc9f52c	-0.02465304
186	0xbd60d32a	-0.05488888
187	0x3cbf4990	0.023350507
188	0x3ccb9a85	0.024853954
189	0xbd1c300f	-0.03813177
190	0x3d856939	0.0651421
191	0xbd80e890	-0.06294358
192	0xbd9f11a0	-0.077670336
193	0x3d22deef	0.039763387
194	0x3bbf207d	0.0058327303
195	0xbd6dc2d7	-0.058047142
196	0xbde2ff5d	-0.11083863
197	0xbdb2babb	-0.08727022
198	0xbca4fd2b	-0.020140251
199	0xbc9c7c48	-0.01910223
200	0xbdbef8a4	-0.09324768
201	0xbd9a89f6	-0.07545845
202	0x3d7e3700	0.06206417
203	0x3daaa651	0.083325036
204	0x3dab795c	0.08372757
205	0xbbb949e7	-0.005654562
206	0x3dd85f34	0.105650336
207	0xbd93ce60	-0.07217097
208	0xbb8f6db3	-0.004377091
209	0xbdbbbfba	-0.09167428
210	0x3de0b3c3	0.10971787
211	0xbdb1f7a6	-0.08689813
212	0x3daf2685	0.08552269
213	0xbb8384a7	-0.004013616
214	0x3d9564b4	0.07294598
215	0x3cbe0662	0.023196403
216	0x3ca7ba1e	0.02047449
217	0x3cc9a034	0.024612524
218	0xbd29cb7d	-0.041453827
219	0x3cf46e0f	0.029837636
220	0x3d624000	0.055236816
221	0x3d357f6a	0.044310965
222	0xbd19d5d0	-0.037557423
223	0xbbef8b03	-0.0073102727
224	0xbda56303	-0.080755256
225	0xbb2dc6eb	-0.002651627
226	0x3d568934	0.05237694
227	0x3c6aa641	0.014321865
228	0x3d9d1c2f	0.07671391
229	0x3d24a98a	0.040200748
230	0xbdf06752	-0.11738457
231	0x3d3378cb	0.04381637
232	0xbd8bbe63	-0.06823423
233	0xbc0210f4	-0.007938612
234	0xbd04f72a	-0.032462277
235	0x3d0fd5c7	0.035115983
236	0xbda35f32	-0.079771414
237	0x3d87bee9	0.0662821
238	0x3c9fb864	0.019497104
239	0x3caab79e	0.020839509
240	0x3d7c1b8d	0.061549712
241	0xbd1c5d3a	-0.038174845
242	0x3d8a1359	0.067419715
243	0x3b6798c8	0.0035338867
244	0xbd55dfc0	-0.052215338
245	0x3da338e4	0.079698354
246	0xbd184507	-0.037175205
247	0x3d61638c	0.055026576
248	0x3da3b4ee	0.07993494
249	0x3dd85725	0.105634965
250	0xbd922da5	-0.07137612
251	0xbde46b64	-0.11153296
252	0xbdddf139	-0.10837025
253	0x3d57acaa	0.0526549
254	0x3dba9ded	0.09112153
255	0x3cf28179	0.029602753

backbone.model.3.0.model.0.bias f4 [16]
0	0x3dc6f1b9	0.09714074
1	0xbdcbbbbb	-0.09947916
2	0x3dbadb03	0.091238044
3	0xbde59c52	-0.11211456
4	0xbcb1477a	-0.021640528
5	0xbdcaf469	-0.09909899
6	0x3defcf0f	0.11709415
7	0x3d2a0966	0.04151287
8	0x3da951db	0.08267566
9	0x3d272d95	0.040814955
10	0x3d3ca03c	0.04605125
11	0x3db76b19	0.08955974
12	0xbdee7070	-0.116425395
13	0x3d9775ba	0.073955014
14	0xbda52733	-0.08064117
15	0xbdc8eee2	-0.09811188
