software/logs/hyper_parameter_tuning/custom_model_hp/version_11/checkpoints/epoch=0-step=20.ckpt (torch, 195567 bytes, 54 tensors)

backbone.model.0.0.model.0.weight f4 [4, 2, 5, 5]
000000 64 a3 86 bc 63 33 9c bc d3 9a e1 bd c0 92 9b 3d
       -0.016435333 -0.019067472 -0.110158585 0.0759635
000010 2c 98 54 3d 48 06 9c 3d 35 07 4a bb e2 11 ea bd
       0.051902935 0.076183856 -0.003082705 -0.11429192
000020 db 62 54 bc e4 3c 82 3d 18 8f 62 bc 03 24 bf bd
       -0.012963022 0.0635927 -0.0138280615 -0.093330406
000030 a3 42 e3 bd 48 42 38 bd 2c da 41 bc 4f 5c 5c bd
       -0.11096694 -0.044985086 -0.011831801 -0.05379897
000040 70 c3 bf 3d 70 54 99 3d 6d 25 f7 3d bd 9f a8 bc
       0.093634486 0.07486808 0.12067685 -0.020583982
000050 bf ee a0 3d 8b 34 91 3d e3 ea 5d bd 58 cd b8 bd
       0.07858037 0.070901 -0.054179084 -0.09023541
000060 d7 31 47 3d a3 35 3e bd 31 2a be 3d cd 73 e9 bd
       0.048631515 -0.04643787 0.09285391 -0.1139904
000070 82 ea 88 3c 6f d8 bc 3d 39 49 cb bc b0 e9 bc bd
       0.016713385 0.09220969 -0.024815189 -0.0922426
000080 d1 24 03 3e 4c e2 bc 3c a7 e8 a7 3d 95 d3 99 3d
       0.12807013 0.023057126 0.08198672 0.07511059
000090 46 c0 3f 3d 30 06 44 bd b4 08 91 bd d1 89 eb 3d
       0.046814226 -0.047857463 -0.07081738 0.11500896
0000a0 6c 4b 2f bd ff a2 8e 3b ae c8 54 3d 12 79 27 bd
       -0.042796537 0.0043529267 0.051949196 -0.040886946
0000b0 f8 b3 b5 3d 58 8a 04 3d e0 93 10 3e 36 2b 8e 3c
       0.08872217 0.032358497 0.1411891 0.017354589
0000c0 2d dd d7 bd af e6 c2 3d 07 ee f0 bc f9 98 3a 3d
       -0.10540233 0.09516656 -0.029410375 0.045556042
0000d0 b1 df 0a 3e 95 3f 1e bd 14 f6 b0 bd c5 b1 80 3d
       0.13561894 -0.038634855 -0.08640686 0.06283907
0000e0 61 71 00 3e 3b 76 ac 3c 8c 95 ed 3c e6 6f 90 bd
       0.1254325 0.02105247 0.029001974 -0.07052593
0000f0 7c 75 02 3e 56 06 d0 3b 38 fa f8 bd ab 38 ed bc
       0.12740129 0.0063484116 -0.121571004 -0.028957685
000100 82 2c 92 3d 8b f4 c6 bd 3d 18 4b bd 5d 48 db b9
       0.071373954 -0.097146116 -0.049583662 -0.0004182485
000110 36 76 0d 3d 3b e6 b1 bd ca ec 91 3d 0c 43 eb bc
       0.034536563 -0.08686491 0.07125242 -0.028718494
000120 4f e3 6f 3c cc 87 c6 bd 57 b0 10 3e df 52 ee 3d
       0.014641597 -0.0969387 0.14129768 0.116369
000130 9c 92 2d 3d 28 6f 7b bd b0 ab eb bd 41 d1 f4 3d
       0.042376146 -0.061385304 -0.11507356 0.119539745
000140 62 20 fb bd a4 fa f3 3c 67 b6 c9 3d 7f 7d 6a bd
       -0.12262036 0.0297826 0.098492436 -0.05724859
000150 aa 1c a2 3c 86 3a f6 3d 7c 01 04 bd dc 4f ce 3c
       0.019789059 0.12022881 -0.032227978 0.025184564
000160 01 b6 94 3d 68 90 d3 bd f2 6c 85 bd 95 43 ab 3d
       0.07261277 -0.10330278 -0.0651492 0.083624996
000170 ff 66 0d be 18 5f be bd 15 a8 6a 3d 2f df a0 bd
       -0.13808821 -0.092954814 0.0572892 -0.07855069
000180 ea 62 90 bd 9c c0 c1 bd f7 8e b2 3d ce 7c e1 bb
       -0.07050116 -0.094605654 0.08718675 -0.006881333
000190 29 b5 65 bd ac 73 ba 3d 26 20 76 3d f7 6c 97 3d
       -0.05608097 0.09104094 0.060089253 0.0739383
0001a0 a7 28 e9 bd 4c d2 52 3d 71 8a 0c 3d bb a6 91 3d
       -0.11384707 0.051470086 0.034311716 0.071118794
0001b0 e3 84 0a 3e e7 f7 24 3d f5 cd ab 3d 97 fa 99 3c
       0.13527255 0.04027548 0.083888926 0.018796248
0001c0 df 52 5c 3c fb 8f 5e 3d 32 48 da 3d 70 f5 cf 3c
       0.013447492 0.05433653 0.106583014 0.025385588
0001d0 8c 8d a1 bc b8 27 b0 bd 72 50 8a bc fb d1 b3 3d
       -0.019720815 -0.08601326 -0.016884062 0.08780285
0001e0 6c ea 98 3c 0d a6 92 3d 2d fb 36 3d 6a 84 db 3d
       0.018666469 0.07160578 0.044673134 0.10718615
0001f0 65 4b 39 3d 53 78 78 3d a2 1e 04 bd 3d e2 99 3d
       0.045237917 0.060661625 -0.032255776 0.07513855
000200 99 97 05 be 3c dc c8 3d c1 5c ad 3d e2 b5 de 3b
       -0.13046111 0.098076314 0.08464957 0.0067965845
000210 6b 9d 23 3d fc 8a 21 3d 45 72 02 be 2d b7 af 3d
       0.039945047 0.039439186 -0.12738903 0.0857986
000220 6f 13 bd bd 7e f2 e4 3c 1d 65 8e 3d 8a 4d 26 3d
       -0.09232222 0.02794766 0.069528796 0.04060129
000230 8f fb a8 3c 69 67 06 3d 3a 74 3b bc 65 31 a0 bd
       0.020627765 0.032813463 -0.011441285 -0.07821921
000240 3e fc 0d be 63 dd 0d 3e df 47 c1 bc bc 81 05 be
       -0.13865754 0.13853984 -0.023593841 -0.13037771
000250 04 94 18 bc 2d 53 a9 bd 06 fb 8a 3d 3c 3c 99 bc
       -0.009312633 -0.08267818 0.0678616 -0.01870548
000260 d0 ec 6c 3d 36 99 98 3c 51 16 cf 3d 2f 35 8a 3c
       0.05784303 0.018627744 0.101116784 0.016871063
000270 96 f6 02 3e 14 0e e6 3a 97 95 82 3d 23 e8 ea 3d
       0.12789378 0.0017551803 0.06376188 0.11470058
000280 99 64 74 3d 6f b7 4c 3c 88 28 fd 3d 01 ce 03 b8
       0.05966625 0.012494906 0.12361246 -3.142469e-05
000290 cd 77 02 3d b6 93 3b bd 6f 7e d3 3d b8 26 c8 bd
       0.031852532 -0.045795165 0.1032685 -0.0977301
0002a0 12 32 b1 bd 67 8e 8f 3d 4b df 08 3e 1b 41 0a 3e
       -0.08652128 0.07009583 0.1336643 0.13501398
0002b0 50 9c 0c 3e 7f b9 01 be d9 6b dd bd 6f 2d f7 3d
       0.13731503 -0.12668417 -0.10811586 0.12069213
0002c0 09 b3 91 b8 18 5a 0a 3e 44 d5 b3 3d 49 1c 6e 3c
       -6.947487e-05 0.1351093 0.087809116 0.014533111
0002d0 54 b7 8a 3b df 58 3c bd ad b0 ea 3c 25 0b 82 bd
       0.00423328 -0.04598319 0.028648699 -0.06349782
0002e0 56 07 d8 3d 52 35 89 3d 94 1a 8e 3d 9a 25 98 bc
       0.10548274 0.06699623 0.06938663 -0.018572617
0002f0 be 1c fc bd 9f d2 36 bc 8b 31 89 3d 6a a2 ab bc
       -0.1231017 -0.011158614 0.06698903 -0.020951468
000300 11 8d e3 bd 3a 60 31 3d 1a 80 8a 3d 2b 42 79 3b
       -0.11110891 0.04330466 0.06762715 0.0038033824
000310 2e 3a 0c 3e 25 8a 6b bd 2c 44 c4 3d 02 bd 09 be
       0.13694069 -0.05750479 0.09583315 -0.13451007

backbone.model.0.0.model.0.bias f4 [4]
000000 ba c3 d8 3c fd 04 be bd 8f 18 04 3e 89 ce d2 3b
       0.026460517 -0.09278295 0.12899993 0.0064333123

backbone.model.0.1.model.0.weight f4 [4, 4, 5, 5]
000000 83 69 6d bd 87 c9 50 3d 7a 35 8c bc 13 9c 4d bd
       -0.057961952 0.05097344 -0.017115343 -0.050197672
000010 2a a9 ca 3d 87 15 96 3d df e4 af bd 6a a0 8d bd
       0.09895547 0.07328325 -0.085885756 -0.06915362
000020 27 d9 f2 3c a7 1c 6f bc 3d 75 0e bd 2d 62 08 3d
       0.029644562 -0.014594234 -0.034779776 0.033296753
000030 c7 60 2a bd 07 22 95 bc 27 1f 59 bd cd ce c3 3c
       -0.0415962 -0.018204702 -0.053008225 0.023902321
000040 ed a1 3a 3d f3 2d 3a 3d 42 38 9e bd da 56 5e 3c
       0.04556458 0.045453977 -0.07725574 0.013570512
000050 13 29 e9 3c ed 4b 8c bd 07 67 01 3d 7b fb cb bd
       0.028461969 -0.06850419 0.031592395 -0.099600755
000060 e0 b8 d0 bc 40 c9 c1 bc 9a 72 6e 3c 43 e3 4b 3d
       -0.02547878 -0.023655534 0.01455369 0.04977728
000070 4d ba f3 3c 3d 88 b5 bd 7d e4 9c 3d af 53 95 bd
       0.029751921 -0.08863876 0.07660768 -0.07291352
000080 93 b1 c5 3c 9a bb dd ba f2 44 92 3d 43 14 5d 3d
       0.024132526 -0.0016916872 0.071420565 0.0539744
000090 00 40 c8 b8 25 30 84 3d 62 d4 a3 bd 67 da b8 3c
       -9.548664e-05 0.06454495 -0.07999493 0.02256508
0000a0 8f 9d 85 bd cd cc 64 3d 5d a7 23 3d 27 60 39 3c
       -0.065241925 0.055859376 0.039954532 0.011314428
0000b0 07 46 cf bc 87 9e 30 bd b3 dd 92 3c 68 2f bb 3d
       -0.025301946 -0.043119933 0.01792798 0.091399014
0000c0 f0 50 54 bd fa f9 a4 3d 9a e8 ad bc f8 f4 bb 3d
       -0.051835 0.08055492 -0.021229077 0.091775835
0000d0 fa a2 4b bd 33 b4 a5 3c 5b f4 c9 3d 58 08 a0 bd
       -0.049715973 0.020227527 0.0986106 -0.078140914
0000e0 cd 79 1c 3d f5 b2 86 bd 9b 3b 96 bd 90 d3 6b 3d
       0.038202096 -0.06577102 -0.073355876 0.05757481
0000f0 a0 93 ab 3c 0f 73 83 3d 17 e8 b3 bd 13 b2 c8 bc
       0.020944417 0.0641843 -0.08784502 -0.024498975
000100 18 81 bf 3d ad 7a 12 3d 08 09 a2 3d 15 64 a7 3d
       0.093507946 0.035761524 0.07911879 0.08173386
000110 73 d8 28 3d fd 99 99 bd d5 9d 8c bd d3 39 25 3d
       0.041222047 -0.07500074 -0.068660416 0.04033835
000120 12 2e 81 3d d3 ab 66 bd 53 da 05 bd 10 9a 3b bd
       0.06307615 -0.056316208 -0.032678913 -0.045801222
000130 c7 0a eb bc 6b 69 9d bd 67 6f 97 bc e7 14 9b 3c
       -0.028691662 -0.076861225 -0.018485738 0.018930865
000140 1a 2b b6 3d 73 46 85 bd ad d3 d6 bc 4d ee a6 3b
       0.0889494 -0.06507578 -0.026223982 0.0050943256
000150 1a c2 6d bc 7a a7 d2 3c 0d c2 27 3c 17 69 59 bd
       -0.014511609 0.025714625 0.010239136 -0.053078737
000160 27 ca 88 bc 2a ed 2a bd 7a 48 83 bd b2 af a5 3d
       -0.016697956 -0.041730084 -0.06410308 0.08090152
000170 9a 8b 9a bc 1a e3 61 3d f5 19 aa bd 9a 4f 3b 3b
       -0.018865395 0.05514822 -0.08305732 0.0028581382
000180 da a4 dd bc 60 a3 35 3d 8a 69 01 bd 07 e6 ee 3c
       -0.027056146 0.04434526 -0.03159479 0.02916242
000190 07 b7 b5 bc 1a 57 20 bd 8a 0c 4a bd a2 f2 c7 bd
       -0.022182 -0.039145567 -0.049328364 -0.097630754
0001a0 8d dc bd bc 80 6a a4 bd 3b df ae bd 7a 18 dd bc
       -0.023176456 -0.08028126 -0.085386716 -0.02698921
0001b0 50 f8 44 3d 2a c9 a3 bd 33 8c 7c 3d ca 5d 33 bd
       0.04808837 -0.079973534 0.061657142 -0.043790616
0001c0 f3 5c df bc 67 ea c3 bd 2d 40 9c 3d d2 1c ae bd
       -0.027266001 -0.09566193 0.07629428 -0.08501591
0001d0 b0 ed c1 bd 93 f5 90 3c 27 02 98 bd 7a 76 04 bd
       -0.094691634 0.017695224 -0.074222855 -0.03233955
0001e0 e7 81 a1 bc 60 e2 93 3c 47 fb 95 bc 67 59 f6 3b
       -0.019715263 0.01805228 -0.018308295 0.007517982
0001f0 b3 8a a4 3c 33 f5 ad bc 4a 33 21 3d 67 f8 d8 3a
       0.020085668 -0.021235084 0.039355554 0.0016553522
000200 f3 68 dd 3c 4d e4 e6 3b 35 c4 a2 bd 40 0d 4d 3d
       0.027027583 0.0070462585 -0.0794758 0.050061464
000210 8d 6b 6f 3c 5a 4b 45 3d 67 df 20 bc c0 b8 2b 3d
       0.014613044 0.048167564 -0.009818888 0.04192424
000220 0a ea 69 3d a3 60 54 bd 38 6a 82 3d 47 fe dd 3c
       0.057107963 -0.051849972 0.06367916 0.027098788
000230 da 75 d4 3c 60 66 62 bd 53 1a 82 bd b7 ee 8d bd
       0.025935102 -0.055273414 -0.06352677 -0.06930297
000240 b8 fb 96 3d 8a 79 48 3d 40 88 4d bc 1f ea b5 bd
       0.0737223 0.048944034 -0.012544692 -0.08882546
000250 1a 8a 67 bd 02 2a c9 3d 97 55 72 bd a7 ca d5 3c
       -0.05652819 0.098224655 -0.059163656 0.026097609
000260 ba 01 8b 3d 5d eb b9 bd c0 88 52 3d 8d 20 a2 3c
       0.06787439 -0.09078095 0.051399946 0.019790912
000270 10 20 20 bd 28 41 ba bd 5d 2e 1c 3d 5a 1b 83 3c
       -0.039093077 -0.09094459 0.038130153 0.016004253
000280 67 aa 67 bb 63 9d 65 3d 4d 31 fa bb cd d8 e2 bc
       -0.003534937 0.0560583 -0.0076352716 -0.02769127
000290 c2 47 85 3d 9d 46 43 bd 67 e0 e0 bc 93 d2 ee 3c
       0.06507827 -0.047674764 -0.027450753 0.029153144
0002a0 00 c5 b4 3b da 2d a8 3c 62 df c1 3d ff 28 8c 3d
       0.0055166483 0.020529676 0.09466435 0.06843757
0002b0 ed 43 38 bd 67 f3 8b bb cd ac 7b 39 70 be 17 3d
       -0.044986654 -0.004270959 0.00024001599 0.03704685
0002c0 e0 11 32 bd 67 83 b3 bb 5a 86 35 3c bd b1 c4 bd
       -0.04347408 -0.005478311 0.011079395 -0.096042134
0002d0 b0 34 16 bd 43 c6 76 bd 4a e0 b5 bd b3 48 98 bd
       -0.03667134 -0.06024767 -0.0888067 -0.07435741
0002e0 0f 44 af 3d 9a 19 95 bd f0 52 28 3d 40 e2 8b bc
       0.08557903 -0.07280274 0.04109472 -0.017075658
0002f0 0a fe 44 3d 9a 39 ee 39 93 02 09 bd 4f 74 b8 bd
       0.048093833 0.00045437814 -0.03344972 -0.09006559
000300 cd e7 06 bb c0 6c 11 3c 00 1d b3 3d cd 4b 41 bb
       -0.0020584941 0.008876026 0.08745766 -0.0029494644
000310 93 6f b4 3c 0d 65 06 3d b7 74 7a 3d 35 75 c3 bd
       0.022025859 0.032811213 0.061146464 -0.0954384
000320 4d 39 78 3c 6a 8e 20 3d 4f 92 92 bd e5 c9 89 bd
       0.01515038 0.039198317 -0.071568124 -0.067279615
000330 00 2b a1 bc e7 69 be bb 00 8d 8c bb 0a 82 36 bd
       -0.019673824 -0.0058109644 -0.0042892694 -0.04455761
000340 b3 ba 10 3c 2a 36 ad 3d 0d ee 4a bd 90 80 97 bd
       0.008833575 0.084575966 -0.04954343 -0.07397568
000350 4d 54 83 bd 30 46 29 bd 7b 54 8f 3d 4d 47 5d 3d
       -0.064125635 -0.0413267 0.06998535 0.054023076
000360 67 00 ba 3d bd b6 77 bd 3f 93 a9 bd 9f f9 a7 bd
       0.09082108 -0.060477007 -0.08280038 -0.08201908
000370 eb 40 cb bd 05 76 8a 3d f3 76 e2 bc cd c6 3c 3d
       -0.099244915 0.06760792 -0.02764461 0.04608803
000380 c0 03 46 bd 80 46 61 bc 3f cd 86 bd e7 59 21 3d
       -0.04834342 -0.013749719 -0.06582116 0.03939238
000390 0d 8e b6 bd 5a 98 6e bd c0 39 5f 3c 07 b2 07 3d
       -0.08913813 -0.058250763 0.0136246085 0.033128764
0003a0 1a dd 55 3d 2b de 92 3d e0 55 ae 3c 27 7a fc 3c
       0.052212812 0.071712814 0.021281183 0.030819966
0003b0 ad bb 91 bc 13 5a 1a 3d 2b 30 aa bd d3 f9 f3 bc
       -0.017789686 0.037683558 -0.083099686 -0.029782211
0003c0 c3 c5 4b 3d dd 35 a4 3d 80 b1 58 bd 42 69 ae bd
       0.049749147 0.08018086 -0.052903652 -0.0851617
0003d0 2d 1b 9f bd 33 98 56 3d 70 83 7c bd 4d 02 a3 bb
       -0.07768855 0.052391242 -0.061648786 -0.0049746395
0003e0 f0 ec 9a 3d 63 cf 95 bd 95 be bc bd da 23 4f bd
       0.075647235 -0.073149465 -0.09216038 -0.0505713
0003f0 f5 68 95 bd 03 ed 18 3d 9a f7 b8 3d 33 f6 8d 3c
       -0.072954096 0.037335407 0.09031601 0.017329311

backbone.model.0.1.model.0.bias f4 [4]
000000 ed eb b9 bd fb 37 a4 bd cb fe ac 3d 52 7f b5 bd
       -0.090782024 -0.0801849 0.084470354 -0.08862175

backbone.model.1.0.model.0.weight f4 [8, 4, 5, 5]
000000 53 29 32 bd 85 0d ca 3d e3 2a 31 3d b3 49 f4 bb
       -0.04349644 0.0986586 0.04325379 -0.0074550747
000010 60 d8 a2 bc 8f ac c0 bd 4d 2a 3b bc b3 37 38 bd
       -0.019878566 -0.09407913 -0.0114236595 -0.044974994
000020 67 26 8c 39 45 a4 a1 bd 03 c0 97 3d 37 de 5b bd
       0.00026731493 -0.0789266 0.0740967 -0.053678717
000030 5a 94 0e 3d 1a 6b 55 bd 0d 97 bd bd ba 24 8f bd
       0.034809448 -0.052104093 -0.09257326 -0.06989427
000040 b3 0e e6 3c 60 bc fd 3c fd 9f 9f 3d a3 69 03 3d
       0.028083181 0.030973613 0.07794187 0.032083165
000050 18 52 bc 3d 67 30 ac 3a a0 4f a6 bc c0 28 15 3c
       0.09195346 0.0013136984 -0.02030164 0.009103954
000060 f7 af 73 3d 9a 4b 8d 3a 4d 6a 40 3c ad 3d b8 bc
       0.059493985 0.0010779977 0.011744094 -0.022490347
000070 67 4c ad 3c 47 cf b5 bc 93 c3 d6 bc fd f2 be bd
       0.021154596 -0.022193564 -0.026216304 -0.0932369
000080 8d ce 52 3d f7 f6 b0 bd bd 96 a2 3d e2 cf 92 bd
       0.051466513 -0.08640855 0.07938907 -0.07168557
000090 aa ff 75 bd 20 38 16 bd f3 d8 78 bc 05 9f a4 bd
       -0.060058273 -0.03667462 -0.0151884435 -0.08038143
0000a0 40 3b 56 bd 3a 59 bc bc fd 94 c3 bd ba c4 f7 bc
       -0.0523026 -0.022991765 -0.09549902 -0.030245174
0000b0 a0 09 70 bd e7 54 c4 3c 8a 45 0d bd f0 d8 b5 bd
       -0.05860293 0.023966266 -0.034490146 -0.08879268
0000c0 0d 70 ad bc c7 14 20 bd af 17 83 bd e3 3f 67 bd
       -0.021171594 -0.039082315 -0.06401002 -0.05645741
0000d0 3f 07 86 3d 40 9e 50 bd ad 74 ee bc 07 50 e5 bc
       0.06544351 -0.05093217 -0.02910837 -0.027992262
0000e0 e7 1a 81 3c c8 89 85 bd 08 f2 93 3d 95 3a 80 bd
       0.015759898 -0.0652042 0.07223898 -0.06261174
0000f0 47 06 02 bd 82 4a a3 3d 5b a7 ae 3d 2f 85 99 bd
       -0.031744268 0.079731956 0.08528014 -0.07496106
000100 cd 2d 02 bd db 7b c7 3d 23 83 77 bd c3 4a 3a 3d
       -0.03178196 0.097404204 -0.060427796 0.045481455
000110 ca 97 06 bd 88 ec 83 3d ed 79 ac 3d 73 d1 b4 bc
       -0.0328596 0.06441599 0.08421693 -0.02207253
000120 ff a6 83 3d 22 7c 81 bd 9a 5c 00 bd d7 78 2f bd
       0.06428336 -0.063225046 -0.03133831 -0.04283985
000130 00 a8 9c bc 00 47 3c bc 6b 86 bf 3d af 77 b0 bd
       -0.019123077 -0.011491537 0.0935181 -0.08616578
000140 87 dd a1 bc 00 7a c0 bb 60 aa 85 bd e7 ed ba 3c
       -0.019758953 -0.0058739185 -0.06526637 0.022818519
000150 ca 50 50 bd 20 9c b4 bd 90 90 32 bd ba 46 b3 bd
       -0.050858296 -0.08818841 -0.043594897 -0.087537244
000160 9a 5a db 3b 1a 14 49 bd c8 4c ad 3d b3 fa 1c 3c
       0.00669415 -0.049091436 0.084619105 0.009581256
000170 0d de 46 bc 9a e8 57 3c 9a 7d 21 3b a7 c1 ec 3c
       -0.012137902 0.013178015 0.0024641515 0.028900934
000180 a8 73 9d 3d ba e2 5d 3d d5 74 95 bd 1d c7 67 3d
       0.07688075 0.0541713 -0.072976746 0.056586374
000190 9a 8c 3b 3d 45 38 a8 3d 6d 54 ae 3d a5 99 96 bd
       0.045788385 0.082138576 0.08512197 -0.07353524
0001a0 d0 9e 7c bd 97 f0 38 bd 07 9a 97 bc d2 59 93 3d
       -0.061674893 -0.04515132 -0.018506063 0.07194866
0001b0 47 3c b5 bc d0 57 7f bd 33 b9 9c 3a cd eb a9 bb
       -0.022123469 -0.062339604 0.0011957049 -0.0051855803
0001c0 3b 93 93 bd b3 69 b8 3b 75 f8 c5 3d 23 bb c5 3d
       -0.07205816 0.0056278347 0.0966653 0.09654834
0001d0 00 44 af ba 77 67 44 3d 00 32 6d 3c b0 f2 5d 3d
       -0.0013371706 0.047950234 0.014477253 0.054186523
0001e0 c3 37 0c bd 00 a7 0a bc 67 b0 a2 ba 73 4a 26 3d
       -0.034232866 -0.008462667 -0.0012412191 0.040598344
0001f0 f5 2a 95 3d 1d 28 5a 3d 1d 2a 1c 3d 08 34 ae 3d
       0.07283584 0.05326091 0.0381261 0.08506018
000200 85 6f a6 3d 7a 8e 8c bd f7 b6 54 3d 67 58 60 bb
       0.081267394 -0.06863113 0.0519323 -0.003423238
000210 88 e3 a8 3d c3 18 65 3d f3 fb 2e 3c 3d ef be bd
       0.08246523 0.055931818 0.010680187 -0.09322975
000220 60 03 d4 3c 93 ca f8 bc 27 21 24 3c 88 60 a8 bd
       0.025880516 -0.030370032 0.01001767 -0.08221537
000230 33 7b b5 3b 6d 1a 3e bd e7 27 9a bb 13 50 cc bc
       0.005538368 -0.04641192 -0.0047044638 -0.024940526
000240 43 3f aa 3d cd 01 b3 3d 0d ff ef bc e0 bd 49 3d
       0.083128475 0.08740578 -0.029296422 0.049253345
000250 73 1b 60 bd 80 16 41 3c 9a 4b d5 bb 28 fd ba 3d
       -0.054713678 0.01178515 -0.0065092565 0.09130317
000260 bb 14 98 3d 0a 43 86 bd ba a4 6f 3d a0 97 00 3d
       0.07425829 -0.065557554 0.058506705 0.0313946
000270 73 f5 68 3d ca 47 3d 3d a0 2a a5 3c ad 5c 8b bd
       0.056874704 0.04621104 0.020161927 -0.06804786
000280 ba 74 d9 bc 6a 15 72 3d 2d 11 4c bd 4d 18 0d bd
       -0.026544917 0.059102453 -0.049821068 -0.034447003
000290 73 ac 37 bd fa cb 2f 3d 4b 0e b2 3d 1a 54 50 3d
       -0.044842195 0.042919137 0.086941324 0.050861456
0002a0 a0 02 4d 3d 1a 5d b3 bd a0 06 9f bc 40 c5 0d 3c
       0.05005133 -0.08757992 -0.019412339 0.008652985
0002b0 55 c5 b7 bd 33 4c d7 bb 35 2b b7 3d 7a 71 8f bd
       -0.08973185 -0.006570363 0.08943788 -0.07004066
0002c0 47 66 78 bd cd 6f 06 3d e7 86 85 3d 1a 6d 6d bc
       -0.060644414 0.032821465 0.06519871 -0.014491344
0002d0 e8 d3 b2 bd 18 b7 8a 3d c7 fa 30 3d aa 0a 02 3d
       -0.08731824 0.067732036 0.04320791 0.03174845
0002e0 b3 45 dc bc 68 76 9e 3d 67 cb b0 3d 1a e6 58 3d
       -0.026888704 0.07737428 0.08632546 0.052953817
0002f0 2f 00 8c 3d 15 40 9e bd af 87 af bd aa 28 bb bd
       0.068359725 -0.077270664 -0.085708015 -0.091386154
000300 d3 8c aa bc ad 8f 81 3d d0 67 be 3d 30 10 70 bd
       -0.020819103 0.06326232 0.092971444 -0.058609188
000310 57 46 3f 3d 37 7e a6 bd 6d 1a 9f 3d f3 aa 11 3c
       0.04669794 -0.08129542 0.07768712 0.008890855
000320 ed 4b 6b bd 90 cd 1b bd 65 27 b8 3d aa 46 22 bd
       -0.057445455 -0.038037837 0.08991889 -0.03961817
000330 33 36 28 bb eb a0 85 bd 33 d0 16 bb 90 43 05 bd
       -0.002566707 -0.06524833 -0.002301228 -0.032535136
000340 50 92 a3 bd 9a b9 f6 b8 ca 0b bb bd 3d 0d 98 3d
       -0.07986891 -0.00011764765 -0.09133108 0.074244
000350 e7 99 86 3b ff f4 90 bd 0b 27 98 3d c8 ea ab 3d
       0.004107702 -0.07077979 0.07429322 0.0839439
000360 b5 0a c2 3d c0 81 03 bc 60 91 4d 3d c0 87 36 3c
       0.094746985 -0.00802654 0.05018747 0.011140764
000370 97 f4 64 bd a2 7c bb bd 1a 3b 9e 3c 07 bc 8a bc
       -0.05589732 -0.09154631 0.019315291 -0.016935362
000380 82 d2 83 bd 67 a2 87 3d e2 40 9a 3d 07 d9 b2 bc
       -0.064366356 0.06622773 0.07531907 -0.021832002
000390 57 96 70 3d 92 10 85 bd 00 31 c9 bd 65 04 c9 3d
       0.058737125 -0.06497301 -0.09823799 0.09815291
0003a0 c3 b1 57 bd 57 61 98 bd b2 6f bd 3d b3 8d b2 3d
       -0.05265976 -0.07440441 0.0924982 0.08718433
0003b0 cd f6 18 3c 10 e9 93 3d e3 fa 55 3d cd 18 61 3a
       0.009336186 0.072221875 0.052241217 0.00085867645
0003c0 e7 c6 6a bc b3 92 1e bc 53 b8 9d 3d 5d 16 ad 3d
       -0.014329649 -0.0096785305 0.07701173 0.08451531
0003d0 ff 6a af 3d 8d 86 73 3c 33 84 30 3b 8d de c1 3c
       0.0856533 0.014863622 0.0026934266 0.02366569
0003e0 27 79 0c 3c 7d 75 79 3d a2 b3 8a 3d 37 e5 08 3d
       0.008573807 0.06090306 0.067725435 0.03342172
0003f0 07 85 bb 3c d5 61 9e 3d d8 fd 9a bd 37 dd 09 3d
       0.02289058 0.07733504 -0.07567948 0.033658233

backbone.model.1.0.model.0.bias f4 [8]
000000 fd 32 9a bd 0f 81 b5 3d 53 a7 8b bc bd a0 21 3d
       -0.075292565 0.088625066 -0.01704756 0.039459933
000010 e7 88 9a 3b a3 4b 29 3d 80 d7 e9 3b 48 4e a3 3d
       0.004716027 0.0413319 0.0071362853 0.07973915

backbone.model.1.1.model.0.weight f4 [8, 8, 5, 5]
000000 52 f1 ec 3c 32 e5 f5 3a 66 ad 79 3d 3d bf d8 ba
       0.028923664 0.0018760322 0.06095638 -0.0016536486
000010 0c c3 7a bc ce 09 81 3c c1 9d 8b bd 80 88 ca 3c
       -0.015305292 0.015751746 -0.068171985 0.024723291
000020 a5 05 8a bd 5e f7 2a 3c e2 90 04 3d 2a f2 5c 3d
       -0.06739358 0.0104349535 0.032364734 0.053941883
000030 8e e6 be 3c 6d b6 e4 3a 9a 25 e1 bc b8 a0 00 3d
       0.023303296 0.0017449387 -0.02748375 0.031403273
000040 a4 0d 01 bd 17 ce ea bb 59 40 15 bd 54 ea 56 bd
       -0.03150715 -0.007165681 -0.03643832 -0.052469566
000050 18 bc 69 3d ec 7a a0 bc b2 d1 69 3d 0d b6 03 bd
       0.057064146 -0.019589864 0.057084747 -0.03215604
000060 07 65 83 bd 5e d1 ad bc 6b 62 d0 bc 6d de 71 3d
       -0.06415754 -0.021217998 -0.025437554 0.059050012
000070 6a 2d e1 bc 64 57 40 bd 11 7c 85 bd 9e f7 47 bd
       -0.027487475 -0.046958342 -0.065178044 -0.04882013
000080 a7 f0 af bc 88 a4 27 3d 15 66 9e bc af ab 46 bc
       -0.021477057 0.040928394 -0.019335786 -0.0121258935
000090 a8 bf 60 bd 6c 57 31 bd 19 72 3c 3d fa 87 4f 3d
       -0.054870278 -0.043296263 0.04600725 0.050666787
0000a0 a2 a5 09 3d 1f e5 e3 ba 86 55 3a 3d 41 fb 88 bd
       0.033605225 -0.0017387009 0.045491718 -0.06688548
0000b0 12 08 62 3c bd 03 25 3d f9 5e 81 3d 56 47 f1 3b
       0.013795869 0.04028677 0.06316943 0.0073632402
0000c0 0b 3c 6b 3a 25 ca 01 3d 30 2c d5 bc 3e 30 c4 3c
       0.00089734857 0.03168692 -0.026022047 0.023948785
0000d0 4c 1a 62 3d c6 74 8c 3d 69 b0 49 bd 8e 9c 6e bd
       0.05520086 0.0685821 -0.049240503 -0.05825477
0000e0 91 a2 d4 3b 33 68 6f bc be bc 04 3d 91 82 88 bd
       0.006489106 -0.014612245 0.03240656 -0.066655286
0000f0 6c cb df 3b eb 31 51 bd 1b 13 29 bc 95 10 2c bd
       0.0068296697 -0.051072996 -0.0103194965 -0.042008
000100 51 90 3d bb 3d cc 87 3d a6 91 a1 3b 26 37 55 3d
       -0.002892513 0.06630752 0.0049306927 0.052054547
000110 99 21 01 bd 49 43 32 3d 4b b0 f6 bc 8e d9 1b 3d
       -0.03152618 0.0435212 -0.03011336 0.038049273
000120 ca 9f 4d 3d f4 2b d2 3c 24 05 7c 3d 09 44 83 3d
       0.050201215 0.025655724 0.06152834 0.06409461
000130 7a c6 d7 3c 89 a8 6a 3d b0 c3 11 3d f1 f6 86 bd
       0.026339758 0.057289634 0.035587013 -0.06590069
000140 1d ac 87 3c a9 3e 81 3d 83 de aa 3c 1f d3 91 3c
       0.016561562 0.063107796 0.020858055 0.017800866
000150 27 34 61 3d ce 03 33 bc 1a 5a 45 bd c4 2b 51 3d
       0.054981377 -0.0109262 -0.04818163 0.05106713
000160 23 b4 42 3d d8 3b 92 3c 0a 8e 10 bd ad 42 a9 3c
       0.047535073 0.017850801 -0.03529171 0.020661676
000170 47 6e 9f bb dd 25 65 bb 7d a2 5f 3d a7 b9 8b 3c
       -0.004865441 -0.0034965195 0.05459832 0.0170563
000180 6b 8d 1c bd 61 3b 4e 3d 6f 96 33 bd aa 3f 23 bd
       -0.038220804 0.050349597 -0.043844637 -0.039855637
000190 d5 25 e1 bb c1 62 83 bc fc af 1f bd 8f 7a 2f bd
       -0.006870965 -0.0160383 -0.03898619 -0.04284149
0001a0 6e b0 80 bd be f4 73 bd af d6 5d 3d ef 72 69 bc
       -0.06283651 -0.059559576 0.054159816 -0.014248594
0001b0 29 cd a9 3c 55 6e 85 bc c7 25 ee bc 5f 98 4e bd
       0.02072771 -0.016287962 -0.029070748 -0.05043828
0001c0 c3 95 84 bc 1d 98 0f 3d fd 78 09 bd 35 61 9a bc
       -0.016184693 0.035057176 -0.03356265 -0.01884518
0001d0 bd a8 89 3d 4e 02 2f 3d fd c3 81 bd d2 e4 62 3d
       0.067216374 0.042726807 -0.0633621 0.055394
0001e0 f8 32 9d bc ca 4c c4 3c ff b7 59 bb 6a 93 39 3d
       -0.019189343 0.023962397 -0.0033221242 0.0453066
0001f0 6a 5b b3 3c d7 2d 76 3d 56 25 0a bd aa b3 e6 3c
       0.021894176 0.06010231 -0.033727013 0.028161842
000200 58 1a 89 3d 2c f7 92 3c 42 53 4a 3d a3 20 81 3d
       0.06694478 0.017940126 0.049395807 0.06305053
000210 44 86 1e 3d ac 11 e9 ba f3 b4 62 bd 1b 0a 35 3d
       0.038702264 -0.0017781756 -0.055348348 0.04419909
000220 10 58 4b bd 99 01 46 bd ff d8 54 bd 1e 1c c3 3c
       -0.04964453 -0.048341367 -0.051964756 0.023817118
000230 c2 37 1d 3d 7e 4c 2a bd 92 e3 92 bc 02 40 c6 3c
       0.038383253 -0.041576855 -0.01793078 0.024200443
000240 7e b1 4d 3d 1b 45 32 3d 04 25 f9 3c 37 24 62 3c
       0.050218098 0.043522935 0.030413158 0.01380258
000250 e3 f9 5f bd e0 53 08 3d c9 42 0e 3d e6 13 9e bc
       -0.05468167 0.033283114 0.03473166 -0.019296598
000260 39 af 76 3d 0f a1 45 bd 44 dd 8d 3d 06 66 5e bd
       0.0602257 -0.0482493 0.06926969 -0.054296516
000270 a0 c7 c1 3c 63 8f 87 3d ad 76 08 bd a0 98 b4 bc
       0.023654759 0.06619146 -0.033316303 -0.022045434
000280 38 12 08 3d bc bd 03 bd 83 da 31 bd dd db 71 3d
       0.0332205 -0.032163367 -0.04342128 0.05904757
000290 5e 04 8d bd 30 8f 43 3d 6a 8a 46 bb 03 2b 89 3d
       -0.068855986 0.047743976 -0.0030294904 0.06697657
0002a0 ce b8 4b bc 5d 57 d8 bc 5f 6f 4b 3c ae 18 75 3d
       -0.012434198 -0.026408846 0.01241669 0.05983799
0002b0 4f b3 aa 3c c9 6d 2f 3d b5 b5 82 3b 39 db 8b 3b
       0.020837454 0.04282931 0.0039889463 0.0042680767
0002c0 f4 2a 7f 3d ae 31 12 bd 5a 81 9b 3c 01 cc 09 3c
       0.062296823 -0.03569191 0.018982578 0.008410455
0002d0 fd 13 47 bd a2 d7 b9 bc be 6d 8c bd 0d b8 18 bd
       -0.048603047 -0.02268583 -0.06856869 -0.0372849
0002e0 12 3a e3 bb 38 46 54 3d fe d3 6e 3c 82 1a 6e 3d
       -0.0069344128 0.05182478 0.01457691 0.05813075
0002f0 43 c9 20 bd b4 ac a2 bb 97 48 28 bd 4c 11 f8 3c
       -0.039254438 -0.0049644355 -0.041084852 0.030281685
000300 e8 21 35 3d a7 d9 52 3d bf 0f 9c 3b 55 eb 7b 3d
       0.04422179 0.0514771 0.0047626193 0.061503727
000310 cd 2b 1d bd 66 3e 34 3d c3 be 6a 3d 03 e3 6b bd
       -0.03837185 0.04400482 0.05731083 -0.057589542
000320 ee 4d e6 bc 02 91 0f bd 5e 58 08 bd fc a8 ea 3c
       -0.028113332 -0.0350504 -0.0332874 0.028645031
000330 34 c1 ea 3c ef 6a b7 3b 3b 12 06 3d f8 56 bf bc
       0.02865658 0.0055974643 0.03273223 -0.0233569
000340 bb 1a 8f bd b8 95 8b bd 2a a4 6c bd a2 7f 89 3d
       -0.0698752 -0.06815666 -0.057773747 0.06713797
000350 0c bd ac bc a8 30 3b bd 1c c9 d9 bb ac 62 8e 3d
       -0.021086238 -0.0457007 -0.0066462886 0.06952414
000360 d9 1e 63 3a bf 2f 85 bd 28 3c 87 3d bb 8d 90 3d
       0.00086639595 -0.065032475 0.06603271 0.07058283
000370 ab 3f 49 bd 04 4a 2d 3d 55 9c 62 bd 69 0c 86 bd
       -0.049132984 0.042306915 -0.05532487 -0.06545336
000380 da e7 87 bd db 17 f8 3c 5b 76 5f bb cf ac 2e bd
       -0.06636019 0.030284813 -0.0034097645 -0.042645272
000390 40 22 2d 3d 4e 07 82 3d 0e 6e 84 bd aa 23 e4 3c
       0.04226899 0.063490495 -0.06466304 0.027849037
0003a0 23 09 86 3b 9d f5 80 bc 28 b4 4a 3d e4 16 50 bd
       0.0040904447 -0.015742118 0.049488217 -0.05080308
0003b0 d6 5e 48 3d f9 4d 7b bd 41 71 ad bc e1 fe 13 3d
       0.048918568 -0.061353657 -0.021172168 0.036131743
0003c0 36 b6 c5 bc 7a ee 54 bd ee 48 2c 3d c3 48 65 bd
       -0.024134737 -0.05198524 0.04206174 -0.055977594
0003d0 27 28 b1 3c 55 8a b3 3c 6f ea e2 bc 31 5d d5 bc
       0.021625591 0.021916548 -0.027699677 -0.026045414
0003e0 d6 b8 a3 3b c2 3a 50 3d 43 18 2f 3d 49 75 6b bc
       0.0049963994 0.050837286 0.042747747 -0.014371225
0003f0 61 9c cd bc fe e4 3f bd 18 68 2d 3d f0 60 2c 3d
       -0.025098981 -0.046849243 0.0423356 0.042084634

backbone.model.1.1.model.0.bias f4 [8]
000000 d1 c1 65 3c 09 fd 74 bd 17 8b 86 bd c8 a2 c9 3c
       0.01402326 -0.059811626 -0.06569498 0.024613753
000010 fa 7c f2 bb 80 b5 d2 ba f7 11 f3 bc d9 22 be bc
       -0.0074001523 -0.001607582 -0.029671652 -0.023209976

backbone.model.2.0.model.0.weight f4 [8, 8, 3, 3]
000000 94 ab 92 3d 55 2e 21 bc 3a 57 8c 3d c6 71 b2 bd
       0.07161632 -0.009837707 0.06852575 -0.08713107
000010 95 79 af 3d 49 73 cf bd b0 be 2f 3d d6 46 ad bd
       0.08568112 -0.10129411 0.042906463 -0.084607765
000020 2b fa 11 bd 95 34 c6 3d c8 0c d5 bd 83 15 dd 3d
       -0.03563897 0.09677998 -0.104028285 0.10795119
000030 ff 02 3e bc de cb 2d bb 0a 2e 0d 3d 27 1f 82 3d
       -0.011597394 -0.002651922 0.034467734 0.06353598
000040 ed 04 45 bd 79 ac c1 bc e1 98 b4 bc 6a 59 7f bd
       -0.0481004 -0.023641812 -0.022045555 -0.06234113
000050 7c 54 65 3d e5 ba ec bd 9e f7 c9 3c 6f df 8f 3d
       0.055988774 -0.11559085 0.024654206 0.070250385
000060 44 ed 12 bd 79 1f 0e bb 17 8e 22 3d 60 ab f5 bb
       -0.035870805 -0.002168624 0.03968629 -0.007497236
000070 ad 5d ad bc 99 9d df 3b aa 10 44 3d b4 a7 aa bd
       -0.021162832 0.006824207 0.047867455 -0.08332768
000080 6a cd c6 bd 09 32 df 3d de d7 95 3d d7 33 65 bd
       -0.097071484 0.10898215 0.07316564 -0.05595764
000090 17 2d ad 3c 4a 5b b7 3d 48 a1 35 bc 99 40 96 bd
       0.021139665 0.08952959 -0.011085816 -0.0733654
0000a0 ad 87 a7 3b d4 b4 ed bd 7d 64 6f 3d 07 2f 97 bd
       0.0051126094 -0.11606756 0.058445442 -0.07382017
0000b0 fb 4e 07 3c 21 b1 c2 3c 38 ae a2 3d 4a 34 a3 bd
       0.0082585765 0.023766102 0.07943386 -0.07968958
0000c0 4a ba ce bd a0 c9 18 bd 0f 12 be 3d b3 03 04 bb
       -0.100941256 -0.03730166 0.09280788 -0.0020143806
0000d0 bd c0 40 3c c5 07 b1 3b 61 6c 8b bd a4 73 7a 3d
       0.011764702 0.0054025375 -0.06807781 0.06114544
0000e0 01 32 23 3d ed f2 fd bb b9 7f 60 3d f1 4f ab bc
       0.03984261 -0.0077499063 0.054809306 -0.020912142
0000f0 ef 07 9d 3d 7a 29 a4 bd bd 2b 21 3d a1 a8 20 3b
       0.07667529 -0.080157235 0.039348353 0.0024514573
000100 0f cf 24 3d 72 58 6b bc 71 55 51 3d 86 69 a4 3d
       0.04023653 -0.014364349 0.051106874 0.080279395
000110 34 3e b1 3d f5 e2 9f 3d 76 d7 3b bd 94 e7 ec bc
       0.086544424 0.078069605 -0.045859776 -0.028919019
000120 3e 0c 85 3c 47 2f a9 bd 51 f1 21 bd c5 ad d4 bd
       0.01624119 -0.082609706 -0.039536778 -0.103847064
000130 30 6b 96 3d 13 3c d0 3d f3 4c 95 3d 33 36 c0 3d
       0.07344663 0.10167708 0.072900675 0.09385338
000140 f1 32 19 3d 16 35 0f bd 93 3c e9 bd 51 1e 3b 3d
       0.037402097 -0.034962736 -0.11388507 0.04568321
000150 27 95 3a bd 8f 0e a1 bd f0 7d 99 3d 6c 6d 9c bd
       -0.0455524 -0.07864105 0.07494724 -0.07638058
000160 28 d6 92 3d 42 08 ff bc 6c 1e 90 bd db 48 ca 3d
       0.07169753 -0.031131867 -0.070370525 0.09877177
000170 a5 6c 87 3d 32 f0 aa 3d f3 8e d9 3d 63 20 54 3c
       0.06612519 0.08346595 0.106229685 0.012947175
000180 d3 6d d8 3c 82 e2 4f 3d b5 a6 62 3d 56 03 16 bd
       0.026419556 0.050753124 0.055334765 -0.036624275
000190 28 8d 8c bc c9 79 92 3d f0 43 eb 3b 30 a4 b1 3d
       -0.017157152 0.07152135 0.0071797296 0.086738944
0001a0 f4 c3 40 bd 8d 92 7c 3d 57 3b 35 bd d8 97 81 3d
       -0.047061875 0.0616632 -0.044246044 0.0632779
0001b0 6e 8d a8 3d 72 a8 92 3d 40 2e aa bd 28 d0 ed 3c
       0.082301006 0.07161035 -0.08309603 0.02902992
0001c0 b7 da 11 3d 53 5e 27 bd 09 35 df 3c 8b ea 83 3d
       0.035608973 -0.04086144 0.027246969 0.0644122
0001d0 28 10 71 bc a2 13 83 bc 91 88 8b bd 8e c0 85 bc
       -0.014713325 -0.016000573 -0.06813157 -0.016327169
0001e0 d2 9f 1f bc 3f 27 c3 bc 81 ce 99 3c 57 c4 66 bd
       -0.009742694 -0.023822425 0.018775227 -0.056339588
0001f0 21 35 a0 3d eb 00 e8 3d b5 d9 ec bd 31 ab 50 bd
       0.078226335 0.113283 -0.11564962 -0.05094451
000200 2e 06 80 bd 93 1c b3 39 72 fc 71 bd 02 48 9a 3c
       -0.06251179 0.0003416283 -0.05907864 0.018833164
000210 75 cf d8 3d db 99 d8 bd 56 41 89 bd 30 f5 d0 bd
       0.10586444 -0.105762206 -0.06701915 -0.10203016
000220 e7 98 37 3d d6 19 48 3d 0c 6f 8f 3d 60 a4 88 bd
       0.044823553 0.048852764 0.070036024 -0.06671977
000230 5c 89 3e 3d 9a 8b ec 3d ff a5 c7 3d a5 2d b8 3d
       0.046517715 0.115500644 0.09748458 0.08993081
000240 d8 8e 81 3d 51 48 87 bd c6 67 e1 3d 57 13 18 bd
       0.063260734 -0.0660559 0.11006121 -0.03712782
000250 aa b7 40 3d 03 06 b6 3d 21 e7 4d bd af 64 ac bd
       0.047050156 0.088878654 -0.05026925 -0.08417641
000260 34 ba cf 39 6b 00 d7 bd bd 7b a5 3d 22 0a 83 3d
       0.0003962085 -0.104981266 0.08080242 0.06398417
000270 77 62 65 bd 17 18 21 bd b5 e2 3f 3b 94 5c 45 3d
       -0.056002107 -0.039329614 0.0029279415 0.048183993
000280 ec 71 67 bd b1 de 03 3d 4a 6c da 3d 05 2e 27 3d
       -0.05650513 0.032194797 0.10665186 0.040815372
000290 43 52 ed bc 16 44 5d 3c 8f fe 7a 3d c8 4f 0a 3c
       -0.02896989 0.0135050025 0.061277922 0.008441873
0002a0 23 96 a4 3b 7a d8 e4 3d 40 1c 16 bd f6 0b f9 bc
       0.0050227805 0.11174102 -0.036648035 -0.030401211
0002b0 c9 7c 09 bd 39 4d c0 bd 81 c1 d4 3d e0 32 c6 bd
       -0.03356627 -0.09389729 0.103884704 -0.096776724
0002c0 64 c0 99 bc 91 d9 99 bd 2c fc 8b bc 38 0b 71 bd
       -0.018768497 -0.075122006 -0.017088018 -0.05884859
0002d0 d3 f6 04 3d 68 cc 47 bd e2 ca b6 bd 8e ae 1a bd
       0.032461952 -0.04877892 -0.089254156 -0.037764125
0002e0 8f d4 e6 bb 16 58 9c 3d 8b 53 b1 3d be 63 11 bd
       -0.007044382 0.076339886 0.08658513 -0.035495512
0002f0 62 8a 6b 3d f2 01 3d 3d 71 09 9f bb f8 0b b5 bd
       0.05750502 0.046144433 -0.0048534204 -0.088401735
000300 63 38 47 bd a0 f7 cc bc c5 87 67 3d b2 18 e1 3d
       -0.04863776 -0.02502042 0.056525964 0.109910384
000310 7f 5b e5 3c 20 97 b7 bd a4 5a 87 bd 4d 3a 4d 3d
       0.02799773 -0.08964372 -0.06609085 0.050104428
000320 f8 e7 ab bd ce e7 ca bd 67 57 12 3c a1 63 0c 3d
       -0.08393854 -0.099074945 0.008931971 0.0342747
000330 03 26 60 bd 45 28 8c bd 3d 7e 90 bd 4a 41 d1 bc
       -0.05472375 -0.06843618 -0.07055328 -0.025543828
000340 fe 06 8f bc 31 d0 81 3d a2 2b 99 3d 5a e1 3f bd
       -0.017459389 0.063385375 0.074790254 -0.04684577
000350 9d 5a 9c bd 11 7c 19 3d 15 18 8d 3d 51 0d 99 bc
       -0.076344706 0.037471835 0.06889359 -0.018683108
000360 3d 60 f3 bc 8a 95 ae bc 67 40 0a bc 27 23 e7 bd
       -0.029708976 -0.02131154 -0.008438206 -0.11286002
000370 68 f7 7d 3d 94 49 77 3d dd c7 1a 3d 94 b1 70 bd
       0.062003523 0.060372904 0.03778826 -0.0587631
000380 e7 3e 7a bd 8f 39 a4 bd 05 9c 58 3d 7b 66 92 3d
       -0.061095145 -0.08018791 0.052883167 0.07148453
000390 1c df ca 3c 4f 02 10 bd dc ad 9c bd 83 98 b8 bd
       0.02476459 -0.03515845 -0.076503485 -0.09013464
0003a0 79 23 fa 3b 53 9e 4d bc 8f 97 4a bd 15 73 aa 3d
       0.007633623 -0.0125499545 -0.049460944 0.083227314
0003b0 54 32 0d 3d b0 ad c5 bd 4e e8 8d bd 66 a8 68 3d
       0.034471825 -0.09652269 -0.06929074 0.056801222
0003c0 31 0c f1 bd dd f3 04 bd 03 1f c3 bd 21 bb 47 3c
       -0.117699035 -0.03245913 -0.095273994 0.012190611
0003d0 ec d0 36 3d 09 6b 3b 3d 77 9c 59 bd 7f ef 46 bd
       0.044632837 0.045756374 -0.053127732 -0.048568245
0003e0 79 24 eb bd 30 3b f9 ba 1b cc 2f bc 75 9e 29 bd
       -0.11481566 -0.0019014832 -0.010729815 -0.041410882
0003f0 9d 52 42 3b 1f 02 80 3d 42 f1 b9 bd 41 d2 9d 3d
       0.0029651292 0.062504046 -0.090792194 0.077061184

backbone.model.2.0.model.0.bias f4 [8]
000000 0d 1a 68 bd e2 5d bf 3d 3f b0 3b 3d ce 85 3c bc
       -0.05666547 0.093440786 0.04582238 -0.011506511
000010 e6 e4 5f bb d1 87 cd 3a b9 5f d3 bd a3 8b ad 3b
       -0.0034163534 0.0015680735 -0.10320992 0.005296187

backbone.model.2.1.model.0.weight f4 [8, 8, 3, 3]
000000 51 dc 81 bd d8 30 32 3d 79 ee a0 bd 9b 4b 53 3d
       -0.0634085 0.043503612 -0.07857985 0.051585775
000010 2b 4d 61 3d de 9d bf 3d fa 4f e6 bd 4a 4d 5b bd
       0.055005234 0.09356283 -0.11245723 -0.053540505
000020 82 fe 8b 3d ba e6 13 3d c9 4b c6 3c bb 16 9c bd
       0.06835653 0.03610871 0.024206059 -0.07621523
000030 9f 28 d4 bd 41 ad bb 3d ed 0d 7c 3d 50 a8 07 bc
       -0.1035931 0.09163905 0.06153672 -0.008279875
000040 1a 95 31 bd 2f 4b ed bd f2 8c a4 bb 7d 43 05 3c
       -0.043355085 -0.11586606 -0.005021685 0.008133766
000050 36 8d b6 bd 67 22 a2 3c e8 89 87 3d 82 1d b8 bd
       -0.089136526 0.019791795 0.066181004 -0.08990003
000060 e5 b5 e1 3d ff 58 3e bd 88 e4 05 bb 99 80 0e 3d
       0.11021022 -0.046471592 -0.0020430405 0.03479061
000070 90 2f 24 bd 2b 50 c3 3c 28 4f d7 3d 3a 2b ee 3c
       -0.04008442 0.023841938 0.10513145 0.029073346
000080 6a 85 3e bd 49 a6 d7 bd e2 95 a9 3c d9 5c 3a bd
       -0.046513952 -0.10529763 0.020701353 -0.045498703
000090 7d 37 bd 3d 07 67 cc bd 4a 83 6d bd f3 c5 5a 3d
       0.09239099 -0.099805884 -0.057986535 0.053411435
0000a0 df 3f 2c 3d 61 02 96 3c 70 b1 f3 3c da b3 64 bc
       0.0420531 0.018311681 0.029747695 -0.013958896
0000b0 4a 56 c0 bd 89 23 8d bd 3c a8 ed 3d 0f b8 44 3d
       -0.09391458 -0.068915434 0.11604354 0.048027094
0000c0 fa 97 e2 3d 92 f3 bf bd e7 a0 76 3d 3e a8 24 bd
       0.110641435 -0.09372629 0.060212042 -0.04019951
0000d0 4c 3b 3d 3c e4 9f 09 3c 5e 4d 83 3d 45 85 78 bd
       0.011549782 0.008399937 0.06411241 -0.06067397
0000e0 58 9a 1b bd a0 ac 89 bd 1d 2f 8d 3d 19 5b a7 bc
       -0.03798899 -0.06722379 0.06893752 -0.020429181
0000f0 f5 bc a9 3d 61 59 f1 3d 48 74 d0 3d 96 ba c1 bd
       0.08287994 0.11784626 0.10178429 -0.094594166
000100 53 8a 7f bd 4b 7c 94 3d 42 48 8c 3d 78 f2 d0 3d
       -0.062387776 0.072502695 0.068497196 0.10202497
000110 dc 8e 96 bb 16 6d ca 3d 33 3c 76 bd c1 f6 ee 3b
       -0.004594667 0.09884088 -0.060116004 0.007292599
000120 78 8a 39 3d 81 a2 e9 3d 73 2b 98 3d a9 12 ba 3d
       0.04529807 0.11407948 0.07430162 0.090855904
000130 c2 a9 dc 3c a2 68 a5 bd 14 f3 90 39 12 bc c1 3d
       0.026936416 -0.08076598 0.00027646928 0.094597
000140 8e fd 33 3d e4 5c 7e 3d 03 4a 51 3d 9b 7c 4e bd
       0.04394298 0.062100306 0.051095974 -0.0504118
000150 03 1f 59 3d 30 c1 e5 bd 58 57 7b bd a8 c8 d7 3d
       0.05300809 -0.11218488 -0.061362594 0.10536319
000160 2c 5c 2d 3d 2a 45 d8 3b e1 b3 f0 bd fc 23 47 3d
       0.04232423 0.006600042 -0.11753059 0.0486183
000170 4a 58 e4 bd e5 4d dc 3c 60 45 87 3d 1b 4c 52 bc
       -0.11149652 0.026892612 0.06605029 -0.012835528
000180 d8 58 65 bc 4b 58 0f bd ed 77 dd 3d 96 9a ea 3c
       -0.013998233 -0.034996312 0.1081389 0.028638165
000190 48 30 92 bd 7b 9a b8 bd b0 8d 5f bd ab 27 71 3c
       -0.07138115 -0.0901384 -0.054578483 0.01471893
0001a0 f3 4c ae 3d 9b c8 15 bd 9d ea 96 3d 1d 62 e3 bd
       0.08510771 -0.036568265 0.07368968 -0.11102698
0001b0 e8 b3 81 3d 1a 7b 31 bd 77 40 57 3d f1 e5 aa bd
       0.063331425 -0.04333029 0.052551713 -0.08344639
0001c0 a9 4d eb bd f1 5d 66 bd 1f 2b 75 bd bf 4e ec 3d
       -0.11489422 -0.056241933 -0.059855577 0.11538457
0001d0 ca 68 a3 bc 1d a4 aa bb 77 42 bd bd 26 25 cb 3d
       -0.019947428 -0.005207552 -0.09241193 0.09919195
0001e0 06 37 f4 3c fc 7e ae 3d 22 09 19 3c 30 d7 b1 bb
       0.029811393 0.08520314 0.009340556 -0.0054272637
0001f0 ed 0f db bd 1d 42 2d bd 96 60 8f bc e1 0d 44 bd
       -0.10696397 -0.04229938 -0.01750211 -0.0478648
000200 3c 8a 4f bd d3 26 e9 3c ef 22 22 3b 52 5f ea bd
       -0.05066894 0.028460896 0.002474006 -0.11443962
000210 c3 b9 4a 3d b6 5b f1 3d f9 59 a3 bc 7b 69 d2 3d
       0.049493562 0.117850706 -0.019940363 0.10274025
000220 60 d3 cd 3d fc 40 6e bd b7 7b 12 bd 26 d9 81 bc
       0.10050082 -0.058167443 -0.035762515 -0.015850615
000230 63 6d 62 3d 40 9a 0a bd db 0f e0 bd 73 32 9a bd
       0.0552801 -0.03383851 -0.10940524 -0.07529154
000240 08 ed 28 3d 13 fb 24 3d 67 35 b8 bd 09 b1 a4 bd
       0.041241676 0.040278506 -0.08994561 -0.08041579
000250 53 4c a0 3c 69 92 c8 3c 32 9d f2 3b a0 65 95 bd
       0.019567644 0.024483876 0.007403993 -0.07294774
000260 47 65 04 3c 60 21 ea 3c d7 d4 8b bd 36 09 e4 bd
       0.008080787 0.028580368 -0.06827705 -0.11134569
000270 f1 5c a1 3c 7f 33 f1 3d e8 b1 c4 bd 1f 13 bb 3d
       0.019697638 0.117774 -0.096042454 0.091345064
000280 8e 0b 5a bd d8 b4 35 3d c0 b2 e5 3d 16 4f e3 3d
       -0.053233676 0.04436192 0.112157345 0.11099069
000290 4c c1 e8 3c ba f5 54 bd 0b be f0 3c 83 ff 25 bd
       0.028412484 -0.051992156 0.029387495 -0.040526878
0002a0 0c ce 11 3b d8 e1 90 bd ab d4 a0 3d 71 16 98 3d
       0.0022248058 -0.07074326 0.07853063 0.07426155
0002b0 cb c3 cd 3d 78 80 ff bc 4e 66 a4 3d 30 2f a2 bb
       0.1004711 -0.031189188 0.080273256 -0.004949473
0002c0 55 07 a5 3c d7 b1 89 bd 84 9b f1 bc 8d a8 40 3d
       0.020145098 -0.067233734 -0.029493101 0.047035743
0002d0 09 73 c6 bd 00 96 7d 3d 64 f3 8a 3c 8c ec b7 bd
       -0.0968991 0.06191063 0.01696176 -0.089806646
0002e0 1d a8 2d 3d c9 84 6a bd 49 18 00 3d 1f c9 d1 bd
       0.042396653 -0.05725554 0.03127316 -0.10243439
0002f0 fa d2 ca bd 14 0a 7c ba 8f 3c 18 3d c7 8a 80 3c
       -0.09903522 -0.0009614539 0.03716713 0.015691174
000300 6c 4f b0 bc 8c 1d 79 3d a9 4d a6 3d 3a ba 38 3d
       -0.021522246 0.060819194 0.08120281 0.045099474
000310 4f 9d 00 bc 72 a1 68 3d bb 23 e9 3c 3b b3 aa 3d
       -0.007850005 0.05679459 0.02845942 0.08334967
000320 fd fb 16 3d b9 22 b9 bd b4 56 e2 bd 6a b8 9c bd
       0.03686141 -0.09039826 -0.110516936 -0.07652362
000330 72 93 83 3c 65 7c c4 3d 97 51 39 bd af 47 74 bd
       0.016061518 0.09594039 -0.045243826 -0.059638675
000340 d7 31 a5 bd bf cc d2 bd 47 e0 b4 bd 2f fc f2 3c
       -0.08066147 -0.102929585 -0.0883184 0.029661266
000350 ed e4 27 bd 29 65 d8 3c 4c 21 a9 bd 4e fc 8e 3d
       -0.040989805 0.026415424 -0.08258304 0.06981717
000360 18 be 9c bd 17 05 96 bc 32 46 f4 3c 26 4b 9e bd
       -0.07653445 -0.018312974 0.029818628 -0.07729177
000370 54 cc ef 3d 10 dc d6 3d f9 e5 a8 3d 13 77 e6 3d
       0.11708894 0.10491192 0.08246989 0.1125318
000380 e1 52 d0 3c 6a aa a7 3d 12 b0 ed 3d b5 0c 77 3d
       0.025430145 0.08186801 0.11605848 0.060314853
000390 86 a7 9b bd 8a 2a 25 3d 18 ff b4 bd 5e ae bc bd
       -0.07600312 0.04032377 -0.08837718 -0.092129454
0003a0 78 b7 ef bd 13 2d eb bd 00 db 06 3d f1 b9 7b bd
       -0.11704916 -0.114832066 0.0329237 -0.061456624
0003b0 8a 74 49 3c cc 45 12 bd f5 14 85 bd 46 55 9d 3b
       0.0122958515 -0.035711095 -0.06498138 0.004801425
0003c0 a6 c8 2a 3b 08 06 e9 3c 05 ad 65 bd 29 d4 18 bc
       0.0026059537 0.028445259 -0.056073207 -0.009327927
0003d0 80 85 61 3c b6 c3 9b bd 7b be a6 3d 6d ab 56 3d
       0.013764739 -0.07605688 0.081418 0.052409578
0003e0 4d fa db 3d 9f 20 c5 bd 9b bb 27 bd b2 f0 95 3d
       0.107411005 -0.096253626 -0.0409504 0.073212996
0003f0 b7 5d 5b 3b ae 07 cb bc 71 76 99 bd de cb 4a 3d
       0.0033472606 -0.024783935 -0.07493294 0.04951083

backbone.model.2.1.model.0.bias f4 [8]
000000 1b f3 9d bd 28 45 8e 3d d3 b0 89 3d ca ef 9f 3c
       -0.07712384 0.06946784 0.0672318 0.01952352
000010 6a 07 1e bd 26 bf 96 3b c0 bf 8c 3d cb ad a5 3d
       -0.03858129 0.0046004234 0.06872511 0.08089789

backbone.model.3.0.model.0.weight f4 [16, 8, 3, 3]
000000 bc 65 a7 bd 26 0a 73 3d 62 d7 2c 3d 86 dc e9 3c
       -0.08173701 0.05933585 0.042197593 0.028547537
000010 bf 45 1c bc f5 52 c9 bd af 27 8a 3d 4d e0 ec bd
       -0.009538113 -0.09830276 0.0674585 -0.115662195
000020 e8 85 8a bd 89 49 41 3d 7c 41 3e bd c8 e0 81 bc
       -0.06763822 0.04718927 -0.04644917 -0.015854254
000030 2f 42 09 3d d4 5f 12 3d d4 23 c6 3d 18 6e 23 ba
       0.033510383 0.03573592 0.096748024 -0.0006234362
000040 51 2c 80 3d 07 18 a0 bc 5d 5f da 3d 26 aa df 3c
       0.06258453 -0.019542707 0.1066272 0.027302813
000050 28 59 44 3b 90 6a dd bc 0c fd 2a 3d a7 22 14 3d
       0.0029960368 -0.027028352 0.04174523 0.03616586
000060 cf 00 f0 3d 9f 5b 0e bd b7 f4 89 bd 62 92 ba bd
       0.11718904 -0.034755345 -0.06736129 -0.091099516
000070 f4 8a 8e 3a 5e 89 d6 bd b0 c5 e5 3d 78 41 13 3d
       0.0010875151 -0.104754195 0.112193465 0.035951108
000080 77 2e 2e bd 97 1a 8e 3d d5 f1 b5 3b 1b 93 34 bc
       -0.04252478 0.06938665 0.0055525103 -0.011021401
000090 c1 55 dc bd a7 4b 53 3d bc c6 71 bd ef 77 23 bd
       -0.10758544 0.05158582 -0.05902742 -0.0399093
0000a0 07 fb d2 bd 15 43 2b 3d a2 c0 e4 bd 2b 15 83 3c
       -0.10301786 0.04181202 -0.11169554 0.016001305
0000b0 db 91 7a bd 63 89 ce bd ef d0 8b bd e3 ff 36 3c
       -0.061174255 -0.10084798 -0.0682696 0.011169407
0000c0 60 02 0c bd d1 0f 08 bd 27 37 fa bb d9 38 49 bd
       -0.034181952 -0.03321821 -0.007635969 -0.04912648
0000d0 04 a8 1a 3d 66 0f 6f 3d 22 69 9e 3d 31 e3 a9 3d
       0.03775789 0.058364294 0.07734896 0.082952864
0000e0 49 71 5e 3d e1 0c 98 bd 7f f4 e2 3d 5b 91 d8 bd
       0.054307256 -0.074243315 0.1108179 -0.10574599
0000f0 eb 28 ce bd 18 de b9 3d 0d ca b9 3d 82 63 8a bd
       -0.10066398 0.09075564 0.09071741 -0.06757261
000100 0e e0 95 3c 24 ec cc 3d 20 87 a7 bd 13 69 4e bd
       0.018295314 0.10005978 -0.0818007 -0.050393175
000110 79 3e c9 bc e1 d5 d9 bd f2 5a c3 3d 94 27 4f 3d
       -0.024565922 -0.10636497 0.09538831 0.050574854
000120 f9 f4 da 3c 1f 04 25 bd 21 ee e0 3d be 00 b4 3d
       0.02672814 -0.040287133 0.109829195 0.08789204
000130 7d 71 17 bb 92 9d ea bd 76 87 aa 3d 16 14 f6 3c
       -0.0023108416 -0.114558354 0.083266184 0.030038875
000140 49 e6 a8 3b d7 69 09 3d 6d b0 d6 3d e0 e4 bd bd
       0.0051544053 0.033548202 0.10482869 -0.0927217
000150 d7 6c d0 bd 45 4f 7b bd 52 08 3a bd db 6b a6 3d
       -0.101770096 -0.061354894 -0.04541809 0.081260405
000160 f8 bc bc 3d 21 f2 d2 bd 7b 41 83 3c 54 55 f1 3d
       0.092157304 -0.10300089 0.016022434 0.11783853
000170 e1 0d a0 bd 9a 87 80 3d 3c aa 49 bd bc 72 e9 bd
       -0.07815147 0.06275864 -0.049234614 -0.11398837
000180 84 0b 5d 3c 9d 8f eb bd 6e 2d eb bc 27 f3 8a 3c
       0.013491515 -0.115020014 -0.028708186 0.016961647
000190 b8 11 c1 bd 61 58 4c 3d 63 43 b8 3c a9 7c 7c 3d
       -0.09427208 0.049888972 0.02249307 0.061642323
0001a0 c8 ba c3 3d c4 b4 a2 bd 3e 81 c5 bd 50 2a d3 bd
       0.0955711 -0.079446346 -0.096437916 -0.10310805
0001b0 74 d3 98 3d ac ed b9 bd a2 64 df 3d 02 df 9a 3c
       0.074622065 -0.090785354 0.10907866 0.018905167
0001c0 4c 22 86 3d 72 a2 cb bc 9a 6f 3b 3d 8f 86 a7 3d
       0.0654951 -0.024857733 0.04576073 0.08179962
0001d0 ef 1f 40 3d 65 f1 23 3d 13 be 1e bd 1b 75 1b 3d
       0.046905454 0.040025134 -0.038755488 0.037953477
0001e0 31 16 38 3c f8 f3 27 bd e7 ed cf 3d cf af 53 bd
       0.01123576 -0.04100415 0.10152798 -0.051681336
0001f0 5b 5a bc bd 6a 03 9e 3d 90 fe 9a 3c 41 98 da 3c
       -0.091969214 0.07715495 0.018920213 0.026683928
000200 5a 12 f8 bc e2 0a 91 3c 4b 9a 11 bd 27 d6 ac 3d
       -0.030282188 0.017705385 -0.035547536 0.08439284
000210 20 0a e1 3d 39 c1 1b 3d 53 d1 f6 3c 01 32 84 bd
       0.10988259 0.03802607 0.03012911 -0.0645485
000220 03 a8 65 bd fc 66 65 3d 63 a5 91 bb ca f0 59 3d
       -0.05606843 0.056006417 -0.0044447645 0.05320815
000230 00 45 a6 3a 54 04 94 bd 84 79 e4 3a be 75 0f 3d
       0.0012685359 -0.07227388 0.0017431234 0.035024397
000240 ab 2a a6 3d 8c d3 a9 bc 4a 18 25 bd 3d 5d be bd
       0.08113607 -0.020730756 -0.040306367 -0.092951275
000250 b2 ef b5 3d b6 3b e8 bc 93 80 20 bd d5 8d 9f bd
       0.08883609 -0.028348785 -0.039185118 -0.07790724
000260 75 84 2b bd 50 e0 83 3d 9b 39 aa 3d 30 00 e7 bd
       -0.041874368 0.064392686 0.083117686 -0.11279333
000270 fa fe c5 3d c4 2e ff bb f2 e0 5d 3c 2b d0 84 3b
       0.096677735 -0.0077875573 0.013542401 0.004053136
000280 b4 1f d4 3d 14 27 63 3d 89 36 de 3d 92 58 a2 3d
       0.103576094 0.05545719 0.108502455 0.0792705
000290 34 ba eb bc 15 82 eb bd 60 1d fb bc 11 57 dd bd
       -0.028775312 -0.114994206 -0.030653656 -0.10807622
0002a0 a8 30 b8 bd 37 70 d6 bd cb 9f 36 3d 0c f1 89 3d
       -0.089936554 -0.10470622 0.044585984 0.06735429
0002b0 6a c8 62 3d da 13 08 3d 3a 39 d8 3d 37 e8 0d 3d
       0.05536691 0.033222057 0.1055779 0.034645285
0002c0 5f 53 b5 3d e7 01 e6 bd cc 49 ca 3d 52 9a 9d bd
       0.088537924 -0.112308316 0.09877357 -0.0769545
0002d0 50 9e 1e bb 9f d9 f1 bc b4 91 9e 3b fc b7 1b bd
       -0.0024203248 -0.029522715 0.0048391465 -0.038017258
0002e0 cd 5c 84 3d 9c f3 ba bc 15 fa d2 3c 85 51 d9 bd
       0.06463013 -0.02282124 0.025754014 -0.10611252
0002f0 02 36 05 bd ac 8c 8c 3d 90 22 ed 3c d5 95 1f bd
       -0.03252221 0.068627685 0.028947145 -0.03896125
000300 b9 62 cd 3c db 3f d9 3d b7 d8 21 3d 4c 35 79 bb
       0.025071489 0.106078826 0.039513316 -0.0038026152
000310 5a 56 d5 3d be 85 cc 3d c6 1d 96 bd 67 9d 48 bc
       0.10416861 0.09986447 -0.073298976 -0.012244559
000320 e7 98 b7 bd 92 58 22 3d 29 c7 7e bd da b3 d5 3c
       -0.08964711 0.03963525 -0.062201653 0.026086736
000330 ce 30 e6 3c f7 ed 7f 3d 56 8a 8b bd ff 99 cb bd
       0.028099444 0.0624828 -0.06813495 -0.09941482
000340 10 0f 7d 3c 9d 86 6c bd 05 ea bd bd 11 06 de 3c
       0.015445486 -0.057745565 -0.09273151 0.027102502
000350 f1 98 d8 bd da bd ed bd f8 f9 9c bd 95 b0 1e 3c
       -0.10576046 -0.11608477 -0.07664865 0.009685655
000360 e6 c7 c0 3d 1b 7c ab 3c 29 78 33 bd ef 5d 29 bd
       0.094131276 0.020933202 -0.043815766 -0.041349348
000370 2d 80 bb 3b b8 05 ed bd 99 22 b8 3c fd bc 8f 3d
       0.005722067 -0.115733564 0.022477435 0.070184685
000380 2a 0a a7 3c 11 5b 03 bd 24 89 9b bd 7a 05 ea bc
       0.020390589 -0.03206927 -0.07594517 -0.028567065
000390 76 50 cf 3c 46 58 9a bd ff 18 c1 3d 63 bb 9b bd
       0.025306921 -0.07536368 0.09428596 -0.076041006
0003a0 0f e0 4d bd 0e 97 ad 3d 45 e1 d6 bd c7 ca 18 bd
       -0.050262507 0.08476077 -0.104921855 -0.03730276
0003b0 bd d1 32 bc 7a 8c c2 3d 93 c7 e2 3d d6 c4 b3 3c
       -0.010914263 0.0949945 0.11073222 0.021944445
0003c0 25 9d d7 bd 47 a3 01 3d 5a 18 c9 3c 2b ac 67 bd
       -0.1052802 0.031649854 0.024547745 -0.056560677
0003d0 06 08 81 bc f9 27 cc 3d 7b fb dc 3d a6 22 c3 bc
       -0.015750896 0.09968562 0.107901536 -0.023820233
0003e0 23 a6 e4 bd d1 98 ca 3d 79 9a 9f 3d a3 89 93 3b
       -0.111645006 0.09892429 0.07793135 0.0045024916
0003f0 2e 19 3d 3c 6e b5 41 3d 76 30 78 bd cc a8 06 bd
       0.011541648 0.047292165 -0.06059309 -0.03287582

backbone.model.3.0.model.0.bias f4 [16]
000000 85 3f 88 bd ff fb 86 3d 3e 95 2f 3c 84 2a 95 bd
       -0.066527404 0.06591033 0.010716734 -0.072835
000010 98 91 18 3d c5 c0 97 bb d2 b2 e8 3d e9 ae ad 3d
       0.037248224 -0.004631134 0.11362232 0.08480627
000020 eb 31 8a 3d 8c db 94 bd fb 5d 99 bb 59 03 25 bd
       0.06747802 -0.07268438 -0.004680393 -0.040286396
000030 ce 09 b6 3d d1 30 d0 3d 19 ca e0 bd 0c 1d 46 3d
       0.08888589 0.10165561 -0.10976047 0.048367545
