software/logs/hyper_parameter_tuning/custom_model_hp/version_9/checkpoints/epoch=0-step=20.ckpt (torch, 195567 bytes, 54 tensors)

backbone.model.0.0.model.0.weight f4 [4, 2, 5, 5]
000000 8a 37 f3 bd 65 2f 96 3d 77 79 8c 3d da ae 0c 3e
       -0.118758276 0.073332585 0.06859105 0.13738576
000010 b8 c5 0a 3d f4 41 0e be 99 4f 11 bd 74 67 a9 3d
       0.033879966 -0.13892347 -0.0354763 0.08271685
000020 cf fc d6 bd 5b 00 4d bd e9 fa b4 3c 27 b5 0e bd
       -0.10497438 -0.050049167 0.0220923 -0.03484073
000030 fa 3d 10 be 20 94 0e be a0 72 8b bd d1 66 b5 bc
       -0.14086142 -0.13923693 -0.06808972 -0.022143753
000040 ba ee 9a bd 22 1c d8 3d 0b 95 e1 bd 77 56 8a 3d
       -0.07565065 0.10552241 -0.11014756 0.06754773
000050 49 ed 0b be cc f6 ad bd 82 bd 80 3c cc c2 90 3c
       -0.13664736 -0.084943384 0.015715364 0.017671011
000060 6d a5 23 bd 3a e7 75 3d 0f a8 9c bd 08 28 15 3d
       -0.039952684 0.060034968 -0.07649242 0.03641513
000070 d5 9c 93 3d d9 a7 30 3d c4 6c bc 3d 18 35 71 3a
       0.07207648 0.043128822 0.09200433 0.0009201332
000080 5b d9 38 bc cc 02 df 3d 38 d8 7e 3b f1 3b 9c 3c
       -0.01128229 0.10889205 0.00388862 0.019071551
000090 36 01 cc bd d6 ec 01 be 6c 00 30 bd 33 7d dd bd
       -0.099611685 -0.12688002 -0.042969152 -0.108148955
0000a0 22 49 ef 3d fe 20 92 bd 62 c7 d1 3d 10 6d 0b 3e
       0.11683871 -0.07135199 0.102431074 0.13615823
0000b0 bd 45 02 be d5 2d a8 bd b7 15 c7 3b 26 3d 98 bc
       -0.12721916 -0.08211867 0.0060755867 -0.018583845
0000c0 01 57 fe bd f8 1a 17 3d 40 4f b7 3d 11 f2 c5 bd
       -0.124189384 0.036890954 0.089506626 -0.09665311
0000d0 1e 07 81 3d 11 89 b7 bd c8 9a 74 3d 8d 39 d6 bd
       0.063001856 -0.0896169 0.059717923 -0.10460196
0000e0 68 0b e8 bd 04 40 d4 bd c6 b6 07 bd f8 b2 f7 3d
       -0.113303006 -0.103637725 -0.03313329 0.120946825
0000f0 18 eb 0b be 60 39 6d bc 3b e5 fe bd 87 ee b3 3d
       -0.136639 -0.014479011 -0.12446066 0.0878573
000100 74 d5 02 3e ab 8b 7d 3c 03 d3 04 3e 96 1d 41 3c
       0.12776738 0.015475194 0.1297112 0.011786839
000110 47 a3 dd bd a7 15 de bc 2e 32 cd bd c5 c7 b2 bb
       -0.10822158 -0.027109934 -0.10019337 -0.0054559433
000120 d4 15 69 3d 21 2f 80 3c 1c 7c d6 3d 57 e0 8b bd
       0.056905583 0.015647473 0.10472891 -0.06829899
000130 b7 d3 d9 3b 4c 59 1b 3d 09 72 3d 3d 3f 26 43 bd
       0.006647553 0.037926957 0.04625133 -0.047643896
000140 42 f0 da bb 8f 92 34 bd da 42 95 bc 30 c7 11 bc
       -0.006681473 -0.04408508 -0.018220354 -0.008897588
000150 db b1 ed 3d fa f9 32 3b 39 3f 4e 3d 20 0a a6 3d
       0.11606189 0.0027309642 0.050353263 0.081074
000160 e6 40 c0 bd eb 90 85 3d fd 37 b5 bd 0f 96 4c bd
       -0.093873784 0.065217815 -0.088485695 -0.049947795
000170 f4 2b 03 3e fe 94 fc 3c 97 e5 ee 3d 47 fa da bd
       0.12809736 0.030832764 0.116648845 -0.10692268
000180 ab 6d 3d 3c 7a 9a ec bd 93 96 34 bd f3 69 a4 3d
       0.011561791 -0.115529016 -0.04408891 0.08028021
000190 c5 c5 8d bd 8d bf ca 3d df 9f 03 3e e1 9a 10 3d
       -0.06922487 0.09899817 0.12853955 0.035303954
0001a0 ac de 33 bd 4a 9f 72 3d 06 45 c0 3d f3 b8 12 bb
       -0.04391353 0.05923394 0.09388165 -0.002238807
0001b0 30 f7 21 3c 30 29 8f 3d 41 ee d4 3d f6 e8 3e bb
       0.009885594 0.06990278 0.10397006 -0.0029130555
0001c0 ff 3b fa bd 21 8c e4 3d 93 7b 26 bd 76 a7 09 3e
       -0.122184746 0.1115954 -0.040645193 0.13442788
0001d0 f0 d8 e7 3d 81 66 45 3d 6b 6b 5b 3d 90 ba 4a bd
       0.113206744 0.04819346 0.05356924 -0.049494326
0001e0 e5 46 d0 bd 9a 34 9e bd 15 da bf 3b fc a1 09 be
       -0.10169772 -0.07724877 0.005854855 -0.13440698
0001f0 f5 22 c5 bc 60 e3 6a bc 14 74 85 3d 22 eb f6 3d
       -0.02406452 -0.014336437 0.06516281 0.12056567
000200 de 5b a6 3d 35 69 45 3b 0a 5f 73 3d 10 de 60 3c
       0.08122991 0.0030122523 0.05941681 0.013724819
000210 32 39 f1 bc 6b 73 f8 3d d2 df 2a bd bc af 6c 3d
       -0.029446218 0.12131389 -0.041717358 0.05778478
000220 05 a5 f0 bc aa 68 b6 bc da 11 46 3d 3c d1 18 bd
       -0.029375562 -0.022266705 0.04835687 -0.037308916
000230 53 6d be bd d1 28 4f bd 55 04 d6 3c 2b 78 48 bd
       -0.09298196 -0.050576035 0.026125113 -0.048942726
000240 d0 2a 84 bc 78 8d 07 3e 17 f2 89 3d 18 e5 ee bd
       -0.016133696 0.1323756 0.06735628 -0.1166479
000250 05 4f cf 3d 32 7b a1 bd 63 4e b2 3d 4a c3 75 3d
       0.10122494 -0.07884826 0.08706357 0.060000695
000260 e9 96 85 bd d2 51 ba bc ce d3 e5 3d 82 94 c4 3d
       -0.065229245 -0.022744093 0.11222039 0.09598638
000270 24 ea 7b 3d 6a d2 e8 bd 6c 38 e9 bc 93 73 9a 3b
       0.06150259 -0.11368258 -0.028469287 0.0047134846
000280 0a f2 fc 3d 29 71 06 3e b2 fa cd bd e9 b7 6d bd
       0.12350853 0.13129105 -0.10057582 -0.05803672
000290 04 eb c1 bd 33 d6 8f 3d e5 a4 f1 bd 95 87 c1 3b
       -0.09468654 0.07023277 -0.11799029 0.005906055
0002a0 f1 28 fb bb 90 56 87 3d bc c0 d5 bd 60 49 c8 bc
       -0.0076647927 0.06608307 -0.10437152 -0.02444905
0002b0 50 fb 1b bd a7 bc b0 3c c3 04 2f bc a1 95 a8 bd
       -0.038081467 0.021574331 -0.010682288 -0.082316644
0002c0 52 68 05 be 50 ec 01 3e de 30 0e 3d 80 30 41 3d
       -0.13028076 0.12687802 0.034714572 0.047165394
0002d0 82 dc 9b 3d c2 8c ee 3d e5 cf 49 bd 72 de b9 3d
       0.07610418 0.11647941 -0.04927053 0.09075631
0002e0 7f 44 eb bd a5 32 25 b9 3e 96 ae bc eb 4e d4 3d
       -0.11487674 -0.00015754493 -0.021311875 0.10366615
0002f0 14 22 69 3d 88 e5 fc bd 94 a4 65 bb 92 b9 ba bd
       0.056917265 -0.12348467 -0.0035040723 -0.09117426
000300 63 25 5a 3d 43 f4 03 bc 30 ea 3f bd 9f 22 07 3e
       0.05325831 -0.008053842 -0.046854198 0.131968
000310 e9 b3 ea bd 9a cf 91 3d c4 c2 13 3d 99 08 8f bd
       -0.114600964 0.07119675 0.036074415 -0.06984062

backbone.model.0.0.model.0.bias f4 [4]
000000 f9 3c 6a 3d df 44 23 3c 03 09 c6 bb ca a2 f2 bd
       0.057187054 0.009965151 -0.0060435547 -0.11847456

backbone.model.0.1.model.0.weight f4 [4, 4, 5, 5]
000000 5f c6 bf 3d 6d 8a 22 bd dd f4 6a 3d 0f 06 c9 3d
       0.09364008 -0.039682794 0.057362426 0.09815609
000010 95 02 cc bd c0 cb 62 bd c7 f6 a5 bc 53 6a bd bc
       -0.0996143 -0.055370092 -0.020259274 -0.023121988
000020 77 06 78 3d 75 89 9d bd 88 d8 a9 3d 20 2a 7d bd
       0.06055304 -0.076922335 0.08293253 -0.06180775
000030 cd fb 5f 3d 50 76 b4 3d 00 90 f2 3a cf 15 bd bd
       0.054683495 0.08811629 0.001850605 -0.09232675
000040 48 82 c3 3d 47 80 1f 3d 33 89 02 bd 00 a7 e3 3c
       0.095463336 0.038940694 -0.031869125 0.027789593
000050 80 87 c4 3b 80 cf 01 bc 87 ce 7f bd 1a 0c 80 3c
       0.005997598 -0.007923007 -0.06245282 0.01563077
000060 87 01 0d 3d 73 26 a2 3c 5a 9b 9d bc cd 51 3b bd
       0.034425285 0.019793725 -0.019239116 -0.04573231
000070 5a 41 f0 bc aa 92 0a 3d a0 97 9a 3c 47 c6 8e bd
       -0.029328037 0.033831276 0.018871129 -0.06971412
000080 33 2d 32 3c 00 3e 3a 3b 87 4b bf bc 80 a1 c2 bb
       0.010875034 0.0028418303 -0.023351444 -0.0059396625
000090 3d a3 ca 3d 1a ea 18 bd 9a 7d c0 bd 73 c6 c1 3d
       0.098944165 -0.03733263 -0.093989566 0.09461679
0000a0 75 cd 9d bd 7a 92 d7 bc 3b ce 96 bd 7a 69 03 3d
       -0.077052034 -0.026314963 -0.07363554 0.032083012
0000b0 13 07 4e 3d 80 a0 84 3d cd 70 24 3a fa 9c cc bc
       0.050299715 0.064759254 0.0006272912 -0.024977196
0000c0 93 89 f2 3c 67 96 0c bc ad a3 e0 3c a0 60 17 bd
       0.029606616 -0.008580781 0.027421797 -0.036957383
0000d0 d0 de 93 3d 7f 4f a9 bd 08 37 97 3d 8d 38 09 3c
       0.072202325 -0.08267116 0.07383543 0.008375299
0000e0 78 75 9a 3d 73 ae 02 bd 23 d6 94 3d f3 bd 72 bc
       0.07541937 -0.03190465 0.07267406 -0.014815795
0000f0 cd 55 ac 3d 40 15 4e bc 08 b3 80 bd 7b 04 b5 bd
       0.08414803 -0.012578309 -0.062841475 -0.08838745
000100 05 39 93 bd 4d 4c 93 3c 87 4b 93 bc da 0d 8c bd
       -0.0718861 0.017980719 -0.01798035 -0.068385795
000110 85 84 c4 bd b0 a0 3d 3d 4f 0b 95 bd 20 e8 b0 3d
       -0.095955886 0.04629582 -0.072775476 0.08638024
000120 f0 04 2c 3d 07 bb bc bc 73 1c e7 bc dd c2 70 3d
       0.041996896 -0.0230384 -0.028211808 0.058779586
000130 5a 5a 4e 3d 63 85 0f 3d 8d 56 8f bd ab 8f bc 3d
       0.050379135 0.035039317 -0.0699893 0.0920709
000140 8d d8 3d 3d f3 1c 9d 3c cd 87 64 3d 0a 4d 4f bd
       0.046349097 0.019178843 0.055793572 -0.05061058
000150 0a 61 27 bd 37 5a 0c 3d cb 4c 94 bd 5a 29 4a bc
       -0.040864028 0.034265723 -0.072412096 -0.012338961
000160 b7 6a 5a bd 97 df ba bd 6d f5 a2 bc 82 cb a1 3d
       -0.053324427 -0.09124678 -0.019892419 0.07900144
000170 b3 5d 04 bd 4d 52 d9 bb cf 1b bf bd 07 76 41 bd
       -0.03231592 -0.0066321255 -0.09331476 -0.0472317
000180 a0 78 d5 3c ef 9e a9 bd 9a 2c 8b bd 75 e9 c7 bd
       0.026058495 -0.08282267 -0.067956164 -0.09761325
000190 ea 07 bf 3d a3 43 29 bd 1a 0d 93 3b a5 ce 82 3d
       0.09327681 -0.04132427 0.004487646 0.063870706
0001a0 80 df 95 bc 50 c4 6f 3d 2d 09 5a 3d 33 45 a5 ba
       -0.01829505 0.058536828 0.053231407 -0.0012609124
0001b0 6d aa c3 3c 2d a8 75 3d ed d5 ff bc 5a 45 cb 3d
       0.023884976 0.059974838 -0.031229937 0.09925337
0001c0 30 a3 bd bd 1a d8 f2 bc bd 23 b8 bd e7 8e d4 bb
       -0.09259641 -0.02964406 -0.089911915 -0.006486762
0001d0 33 48 3f bd a3 7c 30 bd 9a fd 86 bb 8a 79 6d bd
       -0.046699714 -0.043087613 -0.004119587 -0.057977237
0001e0 20 28 e6 3c 37 61 5f 3d 80 02 88 3b 67 0f 3d 3b
       0.028095305 0.05453607 0.0041506886 0.0028848292
0001f0 43 9c 1a 3d 5d 42 ad bd e7 c6 23 3c 40 d6 3e bd
       0.03774668 -0.084599234 0.0099961525 -0.046591043
000200 9d 1e 87 3d b0 89 5c 3d 33 3d b0 bd 1b ff ae 3d
       0.06597636 0.053842247 -0.08605423 0.08544751
000210 22 87 83 3d b3 db 7f bd 20 5b 47 3d 5a eb a9 bd
       0.06422259 -0.06246538 0.048670888 -0.08296843
000220 b7 e6 44 3d a8 6b a5 3d 02 5d 85 3d 33 c6 15 3c
       0.04807159 0.080771744 0.065118805 0.009141493
000230 13 de 9a 3d 87 ee b5 bd b0 56 06 3d 4d a9 3d bd
       0.075618885 -0.08883386 0.032797515 -0.046304036
000240 b3 97 a6 3d 4d ae 51 3c 6d 1e 0b bd 4d 7a 83 3c
       0.08134403 0.012797904 -0.033964563 0.016049528
000250 28 62 b2 3d 4f 22 c9 bd b7 61 cb 3d 5a a5 2e bc
       0.08710128 -0.09820997 0.09930747 -0.01065954
000260 b7 50 99 3d e2 c0 88 3d 53 ad 1f bd 95 a8 8a bd
       0.07486098 0.066774145 -0.038983654 -0.06770436
000270 1a 95 51 bc d0 7d 98 bd fa 78 c5 bc 83 82 57 3d
       -0.012791896 -0.07445872 -0.024105538 0.0526147
000280 ad 98 a4 bc 55 65 a8 3d fb 00 af bd b0 ed c6 bd
       -0.020092333 0.082224526 -0.08545109 -0.09713304
000290 0d e5 73 bc 2b 21 97 bd 5a 4b b9 bd e0 a7 51 3d
       -0.014886153 -0.07379373 -0.09047575 0.05118549
0002a0 1a 20 0b bd 65 cf 80 3d 9a 13 ae bc c7 09 85 3d
       -0.03396616 0.06289557 -0.021249581 0.064960055
0002b0 40 48 b1 3d 2d a4 ac bd 0d 1c 7e bd 98 20 bd 3d
       0.08656359 -0.084297515 -0.06203847 0.092347324
0002c0 b8 99 88 bd da 8f c2 bd 1f aa 9c bd a0 52 89 3d
       -0.066699445 -0.09500094 -0.076496355 0.067052126
0002d0 f3 b8 17 bc f2 cd 91 bd b3 5f 38 bd da 8e b4 3d
       -0.009260404 -0.07119359 -0.04501314 0.08816309
0002e0 00 78 35 bb 9a ce 00 3c 5a cb 07 3d ed 28 b5 bd
       -0.0027689934 0.007861758 0.033152916 -0.088456966
0002f0 1a ac 4e 3d 27 22 6f bd 4d de b9 3d dd ec a6 3d
       0.050457098 -0.05838218 0.09075604 0.08150647
000300 5a 46 b9 bd 33 5e ac bd 20 e3 9f 3c 0a ac 87 bd
       -0.090466216 -0.084164046 0.019517481 -0.06624611
000310 53 4a ff bc da db 43 3c 07 a2 b8 bc f3 de 97 3d
       -0.03116337 0.011954272 -0.022538198 0.07415571
000320 87 87 d3 3c 73 5c 11 3d 57 57 b4 bd c7 91 94 bd
       0.02582146 0.035488557 -0.08805721 -0.07254367
000330 b3 84 46 bc 1d 18 c7 3d 47 c9 c1 bd ba 0f db 3c
       -0.012116599 0.09721396 -0.09462219 0.026740897
000340 7a f7 0f 3d c0 f8 30 bd 6d 2d bf 3d 0d c1 93 3c
       0.03514812 -0.043205976 0.09334836 0.01803639
000350 5a cd 3e bd 98 0f 9f 3d b3 f3 62 bc d2 07 92 bd
       -0.046582557 0.07766646 -0.013852048 -0.07130398
000360 c3 c4 25 bd 73 06 ff 3c 60 86 f6 bc d7 6e 5a bd
       -0.04047085 0.031131005 -0.030093372 -0.05332836
000370 80 d3 a8 3c bd 95 60 bd e7 39 8d bb 67 be a9 3b
       0.020608664 -0.0548303 -0.004309881 0.0051801684
000380 ce 3e 5a bb a7 22 f4 3c 5d 0d a9 3d 2d 25 9b 3c
       -0.0033301595 0.02980168 0.08254502 0.018938625
000390 50 03 b2 bd 90 af 03 3d 4d 0b 23 3d ad ed bb 3c
       -0.08692038 0.03214985 0.0398057 0.022940481
0003a0 00 d5 8c 3d 7a d0 fa 3c 0d cd 59 bd 58 88 82 bd
       0.06876564 0.030616987 -0.053174067 -0.06373662
0003b0 1d 04 8c 3d a7 d5 3b 3d 80 67 96 3b 6a ff 8e 3d
       0.06836722 0.04585805 0.004589975 0.0698231
0003c0 9a 59 6b 3d af a2 ca bd a3 36 44 bd 20 5b 77 3d
       0.057458498 -0.09894311 -0.047903668 0.060389638
0003d0 50 7f 1b 3d 5a 51 1f bc 2d 19 a1 bc df a3 c1 bd
       0.03796321 -0.009723986 -0.019665325 -0.09455084
0003e0 fd 45 49 3b 6a bd 68 3d 63 4d 3f bd dd 7f 1c 3d
       0.0030711882 0.056821264 -0.04670466 0.038207877
0003f0 50 59 7f 3d 65 5f b1 bd 2b e5 97 bd cf 72 98 3d
       0.062341034 -0.08660773 -0.07416757 0.07443773

backbone.model.0.1.model.0.bias f4 [4]
000000 12 5a 9e bd a7 9f 3b bc 3a e0 ab bc 9a f5 b5 bd
       -0.07732023 -0.011451638 -0.020980943 -0.088847354

backbone.model.1.0.model.0.weight f4 [8, 4, 5, 5]
000000 0d e0 41 3c 73 79 9f 3c ff ef a8 39 fa a1 4f bd
       0.011833203 0.019467091 0.00032222268 -0.050691582
000010 ad 20 ca bc 77 d7 89 bd dd 62 a4 3d 77 c8 96 bd
       -0.024673784 -0.0673055 0.08026669 -0.073624544
000020 52 b7 cb bd 80 b0 3b bc f8 05 80 3d 10 b9 46 bd
       -0.09947075 -0.011455655 0.062511384 -0.048516333
000030 53 37 56 bd aa 93 ae 3d cd 2f d5 3b 93 61 26 3d
       -0.052298855 0.085242584 0.0065059424 0.040620398
000040 dd e7 87 bd ff 45 b6 3d 7a 06 82 3d 00 22 94 3c
       -0.06636021 0.089000694 0.063488916 0.018082619
000050 f7 f0 c0 3d 3d ab 06 3d 33 db ca 3c 1a ae 2b 3c
       0.094209604 0.03287815 0.024762725 0.010478521
000060 c5 03 9c 3d 80 99 5c 3d 73 81 01 3d ba af 16 3d
       0.076179065 0.053857327 0.031617593 0.03678868
000070 67 69 6b bc d7 dd c2 3d 3d a1 00 bd f2 37 bc bd
       -0.014368392 0.09514969 -0.03140377 -0.09190358
000080 5a 1c 8d bd c3 89 67 3d 80 e6 86 3c 10 4c ad 3d
       -0.06890173 0.056527864 0.016467333 0.084617734
000090 6a 9f 0e 3d 00 d6 93 3c cd 25 19 3c 40 96 67 bc
       0.034819998 0.01804638 0.009347391 -0.0141349435
0000a0 7d e7 7e bd 93 3d 0f 3d 83 18 9e bd ea a9 60 bd
       -0.062232483 0.03497083 -0.07719519 -0.054849543
0000b0 9a 7d 73 3b dd 6f 9c 3d a0 9b ae bd 00 b2 8c 3a
       0.0037153722 0.07638524 -0.08525777 0.00107342
0000c0 ad 80 a6 bd 87 48 99 bc 5a 31 8d 3d da 86 00 3d
       -0.08130012 -0.018711342 0.06894179 0.031378604
0000d0 c7 54 c6 bc bd 74 88 3d b7 f6 48 bd 93 8a 21 bd
       -0.024210347 0.06662891 -0.04906341 -0.039438795
0000e0 dd 8a 2d bd 9d 55 72 bd 78 90 c5 3d 3b 1f 96 bd
       -0.04236876 -0.05916368 0.09646696 -0.073301755
0000f0 5a 16 25 bd 28 96 80 bd db 04 b4 bd 0d ad bd bc
       -0.04030452 -0.0627864 -0.087899886 -0.023153806
000100 f3 93 6e bd c8 95 8c bd 2d d9 7f bd 4a 46 b3 bd
       -0.058246564 -0.06864506 -0.062462974 -0.08753641
000110 2a 48 73 3d 4a 1b 45 3d 88 4c 9d 3d 00 99 41 bd
       0.059394993 0.048121728 0.07680613 -0.047265053
000120 fa ec 4e bd cb 8f bd 3d 03 6d 43 3d 60 10 14 bd
       -0.050518967 0.09255942 0.047711384 -0.03614843
000130 a1 91 50 3b ba cf d5 bc 12 ee c5 3d 33 71 99 bc
       0.0031825083 -0.026100028 0.09664549 -0.018730735
000140 ad 14 9d 3c 47 d2 10 bd 17 e0 0c bd 30 a9 8c 3d
       0.019174898 -0.035356786 -0.034393396 0.068682075
000150 40 73 de bc 53 06 6f bd d3 0c 2a 3d f8 85 c8 bd
       -0.027154565 -0.05835564 0.041516136 -0.097911775
000160 93 78 a0 bc 70 da 34 bd 5a 79 5f bc 7d d7 a0 3d
       -0.019588744 -0.04415363 -0.013639772 0.07853601
000170 37 35 bd 3d c3 08 82 3d 18 bb 62 3c 60 1a 32 bd
       0.092386656 0.063493274 0.013838552 -0.043482184
000180 c7 6d 09 3d 6e 7e e3 bc 67 12 6d bd c0 90 4f bd
       0.033551957 -0.027770247 -0.057878878 -0.050675154
000190 00 ce 74 bd 47 e3 88 bc 4a c9 95 bd 9a 5a ee bc
       -0.05976677 -0.016709937 -0.073137835 -0.029095937
0001a0 90 71 7e 3d c7 41 bb 3d 4a eb 66 bd 7a f9 1b 3d
       0.06212002 0.091434054 -0.056376733 0.038079716
0001b0 20 83 33 bd 17 e6 2a bd 95 44 c6 bd a3 42 9b 3d
       -0.043826222 -0.041723337 -0.0968105 0.07581069
0001c0 07 59 4a bd 73 d5 2b bc 00 6e 6c bb 0d 87 59 3d
       -0.04940131 -0.010487902 -0.0036076307 0.05310731
0001d0 73 14 5a 3c d7 b5 1f 3d cd d5 d7 3c ad 91 fd 3c
       0.01331054 0.038991775 0.026347065 0.030953253
0001e0 f7 93 04 bd a3 c5 0c bd b3 ec 89 3b ad 53 83 bd
       -0.032367673 -0.03436817 0.004209125 -0.06412444
0001f0 4b 80 83 bd 07 3d 8d 3d f2 ab 88 3d 8a 12 98 bd
       -0.06420954 0.06896406 0.06673421 -0.07425411
000200 f0 9d 68 bd d3 73 42 3d 9a 15 a5 bc 3d 68 75 3d
       -0.056791246 0.04747374 -0.020151902 0.059913862
000210 c3 d1 40 3d d7 cb 7b 3d 07 1e 97 bc 9a 40 7c 3c
       0.047075044 0.061473694 -0.018446935 0.015396262
000220 60 13 ad bd 1a 71 f4 bc e7 e3 b7 bc 02 13 c5 bd
       -0.08450961 -0.029839087 -0.02244754 -0.09622766
000230 17 ff 8c bd 7a 04 7a 3d 5d 72 9f bd 62 ba a9 3d
       -0.06884592 0.061039425 -0.07785485 0.08287503
000240 9a ab 3f 3d a7 07 05 3c cd d9 01 3c 7b 5a a7 3d
       0.04679451 0.0081195 0.007925463 0.08171555
000250 a3 6c 3b bd ca 2c 5f bd 33 62 77 3c 37 5a 4a 3d
       -0.0457579 -0.054486074 0.015099096 0.04940244
000260 65 57 9a 3d c8 bc 8c bd 93 88 f5 3c db 86 99 bd
       0.075362004 -0.06871945 0.02997235 -0.07496425
000270 30 99 b1 bd 10 cb 04 3d e3 85 97 3d 17 8a b3 3d
       -0.08671796 0.032420218 0.07398584 0.08766573
000280 69 9c 26 bb 88 44 97 bd 5f 14 a5 bd e7 ac c4 3d
       -0.0025422818 -0.07386118 -0.08060526 0.09603291
000290 8f 18 a0 3d ad 26 f2 b9 b3 4f a8 3d 3b b7 9b 3d
       0.07817184 -0.00046186653 0.082183264 0.07603308
0002a0 ea dd 56 3d da bc d7 bc 0c 62 82 3c da 89 0c bc
       0.052457727 -0.026335169 0.015915893 -0.008577788
0002b0 03 dc c7 bd e7 aa 06 bd c0 3c 90 3c 6d 3f 82 bd
       -0.09758761 -0.03287783 0.017607093 -0.06359754
0002c0 d7 ec 44 bd 9d f4 ca bd fd 28 aa bd 0d 38 4b bd
       -0.04807743 -0.099099375 -0.08308599 -0.049614
0002d0 c7 c7 dd 3c dd 11 28 bd cd 11 a9 3c 8d b5 18 bc
       0.0270728 -0.04103266 0.02063837 -0.009320629
0002e0 40 89 3c bd fb 04 8c 3d e7 b7 a9 bc 78 94 b7 bd
       -0.04602933 0.068368874 -0.020717574 -0.08963865
0002f0 92 71 a5 bd e8 05 e2 bb 4d f9 31 bd 4d f1 9c 3c
       -0.080783024 -0.0068976767 -0.043450642 0.01915803
000300 ed 45 86 3d 33 37 a4 bd 81 f2 a3 bb 3d 24 a3 3d
       0.06556306 -0.08018341 -0.005003274 0.07965896
000310 1b d6 00 bc 77 4e a0 bd 2a d0 8a bd 80 40 bb bc
       -0.007863547 -0.07827466 -0.067779854 -0.022857904
000320 cf f9 8d 38 33 ed d7 3c f3 4d 14 3d cd de bb 3b
       6.7699344e-05 0.026358223 0.03620715 0.005733347
000330 ba 46 bb bd a2 63 aa bd 27 43 a2 bd bd 5d 1d 3d
       -0.091443494 -0.08319785 -0.079229645 0.038419474
000340 f3 c1 6e 3d 9a 56 33 3d fd cd 2f bd 50 11 84 3d
       0.058290433 0.04378376 -0.042921055 0.064486146
000350 48 24 89 bd cd e9 9e bb 00 13 18 bc d0 d3 67 3d
       -0.06696373 -0.0048496486 -0.009281874 0.056598485
000360 2a a1 45 3d 92 23 b8 3d 27 ac 32 3c 27 e8 49 bd
       0.0482494 0.089911595 0.010905302 -0.049293663
000370 47 16 90 bd 17 99 8d 3d 4d 9b a2 bb 53 1e c1 3d
       -0.07035499 0.06913965 -0.004962361 0.09429612
000380 9d 00 c3 bd ad 1b e4 bc 93 32 51 3d 3d 1e b5 bd
       -0.09521601 -0.027845228 0.051073622 -0.08843658
000390 1a 4a ff 3c 20 d1 60 bd 9a 5b 2f bb a8 72 b7 bd
       0.031163264 -0.054886937 -0.002675748 -0.08957416
0003a0 47 61 df 3c 87 93 32 3d 60 40 34 3d b3 2a d9 3c
       0.027268065 0.043597724 0.044006705 0.026509618
0003b0 a7 a8 31 bd 40 00 48 bd 9a 0f b6 bd 50 2f 1d 3d
       -0.04337373 -0.048828363 -0.088896945 0.0383752
0003c0 27 54 5d bd 13 fe 2d bd 20 ba 5a 3d 99 79 e8 bb
       -0.054035332 -0.042478632 0.05340016 -0.0070945737
0003d0 00 8b e6 3c ca d5 4a 3d e0 40 00 3d 9a e3 70 bc
       0.028142452 0.04952029 0.03131187 -0.014702702
0003e0 73 29 96 3c 20 39 e2 3c de 8b 91 3c dd b4 77 3d
       0.018330311 0.02761513 0.01776689 0.06047522
0003f0 80 0f f2 bc b7 f9 0a bd 67 50 c9 3d da 60 f2 3b
       -0.029548407 -0.033929553 0.09829789 0.0073967995

backbone.model.1.0.model.0.bias f4 [8]
000000 f2 4f 13 3c bb ea a4 bc 79 59 95 bd df 71 6a 3d
       0.008991228 -0.02013146 -0.07292456 0.057237502
000010 ea 4c 41 bd d2 76 36 3d 3b f6 a4 bd bf 7b 76 3c
       -0.04719249 0.04454691 -0.08054777 0.015044152

backbone.model.1.1.model.0.weight f4 [8, 8, 5, 5]
000000 df 55 7d bc 5c 09 8c bc 32 d6 53 bd 93 1d 6f 3d
       -0.015462368 -0.017094307 -0.051717944 0.058377814
000010 ec 18 33 bd e3 31 f0 bb 71 5a 3f 3d 1e b7 14 bd
       -0.04372494 -0.0073301657 0.04671711 -0.036307447
000020 3b cb 01 3d a8 6d 01 bd 42 b9 85 3d ed d6 44 3d
       0.031687956 -0.031598717 0.06529476 0.04805653
000030 18 17 83 3d 61 e5 d7 bc d6 3f 87 3c 15 56 a1 3c
       0.06400889 -0.026354494 0.016509932 0.019694367
000040 bb de b3 3b 46 72 8b 3c 75 ff e0 bb 57 6b c2 bc
       0.005489198 0.017022263 -0.0068663904 -0.023732824
000050 58 9b 62 bd 74 62 4e 3c 38 ad eb 3c 62 20 03 bd
       -0.05532393 0.012596715 0.02876912 -0.032013305
000060 e6 4a 65 bd a8 c0 11 3d 35 8a 1d bd 80 b3 22 bd
       -0.05597963 0.035584122 -0.038461883 -0.039721966
000070 34 4f 5a 3d 04 f9 79 3d 61 1e a0 3c f1 31 8a bd
       0.05329819 0.061028495 0.019545736 -0.06747807
000080 9e 5c 73 3d 3e 5a 2e 3d ce ae 6f 3c 10 b6 18 3d
       0.0594145 0.04256653 0.014629079 0.037283003
000090 83 b3 8e bd e6 91 68 3c 30 f2 85 bd 4d fa 84 3d
       -0.06967833 0.014194941 -0.06540334 0.064930536
0000a0 82 f2 73 3d 8c 1b 46 3d 0b 69 8e 3d f9 0f 56 3d
       0.059557445 0.048366114 0.06953629 0.052261326
0000b0 77 99 26 3c 49 18 b6 3c fd 1c e7 bc 0c ff f6 3c
       0.010168425 0.022228377 -0.028212065 0.030150913
0000c0 fb ad fd bc 14 9c 49 bd 3a a0 66 3d 5d 16 35 bd
       -0.03096675 -0.049221113 0.056305148 -0.04421078
0000d0 d4 19 fb 3c b1 c7 3b 3d 49 c3 19 3a a5 ad 12 3d
       0.030651964 0.045844737 0.00058655866 0.03581013
0000e0 11 f1 82 3d d1 01 65 bd 1c cd 47 3d 77 80 62 bd
       0.06393636 -0.055909935 0.048779592 -0.055298295
0000f0 1e 73 85 bd 09 16 6e 3c aa c3 e2 bc 9d eb 69 3d
       -0.065160975 0.014531621 -0.02768119 0.057109464
000100 23 ac 70 bc 20 98 2d 3d a5 75 b5 3c 9f 93 3a bc
       -0.014689478 0.042381406 0.022150824 -0.011387735
000110 89 b5 eb 3c 3c 60 38 3d 21 f8 38 bd 0d 6d 8f 3d
       0.028773086 0.04501365 -0.04515851 0.07003222
000120 64 b5 8f bc 0b f3 82 bd c1 42 91 bb f8 3d 09 3c
       -0.017542548 -0.06394013 -0.0044330065 0.008376591
000130 d2 f2 84 3d e1 db 76 3d 1c c0 e4 bc d3 ed 42 bd
       0.06491627 0.060268287 -0.027923636 -0.047590088
000140 aa 9f 43 bc d3 0c e9 bc 9f 82 fa 3b 8a 59 ac 3c
       -0.011939922 -0.028448498 0.007644966 0.02103879
000150 ac 77 0b bc b6 79 ee bc fb 0f 2a 3d eb 59 8b bd
       -0.008512419 -0.02911077 0.041519146 -0.0680426
000160 16 5f 08 bd d7 f0 2c 3b cf 14 f3 bc 90 d6 81 bc
       -0.033293806 0.002638867 -0.029673008 -0.015849382
000170 2d eb 64 bd 68 ee 89 3d d2 20 b4 3c ae 2a 2b 3d
       -0.055888344 0.067349255 0.021988306 0.04178875
000180 5c 88 60 bd e4 01 dc 3c 59 95 d9 bc 88 ce 4c 3d
       -0.054817542 0.02685637 -0.026560472 0.05000165
000190 96 a5 8a 3d e9 5d 45 3d cf 24 07 bd bd 05 77 3d
       0.06769864 0.048185263 -0.032994088 0.060308207
0001a0 ae 90 3b 3d c7 78 68 bd 6c 75 4e bd 7b d2 1f 3d
       0.045792274 -0.056755807 -0.05040495 0.03901909
0001b0 bc 6d 57 3c 2b 78 e0 3b cd 79 56 bd 13 21 4d 3c
       0.013148721 0.0068502626 -0.052362252 0.012520093
0001c0 85 84 89 bd 5a a3 6b 3c be 11 36 bd ae 69 83 3d
       -0.06714729 0.014382208 -0.044450514 0.06416641
0001d0 be b7 f7 3c f4 c2 54 bd c4 a8 67 3d 91 ca 0d 3d
       0.030238982 -0.051943734 0.05655743 0.03461701
0001e0 2e 32 3f bd 21 84 83 3d 2d 17 8e bd 8b 9f 87 bd
       -0.046678714 0.06421686 -0.06938014 -0.06622227
0001f0 8e 27 b8 bc 04 43 78 bd 7b 19 4a 3d 55 64 13 3d
       -0.022479799 -0.060610786 0.049340706 0.035984356
000200 00 4e 56 3d 6b 02 59 3d 5c eb 59 3d 6d 0e cd 3c
       0.05232048 0.05298082 0.05320297 0.025031293
000210 16 58 05 bd d9 fb 89 3d 99 76 51 bd 80 c7 39 3d
       -0.03255471 0.06737489 -0.051138494 0.045356274
000220 6e 0a 61 bd 17 b3 65 3d 66 cc f5 3c f1 64 7f 3d
       -0.054941587 0.056078997 0.030004691 0.062352125
000230 22 2d 4d 3c 56 f6 44 3d 38 0c f3 bc e6 8a d4 bc
       0.0125229675 0.048086487 -0.029668912 -0.025945138
000240 a9 f5 1e bd 13 b6 32 3d f2 b9 ca bc 58 8e 96 3c
       -0.0388085 0.04363067 -0.024746869 0.018378422
000250 a8 b1 a9 3c 3f 5c 75 bd b4 ef 36 3d 3f e1 8a 3d
       0.020714596 -0.059902426 0.044662192 0.067812435
000260 ba 31 6d bd 5d d0 70 3d d6 38 1f 3d c7 16 89 3d
       -0.05790875 0.05879246 0.038872562 0.066937976
000270 cd fc bc 3b ba e4 b6 3b 6c 1f b9 3b ab f0 1f 3a
       0.005767441 0.0055814655 0.0056494977 0.0006101231
000280 d3 60 73 3d d4 5b 3f bd bc b6 60 3c 8d dc 48 bd
       0.05941851 -0.046718433 0.013715442 -0.04903846
000290 e9 c9 57 3b 3f dc 6c bd ab b6 df 3c 8c 7c 99 bc
       0.0032926744 -0.05782723 0.027308783 -0.018736146
0002a0 ea 3c de bc 6e c6 f0 3c 26 ed 85 3d 02 1a 68 3c
       -0.027128655 0.029391494 0.06539373 0.014166357
0002b0 ef 63 7d bc 69 92 0a 3d 87 b6 84 bd e4 3c c8 3b
       -0.015465721 0.033831034 -0.06480127 0.0061107744
0002c0 97 91 39 bc 21 7e 64 3d c3 a1 d5 bb 41 7e 39 bd
       -0.011326215 0.05578435 -0.0065195276 -0.04528642
0002d0 7b 08 5f bd 19 4e 4f bd d4 4b 0c 3d 7b 41 13 3c
       -0.054451447 -0.05061159 0.034252003 0.00898778
0002e0 00 7c a6 bc e4 92 45 bd 89 ac 2f 3c 69 08 4f 3b
       -0.0203228 -0.04823579 0.010722288 0.0031590706
0002f0 8b c6 27 bd 0f 58 0f 3d 31 26 24 bc 55 0e 84 3d
       -0.04096083 0.03499609 -0.010018871 0.06448046
000300 a8 b7 7f 3d ee c7 5c 3d c9 d4 59 bd 2d a0 39 bc
       0.062431008 0.053901605 -0.053181443 -0.011329693
000310 ab a9 83 3d ab 6a 2d 3d be 0f ce bc 03 ff 81 3d
       0.06428846 0.042338055 -0.02515399 0.06347468
000320 4e 4a 26 3d ed 4a 1b 3d c6 f3 0e bd 67 45 64 bd
       0.040598206 0.03791325 -0.03490045 -0.05573025
000330 1a cd 12 3d 6d 64 80 3d 0f bf 30 bd 28 c9 29 bb
       0.03584013 0.06269155 -0.043150958 -0.0025907252
000340 92 d6 45 3c 19 c5 8a 3d 78 eb f5 bc 6a 95 9d bb
       0.012075083 0.06775875 -0.030019507 -0.0048090713
000350 20 a8 60 bd 92 f0 54 bd ae 7e 1c 3d ed 45 40 bd
       -0.054847836 -0.05198724 0.03820675 -0.046941686
000360 8f 54 2e 3d 63 66 8a 3d 21 e0 e7 3c fa 66 5c 3d
       0.04256111 0.0675781 0.028305115 0.053809144
000370 9d b8 68 3d 86 2f fe 3c c1 11 53 bd 81 9b 20 3d
       0.056816686 0.03102852 -0.051530603 0.0392108
000380 33 e3 1c ba b4 f8 7e 3d 4e dd 23 bd 8b 9c 90 3d
       -0.0005984783 0.0622489 -0.040005974 0.07061108
000390 12 d3 3a bd c0 8c e3 3c c1 14 97 3b c1 6e 2b bd
       -0.04561145 0.027777076 0.0046106284 -0.04185367
0003a0 67 e8 d5 bc d6 cd 6f 3d 6c a9 5e 3d 6f b5 3a 3d
       -0.026111795 0.05854591 0.054360792 0.045583185
0003b0 65 86 7a 3d c8 a4 ba bc 5f 45 36 b9 d3 c5 0a bc
       0.061163325 -0.022783652 -0.00017382715 -0.0084700165
0003c0 41 f0 85 3d a7 42 50 3d 60 62 b1 3b e2 5b a7 3c
       0.065399654 0.050844815 0.0054133385 0.020429555
0003d0 20 9a 56 3d 6c e6 6b 3c f3 8b 31 bd c0 7a 7a bc
       0.05239308 0.014398199 -0.043346357 -0.015288055
0003e0 28 5c 16 bd ab 40 aa bc 23 82 98 bc 02 07 f6 bc
       -0.03670898 -0.02078279 -0.018616742 -0.030032638
0003f0 30 79 77 bd c1 08 58 3d 8d 70 04 bd 10 07 06 bd
       -0.060418308 0.052742723 -0.0323339 -0.03272158

backbone.model.1.1.model.0.bias f4 [8]
000000 6c bb 86 3c 28 86 fd 3c 9c 11 f6 bc ee 41 32 3d
       0.016446792 0.03094776 -0.030037694 0.043519907
000010 9a 0b ae bc 4d 2e d4 bb 15 a0 10 3d e5 6c 3a 3d
       -0.021245766 -0.006475246 0.035308916 0.045514006

backbone.model.2.0.model.0.weight f4 [8, 8, 3, 3]
000000 7e a4 7b bc f0 47 8b bd e8 51 5b bd 7f 52 62 bd
       -0.015359042 -0.0680083 -0.05354491 -0.055254456
000010 59 96 46 3d 6e ad 1d 3d d2 11 d7 bc be e0 1f 3d
       0.048483226 0.038495474 -0.026253615 0.03903269
000020 65 01 c0 3d 4b 8b 5e 3d c0 97 cf bd d1 75 d3 bc
       0.09375266 0.05433206 -0.10136366 -0.025813015
000030 c8 b4 86 3c 34 57 b1 3d 01 02 b6 bd 28 69 34 bc
       0.016443625 0.08659211 -0.08887101 -0.011011399
000040 a1 f1 f0 3d 89 81 7f bd 46 01 96 bd 27 50 d0 3d
       0.11764837 -0.062379394 -0.07324462 0.10171538
000050 9e e3 28 3d 2f 9a a9 bd 87 32 dd bc 34 ce 47 bd
       0.041232698 -0.08281361 -0.027001632 -0.048780635
000060 c0 09 e7 3d 7f 25 a2 3d 5b 85 91 3d e4 8a ec bd
       0.112811565 0.07917308 0.07105514 -0.11549929
000070 58 d2 29 3d 0e 54 68 3d 45 8f e9 3c 87 bf 8e bb
       0.041460365 0.056720786 0.028510699 -0.004356328
000080 71 63 eb 3d 3c 56 a7 bc 70 bc 87 3d 0c 5d 21 bd
       0.11493576 -0.020426862 0.066277385 -0.039395377
000090 8d 09 89 3d 6a 37 c1 3d 37 1f c1 3b 65 77 33 3d
       0.06691275 0.094343975 0.0058936137 0.043815035
0000a0 4b 98 a8 3d b4 1a dc bd b4 a6 3d bd aa c4 cc 3d
       0.082321726 -0.10747281 -0.04630156 0.09998448
0000b0 32 15 2a 3d b8 84 c9 bd 01 bc d6 3d ec b6 fc ba
       0.04152412 -0.09839767 0.10485078 -0.0019280589
0000c0 c1 d6 a5 3d 0e 01 95 bd c6 a9 04 3c a0 ae 2a bd
       0.08097602 -0.07275592 0.008097118 -0.04167044
0000d0 6e d6 b5 bd a0 f7 39 3c 35 64 68 bd 70 f0 e1 3d
       -0.0887879 0.011350542 -0.05673619 0.11032188
0000e0 97 29 8c 3b 7e 30 0b 3d be 97 56 3d 11 be 5d 3d
       0.004277419 0.033981793 0.052390806 0.05413634
0000f0 2b 8c 47 bd fa 77 78 3d 94 06 ac bd 81 83 34 3d
       -0.04871766 0.060661294 -0.08399692 0.044070724
000100 f1 06 da bc 57 84 c6 3d 41 b7 a4 3b 46 8b c4 bd
       -0.026614638 0.096932106 0.0050267284 -0.09596877
000110 54 a8 2a 3c 3a 62 bc bd 90 b8 57 3d 46 03 56 3d
       0.010416109 -0.09198423 0.052666247 0.052249216
000120 f1 8c bf 3d 83 80 9e bd 08 dd 8f bd 7e 27 95 bd
       0.09353054 -0.077393554 -0.0702458 -0.07282923
000130 95 40 de bd 40 08 9c 3d 89 cb b1 bd f3 20 d9 bd
       -0.10852162 0.07618761 -0.086813994 -0.10601988
000140 02 ad 25 bd 70 b3 ba 3d 63 7a aa bd 16 28 c7 3d
       -0.040448196 0.09116256 -0.08324125 0.09724443
000150 98 d5 56 3d af f2 db 3d 55 07 c7 bd 70 4f d4 3d
       0.052449793 0.107396476 -0.09718195 0.10366714
000160 68 33 c9 3d b0 a1 78 3b 66 90 e3 bd a1 b6 ac 3d
       0.09824258 0.003793817 -0.11111526 0.08433271
000170 3c d7 8f 3d fd 20 68 bd 2e 9e ce bb cf ff 91 bc
       0.070234746 -0.056672085 -0.0063054776 -0.017822174
000180 4c 68 56 bd 58 e5 80 3d 18 9f 16 3d b3 4c 4d 3d
       -0.05234556 0.06293744 0.036772817 0.050121974
000190 29 1c d1 3c 8d 15 aa bd ae f3 ec 3d dd 83 1f bb
       0.025526123 -0.08304892 0.11569916 -0.0024340071
0001a0 e2 15 46 3c a1 71 cb 3c 3d eb d4 bd 4d 6e ab 3d
       0.012090178 0.024834456 -0.10396431 0.083706476
0001b0 fa d6 92 3c b9 46 90 3c 31 af 8b 3d 67 a6 51 3c
       0.017924774 0.017611848 0.068205245 0.012796021
0001c0 8d 6b 5d bd 98 ed 0d bd 2a 52 54 bb d3 21 9a bd
       -0.054057647 -0.034650415 -0.0032397606 -0.07525983
0001d0 49 4d d4 bb 86 1c c7 bd 0f 2f e8 3d 33 9d a4 3d
       -0.0064789397 -0.09722237 0.11337101 0.08037796
0001e0 30 cd b8 3d ca 58 f0 3c 14 e7 ee 3d e8 5a 61 bc
       0.090235114 0.029339213 0.116651684 -0.013754584
0001f0 9c f0 b9 bd 79 53 c5 3b e0 2e 1f bc a7 9f b1 bd
       -0.09079096 0.0060219136 -0.009715766 -0.086730294
000200 3d d7 c7 bc 92 7c b1 3d ae e3 bb 3d 3e ea d0 bc
       -0.024394626 0.08666338 0.09174286 -0.02550232
000210 e2 3e 5c bd ac be 8c 3d 09 a1 92 bd 6c 4b a5 3d
       -0.053770907 0.06872305 -0.07159621 0.08071026
000220 7d ac 3a 3d 60 64 da bd 14 9c 2c 3d 8f 83 3f 3d
       0.045574654 -0.10663676 0.042141035 0.046756323
000230 1d 4b a0 3c 0f dd de bd 39 f9 1a bd 2c 39 e8 bc
       0.019567067 -0.10882007 -0.037835333 -0.028347574
000240 35 49 4a bd 93 be 3e 3b 49 7c cb bd a7 90 90 bd
       -0.049386222 0.002910529 -0.09935815 -0.0705884
000250 aa 57 8f 3c b6 e3 49 bd 39 a6 e8 bd c2 0e e8 3c
       0.017497856 -0.049289428 -0.113598295 0.02832735
000260 1c 3a df 3d cc c3 ef bd 29 70 ab bd 87 a9 28 3d
       0.10899755 -0.11707267 -0.08371002 0.0411773
000270 f5 63 4f 3d b5 2f 59 bd f0 b7 63 3d 37 5c 96 bd
       0.050632436 -0.053024013 0.05559534 -0.07341807
000280 a5 02 a3 3d fb 2f d0 bd 8a 86 b0 3d 10 ed 8d bd
       0.07959489 -0.101654015 0.08619411 -0.06929982
000290 ae 64 94 3d e0 fa 87 3d 28 59 51 3c 49 0c 5f bc
       0.072457656 0.066396475 0.012777604 -0.013613769
0002a0 0a f6 6a bb bf 41 d0 bd aa 76 9e 3d 23 f7 7e bd
       -0.0035852217 -0.1016879 0.07737477 -0.062247407
0002b0 2d 1d 9c bc 13 c8 d0 bd 7b 33 b9 3d 1a b9 aa bc
       -0.01905688 -0.10194411 0.09043022 -0.020840216
0002c0 ba 15 87 3d db 20 63 3d ef 94 36 bd ec d3 26 bc
       0.06595941 0.055451255 -0.044575628 -0.010182362
0002d0 0b 45 0a bd 77 95 42 bd b3 7d 97 3c f7 d8 69 3c
       -0.03375725 -0.047505822 0.018492555 0.01427292
0002e0 50 01 af 3d 5b cb 9a 3d 27 6a 7a bd 37 ae bd bd
       0.08545172 0.07558318 -0.06113639 -0.092617445
0002f0 39 98 93 bd b7 4a 07 3d 69 23 d6 bd 3b c0 9f 3c
       -0.072067685 0.033030238 -0.10455973 0.019500842
000300 97 87 87 bd 10 6e 46 3c 86 b9 81 3d a2 76 bf bd
       -0.066176586 0.012111202 0.06334214 -0.09348799
000310 39 03 53 3d 21 f9 44 bd d3 47 e8 3d c1 70 e1 3d
       0.051516745 -0.04808915 0.113418244 0.11007834
000320 91 4b ba bd 90 58 89 bd 5c 7b 86 bc 39 59 e8 3d
       -0.090964444 -0.06706345 -0.016416244 0.11345143
000330 0b 6d cb 3d 62 66 6e 3d 20 01 b7 3d 40 ee eb 3d
       0.09932908 0.05820311 0.089357615 0.11520052
000340 f4 20 b1 3d a6 7e bc 3b 98 0c cf 3d c8 fd 72 bd
       0.086488634 0.0057524024 0.10109824 -0.059324056
000350 78 db 05 bc b7 2a ae bd 60 f5 be bd bb 76 f8 bb
       -0.008170001 -0.08504241 -0.09324145 -0.007582513
000360 19 61 98 bc 0b 10 66 bd a3 ff 4d 3d 5a 8c c8 3d
       -0.018600987 -0.056167644 0.050292622 0.09792395
000370 a0 4b b2 3d ec 09 36 3d 72 85 30 bc 5c 74 a6 bd
       0.087058306 0.044443056 -0.010774003 -0.081276625
000380 27 d2 a3 3d 76 c5 36 bd b1 cc bf bd ae 17 e1 bd
       0.07999068 -0.044621907 -0.09365214 -0.10990845
000390 aa 97 13 3d 45 48 2d 3d 9a 9c b2 3d b8 36 8c 3c
       0.03603331 0.04230525 0.08721276 0.017115936
0003a0 a6 a5 2a bd 86 c6 32 bd 00 e9 01 bd 53 5c af ba
       -0.04166188 -0.043646358 -0.031716347 -0.0013378955
0003b0 1f cc 74 3d 26 11 99 3b 99 01 80 bc 93 55 12 bd
       0.059764978 0.0046712337 -0.015625762 -0.03572614
0003c0 3d c2 f6 3c 1b c9 a6 3d a0 a1 d4 bd f1 2e b7 bb
       0.030121917 0.081438266 -0.1038239 -0.0055903126
0003d0 e3 74 04 bc 75 9e 3f 3d af 25 0e bc fd 3f 41 3d
       -0.008084509 0.046781976 -0.008675977 0.047180165
0003e0 ed e3 35 3c 1d 9f 86 3c b1 b3 b3 bd 98 ab ed bd
       0.011101705 0.016433293 -0.08774508 -0.116049945
0003f0 7c 2c c1 bc b2 f2 2c bd 0f 1b c2 3d 1d a8 de bc
       -0.023580782 -0.04222364 0.09477817 -0.027179772

backbone.model.2.0.model.0.bias f4 [8]
000000 e8 77 89 3d c2 ee 7e bd 44 ef c0 3c c4 38 c9 bd
       0.067123234 -0.062239416 0.02355159 -0.0982528
000010 73 43 a2 3c ff 2a 8a bd 40 c7 df 3c b8 48 c0 bb
       0.019807553 -0.06746482 0.02731669 -0.0058680438

backbone.model.2.1.model.0.weight f4 [8, 8, 3, 3]
000000 f1 1a e7 bb 2c e3 95 bc ac 5a a0 bd 0e 2c 3f 3d
       -0.007052772 -0.0182968 -0.07829794 0.046672873
000010 0e cf 48 3d bf 45 53 3c ea 28 89 3b 6a 4d 8e 3d
       0.049025588 0.012895047 0.0041857855 0.06948359
000020 ab 14 ad bd cc 8e 95 3c d2 df 4d 3d 71 06 d5 bd
       -0.08451208 0.018256567 0.05026228 -0.10401619
000030 a4 58 75 bc e8 9a bf 3d 61 70 80 bc ea 15 01 3d
       -0.014974747 0.09355718 -0.015678586 0.03151504
000040 70 0d 60 3c 8b 90 8b bd 8a b2 04 bd c7 71 80 bd
       0.013675079 -0.06814679 -0.03239683 -0.06271701
000050 c6 6d e8 bd 09 5f d6 bd d8 b6 4a 3d 55 eb 8f bd
       -0.113490626 -0.10467345 0.04949078 -0.07027308
000060 cf 2f 61 bc b1 6b 44 bd fe 90 b5 bd 13 54 ac bd
       -0.013744309 -0.047954265 -0.08865546 -0.084144734
000070 6e cf ac 3c 38 ff 8e bd 81 9d c5 3d e4 44 84 3d
       0.021095004 -0.06982273 0.09649182 0.06458452
000080 2f 56 ee 3c b4 29 12 3d 82 a1 ec bd b2 61 cf 3d
       0.02909383 0.035684302 -0.11554243 0.10126056
000090 e2 7f 26 3c 1e 90 c0 bd a6 f8 06 bb 11 e7 e8 bd
       0.010162326 -0.09402488 -0.0020594983 -0.113721974
0000a0 61 6f d8 3d 8e cf da 3d 88 e5 27 3d b6 6c 66 3c
       0.10568119 0.10684119 0.040990382 0.014064005
0000b0 79 3b a7 3d 5b 22 ee bc fd 7d 14 3d 6c 17 ae bd
       0.081656404 -0.029069116 0.036252964 -0.08500561
0000c0 ac 6e fe bc d2 69 3e bd e9 b4 81 3b 93 ea bc 3d
       -0.031058632 -0.046487637 0.0039583337 0.09224429
0000d0 9c e0 c6 bd 57 62 ce 3d 88 c5 a3 3d 86 95 e6 bd
       -0.097108096 0.100773506 0.079966605 -0.11258988
0000e0 48 87 b9 3d 17 0e 95 bd 5c 3f 26 bd b7 1c 0d bd
       0.09059006 -0.07278078 -0.040587768 -0.034451213
0000f0 57 9e 9f bd 55 ea 92 bd 6f d1 cc bd f0 aa b9 bd
       -0.07793873 -0.071736015 -0.10000884 -0.09065807
000100 01 91 5b 3c 97 13 c7 bd e9 d7 0e 3d 7a f8 d0 bd
       0.013401271 -0.09720533 0.034873877 -0.10203643
000110 fc 6b d9 3c a7 82 72 bd 9c 03 39 bd 45 8c a2 3d
       0.026540749 -0.05920663 -0.045169458 0.079369105
000120 36 35 71 bd 5e 0e cf bd 46 2d 45 3d c2 59 5e bc
       -0.058888637 -0.10110162 0.04813888 -0.013571205
000130 fa e5 bd bd c1 c2 b0 bd 33 bd fe bc 6f d9 80 3c
       -0.0927238 -0.08630896 -0.031096077 0.01572868
000140 d8 c4 01 bd 09 94 35 3d a6 cf a8 bd 38 d8 9b bd
       -0.031681865 0.04433063 -0.08242731 -0.076096
000150 e1 8c 88 3d 09 6c e3 3d 53 da 2a bb 4c a8 d0 3d
       0.066674955 0.111045904 -0.0026070073 0.1018835
000160 b9 29 9a 3d fc c1 90 bd 0d b1 82 bd 6e 81 a3 bd
       0.07527489 -0.070682496 -0.06381426 -0.07983671
000170 4f 5e 87 bc 2a 34 c9 3d f9 ee 87 bc 12 52 df 3a
       -0.016524462 0.09824403 -0.016593443 0.0017038009
000180 bb bb 1e bc e2 d2 1a bd df 2c 3b 3c 55 4d a4 3c
       -0.009688313 -0.03779877 0.011424272 0.020056406
000190 f7 f6 f0 bd 5f c4 43 bc f3 73 2d bd 5e aa eb bd
       -0.11765855 -0.011948674 -0.042346906 -0.11507104
0001a0 d1 5f a5 bd fb d0 6b b8 45 a3 dc bd d1 27 ad bb
       -0.08074916 -5.6222994e-05 -0.10773329 -0.0052842875
0001b0 e2 25 9e 3c 13 ac 9f bd ee 25 c4 bd 56 e4 95 3a
       0.019305173 -0.077964924 -0.09577547 0.0011435847
0001c0 36 77 e6 3c 45 7d 28 bd e9 b5 49 3d a0 4d bd bd
       0.028133016 -0.04113509 0.04924575 -0.092433214
0001d0 9f dc 61 bd f9 f9 3a 3d 51 80 99 bd 3a f4 3a 3c
       -0.05514204 0.04564855 -0.074951775 0.011410767
0001e0 ed 63 d9 bd 5b 61 03 bc 41 a0 61 3d 6e 8f 6f 3d
       -0.106147625 -0.008018817 0.05508447 0.058486395
0001f0 a1 66 01 bd 5c 80 91 3d c2 fa 50 bd 13 8f 89 3d
       -0.031592015 0.07104561 -0.05102039 0.06716742
000200 39 18 2f bd 30 70 ea 3c 61 35 f6 bc 15 23 9c 3d
       -0.04274771 0.028617948 -0.03005475 0.07623879
000210 3f 20 73 bc 33 ef 94 3d 99 6f f6 ba 30 64 c8 bc
       -0.014839231 0.07272186 -0.0018801569 -0.024461836
000220 01 65 b7 3c 34 04 df 3c f9 65 ab 3b d0 fd 3d bb
       0.02238703 0.027223684 0.005230662 -0.0028990395
000230 6a a8 ee bd 02 7d a3 3d 3d d0 e0 bc f0 b9 91 3d
       -0.11653216 0.07982828 -0.027443046 0.07115543
000240 a1 8b 9d 3d a9 4e c8 3d 18 77 50 bd 78 b9 cd 3d
       0.07692648 0.09780628 -0.050894827 0.10045141
000250 9c 0d 33 3d fe 43 d1 3c 6e f4 9f 3d 7c 89 6f 3d
       0.04371415 0.025545117 0.07810293 0.058480725
000260 72 d1 83 bd aa c2 eb bd de ca 85 bc 39 22 bc bc
       -0.06436433 -0.115117386 -0.016332086 -0.022965537
000270 bb f0 07 3b b0 0c 5a bd 3d 32 a5 bd 27 ac 27 bc
       0.0020742852 -0.053234756 -0.08066223 -0.010233915
000280 b8 2b 83 bd 02 a1 1d 3d 16 87 bd bd 57 7f e1 3d
       -0.06404823 0.038483627 -0.09254281 0.11010616
000290 d4 b9 71 3d e8 31 a8 bc 3d 1e 2c 3c 04 c9 a6 3d
       0.05901511 -0.02053161 0.010505256 0.081438094
0002a0 09 0d ab 3d bd 51 f0 bd 64 45 81 bd 09 fd e9 bd
       0.08352096 -0.1173434 -0.06312063 -0.11425216
0002b0 34 99 78 3c 05 05 d5 bb 4a 76 dc bd 69 ad db bd
       0.015173245 -0.0065008425 -0.10764749 -0.10726435
0002c0 a5 4e 0f 3d 3a 03 d8 3c 09 3a 9a 3d c9 8b 6c bd
       0.03498711 0.026368726 0.075306006 -0.057750497
0002d0 d4 35 4e bc 28 57 b3 3d bc c7 3b 3d 62 08 a7 bd
       -0.012586076 0.08756858 0.04584478 -0.08155896
0002e0 54 7d a0 3c 3b a1 7f bd 5d e5 05 3c a5 b5 cb bc
       0.019591011 -0.06240962 0.00817236 -0.024866888
0002f0 b0 6a 13 3d 65 0b f7 bc 46 c4 0e bd 07 93 6a 3d
       0.035990417 -0.0301568 -0.03485515 0.057269122
000300 45 fd 9d bd ba 5f ab 3d f5 4d 79 bd e2 4b 27 bd
       -0.07714323 0.08367868 -0.06086536 -0.040843852
000310 49 93 ea 3d dc a3 b5 bd 70 3c f1 bc c6 30 87 3d
       0.11453874 -0.08869144 -0.029447764 0.066011
000320 2a 62 db 3c 82 92 30 bd 8f 89 18 bd 20 5e f0 bd
       0.026780207 -0.04310847 -0.03724056 -0.11736703
000330 36 92 7c 3d 87 78 a4 3d 1f d6 4a bd 0b 5d ae 3d
       0.061662875 0.08030801 -0.049520608 0.0851384
000340 0c 5f 43 3d d9 75 d0 3b f7 75 15 3d dd ba 62 3c
       0.047698066 0.006361705 0.036489453 0.013838497
000350 10 88 be 3d d8 c1 40 bd ad 0a 82 3c 11 b9 37 3d
       0.093032956 -0.047059864 0.015874231 0.044854227
000360 cc 95 4e 3c e8 39 b0 bd 0f cf ba bd 62 ee e9 bd
       0.012608957 -0.08604795 -0.091215245 -0.11422421
000370 f2 6b 64 3d 2c 2e a9 bd 51 4d 09 bd 5d ef fd 3c
       0.055767007 -0.0826076 -0.033521 0.030997926
000380 b7 b0 01 bd 6b 65 0e 3d c9 96 2c bd 72 56 74 3d
       -0.03166267 0.03476469 -0.042135987 0.059652753
000390 e0 bb e8 3c e7 09 d2 bd 1d 5f 47 bd 94 75 07 bc
       0.028409898 -0.10255795 -0.04867469 -0.008267779
0003a0 c1 46 65 bd 97 ea 31 bd 85 8b 12 3d ed 71 26 3d
       -0.05597568 -0.043436613 0.035777587 0.04063599
0003b0 41 fc 28 bc 5d bb 46 3d 22 b7 a3 bc 63 87 d4 bc
       -0.010314048 0.048518527 -0.019984785 -0.025943464
0003c0 2d a8 95 bc e2 e1 2f bd 2c d8 99 3d c9 fa 33 3c
       -0.018268669 -0.042940028 0.07511935 0.010985085
0003d0 62 f8 cf 3d 92 83 d0 bd 5b 41 e5 bd c6 9f 9e 3d
       0.10154797 -0.10181345 -0.11194106 0.07745318
0003e0 cd 9f ba 3d 58 90 d6 bd e8 84 df 3c cc 8a a5 bc
       0.09112511 -0.1047675 0.027285054 -0.020207785
0003f0 3e e4 68 3d 9e c3 83 3d 67 85 e7 bd e2 5a c8 3d
       0.056858294 0.064337954 -0.11304741 0.097829595

backbone.model.2.1.model.0.bias f4 [8]
000000 27 0f 16 bd 7b 21 40 bd c4 09 b5 bc 4a fc e2 bc
       -0.036635544 -0.04690693 -0.022099383 -0.027708191
000010 7a d4 ac 3c 17 a9 ad 3d 9c fc af 3d 74 c5 21 bd
       0.02109741 0.08479517 0.08593103 -0.039494947

backbone.model.3.0.model.0.weight f4 [16, 8, 3, 3]
000000 7a 53 93 bd e7 79 d4 bd bb d8 74 3d 2d 35 5c 3d
       -0.07193656 -0.103748135 0.059777003 0.05376165
000010 ed 0b d8 3d 79 ba a8 bd 3c c5 03 3c 03 25 f0 bc
       0.1054915 -0.08238692 0.00804263 -0.029314524
000020 81 79 04 bd d6 0b c3 bd b8 32 c9 bd de 6e ec bd
       -0.032342438 -0.09523742 -0.09824127 -0.11544584
000030 52 1d 2a bd e7 fe d6 bd 2f 26 c7 3d e4 9f 10 bd
       -0.04153187 -0.104978375 0.0972408 -0.035308734
000040 e5 52 db 3d 2e 75 9c bd 9b 95 71 bd ff 8e 8d bd
       0.1070917 -0.07639538 -0.058980566 -0.0691204
000050 e3 d9 6a 3d 32 30 10 3d ca 62 74 3d b9 6a 62 3d
       0.0573367 0.035202213 0.059664525 0.05527756
000060 68 af 49 3c e5 e1 29 ba d3 7d 21 3d e0 33 e5 bd
       0.0123098865 -0.0006480499 0.039426636 -0.11191535
000070 c1 28 b4 bd 09 ac 88 3d 15 2a ba bd 08 b9 c8 bd
       -0.08796836 0.06673438 -0.09090058 -0.09800917
000080 44 1e fe bc 58 a4 de bc 8e e0 9b bd 82 43 ae bd
       -0.031020291 -0.027177975 -0.0761119 -0.0850897
000090 02 13 fc 3c a6 ca 75 3d 2b e7 8c bc f3 8e 5c bd
       0.030770782 0.060007714 -0.017200073 -0.053847264
0000a0 88 74 d3 3c 18 b7 26 3d 43 97 c3 3d b7 a8 98 bd
       0.025812402 0.040701956 0.09550335 -0.07454055
0000b0 db 12 a6 bd b3 39 cd bb 63 e0 cb bd fe 4d 81 3d
       -0.08109065 -0.006262982 -0.09954908 0.06313704
0000c0 86 22 b0 3d d0 1f e2 3c 66 88 05 bd 83 9e 6c 3d
       0.08600335 0.02760306 -0.032600783 0.057768356
0000d0 20 cf 10 bd 1f 37 0b bc 3c 8b e2 3d 6e c6 ef bd
       -0.03535378 -0.008497029 0.11061713 -0.11707769
0000e0 41 de 78 3b 36 bf 02 3d 22 95 d9 bd 4a fb 92 bd
       0.003797427 0.031920634 -0.10624148 -0.07176836
0000f0 4b b7 a0 3c a1 85 97 bd 49 70 8d bd 31 25 6a 3d
       0.01961865 -0.073985346 -0.06906182 0.057164375
000100 a4 ce 05 bd 18 dc 96 3d 70 08 ba bc 73 17 98 3c
       -0.03266777 0.07366198 -0.022709101 0.018565869
000110 a7 1d 1f 3d a2 38 eb 3d 3a df 96 3d c4 2c f2 3a
       0.038846638 0.11485411 0.07366796 0.0018476476
000120 13 b9 ee 3d 59 f4 cf bd 05 f6 9f bd bf 07 e0 3d
       0.11656394 -0.101540275 -0.078105964 0.109389775
000130 f6 2b 43 3d e9 af 94 bc 53 b0 36 3d bb 5a e2 bd
       0.047649346 -0.018150287 0.04460175 -0.11052462
000140 d3 b5 09 bd ad d2 67 3d f4 dd dd 3d 68 a2 8c 3d
       -0.033620667 0.0565974 0.1083335 0.06866914
000150 83 11 c4 3d 18 8f ea 3c 7d 07 cc bd a6 59 dc 3c
       0.095736526 0.028632686 -0.09962366 0.026898216
000160 71 82 4f 3d f0 91 c7 bc cf 8e c7 3d 8a b2 a5 3c
       0.050661508 -0.02436158 0.097440355 0.020226736
000170 da e6 82 3c ac 1e 0c 3d a0 58 28 3d a5 8e 58 3c
       0.01597922 0.03420894 0.041100144 0.013217603
000180 38 7b b3 3d 1d cb 6b 3b 7e 11 83 bd 4d ea 83 3d
       0.087637365 0.003597922 -0.06399821 0.06441174
000190 91 32 ed bd 51 8f ea bd 2e b9 83 3d c4 bc a5 3d
       -0.115819104 -0.11453117 0.064318046 0.08092645
0001a0 91 d9 c9 bd dd 4c b3 bc 5b 29 00 3d d4 c2 ba bd
       -0.098559506 -0.021887237 0.03128944 -0.09119192
0001b0 5c fb 72 3d 8a ed 8f 3d 56 da 27 3d 78 07 f4 bc
       0.059321746 0.07027729 0.040979706 -0.029788718
0001c0 72 9b d4 bd 3a e7 4a 3d b3 ec 9e 3d 44 d1 ad 3d
       -0.10381211 0.04953692 0.077599905 0.0848718
0001d0 93 6b b8 3d cb cb 73 bc be ca e4 3a 74 3b 13 3b
       0.09004893 -0.014880131 0.0017455441 0.0022465857
0001e0 80 2c c1 3c 8b f0 b8 3d 7e d5 0f bd 95 df ad bd
       0.02358079 0.09030255 -0.03511571 -0.084899105
0001f0 da 5a 81 bd 20 e3 e6 bb 3e b2 ee bd ce e6 3a bd
       -0.06316157 -0.0070461184 -0.11655091 -0.04563027
000200 c1 8a 94 bc 3a d1 33 3c ea f4 e4 3b 77 b1 63 3c
       -0.01813257 0.0109751765 0.006987204 0.013897291
000210 84 3d c2 bc 2a 47 8c bd e1 34 9a bd 9c 8e 10 bd
       -0.023710974 -0.06849511 -0.07529617 -0.035292253
000220 50 24 db 3d 67 cd 9d bd 78 3b c8 bc ba 5c df bd
       0.107002854 -0.07705193 -0.02444242 -0.10906358
000230 68 42 94 bd 33 a7 41 3d e7 1c ed bd 67 a3 3d 3d
       -0.072392285 0.047278594 -0.11577778 0.04629841
000240 be 1d d0 bd a8 64 34 bd af b4 66 3c 66 9d c0 3d
       -0.10161923 -0.044041306 0.014081164 0.09405021
000250 e6 5e 2d 3d e4 e6 be bd 36 b2 d0 3d ef 9b 89 bd
       0.04232683 -0.09321383 0.10190241 -0.06719195
000260 01 ad d3 bd 60 79 05 bd 28 5c 2c bd 3e d6 37 bd
       -0.10335732 -0.032586455 -0.042080075 -0.04488205
000270 82 86 0f bc ce 88 e9 bd 7d e7 d7 3d 9a 75 44 bd
       -0.0087600965 -0.114030465 0.105422 -0.047963716
000280 a8 60 b0 3b e4 4d dd 3d 58 5c 08 3d bf 1b de bd
       0.005382616 0.10805872 0.03329119 -0.10845136
000290 5e f7 a5 bd 4b 59 23 bc c4 7c e2 3d e9 32 8a bb
       -0.08103822 -0.00997002 0.110589534 -0.0042174947
0002a0 57 70 19 bd c1 64 95 3d df 1f 5a 3c 7a 23 1a bd
       -0.03746065 0.07294608 0.013313263 -0.03763149
0002b0 4b e1 e5 bd 2b 5c b6 bd 84 a6 5b bd e0 ab 36 3d
       -0.11224612 -0.089042984 -0.0536256 0.044597507
0002c0 69 41 ba 3d 12 e3 a3 bd 09 b7 1f 3b f0 17 e2 bd
       0.09094507 -0.080022946 0.0024370572 -0.11039722
0002d0 65 8e 21 3d ce 91 ce 3b ef 21 a4 3d a2 87 58 3c
       0.03944244 0.0063040024 0.08014285 0.013215931
0002e0 70 a2 b6 bd db 52 b8 3c 0c bf 7f bd 0a 38 92 bd
       -0.08917701 0.022500446 -0.062438056 -0.07139595
0002f0 03 71 d1 bd 17 74 b7 bd 20 af ca bd 50 c0 06 bd
       -0.102266334 -0.08957689 -0.09896684 -0.032898247
000300 c6 9e c3 bd 51 8b 9c bd 52 34 ba bd bb 74 8d 3d
       -0.09551768 -0.0764376 -0.090920106 0.0690703
000310 f3 81 cf 3d ce 70 cd bd 24 ec da 3b e4 6a 04 3c
       0.10132208 -0.100312814 0.006680982 0.008082125
000320 6e be 9a 3d d8 9b 8a 3c c0 58 b1 3d 8f 35 86 bd
       0.07555853 0.016920015 0.08659506 -0.06553184
000330 58 1a da 3d 3e e9 24 3d 7e 2f e8 bc 4d b2 01 bd
       0.10649556 0.0402615 -0.028342959 -0.03166418
000340 c5 a2 0d bd 24 cd a9 3d 4f 92 17 3d 83 87 48 3d
       -0.034579057 0.082910806 0.037004765 0.04895736
000350 31 d8 78 3b c3 e4 bb 3c a1 64 a0 3c ae 98 93 3d
       0.0037970657 0.02293623 0.019579234 0.07206856
000360 23 63 89 bb da 1d e2 3c 3f 54 a9 3d 0a 62 0b 3d
       -0.004192726 0.027602125 0.08268022 0.034029044
000370 62 2d 56 bd 77 0b 6e 3d 3d 68 35 3d db ea dc 3d
       -0.052289374 0.058116402 0.044288862 0.107869826
000380 7a 7a 99 bc 5f 13 91 3d 75 c9 4c 3d 43 74 2e 3d
       -0.01873516 0.07083773 0.049996812 0.042591345
000390 af 0c b5 3d 9b af c7 bd c9 2d a4 3d 65 ea 89 bd
       0.0884031 -0.09750291 0.08016545 -0.0673416
0003a0 4c 40 df 3d b5 10 c3 3b d8 b5 65 3d 29 9d 54 bd
       0.109009355 0.0059529194 0.056081623 -0.051907692
0003b0 15 d9 ed 3b 11 e0 ed 3c 10 0b 9d bd ae ab e6 bd
       0.007258544 0.029037507 -0.07668126 -0.11263214
0003c0 e1 4b d7 bd 28 be 60 bd 81 de bf bd 67 d6 66 3d
       -0.1051252 -0.054868847 -0.09368611 0.056356814
0003d0 4a 86 ec bc 6c d2 12 3d 6f c2 38 bd 62 e1 b1 3c
       -0.028872628 0.035845205 -0.0451073 0.021713916
0003e0 2b b6 74 3d 1e 0b 02 bc 93 d8 87 bc c8 46 80 3d
       0.05974404 -0.007937221 -0.016582763 0.062635005
0003f0 31 db 3e 3c 4f bb 50 bd bd 47 ea 3b 01 9e ea 3c
       0.011648939 -0.05095988 0.007149665 0.028639795

backbone.model.3.0.model.0.bias f4 [16]
000000 bc d2 1c 3a b7 66 b7 3d 74 5c 17 3d 13 8b 0b 3d
       0.00059823296 0.08955138 0.036953405 0.03406818
000010 52 c3 99 3d 31 ad b5 bc cd 8f 2c 3c cc 56 83 bb
       0.075079575 -0.02217731 0.010532332 -0.0040081497
000020 b6 70 d4 3d 8e 83 3a bc a7 e4 91 bd c6 9a d0 bd
       0.103730604 -0.011383904 -0.0712369 -0.10185771
000030 d4 10 89 bd 54 5e 9a 3d b7 14 e1 3d d2 c7 b8 bb
       -0.06692663 0.07537523 0.10990279 -0.005639055
