software/logs/hyper_parameter_tuning/custom_model_hp/version_0/checkpoints/epoch=49-step=1049.ckpt (torch, 195567 bytes, 54 tensors)

backbone.model.0.0.model.0.weight f4 [4, 2, 5, 5]
-0.02099832 -0.1319593 0.0109619405 0.01696775 0.06616411 0.014348676 -0.12526135 -0.00886291
0.006731459 -0.042663924 0.08762647 0.13354653 -0.1405142 0.08688686 0.067203134 0.018608121
-0.061282635 -0.00080889923 -0.099078074 -0.06529734 -0.09021875 0.061605647 0.12690754 -0.047623597
-0.091333605 0.06018764 -0.044330765 0.029094763 0.043589067 -0.024308786 0.07483197 0.13593052
0.03001424 0.13484906 0.03975854 -0.048802074 0.09445124 0.068391725 0.0294491 -0.07861298
-0.1377334 0.14100584 -0.10602651 -0.030570291 -0.01698813 0.10267247 0.11310266 -0.05658294
0.07652401 -0.0014964323 -0.0459852 0.056415025 0.10660156 -0.05886398 0.032676756 -0.022869168
-0.055414107 -0.065824784 -0.06341444 -0.0066342684 -0.13446555 0.022461 -0.1174805 0.03844646
-0.043887362 0.0074539906 -0.024496542 -0.02785637 0.038731117 0.10197068 0.11505814 -0.03262972
-0.08721999 -0.017139152 0.079738 -0.08093822 -0.061216783 0.13240248 -0.11339797 0.07550814
0.066277035 -0.11435142 -0.116680354 0.053709432 0.0537168 0.051850438 -0.11143416 0.011918489
0.09406054 0.038445614 -0.12046991 -0.046758085 -0.03424241 0.05019725 0.09677547 0.124817476
-0.025556248 -0.06323081 0.08263249 0.086788595 -0.06517562 -0.117322214 0.10609923 -0.123088785
-0.06422433 0.08021957 -0.05240757 -0.118931346 -0.0050816797 0.036428027 0.04849838 -0.0185229
0.12321072 -0.018073378 -0.017579872 -0.06778436 0.0038923966 -0.12971774 -0.12160076 0.114854686
0.08862033 -0.1356907 -0.115018114 -0.022617012 0.014348019 0.10118351 0.08486887 -0.13211907
0.01035833 0.12608016 -0.08372339 0.0006263022 -0.029747197 0.037925944 -5.0626797e-05 0.03442828
0.08456663 -0.07983976 0.06554314 -0.116350025 0.093258254 0.063829064 -0.09001227 0.09730916
-0.03785642 0.030064462 0.056328643 0.07746765 -0.01226529 0.12828203 -0.11826005 -0.019870032
-0.097100765 0.13142087 -0.11621641 -0.07203453 -0.014120106 -0.03409434 -0.08796717 0.028860494
-0.06837362 -0.112954855 0.045131605 0.058196895 0.02259238 0.11723878 0.08853116 0.03388654
-0.06375665 -0.031478472 -0.07770419 0.13935573 0.08922476 0.12985869 0.020043474 -0.0910048
0.11890471 -0.0885503 -0.083377816 -0.10949916 -0.13394211 -0.097500145 0.008806618 0.084951565
-0.1375769 0.09280035 0.11438571 0.05437849 0.07957612 0.049694035 -0.033955593 -0.034016266
0.011484865 0.118480176 0.0547685 0.020707337 0.077539384 0.077747166 -0.10649673 -0.056594152
00000000: ab04 acbc 5720 07be b699 333c f3ff 8a3c
00000010: 0d81 873d b616 6b3c 8344 00be bd35 11bc
00000020: 9293 dc3b 5ec0 2ebd 8275 b33d 6cc0 083e
00000030: f4e2 0fbe bdf1 b13d cca1 893d 0f70 983c
00000040: 8003 7bbd 4f0c 54ba 72e9 cabd 9dba 85bd
00000050: 9cc4 b8bd 3456 7c3d 0df4 013e f610 43bd
00000060: 1d0d bbbd 5187 763d 2d94 35bd 2458 ee3c
00000070: 738a 323d 3823 c7bc 8141 993d 5f31 0b3e
00000080: 6ce0 f53c df15 0a3e dad9 223d afe4 47bd
00000090: a76f c13d f610 8c3d 3d3f f13c d8ff a0bd
000000a0: fc09 0dbe d663 103e 6d24 d9bd 8c6e fabc
000000b0: b12a 8bbc f245 d23d 5ea2 e73d 83c3 67bd
000000c0: 9fb8 9c3d f023 c4ba fa5a 3cbd 7113 673d
000000d0: eb51 da3d 5b1b 71bd 10d8 053d 1f58 bbbc
000000e0: e7f9 62bd 25cf 86bd 6edf 81bd 4764 d9bb
000000f0: 56b1 09be 2200 b83c 9e99 f0bd 097a 1d3d
00000100: 3cc3 33bd 9b40 f43b f9ac c8bc 0b33 e4bc
00000110: 85a4 1e3d 01d6 d03d 9aa3 eb3d bea6 05bd
00000120: 65a0 b2bd 6867 8cbc ad4d a33d f0c2 a5bd
00000130: 73be 7abd 8494 073e 323d e8bd 03a4 9a3d
00000140: 41bc 873d 1431 eabd 1cf6 eebd 6cfe 5b3d
00000150: 2606 5c3d 2061 543d 9837 e4bd c445 433c
00000160: d0a2 c03d 2679 1d3d eeb8 f6bd 6885 3fbd
00000170: c541 0cbd a29b 4d3d 3832 c63d 4ea0 ff3d
00000180: 565b d1bc 287f 81bd 393b a93d 38be b13d
00000190: cc7a 85bd a146 f0bd 8e4a d93d f915 fcbd
000001a0: 0c88 83bd 284a a43d 52a9 56bd 4792 f3bd
000001b0: 3884 a6bb 8e35 153d 3da6 463d 56bd 97bc
000001c0: e755 fc3d 9f0e 94bc aa03 90bc 87d2 8abd
000001d0: 9417 7f3b bad4 04be d209 f9bd ef38 eb3d
000001e0: 937e b53d 81f2 0abe 9e8e ebbd 5047 b9bc
000001f0: f413 6b3c 4d39 cf3d bbcf ad3d 394a 07be
00000200: fcb5 293c 281b 013e 2b77 abbd 6e2e 243a
00000210: 65b0 f3bc 3c58 1b3d 1c58 54b8 ab04 0d3d
00000220: 4531 ad3d 0783 a3bd 7b3b 863d ec48 eebd
00000230: 2ffe be3d d0b8 823d 5a58 b8bd 064a c73d
00000240: 550f 1bbd bf49 f63c ddb8 663d 5ca7 9e3d
00000250: 5bf4 48bc 5d5c 033e 5332 f2bd 7ac6 a2bc
00000260: c4dc c6bd 3193 063e df02 eebd d786 93bd
00000270: 0458 67bc 82a6 0bbd 2228 b4bd d86c ec3c
00000280: 7807 8cbd e054 e7bd ebdb 383d de5f 6e3d
00000290: a813 b93c e31a f03d d34f b53d 9dcc 0a3d
000002a0: d992 82bd 92ef 00bd 6023 9fbd 45b3 0e3e
000002b0: 79bb b63d adf9 043e 3632 a43c b960 babd
000002c0: 5084 f33d dc59 b5bd fdc1 aabd 1841 e0bd
000002d0: 1f28 09be 28ae c7bd a249 103c 16fb ad3d
000002e0: f5e0 0cbe 1c0e be3d 0e43 ea3d fbbb 5e3d
000002f0: cef8 a23d f98b 4b3d 0515 0bbd a454 0bbd
00000300: 042b 3c3c bca5 f23d ef54 603d 6fa2 a93c
00000310: f8cc 9e3d e839 9f3d f51a dabd 45cf 67bd

backbone.model.0.0.model.0.bias f4 [4]
-0.09612218 -0.1283137 0.10323532 0.04965725
00000000: b5db c4bd ab64 03be 0a6d d33d 6765 4b3d

backbone.model.0.1.model.0.weight f4 [4, 4, 5, 5]
0.07093699 -0.0643568 0.09166048 -0.086083114 0.060361672 -0.056249 -0.032221258 0.005950904
0.06306398 -0.014611256 0.08416384 0.052746713 0.045589924 0.09739901 -0.02523203 0.062139343
0.050381996 0.070684485 0.0053649545 -0.008948386 0.013961089 0.049973417 0.03985516 -0.06388835
0.06449355 -0.06151631 0.0870715 0.08779522 0.06376728 0.031498313 -0.08273723 0.031065261
0.012989545 -0.0645021 0.054375123 -0.043091964 -0.08459651 0.009257019 0.0056382655 -0.094132446
-0.083854415 -0.0064442637 -0.021727502 -0.017022504 -0.030907452 -0.03480201 0.016337527 -0.08294153
0.041700363 0.08687643 0.09824371 -0.025009656 0.011758709 -0.062122453 -0.06380709 -0.037681937
-0.028375436 -0.060068358 0.07501685 0.075989366 -0.055141617 -0.018489648 -0.016230715 -0.09663538
0.06039467 0.046283007 0.028363813 -0.005283046 -0.007104516 0.08280233 0.039112043 0.04124242
-0.013028085 -0.008621752 -0.0044685486 0.031448483 0.02180096 0.08593698 -0.054784514 -0.018844796
0.091826394 0.069356084 -0.018438697 -0.023134256 0.035711445 -0.09967253 0.0046302676 0.01910807
0.025315559 -0.028283179 -0.006507349 0.057777453 -0.009982503 -0.048581492 0.034170818 0.05186043
-0.017055308 0.055238333 -0.019262685 0.01943828 -0.007317543 0.01958747 -0.04670937 0.066295505
0.07734157 -0.009409428 -0.092325084 0.032787275 0.06893285 -0.026432622 0.00650934 0.043160237
0.08825504 -0.08667804 0.066065274 -0.017290628 -0.097012356 0.07517395 0.02695104 -0.079038896
-0.076151885 0.079188995 -0.039004445 0.07073247 -0.081966415 -0.012293589 -0.037665285 0.056263506
0.08257013 0.0026572587 -0.02218808 0.021942401 0.080490306 0.098027885 0.08023721 -0.001604271
0.09569919 -0.07600923 0.065490305 -0.015401805 -0.023929333 -0.091774 0.027107775 0.099999405
-0.05991888 -0.093931794 0.03251139 0.05226326 -0.083689824 -0.062133085 -0.014897001 0.09064522
-0.04966111 0.053958047 0.053816654 -0.025914336 0.09525005 -0.019988442 0.057650756 0.011691106
-0.02228055 -0.08856068 -0.030349124 -0.03624916 -0.06963966 -0.0861693 -0.03855742 0.044515528
-0.04346622 -0.02651744 0.0003863454 -0.06948265 0.072080605 0.011154187 0.09875355 0.03960066
-0.04436293 -0.043970622 0.025801886 -0.069341235 0.04758042 -0.09168234 -0.067588024 0.07959858
0.046956014 -0.057167985 -0.019710887 -0.009837615 -0.049200725 -0.011966265 0.06348151 -0.030903054
0.022388566 0.022683753 -0.034657847 -0.0010458947 -0.08879583 0.038220633 -0.024516582 0.024579942
0.06428486 0.038102474 -0.0602713 0.066292755 -0.027162492 -0.027091755 -0.057373583 -0.07805456
-0.022759473 0.036567915 -0.06137812 -0.029698908 0.077578105 -0.03213617 0.008860052 -0.02584572
0.09253265 -0.032019865 -0.0059485673 0.00843699 0.0054832697 -0.047861982 -0.04053836 -0.015041351
-0.047494438 0.066078424 0.06556135 -0.07626126 0.0975155 -0.031586755 -0.0625303 -0.07471671
0.024188781 0.023019422 -0.070972525 -0.084310785 0.033860564 -0.04232526 0.06305956 -0.09319737
-0.00026379825 0.06100414 0.08702781 -0.040298797 0.016504288 -0.038456738 0.015492654 0.08265038
0.043005288 0.07755979 0.085140646 -0.028137267 -0.08457678 -0.08241408 -0.015156603 -0.07390554
00000000: 6a47 913d 7fcd 83bd 7db8 bb3d 584c b0bd
00000010: cd3d 773d 5a65 66bd 70fa 03bd cdff c23b
00000020: b027 813d 0d64 6fbc 175e ac3d f00c 583d
00000030: 80bc 3a3d 2279 c73d 67b3 cebc d385 7e3d
00000040: 5a5d 4e3d 07c3 903d 80cc af3b 409c 12bc
00000050: 0dbd 643c edb0 4c3d 2a3f 233d e5d7 82bd
00000060: 3215 843d 87f8 7bbd 8b52 b23d fbcd b33d
00000070: 6b98 823d 6004 013d 2372 a9bd 937c fe3c
00000080: 1ad2 543c ad19 84bd 73b8 5e3d 3381 30bd
00000090: ef40 adbd c0aa 173c 33c1 b83b 83c8 c0bd
000000a0: ddbb abbd 672a d3bb e0fd b1bc c772 8bbc
000000b0: a031 fdbc 8d8c 0ebd 47d6 853c 40dd a9bd
000000c0: 00ce 2a3d 45ec b13d 0034 c93d 0de1 ccbc
000000d0: 9aa7 403c 1d74 7ebd 4bad 82bd 6058 1abd
000000e0: 9a73 e8bc 3d0a 76bd 6fa2 993d 50a0 9b3d
000000f0: 2ddc 61bd 9a77 97bc 47f6 84bc c5e8 c5bd
00000100: 6760 773d 4093 3d3d 3a5b e83c 671d adbb
00000110: 00cd e8bb 4594 a93d f333 203d d0ed 283d
00000120: c073 55bc 4042 0dbc e76c 92bb 20d0 003d
00000130: ed97 b23c baff af3d ba65 60bd 6760 9abc
00000140: 7a0f bc3d 900a 8e3d c00c 97bc 0d84 bdbc
00000150: 2a46 123d 1d21 ccbd 80b9 973b 8788 9c3c
00000160: 9362 cf3c 20b2 e7bc 9a3b d5bb 0da8 6c3d
00000170: a78d 23bc 63fd 46bd b3f6 0b3d 9a6b 543d
00000180: 93b7 8bbc 9741 623d c7cc 9dbc 073d 9f3c
00000190: 00c8 efbb e775 a03c 5352 3fbd f0c5 873d
000001a0: 4265 9e3d 002a 1abc ef14 bdbd f34b 063d
000001b0: ab2c 8d3d 3a89 d8bc 4d4c d53b cac8 303d
000001c0: 0fbf b43d 4284 b1bd 3b4d 873d 13a5 8dbc
000001d0: 6aae c6bd cdf4 993d 6dc8 dc3c 25df a1bd
000001e0: 85f5 9bbd d72d a23d 20c3 1fbd 2fdc 903d
000001f0: 02de a7bd 0d6b 49bc ea46 1abd 9074 663d
00000200: 871a a93d 6725 2e3b c7c3 b5bc 8dc0 b33c
00000210: 1ad8 a43d d8c2 c83d 6853 a43d 6746 d2ba
00000220: f0fd c33d baaa 9bbd c81f 863d da57 7cbc
00000230: 7307 c4bc 02f4 bbbd 2011 de3c 7dcc cc3d
00000240: 806d 75bd 505f c0bd aa2a 053d 0012 563d
00000250: 9265 abbd 437f 7ebd 8d12 74bc 33a4 b93d
00000260: 7369 4bbd 1d03 5d3d da6e 5c3d 4d4a d4bc
00000270: 7512 c33d cdbe a3bc 3323 6c3d 0d8c 3f3c
00000280: b385 b6bc 4d5f b5bd ba9e f8bc 007a 14bd
00000290: 3d9f 8ebd 8879 b0bd 63ee 1dbd ea55 363d
000002a0: a309 32bd 1a3b d9bc 678e ca39 eb4c 8ebd
000002b0: ff9e 933d 0dc0 363c 4d3f ca3d 4d34 223d
000002c0: e7b5 35bd 8a1a 34bd 7a5e d33c c702 8ebd
000002d0: b0e3 423d f3c3 bbbd 976b 8abd 9504 a33d
000002e0: f354 403d fa28 6abd ba78 a1bc f32d 21bc
000002f0: b386 49bd 270e 44bc 9802 823d 6728 fdbc
00000300: 3a68 b73c 47d3 b93c 63f5 0dbd 6716 89ba
00000310: 97da b5bd 3d8d 1c3d 00d7 c8bc e05b c93c
00000320: c8a7 833d 5711 1c3d 0adf 76bd 7fc4 873d
00000330: e083 debc 87ef ddbc 9000 6bbd 12db 9fbd
00000340: 1372 babc 3dc8 153d a067 7bbd 204b f3bc
00000350: 45e1 9e3d 37a1 03bd c029 113c 67ba d3bc
00000360: c281 bd3d 4327 03bd 33ec c2bb 4d3b 0a3c
00000370: 00ad b33b ed0a 44bd 8d0b 26bd 0070 76bc
00000380: 8789 42bd 2054 873d 0745 863d dd2e 9cbd
00000390: 35b6 c73d 1d61 01bd e30f 80bd 1305 99bd
000003a0: 8d27 c63c 3a93 bc3c 0b5a 91bd 22ab acbd
000003b0: 60b1 0a3d 405d 2dbd 5f25 813d 43de bebd
000003c0: 674e 8ab9 7adf 793d a33b b23d 5a10 25bd
000003d0: 0034 873c d084 1dbd e7d4 7d3c 9a44 a93d
000003e0: 5026 303d abd7 9e3d 385e ae3d 2080 e6bc
000003f0: 9736 adbd b7c8 a8bd 6753 78bc ca5b 97bd

backbone.model.0.1.model.0.bias f4 [4]
0.09680151 0.045577325 -0.07506883 0.04093914
00000000: df3f c63d 4aaf 3a3d b0bd 99bd cdaf 273d

backbone.model.1.0.model.0.weight f4 [8, 4, 5, 5]
-0.04589465 -0.033556927 -0.017177476 0.068692304 -0.07090869 -0.099800505 -0.03126801 0.0068730353
0.032769836 0.0013409496 -0.0707762 0.005549395 0.0040830136 0.048424985 0.059389364 0.020185256
0.0044643166 -0.0890255 0.036673795 -0.0395831 -0.07771476 -0.046868086 0.045810055 0.061076175
0.05683097 0.039831173 0.09595629 0.0054657343 0.099955834 0.020076502 -0.093456924 -0.04516822
-0.09206624 0.021337533 0.08512535 0.08438601 -0.037174214 0.0810227 -0.0550781 0.050852027
0.08952346 0.022718633 -0.07321854 0.04911381 0.08909094 -0.075526156 0.030124223 -0.040240016
-0.083695434 -0.0007125378 -0.06687448 -0.09355392 -0.0138644455 0.08014083 0.054193236 -0.06382904
-0.063818276 0.03177036 0.04665214 0.036915626 -0.06964487 -0.09902292 -0.054308306 0.089717865
-0.07084121 0.02587049 0.047590997 -0.08622781 0.036160648 0.027719343 -0.020307124 -0.08779799
-0.08307958 0.02477529 -0.011433112 0.084884696 0.015240336 -0.0563771 0.0034424067 0.020444548
-0.034322035 -0.0138852475 0.043335892 -0.03827243 0.011845422 0.024363363 -0.08529096 -0.044035506
-0.015951682 0.062595785 0.028166473 0.09545546 0.056536734 -0.076480664 -0.018649602 0.01694926
0.040780403 0.07366518 0.007925535 -0.026798988 0.09869089 0.086569704 -0.026973749 0.077954926
0.059317745 0.089252606 -0.0938094 0.07347454 0.0824415 0.061048545 -0.08687911 0.036041882
-0.058932256 0.024016237 -0.02504735 -0.01667049 0.09535523 0.07088383 -0.05789554 -0.06480291
0.0404966 0.014022017 -0.08470732 0.094877794 0.08080008 0.09916927 -0.01225617 0.035102595
-0.04392003 0.04661429 -0.085118115 0.05356579 0.057051945 -0.093617454 0.025141228 0.011009717
0.055221964 0.0054166317 -0.013855839 0.07237022 0.048585225 0.09404377 0.0021708012 0.041341495
-0.024253666 0.0344205 -0.06860147 -0.07511574 0.03572897 -0.073053256 0.05872463 0.040296175
-0.06522397 -0.013148534 0.07145643 0.03519335 -0.07085075 -0.029665375 -0.06787925 -0.07872925
0.0027290941 -0.083546005 0.097849585 0.011584795 -0.0037079216 0.0233521 0.05882671 0.04781617
0.045896042 0.0018597603 0.04112288 0.0778389 0.09761243 -0.026160885 -0.0018871784 0.028479649
0.05912819 0.02991332 -0.075622655 0.028447485 0.08582067 -0.06454308 0.009102655 -0.062193453
0.057840027 0.05861925 -0.06311752 -0.08760583 0.080836356 0.08123336 0.020989228 -0.08517673
0.06485587 -0.08020623 -0.022682894 0.08250298 0.052907765 0.023411 0.03386687 -0.09017934
-0.04951625 -0.08723682 -0.02488929 0.060080077 0.028257608 0.045212377 -0.07330208 -0.070304416
0.07486679 0.084931254 -0.074141525 -0.03762096 -0.038078453 0.05532334 -0.024353696 -0.055192616
0.01177373 -0.05602584 -0.06245787 0.04037107 -0.035815097 -0.08401974 -0.03260256 0.086943425
0.054653503 -0.052722003 0.016670585 -0.021482443 -0.03488041 -0.09774312 -0.03140092 -0.052501585
0.046602596 0.02230593 -0.005761564 0.09481647 0.006674719 0.055145085 -0.03750385 -0.04988284
-0.033769142 0.034709692 0.074502125 -0.07751621 -0.0057783127 0.08580792 0.011897958 0.04614066
-0.08063584 -0.039791763 -0.00842942 -0.034616113 -0.036463093 0.018317843 0.09640174 0.04335482
00000000: 07fc 3bbd fd72 09bd c7b7 8cbc 8dae 8c3d
00000010: 9338 91bd 3564 ccbd e312 00bd 3337 e13b
00000020: aa39 063d cdc2 af3a 1df3 90bd b3d7 b53b
00000030: cdca 853b 4759 463d 4342 733d 8d5b a53c
00000040: 6749 923b 0053 b6bd 4337 163d e321 22bd
00000050: eb28 9fbd c0f8 3fbd 53a3 3b3d 032b 7a3d
00000060: 97c7 683d 0326 233d bb84 c43d e719 b33b
00000070: a5b5 cc3d 7a77 a43c 5866 bfbd 5002 39bd
00000080: 3a8d bcbd 0dcc ae3c 3356 ae3d 93d2 ac3d
00000090: fd43 18bd 3bef a53d 9399 61bd 374a 503d
000000a0: 1358 b73d 6d1c ba3c 9af3 95bd 902b 493d
000000b0: 5075 b63d 75ad 9abd 13c7 f63c b7d2 24bd
000000c0: 8368 abbd 9ac9 3aba 7df5 88bd 3399 bfbd
000000d0: b327 63bc e020 a43d baf9 5d3d cdb8 82bd
000000e0: 28b3 82bd a321 023d 5016 3f3d d734 173d
000000f0: f8a1 8ebd 87cc cabd 6372 5ebd 00be b73d
00000100: 3215 91bd 5aee d33c c7ee 423d 3598 b0bd
00000110: 301d 143d ad13 e33c 205b a6bc 6fcf b3bd
00000120: a025 aabd 8df5 ca3c f351 3bbc 07d8 ad3d
00000130: 9ab2 793c adeb 66bd 009a 613b 537b a73c
00000140: 4395 0cbd f37e 63bc fa80 313d 8dc3 1cbd
00000150: 4d13 423c ad95 c73c 07ad aebd 935e 34bd
00000160: 1aad 82bc 3832 803d 60bd e63c 277e c33d
00000170: 1093 673d e5a1 9cbd 0dc7 98bc 2dd9 8a3c
00000180: 5a09 273d c5dd 963d 1ada 013c 8d89 dbbc
00000190: 731e ca3d 754b b13d 0df8 dcbc d5a6 9f3d
000001a0: 2af7 723d 12ca b63d 251f c0bd d279 963d
000001b0: 17d7 a83d 0a0e 7a3d aded b1bd a7a0 133d
000001c0: f362 71bd b3bd c43c 1a30 cdbc 8d90 88bc
000001d0: 9a49 c33d 8b2b 913d e023 6dbd 63b7 84bd
000001e0: c3df 253d 9abc 653c 087b adbd 4a4f c23d
000001f0: 837a a53d 4219 cb3d 1ace 48bc bdc7 0f3d
00000200: 7de5 33bd a0ee 3e3d 6852 aebd cd67 5b3d
00000210: 4daf 693d 82ba bfbd faf4 cd3c 1a62 343c
00000220: 6d30 623d 007e b13b 9a03 63bc d736 943d
00000230: 4d01 473d 059a c03d 0044 0e3b b355 293d
00000240: a0af c6bc 83fc 0c3d ed7e 8cbd 48d6 99bd
00000250: 8a58 123d f29c 95bd 3d89 703d 9a0d 253d
00000260: 2594 85bd f36c 57bc c057 923d e726 103d
00000270: 331a 91bd cd04 f3bc 4704 8bbd cd3c a1bd
00000280: 9ada 323b 2b1a abbd 5d65 c83d 27ce 3d3c
00000290: 9a00 73bb e74c bf3c 47f4 703d e3da 433d
000002a0: 7dfd 3b3d 33c3 f33a 7770 283d 006a 9f3d
000002b0: 07e9 c73d 5a4f d6bc 335b f7ba 274e e93c
000002c0: 6730 723d c70c f53c 0de0 9abd b30a e93c
000002d0: bfc2 af3d 2a2f 84bd 4d23 153c 90be 7ebd
000002e0: aae9 6c3d bd1a 703d c243 81bd af6a b3bd
000002f0: 888d a53d ad5d a63d 9af1 ab3c 2371 aebd
00000300: 28d3 843d 2a43 a4bd 7ad1 b9bc 53f7 a83d
00000310: d0b5 583d 6dc8 bf3c fdb7 0a3d f2af b8bd
00000320: 8dd1 4abd 38a9 b2bd a0e4 cbbc 8716 763d
00000330: 807c e73c 9d30 393d 671f 96bd c3fb 8fbd
00000340: c253 993d 70f0 ad3d 83d7 97bd 7018 1abd
00000350: 27f8 1bbd ba9a 623d 6781 c7bc a711 62bd
00000360: 9ae6 403c 5a7b 65bd d3d3 7fbd 235c 253d
00000370: dab2 12bd 8b12 acbd 438a 05bd 650f b23d
00000380: 5adc 5f3d 07f3 57bd c090 883c f3fb afbc
00000390: c3de 0ebd 8b2d c8bd 409e 00bd e70b 57bd
000003a0: 5de2 3e3d edba b63c 80cb bcbb 232f c23d
000003b0: 9ab7 da3b d0df 613d a39d 19bd f351 4cbd
000003c0: 8351 0abd c02b 0e3d 9294 983d d2c0 9ebd
000003d0: 0058 bdbb 10bc af3d a7ef 423c fdfd 3c3d
000003e0: 6724 a5bd b0fc 22bd 8d1b 0abc a0c9 0dbd
000003f0: 535a 15bd 4d0f 963c 476e c53d d394 313d

backbone.model.1.0.model.0.bias f4 [8]
-0.036002636 -0.040962875 0.041470017 -0.06282311 -0.05919552 0.08950243 -0.09678187 0.07019448
00000000: 8077 13bd b0c8 27bd 77dc 293d 67a9 80bd
00000010: 0077 72bd 0d4d b73d 9335 c6bd 20c2 8f3d

backbone.model.1.1.model.0.weight f4 [8, 8, 5, 5]
0.015994983 -0.009367087 -0.013946107 0.042009603 -0.032907672 0.048066273 0.04969465 0.040574215
-0.05922683 0.054341324 0.047625985 -0.0076908306 0.037131023 -0.046939697 0.067742385 -0.016926032
-0.06368984 0.00037179422 -0.0151501745 -0.065212116 -0.041043397 -0.06035382 0.057721425 0.008638604
-0.004316259 0.04700063 0.03362664 0.018753562 0.056811567 0.04135706 -0.019132925 0.047439583
0.036050923 0.035369605 0.044770002 -0.02799876 0.06757635 0.024188904 0.013824479 0.05390111
0.044208918 0.056872346 0.032378417 0.036125887 0.008243999 -0.014503945 0.06489886 -0.038399573
0.036779255 -0.059595756 -0.05048159 0.06997747 0.026384046 -0.01909119 0.04105405 -0.054102074
-0.0004063378 -0.0039404524 0.06261314 -0.060726624 -0.06887142 0.0026305367 0.055625338 -0.006149175
-0.03471102 0.01156239 0.022766877 0.06139745 -0.047838394 -0.065296985 0.055609424 0.022413662
0.04889896 0.039291386 -0.021069935 0.0686029 0.037704572 0.057538215 -0.05163623 0.05299885
-0.057485826 -0.068648055 -0.05973297 0.037377607 0.06748701 -0.017752051 0.069641374 0.035957005
-0.054200623 -0.00051062595 -0.005618352 -0.07069983 -0.06612026 -0.07008994 -0.034585983 0.044949424
0.061966088 0.010298574 -0.029611964 -0.014160937 -0.025679216 -0.07044383 0.033039935 0.034758583
0.07013885 -0.06755681 -0.012617823 0.03167356 0.0284164 0.017353874 0.012560132 -0.046675235
-0.0069684424 -0.04272519 -0.0037572063 -0.05232057 0.030083604 -0.040507734 0.044022612 -0.009801495
-0.06959151 0.047836863 0.023453373 -0.011404069 0.012027624 0.020902207 -0.011297556 -0.017090792
-0.022092637 -0.0060077724 0.05183567 -0.015829725 -0.06276757 -0.037711233 0.041105006 0.066303805
-0.046792865 0.0064029833 0.06965953 0.06156243 -0.0638715 -0.0025239135 -0.022963265 0.044889994
-0.029755179 -0.03687363 0.05958882 0.007515407 -0.010017286 0.048129737 -0.020653145 -0.056443147
0.06494901 0.0033665218 0.007500639 0.06860075 0.006867863 0.0044478835 0.024215499 0.028775122
0.005767291 0.02091223 0.044053566 0.0047475225 0.021511095 0.06230306 -0.054736923 0.027351173
0.0039133015 -0.0056625474 -0.01319837 0.053000163 0.04353455 0.011002519 0.021106806 0.06686675
-0.0024999152 0.002117525 0.030153003 -0.05870895 -0.017617425 -0.042780865 -0.06715402 0.005625728
0.036022827 0.009163197 -0.03355166 0.011651034 -0.06772053 0.020753505 -0.031145662 -0.0075109396
0.017944856 0.032559015 0.009332628 -0.008027483 -0.03917185 -0.055666205 -0.056747068 0.034717415
-0.060527697 -0.030460196 0.0015063368 -0.06311387 -0.06046071 -0.02371148 -0.07043283 0.036958836
-0.053675245 0.015700165 0.067442134 0.05435992 0.04940014 0.06794544 -0.022023406 -0.0004225053
0.024827302 -0.068362385 -0.043744754 0.03450555 -0.027063403 -0.038835794 0.03008609 -0.056259174
0.06650651 0.030770598 -0.03928568 0.014312084 0.008066351 -0.028416308 0.0701415 -0.043860998
0.06474101 -0.063993104 0.020069294 0.05276456 -0.05789482 -0.024940416 -0.055146683 -0.035902053
0.006062588 -0.049865987 -0.04593538 -0.006405158 -0.033277426 0.05504898 0.032581843 -0.036901888
0.043505076 0.0077753016 -0.060032904 -0.013998377 0.050967917 -0.051086508 0.035464343 0.027949262
00000000: e907 833c 6978 19bc 367e 64bc 4312 2c3d
00000010: 32ca 06bd 24e1 443d 9e8c 4b3d 2631 263d
00000020: d597 72bd 0295 5e3d 7713 433d 5d03 fcbb
00000030: b316 183d d743 40bd 85bc 8a3d 76a8 8abc
00000040: d26f 82bd 60ed c239 7038 78bc ee8d 85bd
00000050: 1f1d 28bd 9135 77bd 4d6d 6c3d ee88 0d3c
00000060: 686f 8dbb bc83 403d 16bc 093d 12a1 993c
00000070: 3fb3 683d 0566 293d a7bc 9cbc 0250 423d
00000080: 22aa 133d b8df 103d c060 373d a85d e5bc
00000090: 7865 8a3d cf27 c63c 1180 623c 69c7 5c3d
000000a0: 6914 353d faf2 683d 3b9f 043d bdf8 133d
000000b0: d711 073c f4a1 6dbc b2e9 843d df48 1dbd
000000c0: d8a5 163d ae1a 74bd c9c5 4ebd 5950 8f3d
000000d0: 5b23 d83c 2165 9cbc 4b28 283d 239a 5dbd
000000e0: bc09 d5b9 e91e 81bb 513b 803d 7bbc 78bd
000000f0: 760c 8dbd 1565 2c3b 65d7 633d 057f c9bb
00000100: 242d 0ebd 2e70 3d3c 9a81 ba3c e47b 7b3d
00000110: 31f2 43bd 6dba 85bd b5c6 633d db9c b73c
00000120: 474a 483d 01f0 203d db9a acbc ad7f 8c3d
00000130: 1c70 1a3d 31ad 6b3d 8380 53bd 5215 593d
00000140: 4276 6bbd 5a97 8cbd 8faa 74bd 4319 193d
00000150: a136 8a3d c06c 91bc 23a0 8e3d a747 133d
00000160: 7901 5ebd 87db 05ba 271a b8bb 13cb 90bd
00000170: 0f6a 87bd 518b 8fbd 08aa 0dbd e31c 383d
00000180: 27d0 7d3d 5abb 283c ca94 f2bc 4603 68bc
00000190: 385d d2bc db44 90bd e254 073d 045f 0e3d
000001a0: f5a4 8f3d 3a5b 8abd fcba 4ebc 23bc 013d
000001b0: 83c9 e83c b629 8e3c 03c9 4d3c 882e 3fbd
000001c0: 8857 e4bb 9c00 2fbd 763b 76bb 184e 56bd
000001d0: e471 f63c 70eb 25bd 0e51 343d 7396 20bc
000001e0: fe85 8ebd 96f0 433d 4a21 c03c 22d8 3abc
000001f0: 830f 453c 1b3b ab3c 6219 39bc fd01 8cbc
00000200: 9efb b4bc d9dc c4bb a451 543d 57ad 81bc
00000210: 498c 80bd 1877 1abd b95d 283d 4aca 873d
00000220: e0a9 3fbd 1ed0 d13b a8a9 8e3d e328 7c3d
00000230: 10cf 82bd 3e68 25bb 751d bcbc 92de 373d
00000240: 22c1 f3bc ce08 17bd 6813 743d ce43 f63b
00000250: 8b1f 24bc b023 453d c930 a9bc ee30 67bd
00000260: fd03 853d dda0 5c3b ecc7 f53b 8d7e 8c3d
00000270: cf0b e13b 8dbf 913b 955f c63c ceb9 eb3c
00000280: 8bfb bc3b 2050 ab3c 8371 343d 1b91 9b3b
00000290: 0938 b03c 7e31 7f3d d333 60bd 910f e03c
000002a0: 273b 803b e48c b9bb fa3d 58bc b316 593d
000002b0: 4951 323d e943 343c 2ee8 ac3c 6ff1 883d
000002c0: 9ed5 23bb 2dc6 0a3b 6e03 f73c cc78 70bd
000002d0: 6b52 90bc fd3a 2fbd 0c88 89bd 0758 b83b
000002e0: ac8c 133d 3c21 163c 776d 09bd fae3 3e3c
000002f0: 10b1 8abd 4103 aa3c 3025 ffbc 541e f6bb
00000300: 1701 933c 9a5c 053d e1e7 183c b485 03bc
00000310: a972 20bd 3f02 64bd 9d6f 68bd d933 0e3d
00000320: e4eb 77bd a987 f9bc 4770 c53a d841 81bd
00000330: a6a5 77bd 943e c2bc 163f 90bd 2662 173d
00000340: 93da 5bbd a29d 803c 1a1f 8a3d 82a8 5e3d
00000350: cd57 4a3d fb26 8b3d 6e6a b4bc b483 ddb9
00000360: a062 cb3c 9401 8cbd b32d 33bd b155 0d3d
00000370: 12b4 ddbc 4812 1fbd 1b77 f63c 0570 66bd
00000380: 9134 883d 9f12 fc3c 05ea 20bd 3b7d 6a3c
00000390: ba28 043c 51c9 e8bc 59a6 8f3d 97a7 33bd
000003a0: ef96 843d d10e 83bd 5c68 a43c a71f 583d
000003b0: 1e23 6dbd d84f ccbc 7de1 61bd 080e 13bd
000003c0: ada8 c63b 4740 4cbd bd26 3cbd 5ce2 d1bb
000003d0: e94d 08bd 0a7b 613d 8a74 053d 6f26 17bd
000003e0: 6132 323d f5c7 fe3b 10e5 75bd 7359 65bc
000003f0: bcc3 503d 1640 51bd 0f43 113d daf5 e43c

backbone.model.1.1.model.0.bias f4 [8]
-0.053691015 0.051780213 0.034966644 0.042084087 -0.06493175 0.061723508 -0.0555796 -0.019443026
00000000: 1ceb 5bbd 7d17 543d 2f39 0f3d 5d60 2c3d
00000010: f0fa 84bd cad1 7c3d 6fa7 63bd fb46 9fbc

backbone.model.2.0.model.0.weight f4 [8, 8, 3, 3]
-0.09964522 -0.0010728621 0.020764586 0.016175525 -0.023575472 0.053057797 0.0027377328 0.08829151
0.11443794 -0.03896628 -0.019296205 0.06771033 -0.015092225 -0.08503824 0.11453638 0.100265495
0.054602254 0.033604134 -0.084866345 0.103224404 -0.11510085 -0.075992934 -0.052533433 0.04346485
-0.10212055 -0.056951772 0.0027721808 0.07469196 0.06439821 0.040800538 -0.016648075 -0.062113132
0.035003282 -0.07008471 0.050167013 0.0646906 -0.00512538 -0.05983757 0.11388108 -0.056978635
0.030526863 -0.021209769 0.012171841 0.025950193 0.009825723 0.004879734 0.10979403 0.036276523
0.003657321 -0.09417698 -0.08045456 0.112678915 0.033469517 0.001859238 0.07222891 -0.083562545
0.026394872 0.05685614 -0.061355695 -0.06942228 -0.03208457 -0.025458453 -0.024465613 -0.11439528
0.068544134 -0.09824762 0.115128025 0.0323338 -0.094410755 0.114511445 0.012085595 0.0213181
0.09931643 -0.06301346 0.03771713 0.03961579 0.10494416 0.018321361 0.06490284 -0.023635278
-0.1104485 0.10189221 -0.004610444 -0.0022710126 -0.046730388 0.0810249 0.08558432 -0.023205353
-0.060291924 0.042910185 0.11609406 0.01264553 0.11174431 0.051184554 -0.04344795 0.009499998
-0.08761199 0.11296454 -0.044745624 0.019658372 -0.07938605 -0.10210383 0.02547874 -0.032084554
-0.034199174 0.016693257 0.11741406 -0.029989913 -0.020328492 -0.09937654 -0.092998356 -0.015944041
0.074508816 -0.082655676 0.09024971 0.10643025 -0.10906128 -0.08000001 -0.06959531 0.020201461
0.015377727 -0.018557075 -5.2514974e-05 -0.00924928 -0.036159005 -0.08681758 0.07590499 -0.11695396
0.033345167 0.052520495 -0.007113264 0.030067647 0.038154025 -0.016800338 0.066772886 -0.07202413
0.08294347 0.09312422 -0.11644214 0.056487665 -0.002326211 -0.015448014 0.074427515 0.032663107
0.061604053 -0.040010888 -0.056419626 -0.013167252 0.047462747 -0.030697461 -0.10260175 -0.08528804
-0.021450793 0.07041689 -0.061625198 0.024024814 0.09399363 -0.067003906 0.0659961 0.10512947
0.0731712 -0.06078656 0.08652626 0.09160856 0.048241116 0.0031860769 -0.08042015 0.10528708
0.044520743 0.004925885 -0.030611763 -0.0015762781 0.047576472 0.0059349085 0.11511465 -0.017089846
-0.04065742 0.05853603 -0.03354566 0.047035545 0.06462777 -0.08827281 0.03787389 0.043686938
-0.06735836 -0.036700156 -0.013089322 -0.04153506 0.020224039 0.034883413 -0.013818462 0.059751686
0.051842775 0.10677858 -0.10825153 -0.05757223 -0.11125721 0.099416055 -0.035842285 -0.114149205
0.10904795 -0.023589352 -0.011288555 0.0635444 -0.11373396 0.047578987 -0.09258085 0.063479915
0.07909088 -0.0028627403 -0.038151287 0.03370225 -0.07305708 -0.10381574 -0.072010234 -0.087927796
-0.052023232 0.017613448 0.06313865 -0.08343491 0.03822725 0.006741866 -0.024472455 -0.022913795
0.09450893 -0.02715409 0.11233089 -0.01861358 0.109443255 0.07927708 -0.001653463 0.006249085
-0.11503956 -0.05164963 0.07826658 -0.09998893 -0.056267533 0.10325708 0.07969795 0.038697198
0.026589183 -0.00772917 0.0577875 0.033081863 -0.08987353 -0.1088242 -0.061083876 -0.032205954
0.031482544 -0.048691172 -0.032041173 0.073396854 -0.11591498 0.046597976 0.019534431 0.049773786
00000000: cb12 ccbd 479f 8cba 7e1a aa3c 8982 843c
00000010: 5921 c1bc 2253 593d 896b 333b 2ed2 b43d
00000020: 705e ea3d 1b9b 1fbd 1313 9ebc b7ab 8a3d
00000030: 6145 77bc 8728 aebd 0d92 ea3d ff57 cd3d
00000040: 9da6 5f3d 7da4 093d 68ce adbd 5167 d33d
00000050: ffb9 ebbd 2fa2 9bbd 4c2d 57bd 3308 323d
00000060: 9424 d1bd 4346 69bd 7aad 353b 19f8 983d
00000070: 35e3 833d 771e 273d 8b61 88bc 576a 7ebd
00000080: 9a5f 0f3d 9388 8fbd ed7b 4d3d 817c 843d
00000090: cef2 a7bb 3d18 75bd 7c3a e93d 6e62 69bd
000000a0: 7913 fa3c 1cc0 adbc 676c 473c 8095 d43c
000000b0: 12fc 203c 2de6 9f3b b1db e03d b196 143d
000000c0: aaaf 6f3b dcdf c0bd 5cc5 a4bd 34c4 e63d
000000d0: 5517 093d adb1 f33a c0ec 933d d722 abbd
000000e0: 0f3a d83c fce1 683d 1c50 7bbd 452d 8ebd
000000f0: 1c6b 03bd 3f8e d0bc 1c6c c8bc 1348 eabd
00000100: de60 8c3d 0c36 c9bd 3ec8 eb3d 7270 043d
00000110: 6d5a c1bd fa84 ea3d a902 463c 4ca3 ae3c
00000120: 6a66 cb3d 330d 81bd 477d 1a3d 2b44 223d
00000130: f7ec d63d ae16 963c c8eb 843d c59e c1bc
00000140: d332 e2bd ddac d03d 3513 97bb 45d5 14bb
00000150: 5d68 3fbd 62f0 a53d d546 af3d 2719 bebc
00000160: aaf4 76bd 97c2 2f3d b9c2 ed3d 322f 4f3c
00000170: 33da e43d e5a6 513d 7af6 31bd e1a5 1b3c
00000180: ea6d b3bd f459 e73d 3047 37bd 980a a13c
00000190: 2795 a2bd d01b d1bd cab8 d03c 186b 03bd
000001a0: 6f14 0cbd 4cc0 883c c876 f03d 68ad f5bc
000001b0: f087 a6bc ed85 cbbd ec75 bebd 149d 82bc
000001c0: 1498 983d 6147 a9bd d7d4 b83d 1af8 d93d
000001d0: 855b dfbd 0cd7 a3bd fc87 8ebd 897d a53c
000001e0: ddf2 7b3c 0205 98bc 8643 5cb8 4b8a 17bc
000001f0: 771b 14bd 6acd b1bd 1374 9b3d 8f85 efbd
00000200: f194 083d bb1f 573d 6216 e9bb 6d50 f63c
00000210: 6547 1c3d dda0 89bc 39c0 883d 6381 93bd
00000220: 44de a93d e9b7 be3d 3779 eebd 9c5f 673d
00000230: 5873 18bb ab19 7dbc 746d 983d c0c9 053d
00000240: 8854 7c3d 75e2 23bd 4418 67bd 75bb 57bc
00000250: 4c68 423d 3e79 fbbc de20 d2bd 7fab aebd
00000260: 93b9 afbc bb36 903d b46a 7cbd b0cf c43c
00000270: bb7f c03d 5839 89bd f728 873d 1f4e d73d
00000280: c8da 953d 54fb 78bd ae34 b13d 459d bb3d
00000290: 7a98 453d 80cd 503b 52b3 a4bd c1a0 d73d
000002a0: 625b 363d 5169 a13b 85c5 fabc 1e9b ceba
000002b0: 8cdf 423d 9f79 c23b 3bc1 eb3d 0100 8cbc
000002c0: 6588 26bd 7ac3 6f3d 2d67 09bd 58a8 403d
000002d0: 905b 843d 60c8 b4bd a721 1b3d 13f1 323d
000002e0: 2ef3 89bd e752 16bd 9874 56bc ab20 2abd
000002f0: e2ac a53c e9e1 0e3d d566 62bc 2fbe 743d
00000300: 1759 543d baae da3d fab2 ddbd dcd0 6bbd
00000310: d2da e3bd a59a cb3d 5ccf 12bd 0fc7 e9bd
00000320: 8854 df3d 753e c1bc a2f3 38bc 9123 823d
00000330: 5aed e8bd 2fe2 423d 079b bdbd c201 823d
00000340: 66fa a13d d09c 3bbb 8644 1cbd 5f0b 0a3d
00000350: f39e 95bd 599d d4bd 1a7a 93bd 7d13 b4bd
00000360: 5016 55bd 144a 903c d64e 813d ecdf aabd
00000370: 2d94 1c3d dfea dc3b 757a c8bc b6b5 bbbc
00000380: e68d c13d 4172 debc bd0d e63d 827b 98bc
00000390: c923 e03d 065c a23d 03b9 d8ba 20c5 cc3b
000003a0: dc99 ebbd 908e 53bd 3b4a a03d ffc6 ccbd
000003b0: c978 66bd 7378 d33d ae38 a33d f480 1e3d
000003c0: 8fd1 d93c fa44 fdbb 96b2 6c3d d980 073d
000003d0: 9d0f b8bd 39df debd 1633 7abd 64ea 03bd
000003e0: d7f3 003d 6570 47bd 9b3d 03bd 1751 963d
000003f0: d564 edbd 85dd 3e3d ac06 a03c 99df 4b3d

backbone.model.2.0.model.0.bias f4 [8]
0.048505135 -0.05727886 -0.020672986 -0.10945559 -0.07902931 -0.055758342 -0.093724586 0.09706342
00000000: 52ad 463d 3d9d 6abd 655a a9bc 412a e0bd
00000010: 1eda a1bd dc62 64bd adf2 bfbd 30c9 c63d

backbone.model.2.1.model.0.weight f4 [8, 8, 3, 3]
0.06902257 -0.06756636 0.07935675 -0.07529972 0.004814575 -0.09308019 -0.092962615 0.08577473
0.102148406 0.052523896 0.07531486 -0.021577867 -0.11755899 0.008550725 0.10049808 -0.116458684
0.032016713 0.046947613 -0.08666616 0.0040664123 0.089320354 0.032184176 0.084141366 -0.105306685
-0.093425654 0.027640466 0.109227195 -0.11529986 -0.07072597 -0.05686668 0.05408643 0.010561073
-0.040654793 0.04799908 0.022817377 -0.087601565 0.016461968 0.10793492 -0.03521115 0.082081884
-0.08855161 0.09771073 -0.08643279 0.086785585 0.099609 0.037375994 -0.049175143 -0.05426703
0.10784628 0.03145158 0.11576736 0.00804832 0.06154926 0.07549008 -0.06162351 -0.061589275
0.019860087 -0.014126655 0.08124234 -0.037838344 -0.083954215 0.11340513 0.09146347 0.08953527
0.006686471 0.09842194 0.050705425 -0.08340447 -0.11062348 0.102700226 0.0859527 -0.005970846
0.06270746 -0.112698525 -0.04567592 -0.08732129 0.11472143 0.116200306 0.042965088 0.10495961
0.0729095 -0.050160624 -0.02405478 0.005230649 0.1159848 -0.0048152916 0.081863016 -0.11002887
-0.015177263 0.073220834 0.1044098 -0.079649694 -0.107715264 0.07257102 -0.10325053 -0.048528373
-0.07190012 0.06435027 0.10285623 0.032178685 0.116203874 -0.11090748 -0.07569875 -0.012179723
0.067983724 -0.059992317 0.09655694 -0.101168126 -0.09196287 0.04361752 -0.052927647 0.015790092
0.08192055 0.110830925 -0.03480925 -0.060670264 0.048655067 0.048165545 0.070125975 0.052550152
0.052183293 -0.061842814 0.10155183 -0.11321498 -0.027030038 -0.006817716 0.11022115 -0.11551568
0.06300278 -0.1018223 -0.037974507 0.033400394 0.0132462485 0.11057456 0.07335145 0.021793671
0.10815605 0.061296802 0.0771526 0.036545053 -0.0010608222 -0.060967848 0.040375374 0.026283015
-0.00076996675 0.04147639 0.10341673 -0.0886749 -0.06042758 0.01937325 -0.03779277 0.027390001
-0.027791126 -0.07018262 0.055901095 -0.016671551 -0.060497124 -0.044959124 -0.11159734 -0.07019014
0.045140892 0.08594588 -0.035368945 0.026435332 0.050834678 -0.05586215 0.089444645 0.025705658
-0.041126247 0.03315705 0.110360846 -0.027621008 0.0028847412 -0.013396713 0.07459805 -0.044595566
0.036817536 0.08451219 -0.109820426 -0.05099232 0.025767656 -0.035255376 -0.11304787 -0.08032421
0.00010147556 0.11771242 -0.11423007 0.07047384 0.07075199 0.110019125 -0.061815955 -0.04504116
-0.016762307 -0.05264979 0.07554356 -0.051557355 0.026081046 -0.038390033 0.08724316 -0.045466617
-0.08238137 0.058395162 -0.048992284 -0.0748361 0.034038667 0.0036275934 -0.04380253 0.033858504
-0.08797461 -0.01592131 0.06368108 -0.03503038 -0.017639665 0.03149897 0.1165502 0.030104637
0.019401627 0.10244684 0.108880386 -0.038686186 -0.0550013 0.11432182 0.062284783 0.030528199
-0.03379042 -0.03520601 0.025067063 -0.06244754 -0.07437826 -0.108708456 -0.07007276 0.016986107
-0.10820559 0.06773045 0.011063309 -0.056249365 -0.07554276 0.041492153 0.010719924 -0.058680158
-0.08708975 -0.022959692 0.0069701476 0.06124135 -0.08310642 -0.06363455 0.06071189 0.013562813
0.039140627 0.055762053 -0.0061728274 0.062388394 -0.06418308 -0.031599402 -0.0403832 -0.0396874
00000000: b55b 8d3d 3b60 8abd cb85 a23d bd36 9abd
00000010: 95c3 9d3b d4a0 bebd 2f63 bebd a9aa af3d
00000020: 2f33 d13d 4c23 573d ad3e 9a3d 11c4 b0bc
00000030: c5c2 f0bd 5718 0c3c f0d1 cd3d e481 eebd
00000040: f523 033d 244c 403d 077e b1bd 8a3f 853b
00000050: 97ed b63d 8ed3 033d 4f52 ac3d 08ab d7bd
00000060: f355 bfbd 426e e23c 82b2 df3d 5522 ecbd
00000070: c7d8 90bd 09ed 68bd bc89 5d3d 5a08 2d3c
00000080: a485 26bd af9a 443d 82eb ba3c 7368 b3bd
00000090: 40db 863c fc0c dd3d 9139 10bd 8c1a a83d
000000a0: 8c5a b5bd 901c c83d ad03 b1bd a4bc b13d
000000b0: ceff cb3d 9217 193d e06b 49bd 1b47 5ebd
000000c0: 83de dc3d 5fd3 003d 7017 ed3d 1add 033c
000000d0: 141b 7c3d 8b9a 9a3d ef68 7cbd 0945 7cbd
000000e0: 9fb1 a23c 7c73 67bc 6262 a63d 61fc 1abd
000000f0: 30f0 abbd f340 e83d 3351 bb3d 455e b73d
00000100: 2f1a db3b 7191 c93d 7eb0 4f3d f6cf aabd
00000110: 908e e2bd 7f54 d23d f807 b03d 16a7 c3bb
00000120: c56c 803d 7cce e6bd ac16 3bbd 81d5 b2bd
00000130: 12f3 ea3d 6dfa ed3d 29fc 2f3d 10f5 d63d
00000140: 9351 953d 3a75 4dbd 880e c5bc dd65 ab3b
00000150: 7089 ed3d 98c9 9dbb cca7 a73d d156 e1bd
00000160: 0eaa 78bc cef4 953d ced4 d53d 611f a3bd
00000170: d299 dcbd 1da0 943d 0475 d3bd b0c5 46bd
00000180: 5f40 93bd 13ca 833d 4aa6 d23d cccd 033d
00000190: 4cfc ed3d 7623 e3bd f207 9bbd 768d 47bc
000001a0: 0d3b 8b3d 81ba 75bd a5bf c53d 3c31 cfbd
000001b0: 0757 bcbd 49a8 323d a9ca 58bd 395a 813c
000001c0: f6c5 a73d 53fb e23d 2594 0ebd 6281 78bd
000001d0: 894a 473d 3c49 453d 359e 8f3d d43e 573d
000001e0: 26be 553d e44e 7dbd 68fa cf3d 41dd e7bd
000001f0: 196e ddbc 2667 dfbb a0bb e13d 7c93 ecbd
00000200: 9a07 813d 3688 d0bd 288b 1bbd dace 083d
00000210: cb06 593c ea74 e23d 4939 963d a488 b23c
00000220: eb80 dd3d 5b12 7b3d 2f02 9e3d 44b0 153d
00000230: 490b 8bba 6cb9 79bd a660 253d 7a4f d73c
00000240: 98d7 49ba 26e3 293d 27cc d33d 309b b5bd
00000250: e982 77bd a6b4 9e3c 97cc 1abd ff60 e03c
00000260: 37aa e3bc e8bb 8fbd 8cf8 643d c792 88bc
00000270: d5cb 77bd 0f27 38bd 258d e4bd d9bf 8fbd
00000280: a8e5 383d 6504 b03d 07df 10bd e98e d83c
00000290: 0638 503d b6cf 64bd c12e b73d ac94 d23c
000002a0: ff73 28bd b0cf 073d de04 e23d 7445 e2bc
000002b0: ed0d 3d3b e37d 5bbc ddc6 983d d7a9 36bd
000002c0: fccd 163d ba14 ad3d 88e9 e0bd 53dd 50bd
000002d0: b116 d33c f167 10bd a485 e7bd 0581 a4bd
000002e0: 47cf d438 3613 f13d 74f1 e9bd 9754 903d
000002f0: 6be6 903d b551 e13d ba32 7dbd 147d 38bd
00000300: 1b51 89bc 4ea7 57bd 95b6 9a3d ce2d 53bd
00000310: eba7 d53c de3e 1dbd 8bac b23d 343b 3abd
00000320: 90b7 a8bd c42f 6f3d 22ac 48bd ab43 99bd
00000330: 216c 0b3d ebbc 6d3b 486a 33bd 37af 0a3d
00000340: 082c b4bd 686d 82bc 3a6b 823d 047c 0fbd
00000350: 0f81 90bc 1005 013d dfb1 ee3d 009e f63c
00000360: 29f0 9e3c a6cf d13d aefc de3d 6875 1ebd
00000370: 0b49 61bd 8f21 ea3d 541e 7f3d 4616 fa3c
00000380: d367 0abd 2d34 10bd 7159 cd3c fec8 7fbd
00000390: a153 98bd 8aa2 debd 4f82 8fbd 7326 8b3c
000003a0: e49a ddbd 43b6 8a3d e242 353c bc65 66bd
000003b0: 2ab6 9abd adf3 293d 9fa2 2f3c 9b5a 70bd
000003c0: 1c5c b2bd f715 bcbc d665 e43b 36d8 7a3d
000003d0: b333 aabd d552 82bd 08ad 783d 9036 5e3c
000003e0: ec51 203d c066 643d 6e45 cabb f98a 7f3d
000003f0: 6b72 83bd 606e 01bd db68 25bd 418f 22bd

backbone.model.2.1.model.0.bias f4 [8]
0.07939904 0.08116854 -0.021303602 0.0843444 -0.104033135 0.04746852 0.021450568 -0.08255661
00000000: f79b a23d b13b a63d e484 aebc c2bc ac3d
00000010: 530f d5bd 5a6e 423d 1ab9 af3c 7113 a9bd

backbone.model.3.0.model.0.weight f4 [16, 8, 3, 3]
0.0855611 0.0602856 0.08887909 0.01633522 -0.0027877472 0.028705966 0.031154472 0.083194084
-0.0642054 0.058947958 0.023370063 -0.0848599 0.06255972 0.042484544 -0.06338412 0.07090266
0.117565334 0.06644878 -0.029683717 -0.0049174977 0.10270424 -0.1148699 0.05913321 0.0053680474
0.065958776 0.09662426 0.062619425 -0.040186066 0.04745811 0.05225289 -0.095618136 -0.11768969
-1.3163865e-05 -0.05402789 0.071714565 -0.03138416 -0.031014025 0.06994591 0.019518191 -0.058568455
-0.037085798 0.023862282 0.11084544 0.086037464 0.030643737 -0.030702744 -0.0026058834 0.09772507
-0.08897433 0.027615795 0.027858505 0.05109142 -0.072234444 0.0084665995 -0.06182499 -0.08766907
0.00176681 0.058225956 -0.027367087 -0.017771682 0.03878676 -0.05015877 0.0830797 0.005160488
-0.08502544 -0.063277185 0.020405564 0.09773169 -0.11421026 -0.1099522 0.034399554 0.015309323
0.08518606 -0.03478034 0.0085488 -0.10434354 0.071976565 0.053348567 0.10554922 0.00714191
-0.07234477 0.064870745 -0.04068146 -0.04776366 0.06499334 -0.091977164 0.10443038 0.11148156
0.023736894 0.022926299 0.029915398 0.08676322 -0.004436349 0.049212825 0.026800226 0.029583996
-0.03761935 -0.0855667 -0.046940435 -0.079695754 0.020590479 0.016855817 0.0006734505 -0.08896403
-0.07026276 -0.081925735 -0.045828518 -0.0088096885 -0.025933854 0.093635894 -0.03809277 -0.05253953
-0.03011575 -0.015590246 0.064875565 0.116246685 0.017104765 0.10601003 0.046116196 -0.06749534
0.11404145 0.08202739 -0.087002575 0.0949635 -0.06349708 -0.039827608 0.072061926 -0.031598337
0.07197205 -0.10717446 0.10559425 -0.083464175 0.08291376 -0.0678757 0.08717268 0.07069431
0.100515276 0.072838925 0.02648088 -0.10737076 0.029039895 0.015542325 0.071511306 -0.033990577
0.10446758 -0.08742788 -0.04167448 -0.06898607 -0.1145266 -0.033583213 -0.10804696 -0.10627536
-0.034057602 -0.046776343 0.012064943 -0.009883885 0.09290843 0.024168098 0.05960122 -0.044597127
0.06963346 -0.052213624 0.00392751 0.050919477 -0.047164854 -0.056208275 -0.04348959 0.02623932
-0.07552614 0.021248333 -0.08321023 -0.011044006 -0.05034438 -0.077340044 0.101959944 -0.013644129
-0.04342245 -0.11710131 0.108180046 -0.11189122 -0.049424093 -0.05941923 0.08626715 0.10797524
0.10605791 -0.08923777 -0.063361384 0.024636462 -0.007193315 -0.03999469 -0.08262439 0.07952693
0.083882235 0.0688614 -0.036910076 -0.06544183 0.08983668 -0.08911743 -0.06584897 -0.05742976
-0.02228533 -0.027585 0.112680696 0.11523301 0.11417011 0.03680805 -0.03940483 -0.014260218
0.016121887 -0.03185678 -0.0062061795 0.00589338 0.011830775 -0.08444561 -0.046218067 -0.074345484
0.07269252 -0.0998143 0.11666359 -0.08147239 0.026771918 0.023318095 0.06481908 0.05871302
-0.01508794 -0.0007650636 -0.053680304 0.07054275 0.008929836 -0.014124997 0.07136921 -0.0862949
0.03590976 -0.025657373 -0.032943957 0.037933458 -0.04953061 -0.031269774 -0.05200595 0.03719524
-0.040154736 0.07580889 -0.07498531 0.08952513 0.075280495 0.1141418 -0.029263765 -0.07373102
0.03551559 -0.11327155 0.07273121 0.09083181 0.098119 -0.033254806 -0.040038522 -0.059171997
00000000: a83a af3d 09ee 763d 3e06 b63d 70d1 853c
00000010: a3b2 36bb c628 eb3c aa37 ff3c a961 aa3d
00000020: 1f7e 83bd 6a73 713d 9372 bf3c 07cb adbd
00000030: 4f1f 803d 4604 2e3d 89cf 81bd 6a35 913d
00000040: 18c6 f03d 4c16 883d 442b f3bc f622 a1bb
00000050: 9a56 d23d e940 ebbd aa35 723d 72e6 af3b
00000060: 6515 873d f1e2 c53d 9d3e 803d 259a 24bd
00000070: 6f63 423d 2007 563d 71d3 c3bd 4b07 f1bd
00000080: 5fda 5cb7 594c 5dbd 16df 923d ad8c 00bd
00000090: 2011 febc cd3f 8f3d 9de4 9f3c 7ae5 6fbd
000000a0: 47e7 17bd d57a c33c ef02 e33d 6934 b03d
000000b0: 9308 fb3c 5284 fbbc 78c7 2abb 1524 c83d
000000c0: 2c38 b6bd 853a e23c 8537 e43c 3d45 513d
000000d0: a7ef 93bd 7eb7 0a3c 333c 7dbd d78b b3bd
000000e0: 4e94 e73a 577e 6e3d f130 e0bc eb95 91bc
000000f0: dede 1e3d 4873 4dbd b125 aa3d 5019 a93b
00000100: d121 aebd 7897 81bd 9229 a73c 8d27 c83d
00000110: 12e7 e9bd 9e2e e1bd 8ce6 0c3d f4d3 7a3c
00000120: 0776 ae3d d475 0ebd 4410 0c3c 11b2 d5bd
00000130: 7368 933d 0784 5a3d 312a d83d af06 ea3b
00000140: 7f29 94bd f4da 843d 9aa1 26bd d4a3 43bd
00000150: 3a1b 853d 865e bcbd 98df d53d 7250 e43d
00000160: e073 c23c efcf bb3c 2311 f53c eab0 b13d
00000170: cb5e 91bb 6393 493d 268c db3c 235a f23c
00000180: bf16 1abd 983d afbd 9d44 40bd 8737 a3bd
00000190: 5dad a83c 3615 8a3c 7f8a 303a c632 b6bd
000001a0: ece5 8fbd aec8 a7bd afb6 3bbd 8356 10bc
000001b0: 3c73 d4bc 2dc4 bf3d 2a07 1cbd b133 57bd
000001c0: 4eb5 f6bc 3b6e 7fbc 7bdd 843d be12 ee3d
000001d0: 4b1f 8c3c c91b d93d 56e4 3c3d ff3a 8abd
000001e0: 908e e93d fafd a73d 682e b2bd 397c c23d
000001f0: c20a 82bd 4622 23bd 3495 933d 426d 01bd
00000200: 1566 933d 497e dbbd cc41 d83d 44ef aabd
00000210: b0ce a93d 6a02 8bbd 9787 b23d 2ec8 903d
00000220: f4da cd3d 932c 953d 6eee d83c 33e5 dbbd
00000230: 13e5 ed3c 3ca5 7e3c 8574 923d b439 0bbd
00000240: 19f3 d53d 630d b3bd dcb2 2abd 9248 8dbd
00000250: ec8c eabd 8d8e 09bd b947 ddbd e5a6 d9bd
00000260: fc7f 0bbd 8d98 3fbd 0aac 453c 05f0 21bc
00000270: c646 be3d 2dfc c53c 6920 743d 7aab 36bd
00000280: fd9b 8e3d f4dd 55bd 58b2 803b f190 503d
00000290: ef2f 41bd a63a 66bd 2422 32bd d8f3 d63c
000002a0: 73ad 9abd fc10 ae3c 206a aabd ebf1 34bc
000002b0: e935 4ebd 7564 9ebd 60d0 d03d a08b 5fbc
000002c0: bddb 31bd d0d2 efbd 808d dd3d 3927 e5bd
000002d0: eb70 4abd 9461 73bd d5ac b03d 1f22 dd3d
000002e0: e434 d93d 4bc2 b6bd 9dc3 81bd 68d2 c93c
000002f0: e6b5 ebbb 79d1 23bd fa36 a9bd 04df a23d
00000300: 73ca ab3d 3507 8d3d 052f 17bd 5e06 86bd
00000310: 4bfc b73d 3383 b6bd d3db 86bd 783b 6bbd
00000320: b98f b6bc f0f9 e1bc 23c5 e63d 49ff eb3d
00000330: 05d2 e93d 0ac4 163d f666 21bd b0a3 69bc
00000340: 0c12 843c 417c 02bd 355d cbbb 411d c13b
00000350: ded5 413c d2f1 acbd 284f 3dbd 7242 98bd
00000360: d1df 943d 716b ccbd 52ed ee3d ffda a6bd
00000370: c850 db3c 9705 bf3c debf 843d 107d 703d
00000380: 6833 77bc 8d8e 48ba e1df 5bbd b878 903d
00000390: 724e 123c 886c 67bc 052a 923d 61bb b0bd
000003a0: 1d16 133d 692f d2bc 3ef0 06bd 1d60 1b3d
000003b0: 9ce0 4abd bc14 00bd 3104 55bd 095a 183d
000003c0: 4b79 24bd b141 9b3d e691 99bd f458 b73d
000003d0: a92c 9a3d 2dc3 e93d 90ba efbc 4a00 97bd
000003e0: cc78 113d eafa e7bd 1af4 943d 0706 ba3d
000003f0: 9df2 c83d 3136 08bd 6fff 23bd 565e 72bd

backbone.model.3.0.model.0.bias f4 [16]
0.053732567 -0.011398602 0.111317866 -0.09778149 -0.09553044 -0.017422693 0.034466546 0.082947135
-0.11602245 -0.058139134 -0.04170807 0.0097258855 0.1061007 -0.022697624 -0.027031079 0.0064499117
00000000: ae16 5c3d 34c1 3abc 9ffa e33d a941 c8bd
00000010: 77a5 c3bd 09ba 8ebc cb2c 0d3d 30e0 a93d
00000020: 2e9d edbd 4d23 6ebd 15d6 2abd 5259 1f3c
00000030: 534b d93d 5ef0 b9bc 4870 ddbc c859 d33b
