software/logs/hyper_parameter_tuning/custom_model_hp/version_1/checkpoints/epoch=49-step=1049.ckpt (torch, 195567 bytes, 54 tensors)

backbone.model.0.0.model.0.weight f4 [4, 2, 5, 5]
0.13142115 -0.13530448 0.036998656 -0.025751555 -0.122531906 0.14093708 -0.048881084 -0.110740244
0.036603656 0.0736599 -0.12817445 -0.020744177 -0.081730455 -0.04749938 0.068003714 0.111393444
-0.12451407 0.009586542 -0.13618848 0.031244094 0.10412753 -0.07205164 0.13665427 -0.07941097
-0.12277307 -0.12195256 -0.04999753 0.07077662 -0.077805355 0.02894549 0.110511035 0.0232735
-0.08238221 -0.1298503 0.056325637 -0.11199315 0.062105108 0.120792344 -0.13512096 0.058514133
0.04991352 0.03819328 -0.13919547 -0.047148608 0.1254637 0.04862605 0.075799465 -0.017130407
-0.13783477 -0.006395392 0.11404163 -0.11697734 0.11556199 -0.06765159 0.05614854 0.09884957
-0.06534939 -0.018806484 0.11639328 0.017210962 -0.122564845 0.009829633 -0.09929002 -0.11642803
-0.0061193123 -0.014236198 -0.09620457 0.01687396 -0.088389486 0.121904574 -0.08930175 0.013016455
0.111420415 -0.013025543 0.016479123 0.09241127 -0.0134299295 -0.12640958 -0.029251417 -0.08890047
0.01376194 -0.05408004 -0.100551814 0.12238537 -0.044059996 0.042697266 0.13994205 0.014433069
-0.06071676 0.08363611 -0.10235381 0.06310949 -0.010684083 0.11974294 0.0037536107 -0.041319437
-0.13743648 -0.048820384 0.048704587 -0.054110717 0.13626178 0.05263132 -0.05193914 0.061574653
0.014726964 0.14918427 -0.028885791 -0.117259055 0.063010246 0.0072884825 -0.11774774 0.105618395
-0.07820441 -0.00749879 0.08118351 -0.099597834 -0.09777232 0.1367184 0.14481533 0.01962146
-0.0052653393 0.0072929086 0.13759774 -0.08626511 -0.11473136 0.102821305 -0.0818103 -0.005422467
-0.06654918 0.029946461 -0.004303318 -0.02183616 -0.049778756 0.0940356 0.09545011 0.0154002495
0.13921258 0.0860338 0.017741427 -0.09130986 0.10635232 -0.0013512326 -0.08366962 -0.0799799
0.115820564 -0.019845163 -0.05186661 0.112262316 0.14161685 -0.09671087 -0.09044659 0.07904727
-0.0656737 0.12651214 0.02412455 0.046291854 -0.09088914 -0.0013183379 -0.10072835 -0.11068617
-0.08429377 -0.13780734 -0.093495876 -0.062025677 -0.10699817 -0.09243951 0.046598155 -0.008231645
0.0030314021 -0.05840196 -0.028889792 0.1404838 -0.0024358672 -0.12906466 0.010135924 -0.06292025
-0.07889899 0.015942065 -0.08855944 0.06592094 0.13779038 0.040335394 0.06532902 -0.06806585
0.14596191 0.040760886 0.09360925 0.100146815 0.08386342 -0.032714274 0.13545182 0.102265105
-0.050906386 -0.03406716 0.017296838 0.14142399 -0.121960215 -0.10739344 0.10248139 0.09669238
00000000: 4493 063e 428d 0abe e78b 173d edf4 d2bc
00000010: 02f2 fabd cf51 103e 8837 48bd c8cb e2bd
00000020: b7ed 153d 00db 963d 2a40 03be b1ef a9bc
00000030: 4c62 a7bd b68e 42bd 8845 8b3d 3f22 e43d
00000040: 3c01 ffbd df10 1d3c fe74 0bbe 9df3 ff3c
00000050: d040 d53d cf8f 93bd 19ef 0b3e 38a2 a2bd
00000060: 7370 fbbd 44c2 f9bd 36ca 4cbd 55f3 903d
00000070: 6a58 9fbd 181f ed3c 9c53 e23d 11a8 be3c
00000080: 01b8 a8bd 7af7 04be b6b5 663d aa5c e5bd
00000090: ed61 7e3d fa61 f73d 265d 0abe 84ac 6f3d
000000a0: 1f72 4c3d 8f70 1c3d 4289 0ebe e61e 41bd
000000b0: 8e79 003e 1c2c 473d c03c 9b3d 1155 8cbc
000000c0: 8f24 0dbe 7090 d1bb a88e e93d d191 efbd
000000d0: c4ab ec3d eb8c 8abd 03fc 653d a571 ca3d
000000e0: e7d5 85bd 0e10 9abc 9a5f ee3d 01fe 8c3c
000000f0: 4703 fbbd 780c 213c 9158 cbbd d271 eebd
00000100: 8384 c8bb f13e 69bc e706 c5bd 423b 8a3c
00000110: 8c05 b5bd 1ba9 f93d d6e3 b6bd f842 553c
00000120: 6330 e43d 1669 55bc 3aff 863c 1f42 bd3d
00000130: 3509 5cbc 8371 01be aba0 efbc 7311 b6bd
00000140: c379 613c 0883 5dbd 1cee cdbd 2ea5 fa3d
00000150: 4178 34bd 54e3 2e3d f84c 0f3e ae78 6c3c
00000160: 23b2 78bd 6949 ab3d e09e d1bd 8c3f 813d
00000170: 4b0c 2fbc c93b f53d 23ff 753b 923e 29bd
00000180: 26bc 0cbe e2f7 47bd 767e 473d 33a3 5dbd
00000190: 3588 0b3e f093 573d 23be 54bd b435 7c3d
000001a0: 5d49 713c c3c3 183e e5a1 ecbc 8425 f0bd
000001b0: 840b 813d 39d4 ee3b ba25 f1bd 754e d83d
000001c0: a229 a0bd 69b8 f5bb 8a43 a63d f3f9 cbbd
000001d0: db3c c8bd e9ff 0b3e 784a 143e 2fbd a03c
000001e0: de88 acbb 5af9 ee3b 6ce6 0c3e c3ab b0bd
000001f0: 46f8 eabd fa93 d23d 298c a7bd f3ae b1bb
00000200: f04a 88bd 4852 f53c d902 8dbb bfe1 b2bc
00000210: cfe4 4bbd bd95 c03d 597b c33d 5451 7c3c
00000220: be8d 0e3e 7d32 b03d 7856 913c aa00 bbbd
00000230: 3fcf d93d d81b b1ba fa5a abbd 80cc a3bd
00000240: 5533 ed3d 5392 a2bc 1572 54bd c9e9 e53d
00000250: 0204 113e 5910 c6bd 103c b9bd 89e3 a13d
00000260: ef7f 86bd 668c 013e d9a0 c53c 879c 3d3d
00000270: 1624 babd 14cc acba aa4a cebd 6eaf e2bd
00000280: 36a2 acbd 5e1d 0dbe c47a bfbd a30e 7ebd
00000290: db21 dbbd ed50 bdbd b5dd 3e3d 06de 06bc
000002a0: 7daa 463b e536 6fbd 49aa ecbc fcda 0f3e
000002b0: 12a3 1fbb 8729 04be 2611 263c 55dc 80bd
000002c0: cb95 a1bd ef98 823c a75e b5bd 8f01 873d
000002d0: ec18 0d3e ba36 253d 39cb 853d 1c66 8bbd
000002e0: 0a77 153e e3f4 263d 35b6 bf3d c619 cd3d
000002f0: 96c0 ab3d 67ff 05bd e2b3 0a3e 5e70 d13d
00000300: 3783 50bd 028a 0bbd 19b2 8d3c 73d1 103e
00000310: 47c6 f9bd 18f1 dbbd c3e1 d13d a806 c63d

backbone.model.0.0.model.0.bias f4 [4]
0.13544558 0.06068892 -0.09697536 -0.021652335
00000000: 3fb2 0a3e f294 783d 049b c6bd 3d60 b1bc

backbone.model.0.1.model.0.weight f4 [4, 4, 5, 5]
-0.097202554 0.03712301 -0.06090678 0.06611719 0.08968224 0.035435304 -0.088295355 -0.052217796
-0.064670034 -0.08809488 -0.05135699 -0.062480077 -0.055195976 -0.07744628 0.043872543 -0.08008457
-0.07975458 -0.09834862 0.03645712 -0.06339504 -0.07479618 -0.09676992 0.035653006 0.061511062
-0.01721043 0.08219375 -0.09061041 -0.011990222 0.017427795 0.0015002798 0.0737753 -0.041098196
-0.0035933282 0.017593859 0.066972405 0.08881234 0.03490607 0.09510224 -0.076518945 -0.067550376
-0.07844362 0.05191624 0.0035810175 -0.026204148 0.08800843 0.026392478 -0.016444966 -0.08702855
-0.019281909 0.057999015 0.037350148 -0.03320067 -0.02097573 -0.10316929 0.05639181 -0.017520225
0.082080364 -0.073461756 0.013717851 0.04133875 0.07945184 0.04391626 -0.04234445 -0.019162761
-0.04063201 -0.005798139 0.07162535 -0.03397621 0.032612897 -0.038821533 -0.07283521 0.07813085
0.059897725 0.009314096 -0.06189929 0.02009716 0.011558895 0.061134804 0.016624216 -0.060318135
0.080520906 -0.07585981 -0.07601284 0.039059307 -0.004784924 -0.058461584 -0.095211074 0.082567394
-0.016578289 -0.028809581 0.036431417 -0.04504466 0.06932616 -0.051502306 0.060429193 0.08696471
0.006272512 0.080373496 -0.09050902 -0.06202475 0.03547934 0.028414771 -0.039372824 -0.078917004
0.0057146084 -0.099619985 -0.025346266 0.03474526 -0.037680846 -0.01285493 0.08145191 -0.07499741
-0.03406414 -0.012105134 -0.0013818509 -0.06145837 -0.036826327 -0.00552963 0.022469511 0.07393398
-0.07057151 0.01841696 -0.03488354 0.020064188 -0.06090493 0.0006451373 -0.05108447 -0.050183773
-0.09983701 -0.09436954 -0.0589625 0.06867497 0.07137904 -0.11342147 -0.081318915 0.0011263953
0.05155099 0.07317328 -0.09708676 -0.048625484 -0.03421749 0.074105404 -0.02736456 -0.10068887
0.05841205 -0.10114785 -0.07309476 -0.05458629 -0.06460451 -0.011731407 -0.061285194 0.018304925
-0.1008275 0.050193027 0.037677005 -0.02190714 0.004527793 0.030616907 -0.005179144 0.04411971
0.0076344614 0.0191373 -0.010061183 0.088596255 0.048635747 0.107125275 0.00018244458 0.09276228
-0.007353125 0.08280921 0.09643865 0.112608664 -0.020712351 0.07823493 0.08676134 -0.005117803
0.038288414 -0.033902436 0.07185357 0.07003054 -0.071031675 -0.01998055 0.020700745 0.045993637
0.0592624 0.045991924 -0.06800686 0.040682446 0.032059945 0.10508102 0.031608164 0.06369851
-0.05299343 -0.027625775 0.111229256 0.11827698 0.067225784 0.08798893 0.06353639 0.021103038
-0.00786946 -0.055222023 -0.10315301 0.049000867 0.06935587 -0.08676569 -0.07247868 -0.07376662
-0.09959188 0.003522981 -0.11320667 -0.043303818 0.04427824 0.044548467 0.004789252 -0.06446178
-0.038193822 -0.047186896 -0.07818862 -0.060681537 -0.074271984 0.0039027263 -0.07745901 -0.111377105
0.07032261 0.01990207 -0.04493801 0.01069469 -0.10998386 -0.008912302 0.04919806 -0.109530084
0.05984485 -0.06841483 0.05890806 -0.05721386 0.049603626 -0.03887049 -0.0936326 0.052714467
0.04199324 -0.027665738 -0.079099216 -0.09907065 -0.0033170814 0.091079496 -0.05376677 0.08064756
-0.09009 -0.10369945 0.044805393 -0.06314654 0.059492636 -0.06196838 0.0010759433 0.078234315
00000000: 2212 c7bd 4c0e 183d 6379 79bd 7368 873d
00000010: 52ab b73d 9c24 113d 32d4 b4bd 54e2 55bd
00000020: b971 84bd 176b b4bd b55b 52bd 1ceb 7fbd
00000030: 2d15 62bd 289c 9ebd b2b3 333d 6103 a4bd
00000040: 5f56 a3bd 006b c9bd 1054 153d 42d5 81bd
00000050: bd2e 99bd 4f2f c6bd e308 123d 06f3 7b3d
00000060: e3fc 8cbc 3255 a83d f391 b9bd a372 44bc
00000070: bcc4 8e3c 09a5 c43a 8117 973d 9556 28bd
00000080: 0b7e 6bbb ff20 903c d428 893d 3ee3 b53d
00000090: abf9 0e3d f7c4 c23d f7b5 9cbd da57 8abd
000000a0: 0ca7 a0bd 20a6 543d 81af 6a3b 15aa d6bc
000000b0: c43d b43d 0a35 d83c 98b7 86bc 063c b2bd
000000c0: 18f5 9dbc 6090 6d3d 78fc 183d 6dfd 07bd
000000d0: 4bd5 abbc 6c4a d3bd 19fb 663d 9386 8fbc
000000e0: c019 a83d 1e73 96bd d6c0 603c d252 293d
000000f0: a5b7 a23d 89e1 333d 6071 2dbd 39fb 9cbc
00000100: c06d 26bd 51fe bdbb 50b0 923d a32a 0bbd
00000110: 1a95 053d 5403 1fbd a02a 95bd 1103 a03d
00000120: 5157 753d 269a 183c 1c8a 7dbd cda2 a43c
00000130: 8561 3d3c 7d68 7a3d 822f 883c 2610 77bd
00000140: 25e8 a43d 635c 9bbd 9fac 9bbd a7fc 1f3d
00000150: daca 9cbb 6a75 6fbd 06fe c2bd 1819 a93d
00000160: 31cf 87bc 1202 ecbc 1c39 153d c080 38bd
00000170: e0fa 8d3d 15f4 52bd 9a84 773d 8e1a b23d
00000180: a589 cd3b dc9a a43d cb5c b9bd aa0d 7ebd
00000190: c952 113d 18c6 e83c 6645 21bd 3d9f a1bd
000001a0: 9c41 bb3b 9005 ccbd f9a2 cfbc 0c51 0e3d
000001b0: 3b57 1abd 7c9d 52bc 42d0 a63d 3e98 99bd
000001c0: d786 0bbd 9d54 46bc 391f b5ba c6bb 7bbd
000001d0: 34d7 16bd e631 b5bb fb11 b83c b36a 973d
000001e0: cc87 90bd 2adf 963c 0be2 0ebd a75d a43c
000001f0: 7377 79bd 6e1e 293a f33d 51bd 808d 4dbd
00000200: 5977 ccbd d144 c1bd aa82 71bd 76a5 8c3d
00000210: 2d2f 923d 8449 e8bd 888a a6bd 8ea3 933a
00000220: 2227 533d dfdb 953d 6cd5 c6bd 842b 47bd
00000230: a427 0cbd 93c4 973d a42b e0bc f735 cebd
00000240: 7941 6f3d 9b26 cfbd b5b2 95bd e095 5fbd
00000250: 5f4f 84bd 1635 40bc 2f06 7bbd 36f4 953c
00000260: a67e cebd 3497 4d3d 3453 1a3d 9a76 b3bc
00000270: e15d 943b 4fd0 fa3c cfb5 a9bb deb6 343d
00000280: 812a fa3b d4c5 9c3c a9d7 24bc f471 b53d
00000290: 4736 473d 7f64 db3d 984e 3f39 26fa bd3d
000002a0: 7cf2 f0bb e097 a93d a081 c53d 5f9f e63d
000002b0: f3ac a9bc a339 a03d eeaf b13d 3eb3 a7bb
000002c0: 50d4 1c3d 48dd 0abd f727 933d 2c6c 8f3d
000002d0: 0e79 91bd 40ae a3bc 9c94 a93c d363 3c3d
000002e0: 21bd 723d 0762 3c3d 2e47 8bbd a3a2 263d
000002f0: 4a51 033d b834 d73d 9077 013d 5d74 823d
00000300: a40f 59bd 734f e2bc 2acc e33d 343b f23d
00000310: acad 893d 8a33 b43d 5e1f 823d 47e0 ac3c
00000320: e8ee 00bc 7d30 62bd e341 d3bd 22b5 483d
00000330: 730a 8e3d 36b2 b1bd b46f 94bd f412 97bd
00000340: d4f6 cbbd d0e1 663b e6d8 e7bd 585f 31bd
00000350: 1a5d 353d 7478 363d 28ef 9c3b 8a04 84bd
00000360: 2071 1cbd 0c47 41bd 5b21 a0bd 348d 78bd
00000370: e91b 98bd e2c4 7f3b d4a2 9ebd ae19 e4bd
00000380: 4d05 903d aa09 a33c eb10 38bd c838 2f3c
00000390: 383f e1bd e704 12bc e883 493d 4f51 e0bd
000003a0: e01f 753d 131d 8cbd 9449 713d 1559 6abd
000003b0: 2c2d 4b3d aa36 1fbd 73c2 bfbd 20eb 573d
000003c0: 1b01 2c3d 42a3 e2bc c5fe a1bd 8ee5 cabd
000003d0: 6463 59bb e387 ba3d 8b3a 5cbd 8c2a a53d
000003e0: 1b81 b8bd 6160 d4bd dc85 373d f952 81bd
000003f0: 8dae 733d 8ed2 7dbd ab06 8d3a 5039 a03d

backbone.model.0.1.model.0.bias f4 [4]
-0.04870146 -0.035545316 0.056964863 0.0019157837
00000000: 2f7b 47bd f797 11bd fd53 693d 091b fb3a

backbone.model.1.0.model.0.weight f4 [8, 4, 5, 5]
-0.0730648 -0.034281917 0.09066816 0.02329922 0.075424634 -0.0562504 0.046358697 -0.059672453
0.07807228 -0.06997984 -0.07109468 0.0443822 0.008713289 0.028149478 0.06306569 0.05420839
-0.03775585 0.040032614 -0.033323143 0.07720577 -0.032829862 0.083065994 0.0902974 -0.08932672
0.03740797 -0.099262856 0.027936239 0.031949926 -0.09031076 0.085354656 0.088246286 0.03176956
0.09164295 -0.015684461 -0.0069024395 -0.088073984 -0.08887833 0.0015330771 0.021266025 -0.08923055
-0.08150835 0.080128424 0.098281436 0.020427987 0.045310818 -0.024088187 -0.042129286 -0.07445344
-0.08675162 -0.06340148 -0.012247724 -0.014883211 0.0185933 -0.067030855 -0.07787189 -0.0343284
0.0022679372 0.05190704 0.0118549345 -0.063568056 0.03318244 -0.06109221 -0.02125924 -0.045056414
-0.018993745 -0.071382776 -0.08897203 0.047926318 0.094357945 0.09545202 0.011089322 -0.03228717
-0.08224667 0.05687005 -0.096100956 0.09828985 -0.061661743 -0.0055850674 0.065155804 -0.051173918
-0.017275942 0.028977565 -0.08229848 0.045309894 -0.099589266 -0.011937323 -0.010491761 -0.084586725
0.024095817 0.067400664 -0.080502056 -0.0060867746 0.001547405 0.0927585 -0.071828306 -0.018116731
0.0856977 -0.058476653 0.04413553 -0.05306378 0.054499056 0.09834675 0.05812533 0.076393396
-0.0990548 0.02662885 -0.05824566 0.040895414 0.051245812 0.06662016 -0.028400192 0.033247665
-0.09001123 -0.036162615 0.0894237 -0.085808046 0.05741213 0.0037169834 -0.0049165227 -0.023003269
0.045691628 0.04768319 -0.069609694 -0.100254096 0.03568874 0.0509458 -0.07610921 -0.0147208
-0.061076276 -0.00024190896 0.00667018 0.023233166 -0.10115641 0.09547093 -0.030624934 -0.04583835
0.049785763 -0.011993361 0.03260586 -0.001730992 0.028635582 0.084260315 -0.036651522 -0.041108772
0.0815299 -0.025187148 0.092069134 -0.08725989 -0.018079158 -0.040596176 -0.09504656 0.021900168
0.020077549 0.079928905 -0.058214314 -0.085859336 0.065931804 -0.07753813 -0.0025211514 -0.03960477
-0.0050923293 0.041693974 -0.016928019 -0.0057804207 -0.08993939 0.017477643 -0.04089759 0.050947003
0.03013084 0.07556963 -0.03196617 -0.015005784 -0.017887563 0.08894618 -0.0655004 -0.010465772
-0.075061016 -0.076820426 0.052660648 -0.06423758 -0.0055762054 -0.051847376 -0.06800614 0.010769
0.005788489 0.02482916 -0.03886656 0.08762385 -0.031931244 0.014401792 -0.016026447 0.013055764
0.07205766 -0.07158629 -0.03221972 -0.056516998 0.067561395 -0.046101417 -0.020976258 0.050506417
-0.093034856 -0.044984307 0.012372772 0.03087871 -0.0019213873 -0.021719081 0.07817518 0.0122972755
-0.09003091 0.0078781145 0.07779844 0.0045263804 0.09436395 -0.03324942 0.082625054 -0.03553313
-0.011395645 0.013582603 -0.018709546 -0.018597286 -0.04150078 0.015882896 -0.061483186 -0.076460876
-0.04415394 -0.0019711587 0.081872344 0.09600406 -0.039611615 0.07182957 -0.06509312 -0.050234657
-0.071542695 0.1116726 0.06572043 0.107359886 0.095352344 0.021340543 -0.04942428 -0.038777057
0.09052648 0.06513178 0.099093564 0.11018 0.020042773 0.07512178 0.031597465 0.012020623
0.07836308 0.092639156 0.02439809 -0.023681914 -0.03851934 -0.086804666 -0.042205617 0.08308698
00000000: ffa2 95bd 326b 0cbd 3ab0 b93d 01de be3c
00000010: 3b78 9a3d d266 66bd 9ee2 3d3d 1a6b 74bd
00000020: 5ce4 9f3d 9751 8fbd 169a 91bd 1cca 353d
00000030: 2fc2 0e3c bc99 e63c 9628 813d 9e09 5e3d
00000040: e1a5 1abd 3df9 233d d97d 08bd 0f1e 9e3d
00000050: 9b78 06bd 811e aa3d d8ed b83d edf0 b6bd
00000060: 1939 193d 534a cbbd 8ada e43c eddd 023d
00000070: d9f4 b8bd 6cce ae3d 78ba b43d cc20 023d
00000080: 4daf bb3d b37c 80bc dc2d e2bb 2260 b4bd
00000090: d805 b6bd 88f1 c83a 1636 ae3c 82be b6bd
000000a0: daed a6bd 5f1a a43d c747 c93d 9858 a73c
000000b0: d697 393d 9754 c5bc c28f 2cbd 0c7b 98bd
000000c0: d5aa b1bd a3d8 81bd aeaa 48bc b6d8 73bc
000000d0: fa50 983c 7947 89bd 4c7b 9fbd f09b 0cbd
000000e0: aca1 143b 7a9c 543d 333b 423c f82f 82bd
000000f0: 4fea 073d d33b 7abd dc27 aebc 138d 38bd
00000100: c598 9bbc 2231 92bd f836 b6bd 634e 443d
00000110: bd3e c13d 597c c33d fdaf 353c 8d3f 04bd
00000120: f170 a8bd 92f0 683d 94d0 c4bd 304c c93d
00000130: 0691 7cbd f102 b7bb 6870 853d be9b 51bd
00000140: 4786 8dbc 5c62 ed3c 1b8c a8bd de96 393d
00000150: 75f5 cbbd c394 43bc a3e5 2bbc ce3b adbd
00000160: 9764 c53c 5c09 8a3d 43de a4bd 9173 c7bb
00000170: 4cd2 ca3a 2bf8 bd3d b81a 93bd 8a69 94bc
00000180: 4782 af3d 3785 6fbd 75c7 343d 6859 59bd
00000190: 673a 5f3d 056a c93d d314 6e3d 2474 9c3d
000001a0: 3edd cabd bf24 da3c 0093 6ebd f381 273d
000001b0: 21e7 513d 2770 883d 85a7 e8bc b42e 083d
000001c0: cf57 b8bd 401f 14bd c623 b73d 21bc afbd
000001d0: fb28 6b3d a298 733b c81a a1bb 5a71 bcbc
000001e0: 2527 3b3d 734f 433d 878f 8ebd 0552 cdbd
000001f0: 5b2e 123d 8bac 503d 25df 9bbd 832f 71bc
00000200: 1e2b 7abd f1a8 7db9 8691 da3b 7b53 be3c
00000210: 182b cfbd 4386 c33d 24e1 fabc fec0 3bbd
00000220: 28ec 4b3d cd7f 44bc b98d 053d 74e2 e2ba
00000230: 2b95 ea3c ac90 ac3d e81f 16bd ac61 28bd
00000240: 26f9 a63d 4755 cebc be8e bc3d 50b5 b2bd
00000250: be1a 94bc 2d48 26bd c5a7 c2bd fb67 b33c
00000260: ac79 a43c c4b1 a33d 2272 6ebd 05d7 afbd
00000270: 4107 873d 50cc 9ebd e739 25bb 9c38 22bd
00000280: 8edd a6bb 4dc7 2a3d a1ac 8abc af69 bdbb
00000290: 2532 b8bd 462d 8f3c 3b84 27bd cead 503d
000002a0: f4d4 f63c 40c4 9a3d f5ee 02bd d2da 75bc
000002b0: f088 92bc 6a29 b63d 1325 86bd a178 2bbc
000002c0: 97b9 99bd 0754 9dbd b1b2 573d fe8e 83bd
000002d0: 9ab8 b6bb ea5d 54bd ce46 8bbd 7670 303c
000002e0: 5dad bd3b 8666 cb3c 8b32 1fbd 2274 b33d
000002f0: 56ca 02bd 7ef5 6b3c e549 83bc d8e7 553c
00000300: f792 933d d59b 92bd d3f8 03bd 5e7e 67bd
00000310: a15d 8a3d d7d4 3cbd 67d6 abbc d1df 4e3d
00000320: 0f89 bebd 7741 38bd 2bb7 4a3c 59f5 fc3c
00000330: 0fd7 fbba 37ec b1bc 4f1a a03d 837a 493c
00000340: 2062 b8bd 3513 013c ca54 9f3d 0852 943b
00000350: e341 c13d 8b30 08bd 5337 a93d 308b 11bd
00000360: cdb4 3abc 9189 5e3c c344 99bc 5659 98bc
00000370: b9fc 29bd d91c 823c cbd5 7bbd 8597 9cbd
00000380: c3da 34bd 8e2e 01bb b0ac a73d c79d c43d
00000390: ca3f 22bd 621b 933d 8b4f 85bd dbc2 4dbd
000003a0: fa84 92bd 9bb4 e43d 6f98 863d 80df db3d
000003b0: 1748 c33d 5dd2 ae3c 1d71 4abd b1d4 1ebd
000003c0: f265 b93d d063 853d 91f1 ca3d 0da6 e13d
000003d0: be30 a43c 73d9 993d 586c 013d 26f2 443c
000003e0: d37c a03d 99b9 bd3d 81de c73c 9300 c2bc
000003f0: 75c6 1dbd a5c6 b1bd ccdf 2cbd 8229 aa3d

backbone.model.1.0.model.0.bias f4 [8]
0.040587965 -0.021422198 0.07247157 0.066835076 -0.0679007 -0.024391202 -0.063288175 0.0054566595
00000000: 913f 263d 9b7d afbc f96b 943d d4e0 883d
00000010: 860f 8bbd 0fd0 c7bc 3b9d 81bd c7cd b23b

backbone.model.1.1.model.0.weight f4 [8, 8, 5, 5]
-0.045264665 0.029502003 0.024239615 0.028401444 -0.007417531 0.024441196 -0.06402351 -0.0058566323
0.002176046 -0.044289127 -0.054162174 0.05050051 -0.04842949 -0.011352556 -0.019487672 0.058188207
0.06421611 0.029227365 0.030174717 0.052115545 -0.053336523 0.01609058 -0.014264335 -0.003776979
-0.027084593 0.01692402 0.05131666 0.045793515 0.0012511084 -0.054088805 0.0674252 -0.041739386
-0.0035932374 0.062682964 -0.054101147 -0.063471384 -0.022949254 -0.060153898 0.05380224 0.053621374
0.028976938 -0.06438219 0.040922254 0.0014904457 0.010451395 0.033216048 -0.047025293 -0.04291117
0.043166056 -0.030953513 -0.02365672 -0.07245218 -0.03426399 0.02364398 0.015835788 -0.07796714
-0.031567086 -0.033525985 0.06546568 -0.001715016 -0.10117386 -0.04312229 -0.059633426 -0.029857015
-0.013053032 0.002856314 -0.06440035 0.033399776 -0.012130415 0.0026201557 -0.06463865 -0.0031514321
-0.013793858 -0.065844335 0.052040692 -0.013030094 -0.058423992 0.054746363 -0.04392392 0.06390258
-0.01787406 0.040001668 0.041483276 -0.043502286 0.035906896 -0.078841075 -0.08000606 0.03467173
-0.0007397946 -0.011768997 0.016306572 -0.016081003 -0.024827065 -0.031372502 -0.012511215 -0.023387613
-0.07711256 0.0006123227 -0.008456037 0.062067002 -0.052657515 0.067226194 -0.03406384 0.012392596
0.019570544 -0.033420127 -0.0779334 -0.03032679 -0.06098411 0.048833728 -0.06270954 -0.057000466
-0.00039399354 0.013521183 0.061689418 -0.058356047 0.061669853 -0.011268505 -0.06524235 -0.025661154
-0.03521877 0.037591767 -0.009627398 -0.054074313 0.06487595 0.0638543 -0.00044686272 -0.01904694
0.0016026495 -0.005318726 -0.03623346 0.025024284 0.04687142 0.04522143 0.008277277 0.02981481
0.042418588 0.026325239 -0.013137416 -0.026809292 0.0250254 0.05837856 -0.034218766 -0.020589523
0.0054241098 -0.026636407 0.016892476 -0.0015706304 -0.06829451 -0.02324062 -0.08373693 0.055596262
0.084600866 0.0069058756 0.047867745 -0.07721966 -0.008437603 0.028123507 -0.034325335 -0.0014699271
0.031160919 -0.050872315 0.04993662 -0.042855244 0.014827852 0.015167868 0.0070013823 0.013083844
0.005691683 0.07989673 -0.04335633 0.046456143 -0.091640994 0.039914362 -0.010651317 0.04833295
-0.051043175 -0.04149547 0.08494868 0.0086106155 -0.08250852 -0.06646153 -0.053542823 0.09443954
0.07829076 -0.076539434 -0.021432536 0.026227212 -0.011568246 0.02992957 0.004866711 -0.052963484
-0.05696537 -0.0013541315 0.017109266 -0.024428518 -0.07338226 -0.026811596 0.0031876226 0.07271684
-0.03280018 0.06134855 0.0455383 0.05259421 0.0058054873 0.06138004 -0.019657614 0.06480066
-0.026406098 0.031580675 0.04001266 -0.04721498 -0.05085866 0.012139834 0.0072886227 0.050793055
-0.0387301 0.049211945 -0.0335175 0.025946097 -0.0017126503 0.021618456 -0.052886892 -0.06316281
-0.0111488355 -0.04936778 0.034954384 -0.014209048 0.018634511 -0.0062518967 0.049718242 -0.039834097
0.0043882984 -0.02970965 0.012142382 -0.04972992 -0.03494217 -0.039716605 0.017253857 0.063485086
0.0010352364 0.043121092 0.037899513 -0.00891037 0.04165026 0.046214398 -0.024329333 0.015348749
-0.0533871 0.0118142245 0.029302169 0.020994566 -0.015429738 -0.045154605 0.05914376 0.051392067
00000000: 7167 39bd 2fae f13c 2892 c63c 25aa e83c
00000010: c30e f3bb e738 c83c c21e 83bd fee8 bfbb
00000020: fe9b 0e3b 8468 35bd 28d9 5dbd 9fd9 4e3d
00000030: 005e 46bd 1200 3abc 9ca4 9fbc c256 6e3d
00000040: bc83 833d 3a6e ef3c f830 f73c 1c77 553d
00000050: 6677 5abd 64d0 833c f5b4 69bc 3187 77bb
00000060: 82e0 ddbc 3ea4 8a3c 6b31 523d fb91 3b3d
00000070: 3bfc a33a 398c 5dbd 3916 8a3d ebf6 2abd
00000080: 857c 6bbb ed5f 803d 2a99 5dbd 49fd 81bd
00000090: 1300 bcbc ef63 76bd bd5f 5c3d 16a2 5b3d
000000a0: 0b61 ed3c cfda 83bd 189e 273d 0f5b c33a
000000b0: 543c 2b3c 8d0d 083d 989d 40bd 9fc3 2fbd
000000c0: e4ce 303d 3992 fdbc bdcb c1bc cf61 94bd
000000d0: 6658 0cbd 05b1 c13c 0eba 813c 3cad 9fbd
000000e0: 7d4c 01bd 8b52 09bd df12 863d 63ca e0ba
000000f0: 3e34 cfbd 00a1 30bd 2e42 74bd b396 f4bc
00000100: 62dc 55bc ff30 3b3b 55e4 83bd 34ce 083d
00000110: a6be 46bc ebb6 2b3b 4561 84bd 4288 4ebb
00000120: a2ff 61bc 65d9 86bd 9f28 553d 2d7c 55bc
00000130: ff4d 6fbd b93d 603d 91e9 33bd 5bdf 823d
00000140: 9f6c 92bc cad8 233d 5eea 293d 742f 32bd
00000150: 1c13 133d 6e77 a1bd 38da a3bd f203 0e3d
00000160: c6ee 41ba c0d2 40bc 5c95 853c 4fbc 83bc
00000170: 2162 cbbc 7480 00bd d7fb 4cbc 6197 bfbc
00000180: 31ed 9dbd 4884 203a 318b 0abc f839 7e3d
00000190: 68af 57bd e3ad 893d 8686 0bbd 510a 4b3c
000001a0: 6852 a03c 8be3 08bd 8c9b 9fbd e36f f8bc
000001b0: 79ca 79bd e005 483d dc6d 80bd 5279 69bd
000001c0: eb90 ceb9 f487 5d3c 0bae 7c3d c006 6fbd
000001d0: 8799 7c3d 899f 38bc c89d 85bd 5737 d2bc
000001e0: 8f41 10bd d3f9 193d 3cbc 1dbc 077d 5dbd
000001f0: afdd 843d 0bc6 823d e648 eab9 5408 9cbc
00000200: fe0f d23a b548 aebb 8969 14bd baff cc3c
00000210: 3ffc 3f3d 1b3a 393d 6b9d 073c 303e f43c
00000220: 1dbf 2d3d 07a8 d73c 513e 57bc 299f dbbc
00000230: 1102 cd3c 5b1e 6f3d fa28 0cbd 5cab a8bc
00000240: bbbc b13b 9834 dabc 1762 8a3c 9cdd cdba
00000250: fedd 8bbd 1d63 bebc 447e abbd e8b8 633d
00000260: 3843 ad3d af4a e23b f810 443d 5725 9ebd
00000270: df3d 0abc 4563 e63c b998 0cbd 92aa c0ba
00000280: 2f45 ff3c 7d5f 50bd 578a 4c3d fb88 2fbd
00000290: 85f0 723c a682 783c da6b e53b 9f5d 563c
000002a0: 4c81 ba3b e6a0 a33d 6896 31bd cc48 3e3d
000002b0: 46ae bbbd 3e7d 233d dd82 2ebc c5f8 453d
000002c0: a612 51bd 27f7 29bd 93f9 ad3d 8a13 0d3c
000002d0: 3afa a8bd fc1c 88bd b84f 5bbd 8469 c13d
000002e0: e856 a03d b5c0 9cbd 4993 afbc 73da d63c
000002f0: be88 3dbc dc2e f53c ee78 9f3b 3df0 58bd
00000300: 8554 69bd 1d7d b1ba bb28 8c3c 511e c8bc
00000310: 7049 96bd fea3 dbbc 6fe7 503b 91ec 943d
00000320: 7b59 06bd 9e48 7b3d 5e86 3a3d 076d 573d
00000330: f53b be3b a369 7b3d 0109 a1bc 35b6 843d
00000340: 9a51 d8bc bd5a 013d 51e4 233d 7f64 41bd
00000350: 2c51 50bd 28e6 463c 66d5 ee3b 610c 503d
00000360: 74a3 1ebd 7792 493d a549 09bd e98c d43c
00000370: 027b e0ba 3019 b13c ed9f 58bd 815b 81bd
00000380: 9ba9 36bc df35 4abd 542c 0f3d 11cd 68bc
00000390: 67a7 983c b6dc ccbb 5ba5 4b3d 1429 23bd
000003a0: b7cb 8f3b a761 f3bc d7f0 463c 9ab1 4bbd
000003b0: 851f 0fbd e1ad 22bd f657 8d3c 7804 823d
000003c0: c5b0 873a be9f 303d 853c 1b3d cdfc 11bc
000003d0: 7799 2a3d 4f4b 3d3d 4f4e c7bc 5279 7b3c
000003e0: 6fac 5abd 7390 413c 1a0b f03c ccfc ab3c
000003f0: 03cd 7cbc 09f4 38bd ba40 723d 7d80 523d

backbone.model.1.1.model.0.bias f4 [8]
0.03630866 0.05369309 0.0242556 -0.049674515 0.11081962 -0.0163024 -0.033129897 0.048502002
00000000: 64b8 143d 49ed 5b3d aeb3 c63c 8177 4bbd
00000010: 66f5 e23d 9c8c 85bc 37b3 07bd 09aa 463d

backbone.model.2.0.model.0.weight f4 [8, 8, 3, 3]
-0.056029312 0.054152094 -0.050073996 0.08625423 0.0563959 0.0039480245 -0.024263568 0.013238303
-0.050268676 -0.010577438 -0.012635037 0.01399377 0.038321078 0.07137293 -0.11057383 -0.036398932
-0.112288296 -0.0021103097 -0.004962789 0.022299193 -0.07326721 -0.044554345 -0.056512874 0.03496182
0.097827554 -0.0031778114 -0.0319182 -0.04697722 0.06774065 -0.08300515 0.09023457 -0.111457966
0.089685075 0.036160093 0.06196091 -0.020469693 0.023943456 0.05662235 0.030214617 -0.08082615
0.015809285 -0.089380845 0.10482651 -0.10039528 -0.0612664 -0.06719287 0.077108584 0.018817369
0.114451475 -0.10689977 0.10728323 -0.06847851 0.11367427 -0.091018505 -0.021929163 0.044223532
-0.05134181 -0.06475496 -0.00044115877 -0.06249256 0.093344726 0.07573751 0.07165503 -0.116699465
-0.116185494 0.04114136 -0.07729989 -0.021586517 0.05243212 -0.04369683 0.046173837 0.065021016
0.061328843 0.05354597 0.11361442 0.101375856 -0.06906759 0.017897839 0.0071153613 0.03297922
-0.029272731 0.065469086 0.103226565 -0.0698291 -0.010310915 -0.058895446 0.004379684 -0.040670037
0.007325894 -0.068065494 0.07021321 0.043591462 0.10973482 0.0482569 -0.037510484 -0.039480392
0.07099832 -0.13656838 0.05268573 0.089334 -0.0003197128 0.039814122 0.014669671 -0.07822214
0.0850513 -0.055973407 -0.079839185 -0.10961268 0.10956012 0.17378758 0.12242074 0.058590837
0.104110286 -0.0022225266 -0.016497232 0.12563193 -0.062265765 0.13844673 -0.023069242 -0.072754785
0.068560176 -0.08861545 -0.052877247 0.009845957 0.07854098 -0.03090328 -0.113013804 0.10391851
-0.08167213 -0.023617381 -0.034811895 0.049819384 -0.11163305 0.043981567 -0.05940143 -0.12253666
0.07983534 0.07541879 0.08221934 0.10639177 -0.018026236 -0.09268373 0.104038656 0.031333596
-0.02022555 -0.07460912 -0.1003167 -0.11284529 -0.040027432 -0.07152533 0.021061962 -0.11359712
0.10970428 -0.09268443 -0.11803832 -0.14308017 -0.035665546 0.022403587 0.07154894 0.1534412
-0.03822379 -0.06407768 -0.0619582 -0.0036119549 -0.08198996 -0.0014171484 0.059817746 -0.009067409
0.12205683 0.14172621 0.09868517 0.09050027 -0.090170406 -0.05836219 -0.009592435 -0.023269491
-0.080332786 0.10876039 0.10864109 0.014208318 -0.08260115 0.07532207 0.020756884 -0.092393
0.037425842 0.07484594 -0.05526891 0.04007904 -0.0041351486 -0.055116396 -0.13065931 0.08435995
-0.02528465 -0.12774904 0.06585425 -0.035123084 -0.014089686 0.06800028 -0.018714456 -0.08272631
0.09860752 0.07068217 -0.00943697 0.048736636 -0.07534851 -0.015809549 -0.09883317 0.08039498
-0.016543346 -0.11590612 0.07817115 -0.104286924 0.10572876 0.041000813 -0.02790726 0.08216359
0.03456221 0.032076377 -0.110146105 0.036399707 -0.0008335281 0.016163409 -0.04275612 -0.025500763
0.003327173 0.12958075 0.022667436 0.089842804 0.09269647 0.1465824 0.13809647 -0.03208501
0.022605635 -0.065434135 0.015686477 0.07625309 0.00067256833 -0.029339515 0.0844801 0.045844294
0.108919755 -0.0018826623 0.09450563 0.0021193565 0.06279961 0.14988197 -0.0037750208 0.11774787
0.049878307 -0.098419435 -0.022189619 -0.07301425 0.014905237 0.020800466 -0.086198 -0.07399741
00000000: fe7e 65bd 96ce 5d3d 641a 4dbd 0fa6 b03d
00000010: 63ff 663d 6e5e 813b 64c4 c6bc 78e5 583c
00000020: 87e6 4dbd fe4c 2dbc 3003 4fbc 2046 653c
00000030: 90f6 1c3d f92b 923d 8874 e2bd 0c17 15bd
00000040: 68f7 e5bd 1f4d 0abb e49e a2bb ccac b63c
00000050: 1e0d 96bd 9e7e 36bd 0b7a 67bd 2034 0f3d
00000060: d059 c83d d442 50bb a9bc 02bd 2f6b 40bd
00000070: 9cbb 8a3d 9bfe a9bd e7cc b83d 1344 e4bd
00000080: cfac b73d 9b1c 143d b9ca 7d3d 0fb0 a7bc
00000090: 1125 c43c d6ec 673d a584 f73c 2e88 a5bd
000000a0: 7982 813c 4e0d b7bd 48af d63d 0a9c cdbd
000000b0: 7af2 7abd 6a9c 89bd 1beb 9d3d e226 9a3c
000000c0: 8965 ea3d 44ee dabd 4fb7 db3d 763e 8cbd
000000d0: 0ece e83d e967 babd caa4 b3bc bc23 353d
000000e0: ca4b 52bd 409e 84bd 544b e7b9 33f8 7fbd
000000f0: 852b bf3d 451c 9b3d dfbf 923d 2100 efbd
00000100: a9f2 edbd d883 283d 684f 9ebd 35d6 b0bc
00000110: 10c3 563d 72fb 32bd c720 3d3d bd29 853d
00000120: f433 7b3d 0553 5b3d adae e83d 259e cf3d
00000130: 4f73 8dbd 7d9e 923c fa27 e93b 3815 073d
00000140: 5ecd efbc a814 863d 7368 d33d 8f02 8fbd
00000150: 1def 28bc 5a3c 71bd 7483 8f3b a095 26bd
00000160: 0e0e f03b ec65 8bbd f2cb 8f3d f68c 323d
00000170: a6bc e03d 07a9 453d 98a4 19bd 31b6 21bd
00000180: 9167 913d 95d8 0bbe fecc 573d bff4 b63d
00000190: 209f a7b9 2214 233d 0f59 703c ee32 a0bd
000001a0: 602f ae3d 5f44 65bd ba82 a3bd 9d7c e0bd
000001b0: 0e61 e03d 5ff5 313e bab7 fa3d f2fc 6f3d
000001c0: c637 d53d cfa7 11bb 3425 87bc a8a5 003e
000001d0: 630a 7fbd fbc4 0d3e b5fb bcbc 7600 95bd
000001e0: 4769 8c3d 047c b5bd d095 58bd f050 213c
000001f0: 18da a03d e028 fdbc c873 e7bd 3ad3 d43d
00000200: b843 a7bd 3d79 c1bc eb96 0ebd 690f 4c3d
00000210: de9f e4bd 0426 343d ea4e 73bd 80f4 fabd
00000220: b680 a33d 2b75 9a3d 9d62 a83d eee3 d93d
00000230: c2ab 93bc f8d0 bdbd 3812 d53d a857 003d
00000240: 0db0 a5bc abcc 98bd d872 cdbd 6e1b e7bd
00000250: cef3 23bd df7b 92bd 238a ac3c 9ba5 e8bd
00000260: a3ac e03d 56d1 bdbd 13be f1bd 9c83 12be
00000270: 0916 12bd ba87 b73c 4088 923d b11f 1d3e
00000280: 8c90 1cbd 293b 83bd e2c7 7dbd 8cb6 6cbb
00000290: 5aea a7bd 9cbf b9ba 7403 753d 788f 14bc
000002a0: eef8 f93d ad20 113e 731b ca3d 3558 b93d
000002b0: 43ab b8bd 310d 6fbd 9729 1dbc a99f bebc
000002c0: 8485 a4bd c4bd de3d 387f de3d 01ca 683c
000002d0: cb2a a9bd 7542 9a3d 570a aa3c 8b38 bdbd
000002e0: d74b 193d d448 993d a761 62bd eb29 243d
000002f0: 2480 87bb bbc1 61bd 8ecb 05be e9c4 ac3d
00000300: c121 cfbc a5d0 02be 98de 863d 39dd 0fbd
00000310: 6dd8 66bc bb43 8b3d 0f4f 99bc 696c a9bd
00000320: bdf2 c93d d0c1 903d 859d 1abc 11a0 473d
00000330: 5250 9abd 0783 81bc 0c69 cabd 20a6 a43d
00000340: e985 87bc 3060 edbd 3218 a03d 6294 d5bd
00000350: 5288 d83d 78f0 273d c49d e4bc 6245 a83d
00000360: 1b91 0d3d 8562 033d 4894 e1bd dc17 153d
00000370: 2081 5aba 2069 843c 0b21 2fbd fae6 d0bc
00000380: b30c 5a3b d1b0 043e 0fb1 b93c 81ff b73d
00000390: a6d7 bd3d b219 163e 2969 0d3e 926b 03bd
000003a0: 742f b93c 5502 86bd ed80 803c 942a 9c3d
000003b0: 4c4f 303a 6c59 f0bc e703 ad3d 3ac7 3b3d
000003c0: 5211 df3d aac3 f6ba 2b8c c13d e7e4 0a3b
000003d0: 159d 803d a97a 193e 5766 77bb cc25 f13d
000003e0: 324d 4c3d 2190 c9bd 01c7 b5bc 7f88 95bd
000003f0: 1835 743c bd65 aa3c 9488 b0bd f48b 97bd

backbone.model.2.0.model.0.bias f4 [8]
-0.119744234 -0.016842194 -0.124186195 0.07616128 0.041774973 0.073693044 0.15230626 -0.052863937
00000000: 773c f5bd a4f8 89bc 5555 febd 72fa 9b3d
00000010: 3c1c 2b3d 61ec 963d 2cf6 1b3e db87 58bd

backbone.model.2.1.model.0.weight f4 [8, 8, 3, 3]
0.034816545 -0.055972185 -0.02596383 -0.028924635 0.020095892 -0.08086625 0.024323924 0.06017597
-0.05727279 0.0009159736 -0.0886217 0.09923803 -0.03310606 0.035309643 0.033968784 -0.02261026
-0.03213088 0.06584947 -0.13505477 0.07945173 -0.029183602 -0.074118614 -0.06689684 -0.09308926
-0.01697891 0.030744258 0.04837306 0.07640377 -0.034371857 -0.01817237 -0.08830727 -0.0028476885
0.0416502 -0.019274144 -0.08380797 -0.068152755 -0.001537456 0.13617663 -0.009750787 0.12347035
0.04034201 0.1168887 -0.096193664 0.058026288 0.0397963 -0.02443571 0.1302724 0.12291212
-0.009712679 0.042100392 0.09756384 -0.06510702 -0.04545687 0.123694025 0.021758635 -0.090633534
0.04387687 0.09835163 0.0068969326 -0.051442 -0.059234776 0.008589796 0.11197329 0.08769478
-0.08553646 0.049866717 0.012378931 -0.096047565 0.08709778 0.07402003 -0.052147992 0.073382914
-0.016456934 0.101375304 -0.08207024 -0.022365661 0.03415189 0.05073023 0.06430999 -0.027503945
-0.036059845 -0.084873006 -0.101662315 -0.07840131 -0.08761319 0.03426831 0.038584586 0.08049497
-0.016268117 -0.024896726 -0.09625908 0.06944146 -0.02700303 0.084502 -0.053989474 0.098937824
0.11751167 0.071828164 0.06867829 0.08492259 0.047177356 0.07724202 -0.06558776 0.07306491
-0.045417733 0.09227172 0.01119606 0.049629506 -0.02744283 0.06853513 0.13020965 0.10373165
-0.019250581 0.07451507 0.047558106 0.006108927 0.028888827 0.0020085722 0.1440722 0.1079324
0.077712454 -0.06548597 0.12164587 -0.03889684 0.037180904 0.048411056 0.10707741 -0.07475998
-0.16643564 -0.037835874 -0.14370772 -0.028604351 -0.086056486 0.024926307 -0.108019695 -0.03350485
-0.035413172 0.10624718 0.046174865 0.027404713 -0.062936455 -0.08173256 0.12264223 0.028987154
-0.012918859 0.0066666272 -0.07087532 0.009838629 0.015340558 0.101311 0.11921728 0.0057212906
0.057929486 0.13291264 0.05664556 -0.025624424 0.076357074 0.10181807 0.055845562 -0.014313471
-0.025117628 -0.075070694 0.11106317 -0.12439619 -0.0680118 0.072657585 -0.12663862 -0.067263156
-0.09397341 -0.06859226 0.06596627 0.08809968 0.06167072 0.06017332 -0.011528232 -0.082975
0.026241984 -0.035381448 -0.03301995 -0.11443094 0.028096251 0.030936157 -0.09580984 -0.091062866
0.029071402 0.0017819938 -0.0412613 -0.063206375 0.003725924 -0.037941787 0.07187407 -0.077247985
0.0024078914 -0.074211635 0.10081932 0.09238353 -0.093947135 0.04244484 0.10748034 0.009030926
0.019961668 0.054659735 0.051711276 0.08152472 0.04982264 0.069497146 0.12176249 -0.041825086
0.09003963 -0.036098287 -0.075100824 -0.06884005 0.11175824 -0.100999326 0.10517296 0.07490761
-0.065055706 0.05052804 0.07163366 0.08448594 0.010756939 0.0263197 0.102725916 0.042469915
0.06839018 -0.17104693 -0.115144186 0.034623038 0.080797166 0.024834106 -0.05442284 -0.0621581
0.13227554 -0.010591704 -0.011723038 -0.01917126 0.10015401 -0.00012257673 0.18438442 0.118729934
-0.083107546 0.1267875 0.008132391 0.038086828 0.011168948 0.07658384 0.14158595 0.016286273
0.10987375 0.12049147 0.14049023 -0.012146887 0.0794484 -0.09512697 0.035306934 0.16154218
00000000: cb9b 0e3d 1743 65bd 19b2 d4bc 5bf3 ecbc
00000010: 24a0 a43c 349d a5bd f742 c73c 147b 763d
00000020: e096 6abd f31d 703a 4b7f b5bd 4f3d cb3d
00000030: 389a 07bd d8a0 103d da22 0b3d 2739 b9bc
00000040: ab9b 03bd 16dc 863d cc4b 0abe 97b7 a23d
00000050: 7312 efbc 80cb 97bd 3601 89bd 95a5 bebd
00000060: 5b17 8bbc 62db fb3c d422 463d 9479 9c3d
00000070: 81c9 0cbd 39de 94bc 71da b4bd 49a0 3abb
00000080: 6699 2a3d cfe4 9dbc 83a3 abbd ac93 8bbd
00000090: 7684 c9ba e371 0b3e c4c1 1fbc 06de fc3d
000000a0: aa3d 253d 5863 ef3d 2f01 c5bd f9ac 6d3d
000000b0: 7201 233d 662d c8bc 2166 053e 59b9 fb3d
000000c0: ee21 1fbc 7671 2c3d 8dcf c73d d456 85bd
000000d0: fc30 3abd 4b53 fd3d 2a3f b23c 139e b9bd
000000e0: 3cb8 333d 946c c93d aaff e13b d9b4 52bd
000000f0: 2aa0 72bd 37bc 0c3c 4152 e53d 5299 b33d
00000100: bd2d afbd 0b41 4c3d 00d1 4a3c 96b4 c4bd
00000110: 5260 b23d d097 973d 2299 55bd c849 963d
00000120: b1d0 86bc db9d cf3d 7114 a8bd 3138 b7bc
00000130: dae2 0b3d 80ca 4f3d f5b4 833d f44f e1bc
00000140: 7db3 13bd e6d1 adbd 5534 d0bd de90 a0bd
00000150: 8b6e b3bd ed5c 0c3d df0a 1e3d 8cda a43d
00000160: b744 85bc 38f4 cbbc 7b23 c5bd 5337 8e3d
00000170: 7535 ddbc 620f ad3d 1124 5dbd ea9f ca3d
00000180: f5a9 f03d a51a 933d 34a7 8c3d e5eb ad3d
00000190: 0b3d 413d 1031 9e3d e052 86bd 0ea3 953d
000001a0: f207 3abd f5f8 bc3d ae6f 373c 4f48 4b3d
000001b0: c9cf e0bc 255c 8c3d ae55 053e 4271 d43d
000001c0: 65b3 9dbc 5b9b 983d 4acc 423d 652d c83b
000001d0: 43a8 ec3c 40a2 033b aa87 133e aa0b dd3d
000001e0: b527 9f3d 821d 86bd 7821 f93d 4b52 1fbd
000001f0: 014b 183d ac4a 463d 674b db3d c31b 99bd
00000200: 1b6e 2abe caf9 1abd 1e28 13be ac53 eabc
00000210: 623e b0bd 4132 cc3c 6e39 ddbd 623c 09bd
00000220: 670d 11bd 1f98 d93d db21 3d3d d97f e03c
00000230: d4e4 80bd 6763 a7bd d92b fb3d 7876 ed3c
00000240: 9fa9 53bc b973 da3b 1427 91bd 3332 213c
00000250: f756 7b3c 247c cf3d 3028 f43d aa79 bb3b
00000260: 7847 6d3d 401a 083e 2d05 683d 50ea d1bc
00000270: 1961 9c3d fe85 d03d 51be 643d 0c83 6abc
00000280: 7cc3 cdbc aabe 99bd 1675 e33d 6ec3 febd
00000290: c549 8bbd 80cd 943d 8ead 01be 44c1 89bd
000002a0: 2275 c0bd 197a 8cbd 5319 873d 9b6d b43d
000002b0: 709a 7c3d 4d78 763d e9e0 3cbc ccee a9bd
000002c0: 6ef9 d63c 23ec 10bd ed3f 07bd c55a eabd
000002d0: 1c2a e63c d36d fd3c f337 c4bd 2b7f babd
000002e0: 2627 ee3c ca91 e93a 9c01 29bd 5872 81bd
000002f0: a22e 743b d968 1bbd b632 933d 3134 9ebd
00000300: b7cd 1d3b 45fc 97bd 5c7a ce3d 9433 bd3d
00000310: 5b67 c0bd a4da 2d3d a71e dc3d 73f6 133c
00000320: a786 a33c e3e2 5f3d 34cf 533d 6ff6 a63d
00000330: d312 4c3d 8554 8e3d 9d5e f93d c850 2bbd
00000340: b366 b83d ccdb 13bd 76ce 99bd 03fc 8cbd
00000350: 81e1 e43d bcd8 cebd ec64 d73d 2969 993d
00000360: ed3b 85bd 7df6 4e3d abb4 923d f706 ad3d
00000370: df3d 303c 699c d73c f761 d23d eff4 2d3d
00000380: 2710 8c3d ed26 2fbe b7d0 ebbd e3d0 0d3d
00000390: fc78 a53d e570 cb3c 7cea 5ebd 7e99 7ebd
000003a0: 3d73 073e d488 2dbc fc11 40bc 0c0d 9dbc
000003b0: 8c1d cd3d f187 00b9 45cf 3c3e ae28 f33d
000003c0: 4a34 aabd 95d4 013e b83d 053c ef00 1c3d
000003d0: f7fd 363c fdd7 9c3d e8fb 103e ca6a 853c
000003e0: 7d05 e13d 3bc4 f63d acdc 0f3e bd03 47bc
000003f0: d8b5 a23d eed1 c2bd 019e 103d 506b 253e

backbone.model.2.1.model.0.bias f4 [8]
-0.0118728485 -0.04652463 0.058029577 -0.013933546 0.08882016 0.040917717 0.11818518 0.015355793
00000000: 5686 42bc 9c90 3ebd 6cb0 6d3d 8749 64bc
00000010: 58e7 b53d 5699 273d 120b f23d dd96 7b3c

backbone.model.3.0.model.0.weight f4 [16, 8, 3, 3]
0.09505526 -0.11402224 -0.115802824 0.07630671 0.05405115 -0.013095737 0.10761119 0.113873474
0.058659174 -0.0674846 0.062630884 0.036020927 -0.019348398 -0.031485736 0.12617715 0.010459241
0.025485702 0.011818741 -0.18333973 -0.11613536 -0.023861822 -0.072842695 -0.11426578 -0.11635705
0.075959206 -0.04410444 -0.06502079 0.060291946 0.11899697 0.026314402 -0.020356398 0.12110153
0.09272274 -0.029322159 0.08183301 -0.09167011 -0.03210216 -0.076176226 0.026908876 0.108984224
0.034939393 0.10845087 0.02376966 0.08191885 0.050779738 0.032126624 -0.11297665 -0.030738896
0.033129133 0.042106483 -0.11855515 0.030854085 0.05720528 -0.12609866 -0.052905213 -0.059056155
-0.020637786 -0.062063236 -0.06976677 0.008069671 0.052579187 -0.08297316 -0.016909879 -0.07572598
-0.07813883 0.11519678 0.046403952 0.12152215 -0.040697504 0.007247065 0.087309286 0.08978047
-0.081505 -0.03191033 -0.12975484 -0.0219482 0.033149768 -0.04473833 0.15113133 0.016692283
0.11272474 0.032225482 -0.058097154 0.025665296 0.109993145 -0.005734734 -0.032006066 0.10558891
0.018924043 -0.06815844 -0.15130037 -0.12295528 -0.009540563 -0.07690729 -0.11049642 -0.027928716
-0.03335904 -0.115161255 -0.11299802 0.065894336 0.014922516 -0.04970318 -0.015636561 0.15276201
0.1506189 -0.056920573 -0.06531391 0.15762235 0.09720199 0.07407943 -0.02695926 0.066863716
0.050670523 0.15220013 0.14985518 -0.024085172 0.042256784 0.13383734 -0.06184578 -0.044324778
0.044473432 -0.06885024 -0.029950852 -0.020058958 0.07698247 0.033861477 -0.022953087 0.012098516
0.052216176 0.00370013 -0.12284498 -0.039991602 0.026019286 -0.13944407 0.07452853 0.09325055
0.0014188193 0.13168149 0.104406685 -0.012049643 0.08765846 -0.07766303 -0.019028755 -0.015896197
-0.032204133 0.079920575 -0.12713186 -0.011459698 -0.010887069 -0.057481933 0.10563769 0.117407486
-0.041226894 -0.019444317 0.14063969 -0.022436487 -0.007262066 -6.880603e-05 0.10880701 -0.000684452
-0.07757659 -0.08885398 -0.15045655 -0.0044077337 0.0321298 -0.15618831 0.018518597 0.029979518
-0.073879495 -0.020233948 0.030361135 0.13693976 -0.008933728 0.12894584 -0.01337355 -0.0017242539
-0.02370782 -0.010482628 -0.08807702 -0.014345123 0.09749473 -0.020844076 0.070229284 0.1314047
0.01606744 0.15121505 0.030984549 -0.016728612 0.09830219 0.15070382 0.08498493 0.06618347
0.038055837 -0.04400841 -0.09820441 -0.0634539 -0.034078993 -0.14214821 0.09658012 -0.04229624
0.00066875445 -0.088915884 -0.092756316 0.059518 -0.13960786 0.036436968 -0.07336447 0.012128784
0.05223801 0.06321185 0.061374586 0.13779353 0.13315836 0.08426664 0.023795493 0.011564866
-0.09360881 -0.09118487 -0.0319647 -0.033667516 0.014703492 -0.01600969 -0.025188187 -0.0011953148
0.09963652 0.07891582 0.042782217 0.12077926 -0.048355356 0.06800157 0.07053258 -0.025140949
0.146982 -0.05660243 -0.057425134 0.030891255 0.055479564 -0.084023856 -0.082671605 -0.16712011
0.0664047 -0.06037366 0.038981926 -0.051414885 -0.038254242 -0.018242322 -0.059191246 0.0035113604
0.13834754 0.0942163 0.11329722 0.07555759 -0.10455181 0.06736035 0.086595796 0.074754044
00000000: 55ac c23d 7e84 e9bd 082a edbd b146 9c3d
00000010: bd64 5d3d 818f 56bc 4163 dc3d 7f36 e93d
00000020: 9a44 703d 5e35 8abd 9f44 803d ae8a 133d
00000030: 8880 9ebc 30f7 00bd 9534 013e 3d5d 2b3c
00000040: 64c7 d03c 65a3 413c 69bd 3bbe 60d8 edbd
00000050: de79 c3bc 8d2e 95bd 2d04 eabd 9b4c eebd
00000060: 8090 9b3d dba6 34bd 9f29 85bd b0f4 763d
00000070: afb4 f33d 4d91 d73c 76c2 a6bc 1404 f83d
00000080: 6be5 bd3d 0635 f0bc 1198 a73d 8abd bbbd
00000090: 8e7d 03bd 4802 9cbd 0170 dc3c 1f33 df3d
000000a0: 9c1c 0f3d 7d1b de3d 97b8 c23c 12c5 a73d
000000b0: 6afe 4f3d 3597 033d 4d60 e7bd 23d0 fbbc
000000c0: 6ab2 073d d977 2c3d 0bcd f2bd b5c1 fc3c
000000d0: 1550 6a3d 0220 01be 23b3 58bd dee4 71bd
000000e0: 9310 a9bc 0536 7ebd e1e1 8ebd a736 043c
000000f0: 465d 573d d5ed a9bd 9686 8abc 3916 9bbd
00000100: 4007 a0bd 4aec eb3d 1212 3e3d 9be0 f83d
00000110: 6db2 26bd ca78 ed3b 36cf b23d d3de b73d
00000120: 18ec a6bd 68b4 02bd 74de 04be b6cc b3bc
00000130: 0dc8 073d 8a3f 37bd 2cc2 1a3e 41be 883c
00000140: 3adc e63d defe 033d 48f7 6dbd 0740 d23c
00000150: 1644 e13d 6fea bbbb cb18 03bd 003f d83d
00000160: 9806 9b3c a796 8bbd 7cee 1abe facf fbbd
00000170: 0650 1cbc 9281 9dbd f24b e2bd c3ca e4bc
00000180: 7da3 08bd aad9 ebbd 826b e7bd 9cf3 863d
00000190: 927d 743c 9095 4bbd 3f18 80bc a56d 1c3e
000001a0: d73b 1a3e 8c25 69bd 4dc3 85bd c167 213e
000001b0: d611 c73d f5b6 973d abd9 dcbc d8ef 883d
000001c0: e58b 4f3d 5ada 1b3e a373 193e 444e c5bc
000001d0: 7315 2d3d a80c 093e 0052 7dbd e68d 35bd
000001e0: c629 363d 5b01 8dbd 7d5b f5bc af52 a4bc
000001f0: fca8 9d3d 55b2 0a3d 1d08 bcbc db38 463c
00000200: a1e0 553d e17d 723b 2696 fbbd 3cce 23bd
00000210: 6626 d53c 6dca 0ebe 6aa2 983d 25fa be3d
00000220: adf7 b93a 83d7 063e 2cd3 d53d de6b 45bc
00000230: 4786 b33d cb0d 9fbd 31e2 9bbc be38 82bc
00000240: 7be8 03bd 66ad a33d db2e 02be 75c1 3bbc
00000250: ad5f 32bc 2d72 6bbd 9358 d83d 5673 f03d
00000260: 88dd 28bd b049 9fbc da03 103e b9cc b7bc
00000270: a0f6 edbb f54b 90b8 36d6 de3d cc6c 33ba
00000280: 7ae0 9ebd 13f9 b5bd 4811 1abe c06e 90bb
00000290: 8a9a 033d d4ef 1fbe 50b4 973c 9b97 f53c
000002a0: 224e 97bd aac1 a5bc eab7 f83c f039 0c3e
000002b0: c55e 12bc 610a 043e bc1c 5bbc 5c00 e2ba
000002c0: e736 c2bc 54bf 2bbc ba61 b4bd cf07 6bbc
000002d0: 51ab c73d 32c1 aabc 5fd4 8f3d f48e 063e
000002e0: dd9f 833c 1ed8 1a3e 4fd3 fd3c 710a 89bc
000002f0: a952 c93d 1a52 1a3e 940c ae3d 338b 873d
00000300: 70e0 1b3d 2a42 34bd 651f c9bd 1ef4 81bd
00000310: 6a96 0bbd 4d8f 11be cccb c53d d23e 2dbd
00000320: 5a4f 2f3a 8819 b6bd 06f7 bdbd 25c9 733d
00000330: 5df5 0ebe ee3e 153d 1c40 96bd cfb7 463c
00000340: 86f7 553d 3775 813d eb63 7b3d bf19 0d3e
00000350: aa5a 083e fd93 ac3d c4ee c23c 907a 3d3c
00000360: fab5 bfbd 22bf babd 6bed 02bd f3e6 09bd
00000370: eae6 703c c126 83bc 7557 cebc 1cac 9cba
00000380: 3b0e cc3d 9e9e a13d 683c 2f3d 1e5b f73d
00000390: 4410 46bd 6844 8b3d 6373 903d 64f4 cdbc
000003a0: 7382 163e f3d7 67bd 9e36 6bbd a80f fd3c
000003b0: 8a3e 633d b314 acbd bb4f a9bd 8921 2bbe
000003c0: 30ff 873d 5f4a 77bd 83ab 1f3d 6a98 52bd
000003d0: 7bb0 1cbd ec70 95bc 8572 72bd da1e 663b
000003e0: faaa 0d3e 7af4 c03d 5f08 e83d f0bd 9a3d
000003f0: 421f d6bd 39f4 893d 2359 b13d a618 993d

backbone.model.3.0.model.0.bias f4 [16]
-0.10799312 0.0691485 0.06713663 0.009775813 0.09146697 0.06618691 0.081106335 -0.009861215
0.025147105 0.06640642 0.06576524 0.0039969524 -0.019618494 0.01662675 -0.07668566 0.045033865
00000000: 7f2b ddbd bb9d 8d3d ee7e 893d bb2a 203c
00000010: 0953 bb3d 018d 873d 141b a63d ef90 21bc
00000020: 4d01 ce3c 1700 883d edaf 863d def8 823b
00000030: f7b6 a0bc d234 883c 5f0d 9dbd 6e75 383d
