software/logs/hyper_parameter_tuning/custom_model_hp/version_16/checkpoints/epoch=3-step=83.ckpt (torch, 195567 bytes, 54 tensors)

backbone.model.0.0.model.0.weight f4 [4, 2, 5, 5]
000000 bc 3f 0b 3e 96 4a aa bd e5 c3 fb bd 4d ee 09 3e
       0.13598531 -0.083150074 -0.12293223 0.13469811
000010 7e 34 f1 bd 6a 6b 05 3e de 47 af bd 02 d7 74 bc
       -0.1177759 0.13029256 -0.085586295 -0.01494384
000020 58 ca 54 3d fb a6 8f bd 4d 80 d0 3d 5a 54 00 3e
       0.051950783 -0.07014271 0.101807214 0.12532178
000030 90 48 00 3e b6 95 18 3a a0 a8 fe bd 11 fd 81 bd
       0.1252768 0.00058206485 -0.124345064 -0.06347097
000040 ae 25 82 3d 37 0b 24 bd 54 6f 95 bd 79 ba f8 bd
       0.06354843 -0.040049758 -0.07296625 -0.12144942
000050 39 30 65 3d eb 8a 05 bc 86 b0 d3 3d 38 ec 43 3c
       0.05595419 -0.008150796 0.103364035 0.011958174
000060 6b 4d c5 bc 51 e3 65 3d 43 d1 8a 3d dc 1a 0a 3e
       -0.024084767 0.05612499 0.06778195 0.13486809
000070 70 d5 d3 bd 3d 1d 63 3d cd 77 18 bc 04 f8 98 3d
       -0.10343444 0.055447806 -0.0093059065 0.0746918
000080 a5 69 00 3d ac 09 09 bd 8e 20 6d bd c5 a1 14 bd
       0.03135075 -0.03345649 -0.057892375 -0.036287088
000090 cf e6 cd bd 63 78 ea bd db 48 02 3e 8e 59 0d 3c
       -0.10053789 -0.11448743 0.12723105 0.0086273085
0000a0 40 33 54 3d 04 1d b9 3d 0c ca cf bd 51 98 be bc
       0.05180669 0.090387374 -0.10145959 -0.02326599
0000b0 8c 96 28 bc 79 d8 83 bb 87 dc 82 bc db 80 c9 3a
       -0.010289799 -0.0040236083 -0.015974296 0.0015373485
0000c0 da 3c 66 bd b4 ec d1 3d 80 36 d7 3d 33 34 7d bb
       -0.056210376 0.10250226 0.10508442 -0.003863585
0000d0 c3 30 c5 3d e4 9b 8e bd 16 f6 e8 3d cf d3 15 3c
       0.09628441 -0.069633275 0.11375062 0.009144737
0000e0 33 ed 77 3d 57 b4 8b 3d b0 86 82 3d 4b 86 94 bd
       0.060528945 0.068215065 0.06373346 -0.07252177
0000f0 a8 70 25 bc a2 c5 bd bd 22 3e b2 bc 87 df a1 3d
       -0.01009766 -0.09266211 -0.021758143 0.079039626
000100 dc 6e 1f 3d 36 97 f5 bd 24 43 06 3e af e3 87 3d
       0.038924083 -0.11991732 0.1311155 0.06635224
000110 64 c1 f1 bd 88 a4 7e 3d a2 a2 b0 38 68 9b aa bc
       -0.118044645 0.062168628 8.422627e-05 -0.020826057
000120 c7 38 04 be 53 b9 ce 3d e2 a2 44 3d c0 f4 cc bd
       -0.12912284 0.100939415 0.0480069 -0.1000762
000130 0f 3a f4 bd af 4d 81 bd e1 04 23 3d 6c c2 0f 3e
       -0.11925136 -0.06313645 0.039799575 0.1403901
000140 d2 01 6e bd d7 d1 ba 3d 3e 9f 6e bc 04 03 29 3b
       -0.058107205 0.09122055 -0.0145643335 0.002578915
000150 79 9f 2a 3d 13 97 44 bd ae c4 d9 3d 23 3a d3 3d
       0.04165599 -0.047995638 0.10633217 0.10313823
000160 d9 2b 31 3d 56 13 5c 3d 59 83 6c bd a7 5b d5 3d
       0.043254707 0.053729378 -0.05774245 0.10417872
000170 d8 b4 4b bd 28 8f 80 bc 06 f1 24 3d 1b ba d6 bd
       -0.049733013 -0.015693262 0.04026892 -0.104847156
000180 38 a1 d1 3d 27 ab e6 3d 3d a4 72 bd 09 51 23 bd
       0.10235828 0.112631135 -0.05923866 -0.039872203
000190 4e d5 50 bc 0d 50 e6 bd 74 82 cc 3d ef 1a a1 bd
       -0.012746168 -0.11245737 0.099858195 -0.07866465
0001a0 c9 8e c0 bd e4 ce d7 3d 4e b3 03 be 5d 19 bf bd
       -0.09402234 0.10537508 -0.12861368 -0.093310095
0001b0 1a a9 84 3d 03 6e 9f bd f4 ed 15 bd a7 e1 f4 bd
       0.06477566 -0.07784655 -0.036603883 -0.11957102
0001c0 f4 78 ac bc 69 2f ee 3c 18 9d 20 bd 25 64 f7 bd
       -0.021053769 0.029075341 -0.039212316 -0.12079648
0001d0 fa 15 b6 3d 41 c7 ab bd d3 00 0b 3e ba 9d 01 3e
       0.088909104 -0.08387614 0.13574533 0.12657824
0001e0 5e c3 76 bc f6 c1 8c 3d 8b bb 16 bd be 32 04 be
       -0.015061228 0.068729326 -0.03679995 -0.12909982
0001f0 94 8a d7 3d 64 15 5a bd 93 87 b1 3d c6 dd 8e 3d
       0.105244786 -0.053243056 0.08668437 0.06975894
000200 c6 2e 8d ba 93 55 a7 bd d3 32 b6 bd df 9a fd 3b
       -0.0010771386 -0.08170619 -0.08896413 0.0077394093
000210 07 bf 05 be 15 72 98 3d 27 b8 fe 3d 0e d0 99 bc
       -0.13061152 0.074436344 0.12437468 -0.018775966
000220 73 be e3 bd f5 fe d5 bb 51 98 f1 bd 41 41 e6 3d
       -0.1112031 -0.0065306374 -0.1179663 0.11242915
000230 1d 96 11 3d e8 d4 3d 3c 13 f9 a8 3d 53 01 e6 3d
       0.03554355 0.011586405 0.08250632 0.11230721
000240 1e ec c7 bd 59 17 06 be b2 87 02 be 8a e7 51 bd
       -0.09761833 -0.13094844 -0.12747076 -0.051246203
000250 36 ad bb 3d c7 ad da bd 91 90 7b 3d ef eb 00 be
       0.09163897 -0.10677677 0.061417166 -0.12590002
000260 73 df 04 3e 2d c7 a2 bd 85 97 aa bc 0a bc 75 3c
       0.12975864 -0.07948146 -0.020824203 0.014998445
000270 7b 99 9f 3b fc 97 08 3e 4a e8 0e be e9 47 f2 bc
       0.004870591 0.13339227 -0.13955799 -0.029575305
000280 0b 90 d4 bd 5f 1a e7 bd 70 96 0a 3e 69 2d 32 bc
       -0.103790365 -0.11284327 0.1353395 -0.010875084
000290 84 7d b1 3d b5 ad 0e bd 86 27 7d 3d 31 ba e3 3d
       0.08666518 -0.03483363 0.06180527 0.111194976
0002a0 bc 0c 03 be c0 01 2c bd 2b 37 25 3c e8 7b 68 bd
       -0.12797827 -0.041993856 0.010083954 -0.05675879
0002b0 a7 57 0a be 6c c7 d7 bd 8c ad a6 bc 34 5e 10 3e
       -0.13509999 -0.105360836 -0.020346425 0.14098436
0002c0 d9 61 06 be 42 af b5 bd f9 73 a5 bd f0 a7 16 bd
       -0.13123263 -0.088713184 -0.08078761 -0.03678125
0002d0 14 21 5d bd e0 a8 79 3d d7 37 11 bd 42 2e d2 3d
       -0.053986624 0.060952067 -0.035453644 0.10262729
0002e0 df e9 c7 3d f6 79 f4 bd be 55 de bd ac c6 b6 3a
       0.09761404 -0.11937325 -0.10856198 0.0013944707
0002f0 a4 19 09 3e 54 37 e9 bd 3d ec b3 bd fc 6a ce 3d
       0.13388687 -0.11387506 -0.08785293 0.100789994
000300 17 e5 9b 3d 7b 02 28 bc 81 88 c8 bd 37 f5 ed 3d
       0.07612055 -0.010254498 -0.09791661 0.11619037
000310 64 0b 0e 3c e1 56 97 3c c1 d9 ee 3c 7b df 82 bd
       0.008669708 0.018474044 0.029156568 -0.06390282

backbone.model.0.0.model.0.bias f4 [4]
000000 99 da 08 bb fe df 06 be 08 d0 b9 3c f1 8c ba 3d
       -0.0020882247 -0.13171384 0.022682205 0.09108914

backbone.model.0.1.model.0.weight f4 [4, 4, 5, 5]
000000 5a 4c 11 3c 1a 79 c5 bb 47 de ca 3d b7 32 cb bd
       0.008868301 -0.0060263993 0.09905677 -0.099217825
000010 6b 24 a2 3d 9a 38 a7 3b 37 70 03 bd 2d cd b0 bc
       0.079171024 0.005103183 -0.03208944 -0.02158221
000020 20 78 ca bd fd 72 46 bd 00 61 cc 3b 78 34 b0 3d
       -0.09886193 -0.048449505 0.0062371492 0.086037576
000030 a5 ed a1 bd 65 97 c3 bd 7f 64 85 3d 2b f4 a8 3d
       -0.07906655 -0.095503606 0.06513309 0.08249696
000040 e7 0b 27 3c 03 23 b8 bd ea ab ae bd bf 07 90 3d
       0.010195709 -0.08991053 -0.08528884 0.070327275
000050 33 d2 25 3d 4d 84 b8 3d 7d 59 28 bd 43 4b 67 bd
       0.040483665 0.09009609 -0.041100968 -0.05646826
000060 80 77 0e bc ba 27 60 bd 67 f7 ab 3b 13 37 c7 3d
       -0.008695483 -0.054725386 0.0052479985 0.097273014
000070 32 c0 be bd 1a 41 c2 3b 25 e7 b2 3d 1d d1 96 3d
       -0.09314002 0.005928171 0.087354936 0.07364104
000080 67 e3 c0 3d c7 0b 6f 3d 80 71 2d bd d3 41 25 3d
       0.094183736 0.05836084 -0.04234457 0.040345978
000090 67 56 3e 3b 35 16 bf 3d 80 5a c5 3d f0 ba 15 3d
       0.00290432 0.093304075 0.09636402 0.03655523
0000a0 da 3f 3e bd 18 78 82 bd 43 6d ad 3d 18 4c b3 3d
       -0.046447612 -0.06370562 0.08468106 0.08754748
0000b0 23 1b 30 3d cd e0 21 bc 00 01 b2 bb 73 68 39 3d
       0.04299463 -0.009880257 -0.005432248 0.045265626
0000c0 80 70 ca bc 30 a7 c0 bd 9a d9 d7 ba 5d 3d 64 bd
       -0.024711847 -0.094068885 -0.0016468049 -0.055722583
0000d0 9a e5 c4 3a 3a 50 57 3d b3 d0 bf 3d ad 7f 9c 3c
       0.001502204 0.052566744 0.09365978 0.01910385
0000e0 db 9b 86 bd 27 78 cc 3c 93 e2 8f 3d 47 21 57 bd
       -0.06572696 0.024959637 0.070256375 -0.05252197
0000f0 68 b1 a7 bd 47 fc 8e 3d a3 81 0e 3d 4b d4 97 bd
       -0.081881344 0.06981712 0.0347916 -0.074135385
000100 00 4b 3c bc 6d e7 de 3c f3 1d eb 3c 33 53 79 bd
       -0.011492491 0.027209962 0.028700804 -0.06087036
000110 c7 2c 20 3d 00 d7 35 3b 00 02 5b 3c 67 7a 1c 3b
       0.039105203 0.0027746558 0.013367176 0.0023876668
000120 d3 b9 c0 3c a0 9e 86 bd 80 ce c7 3d a7 47 75 bd
       0.023526108 -0.06573224 0.097561836 -0.059882786
000130 00 0e 39 bd 40 0e 46 bd 0d 5e 95 bc 95 65 a4 bd
       -0.045179367 -0.048353434 -0.018233323 -0.08027188
000140 cd 7f 7c bb 78 43 89 bd d0 85 9e 3d da 19 bd bd
       -0.0038528324 -0.06702322 0.077403665 -0.092334464
000150 37 63 35 3d 68 bd ba bd a0 64 c4 bc f2 5f 93 3d
       0.04428407 -0.091181576 -0.023973763 0.071960345
000160 da 08 04 3c 5d f1 bd bd ba ca 22 bd b3 5c 88 bd
       0.008058751 -0.09274552 -0.039744116 -0.06658306
000170 7b 61 a4 3d 7a d4 41 3d a7 7c a0 3d 3d e4 80 bd
       0.080264054 0.047321774 0.078362755 -0.06293533
000180 c0 78 ba 3d e7 c7 f1 bb 1a 86 55 bd ea c7 c7 3d
       0.091050625 -0.0073785665 -0.052129842 0.097549275
000190 d3 31 7a bd e7 89 92 bc f3 79 72 bd 8a e9 b8 bd
       -0.061082672 -0.017888023 -0.05919833 -0.09028919
0001a0 05 f5 bc 3d 3a 76 87 3c 62 c8 ac 3d 73 3f 2c bd
       0.09226421 0.016535867 0.084366575 -0.042052697
0001b0 40 03 73 bd 0d e3 6c 3c 3b 3b ae 3d 97 cd 76 bd
       -0.05932927 0.01445843 0.08507391 -0.06025466
0001c0 c0 1f bd bd 83 99 8f bd fa 21 b0 3d d0 c9 61 3d
       -0.092345715 -0.07011702 0.086002305 0.055124104
0001d0 9a 91 f0 3c d5 62 8c bd 4d 74 b6 3b e3 9d 27 3d
       0.029366303 -0.06854788 0.0055680634 0.040922057
0001e0 ed 3d 05 bd 93 30 8c bc cf c8 b2 3d 5a ad 6f bd
       -0.03252976 -0.017113006 0.087297074 -0.05851493
0001f0 20 cc 3e bd 53 f5 d1 bc a5 53 8f bd 77 99 40 3d
       -0.046581388 -0.025629675 -0.06998376 0.047021355
000200 73 35 b7 3d a8 b0 a5 bd dd fe 01 bd 7d 50 5d bd
       0.089457415 -0.08090335 -0.031737197 -0.054031838
000210 65 38 ca 3d 20 51 e5 bc 2d c1 ab 3c 1a 28 f2 3b
       0.09874038 -0.027992785 0.020966137 0.0073900344
000220 5a 20 47 bc 43 a6 65 3d 67 96 6f b9 9a 99 b5 38
       -0.012153709 0.056066763 -0.00022848845 8.659363e-05
000230 9a 7e 0a 3b c3 e0 0c 3d 00 49 ae 3c a3 dd a2 bd
       0.002113259 0.034394037 0.021275043 -0.0795243
000240 00 1e 57 3c 25 64 83 3d 07 9c eb bc 67 56 5d bd
       0.013129711 0.064155854 -0.028760923 -0.054037478
000250 4d 64 87 3c fa 56 bd 3d 68 d4 a7 bd ba 77 cb bd
       0.01652732 0.09245105 -0.0819481 -0.099349454
000260 27 dc 7b 3d 90 ec 36 3d b0 b3 b9 bd 7a da 3d bd
       0.06148925 0.044659197 -0.09067476 -0.046350934
000270 57 5f 26 3d 9a 6c cd bc da ba 57 3c cd ba ba 3c
       0.040618267 -0.0250762 0.0131671075 0.022794152
000280 f3 c9 33 bc 27 4d 8c bd 3f 10 c0 bd 2d d1 a6 bd
       -0.010973441 -0.06850653 -0.09378099 -0.08145366
000290 c3 f4 a1 3d 23 03 02 bd 83 8f 8e bd 43 95 42 bd
       0.07908013 -0.031741273 -0.069609664 -0.04750563
0002a0 3a e2 f4 bc 62 0a b9 bd 95 d8 b6 bd b7 b7 a1 3d
       -0.02989303 -0.090351835 -0.089280285 0.07896369
0002b0 80 c4 46 3d 6d 01 52 3d 13 1f 84 bc da 9e 68 bc
       0.04852724 0.05127089 -0.016128099 -0.014198029
0002c0 a7 02 bd 3d a7 03 7e bd cd b6 39 3d 90 90 cb 3d
       0.092290215 -0.062015202 0.045340348 0.099396825
0002d0 68 ad b3 bd ba ac cb bc 00 60 0b 3b e3 79 81 3d
       -0.08773309 -0.024862636 0.0021266937 0.06322076
0002e0 78 79 9f bd b3 cf ea bc 97 67 85 3d 33 f4 57 3b
       -0.0778684 -0.028663492 0.06513899 0.003295195
0002f0 8a 2a 1c 3d 9d c4 38 3d c7 db ba 3c 9a 4d f2 bb
       0.038126506 0.04510938 0.022809876 -0.0073945047
000300 c7 54 97 bd 4b 71 80 3d 5a a6 6a bd 67 99 ec 3b
       -0.07389217 0.06271609 -0.05728755 0.0072204354
000310 80 98 9f 3d 87 b9 f0 3c e0 8e 1e 3d ad 06 67 bd
       0.07792759 0.029385341 0.038710475 -0.05640285
000320 2b 74 8b 3d 7b 8c ac 3d 40 72 38 3d da e4 c6 3c
       0.06809267 0.08425232 0.045030832 0.024279047
000330 e7 53 02 3c 67 24 21 bd c3 5f 84 bd 80 6b b6 3c
       0.007954574 -0.039341357 -0.064635776 0.022268057
000340 da 41 92 bc 4a 9b 2b bd aa d5 b3 bd fa ee 88 3c
       -0.017853666 -0.041896142 -0.087809876 0.016715515
000350 eb 92 b0 bd 0d 58 12 bd 9a 63 73 3c df ae bf 3d
       -0.086217724 -0.035728503 0.01485529 0.09359526
000360 c3 92 61 bd fa 12 a3 3c 00 57 56 bb f8 54 c9 3d
       -0.055071604 0.01990651 -0.0032705665 0.0983066
000370 f3 78 02 3c d0 f9 7f 3d b3 86 02 bd b0 c3 76 3d
       0.007963407 0.0624941 -0.03186674 0.060245216
000380 f3 8a 8e bd 3a 16 c4 bd b7 36 31 bd 00 c0 78 bb
       -0.06960096 -0.09574552 -0.04326507 -0.0037956238
000390 fa 87 95 3c 93 74 f4 bc ad 5b b6 3c f0 52 4a 3d
       0.018253315 -0.029840743 0.022260511 0.0493955
0003a0 6d 7b 9c 3c 33 38 4f bc 67 e0 79 3d f3 c5 69 bc
       0.019101823 -0.012647676 0.061005022 -0.014268386
0003b0 43 3c 89 bd e7 bf af 3d c0 ac 72 bd 95 87 b9 bd
       -0.06700947 0.08581524 -0.05924678 -0.09059063
0003c0 c0 ee d2 bc b7 25 22 bd 4d 14 fb bc a2 da 96 bd
       -0.02574861 -0.03958675 -0.030649329 -0.0736592
0003d0 00 cd 2a 3d 0b 05 b6 bd 27 1c 75 bc ad e4 9c 3c
       0.04169941 -0.088876806 -0.014960325 0.01915201
0003e0 3b c3 b7 3d 33 cd 19 3b 42 7e 93 bd e2 10 9f bd
       0.08972784 0.0023468256 -0.07201816 -0.07766892
0003f0 3d 9e 38 3d 87 60 7d bd e7 fd c4 3d d5 0b a7 3d
       0.045072783 -0.061859634 0.096187405 0.08156554

backbone.model.0.1.model.0.bias f4 [4]
000000 e0 f7 96 3d c0 e5 6a bc ba a3 24 3d e0 66 2a 3d
       0.07371497 -0.014337003 0.040195204 0.041602015

backbone.model.1.0.model.0.weight f4 [8, 4, 5, 5]
000000 1a af 57 3c 60 c3 86 3c 5a 00 36 3c 40 0e a5 3c
       0.013164306 0.016450584 0.011108482 0.020148396
000010 a7 fd 4f 3c b7 79 c0 3d 3a 7c df 3c 9a 9d 3a 3a
       0.012694753 0.09398215 0.027280916 0.00071188214
000020 a7 26 45 3d 12 83 97 3d 00 73 ff 3b 33 7f 15 3d
       0.048132565 0.073980466 0.0077956915 0.03649826
000030 57 78 5a bd 9a 75 05 3a 73 ff a4 bd 67 40 30 3c
       -0.05333742 0.00050910714 -0.080565356 0.010757542
000040 60 49 38 bd 00 e8 6e 3b 07 be 75 bd 2d da bd 3d
       -0.04499185 0.00364542 -0.059995677 0.09270129
000050 7a 89 b2 3d b3 c6 f3 3c 40 67 6d bd b5 ef 83 bd
       0.08717628 0.029757833 -0.057959795 -0.06442205
000060 f3 28 59 bd 73 a2 2e bc 57 d0 b9 bd cb 7b 9f bd
       -0.053017568 -0.010658848 -0.09072941 -0.077872835
000070 a7 c4 64 3d 77 c5 b1 3d 18 4b 9a 3d 88 d9 ae 3d
       0.055851605 0.086802416 0.07533854 0.085375845
000080 60 3e 4f bd a0 5d 07 bd 40 0b b1 bd bd 2b 66 bd
       -0.050596595 -0.033048272 -0.08644724 -0.056194056
000090 d7 af 18 3d f3 78 0a 3d 2b 1d 97 3d a7 5f c2 bd
       0.03727707 0.033806752 0.0737861 -0.094909005
0000a0 83 96 5e 3d a7 c7 87 3c ad 79 a3 bd bd d0 36 3d
       0.054342758 0.016574694 -0.07982192 0.044632662
0000b0 df 9d 87 bd e7 d7 90 bd 10 79 c7 3d 87 b5 2e bd
       -0.066219084 -0.0707243 0.09739888 -0.042653587
0000c0 33 0f b3 bd ab b9 98 bd 70 90 c5 bd 67 0f 74 3b
       -0.087431334 -0.07457288 -0.0964669 0.0037240626
0000d0 40 de 77 bd 3a eb 43 bd 67 48 60 bc 60 75 e1 bc
       -0.06051469 -0.04783175 -0.013689137 -0.02752179
0000e0 cd b9 ea bb 4a 7d 75 3d a7 ef 42 3d 03 02 98 3d
       -0.0071632625 0.059933938 0.04759183 0.07422259
0000f0 a2 2e a9 3d 27 d6 87 bc 98 86 b9 bd 73 ca ce bc
       0.08260848 -0.016581608 -0.09058875 -0.02524302
000100 a0 77 b1 3c 9d cf c7 bd d2 3c b2 bd ba 70 a7 bd
       0.021663487 -0.09756396 -0.08703007 -0.08175798
000110 da 4e 2f 3d 4a cb 10 bd 0f 7f 85 bd c0 ed 42 3d
       0.042799808 -0.03535012 -0.06518375 0.047590017
000120 13 56 c2 bd 0d d4 a7 3c 1a 31 00 bd 4d be d8 bc
       -0.094890736 0.020486856 -0.031296827 -0.02645793
000130 b3 64 10 bc 85 d4 8a bd 93 77 92 3d ab 95 ac 3d
       -0.008813071 -0.06778816 0.07151713 0.084269844
000140 ea 05 97 bd 9a a5 c2 3c 2f 9d 9c 3d aa 97 a7 bd
       -0.07374175 0.023760606 0.07647168 -0.081832245
000150 e7 40 a4 bd 5a 18 97 bd 20 c6 58 3d 67 d0 a3 3a
       -0.08020192 -0.073776916 0.05292332 0.0012498022
000160 d7 05 73 bd 65 39 9c bd 72 d4 c7 3d a7 2e c6 bd
       -0.05933174 -0.07628135 0.097573176 -0.09676867
000170 fa a2 b9 bd 3a 1a f3 3c 7a 0d cd bc 33 d7 2e bc
       -0.090642884 0.029675592 -0.02503084 -0.010671425
000180 9d ff 50 bd a8 da 81 bd 87 cb a0 3d 63 38 b0 bd
       -0.05102502 -0.063405335 0.0785132 -0.08604505
000190 80 c2 ba 3c cd 26 ab bb 4a 8b 87 bd ab f3 b5 bd
       0.022797823 -0.0052231313 -0.06618364 -0.088843666
0001a0 f0 cc 59 3d 10 d3 4d 3d 02 21 96 bd fd d6 11 bd
       0.05317396 0.050250113 -0.073305145 -0.03560542
0001b0 1d 81 7a 3d 3d ff bd 3d 10 8f 17 3d b8 d9 9f bd
       0.06115829 0.092771985 0.03700167 -0.078051984
0001c0 43 f9 95 bd 2f 14 b8 bd d5 27 ca bd 13 15 91 3c
       -0.073229335 -0.08988225 -0.098708786 0.017710244
0001d0 6a 97 20 bd 1b b4 8a 3d b8 be ab 3d 7a 3b a5 bc
       -0.0392069 0.06772634 0.08385986 -0.020169962
0001e0 1f 39 b0 bd 00 08 c9 ba 4d 17 da bb 7a d4 09 3d
       -0.08604645 -0.0015337467 -0.0066556097 0.0336499
0001f0 c0 ca 27 bc 1a 23 fd bb 15 62 81 3d 33 dc 2f bc
       -0.01024121 -0.0077251317 0.06317536 -0.010733652
000200 43 f4 97 bd 53 66 65 bd cd 91 b2 3d d5 2e a0 3d
       -0.07419636 -0.056005787 0.087192155 0.078214325
000210 9a 92 de 3c 2d f3 86 3d 93 c5 db 3c 9a 3c 7e bb
       0.027169514 0.06589351 0.02682761 -0.0038793446
000220 c0 01 0c bd 83 4c a4 3d aa 1f c1 3d fd 75 0a 3d
       -0.034181356 0.08022406 0.094298676 0.03380393
000230 fb 74 83 3d 90 5b 9d bd b3 e5 e3 3b ca 1b 21 bd
       0.06418797 -0.0768348 0.0069548725 -0.039333142
000240 9a a5 16 3b 67 dc ee bb 07 cd 47 bd 7a fa 16 3d
       0.002298689 -0.0072894576 -0.048779514 0.036859967
000250 ff 27 8c 3d c0 63 f0 3c 48 b1 bd bd 1a bf a9 bd
       0.06843566 0.02934444 -0.09262329 -0.08288403
000260 63 09 c9 3d b5 a1 c3 3d c2 da a5 bd 20 27 c5 bc
       0.098162435 0.095523275 -0.08098365 -0.024066508
000270 73 5d c4 bc 0a ae c1 bd 1d 5d 0a 3d 2b 66 98 3d
       -0.023970341 -0.094570234 0.033780206 0.07441362
000280 00 e6 8d 3b ba a6 2e 3d 5a 5a ce 3c d3 bc 87 3d
       0.0043303967 0.04263947 0.025189567 0.06627812
000290 37 20 43 3d 4b 26 8f bd 00 d6 da bb 47 a9 dd 3c
       0.047638144 -0.06989726 -0.006678343 0.027058257
0002a0 f0 0d a3 bd 7d b9 47 bd 5a 40 6d 3d 50 80 b9 bd
       -0.07961643 -0.04876088 0.0579227 -0.09057677
0002b0 3a ae 9a 3c ca 30 24 bd fa a8 78 3d 8d c2 73 bd
       0.018881906 -0.04008559 0.060708024 -0.05951171
0002c0 d3 85 10 3d 97 e7 b4 bd 33 71 ac 3a 37 dd 88 bd
       0.035283875 -0.08833235 0.0013156295 -0.066828184
0002d0 80 59 41 3c 4f 13 9b bd 4d 01 ac 3c 4a 93 75 3d
       0.011801124 -0.07572042 0.020996714 0.05995492
0002e0 5a 6c b4 bc 87 e1 0b bd a7 8c cc 3d 27 c1 71 3c
       -0.022024322 -0.034150627 0.09987765 0.014755524
0002f0 80 5f 6f 3d 30 ca b5 bd 37 6f 10 bd 13 71 ec bc
       0.058440685 -0.08876455 -0.035262313 -0.028862512
000300 8a cb 22 3d b3 00 cf 3c 60 92 44 3d 63 49 b1 bd
       0.03974489 0.025268888 0.047991157 -0.086565755
000310 e3 21 04 3d 57 6a 63 bd 1d 72 99 bd 4d 01 61 3c
       0.03225888 -0.055521335 -0.074924685 0.01373322
000320 27 1e c8 bc 3b 07 c6 3d d0 ac 62 3d ea 77 7b bd
       -0.02442844 0.09669348 0.055340588 -0.061393656
000330 33 d4 d5 3b 97 1a 81 bd ed 54 c5 bd 3d 92 47 3d
       0.0065255403 -0.063039 -0.09635339 0.048723448
000340 33 bb 9d 3a 87 58 ab 3d 2a 3e 31 bd e0 a3 c7 bd
       0.0012033939 0.083664946 -0.043272175 -0.097480536
000350 3a d9 1e bd 27 55 da 3c c0 8c 8a bc 5a e6 c0 bd
       -0.038781382 0.026651932 -0.016912818 -0.09418936
000360 f8 8b b5 3d f3 51 83 3d 92 c6 81 3d b0 46 15 3d
       0.088645875 0.06412115 0.063367024 0.036444366
000370 1a 62 63 bc 80 86 92 bd ba 47 b7 bc cd d3 56 bc
       -0.01387837 -0.0715456 -0.02237307 -0.013112021
000380 e3 98 73 3d e0 7f 93 3d 87 d9 22 3d 60 b6 15 3d
       0.059471976 0.072021246 0.03975823 0.03655088
000390 1a 64 cf 3b a3 56 80 bd 1d 59 91 3d 80 13 db bc
       0.0063290717 -0.06266525 0.07097075 -0.026742697
0003a0 b3 9f ac bc 70 e1 43 3d 00 0c fd bb 3f 1e a7 3d
       -0.021072244 0.047822416 -0.007722378 0.08160066
0003b0 90 c7 39 bd 08 56 b4 3d 15 1e 93 3d 8d b7 d1 bc
       -0.045356333 0.08805472 0.07183472 -0.02560022
0003c0 63 98 18 bd ad 4f d4 bc cd 7b a4 3d 5a aa 2f 3d
       -0.037254702 -0.025916899 0.080314256 0.04288707
0003d0 ea 1c ba bd db 23 90 bd 60 97 c4 bc c3 81 8f bd
       -0.09087546 -0.07038089 -0.023997962 -0.07007172
0003e0 f3 58 30 3c 78 9e 8a 3d 5a 2d 27 bd fd 3a 77 bd
       0.010763395 0.06768507 -0.040814735 -0.06035899
0003f0 5d 27 66 bd 30 2f 75 3d 07 ea d2 3c 0d 0a 57 3c
       -0.056189884 0.059859455 0.025746359 0.013124955

backbone.model.1.0.model.0.bias f4 [8]
000000 23 1a 39 bd 90 38 2b bd a5 76 92 3d 05 8e 80 3d
       -0.04519094 -0.04180199 0.07151536 0.06277088
000010 9f a9 a7 bd 88 16 c3 3d ed 21 9e 3c c7 69 44 3d
       -0.081866495 0.09525782 0.019303286 0.04795244

backbone.model.1.1.model.0.weight f4 [8, 8, 5, 5]
000000 78 6c da 3c 23 ce 84 bc 57 21 0b bd ed ed 01 3d
       0.02666305 -0.016211575 -0.033967342 0.031721044
000010 1d 3c cc 3c da 73 e4 bc 9e 0a 21 bd c4 b4 8a 3c
       0.024931008 -0.027887274 -0.039316766 0.016931899
000020 cf c6 c9 3c a8 89 89 bd 7e 90 88 bc 40 c3 6f 3d
       0.024630932 -0.06715709 -0.016670462 0.058535814
000030 fd 88 09 3d d3 ad 24 bd 31 d4 27 3d a8 ae 85 3d
       0.033577908 -0.040204834 0.040973846 0.06527454
000040 20 cd 17 3d 5b d6 10 3d 22 10 ad 3b 81 34 4c 3d
       0.037060857 0.035360675 0.005281464 0.04985476
000050 1c fe 95 3c ae 81 86 bc ff 4e f4 3c 66 ac 2f bd
       0.018309645 -0.016419258 0.029822825 -0.04288902
000060 ea a3 7c bc 6c f0 8d bd c6 4d ce bc 00 b0 b7 3c
       -0.0154199395 -0.069306225 -0.02518357 0.02242279
000070 00 2c 19 3d d0 a8 7a bc d5 53 a8 bc 42 6f 89 bd
       0.037395477 -0.015299037 -0.020547787 -0.06710674
000080 b3 07 6f 3d d1 4f 8f 3d bf d4 68 bd e8 fd 94 3a
       0.058356952 0.06997646 -0.056843515 0.0011367174
000090 c0 d7 1e bd f7 01 e1 3c b4 a8 49 bc ba f4 11 bd
       -0.038779974 0.027466757 -0.012308288 -0.03563378
0000a0 ae ef 2f bd ea 47 61 bc be 3e 92 3c 1f 2f 2b bc
       -0.042953186 -0.013750056 0.017852183 -0.010448246
0000b0 f4 6e 85 3c 19 13 9b 3b a7 07 8d bd e5 92 34 bc
       0.016288258 0.004732501 -0.06886225 -0.0110213505
0000c0 b4 24 6a bd 72 5b e3 3c 83 dc 8c bd 1c eb 72 bd
       -0.05716391 0.027753565 -0.06877997 -0.05930625
0000d0 1e 1a 64 bc bd 49 9d 3c 79 c6 7d 3d 94 1c 56 3d
       -0.013922242 0.0192002 0.061956856 0.052273348
0000e0 cb bb 1d bc fd 2b 8c bd 9a 8d 14 3d 31 14 fe 3c
       -0.009627293 -0.068443276 0.036267854 0.031015487
0000f0 87 cb dd bc f0 b8 41 bc c1 8c 3f bd 0c 69 85 bc
       -0.027074588 -0.011823878 -0.046765093 -0.016285442
000100 a6 af 73 3b d7 bc 66 bc e7 2b 2f bc 18 4c a2 bc
       0.0037183552 -0.014083109 -0.0106916195 -0.019811675
000110 9b c1 f0 3c 00 d0 06 bd b4 c7 1a 3d 75 a8 64 bc
       0.029389193 -0.032913208 0.037788108 -0.013956179
000120 c9 61 37 3d 1c 4d 79 3d 33 f0 1e 3c 08 4c 77 3d
       0.04477099 0.060864553 0.009700823 0.060375243
000130 2e 0e 77 3b cf 5c 86 bd ec e4 1c bd 3b ef fb bc
       0.003769766 -0.065606706 -0.038304254 -0.030753722
000140 d5 2a e5 bc b1 c6 54 bd 06 a3 62 bd d8 47 2a 3d
       -0.027974525 -0.0519473 -0.055331253 0.04157242
000150 f8 69 62 3d 5e d6 17 bd ec d0 71 3d 7c fe 25 bd
       0.05527684 -0.03706967 0.059037134 -0.0405259
000160 dc 08 07 bc ba 02 5e 3d 96 64 4f bc 94 c8 c3 bb
       -0.008241858 0.05420182 -0.012658259 -0.0059748385
000170 d2 7d 43 bd 55 49 3e 3c 9c 8c 38 3d de c0 89 3d
       -0.047727413 0.011614163 0.04505597 0.067262396
000180 17 25 3f bd 1f ec 63 3c 99 9f 9f 3c c3 02 08 3d
       -0.04666623 0.013911276 0.019485282 0.03320576
000190 13 4a 29 bd 95 5d 71 3d 65 e6 96 3c 57 45 45 bd
       -0.04133041 0.058927137 0.018420408 -0.04816183
0001a0 fd 0b 4c bd 0d d4 70 bd f0 56 22 bd f5 b6 8c bd
       -0.04981612 -0.058795977 -0.03963369 -0.06870834
0001b0 8a 88 84 3b 39 63 10 3d 2a b2 42 bd 9c 31 7b 3d
       0.004044597 0.035250876 -0.04753319 0.061326608
0001c0 dc a7 79 3d 54 8b 4a bc b6 34 81 bd 48 a7 3d bd
       0.0609511 -0.01236232 -0.06308882 -0.04630211
0001d0 f6 83 44 3c a5 99 30 3d b1 37 31 bd 58 88 87 bd
       0.011994353 0.043115277 -0.043266002 -0.066178024
0001e0 cc 63 2e bd 06 3d 61 3c f4 80 75 bd b9 4c 81 3d
       -0.042575642 0.013747459 -0.059937432 0.06313462
0001f0 c3 0e 86 bd 27 3f 97 bc 93 13 5e bd 57 d5 9d 3c
       -0.06545784 -0.01846273 -0.054217886 0.019266767
000200 f6 7e 70 bd 5b fd 18 3d 08 07 7e 3d 26 92 e6 3c
       -0.05871483 0.037350994 0.062018424 0.02814586
000210 1f e1 fd bc 13 ee 18 bd 98 d3 b8 3c 46 bd 2e bb
       -0.030991135 -0.03733642 0.022561833 -0.0026663109
000220 02 b6 ee 3b d9 ca 88 3c 80 9e 77 bd 54 5b 1c 3d
       0.0072848806 0.016698288 -0.06045389 0.038173035
000230 c9 8e 77 bd 62 47 64 3d a7 18 4c 3d 64 9d a6 3b
       -0.060438905 0.05573214 0.049828198 0.0050846804
000240 70 49 5d bc c2 3d 41 ba 4c a2 51 3c dc cf 53 3d
       -0.013506278 -0.00073715684 0.012795042 0.051711902
000250 cd a1 1c 3c 01 fe 01 bb 50 56 6c 3d 2d 56 f0 bc
       0.009560061 -0.0019835236 0.0576995 -0.029337967
000260 ab 25 04 3d 83 40 1c bd 92 82 89 bd 76 ea c9 3c
       0.032262485 -0.03814746 -0.067143574 0.024647932
000270 00 6c 7a 38 c1 1e 8a 3c 45 12 0c bd 7d c6 00 bd
       5.9705228e-05 0.016860368 -0.03419711 -0.031439293
000280 f5 15 cb bc 4e 75 3d bb b9 ec a3 3c 66 e4 5f bd
       -0.024790743 -0.002890903 0.02001034 -0.054661177
000290 92 b1 5a bd 23 84 de bc a7 72 35 3d 81 d1 1a 3d
       -0.053392 -0.027162617 0.044298794 0.037797455
0002a0 99 f6 16 3d 0d d6 4b bd 29 c7 8e bd 55 79 09 3d
       0.036856268 -0.04976468 -0.069715805 0.033562977
0002b0 2d 71 fe 3c c5 1e 63 bd 16 8c 57 3d d6 26 ee 3c
       0.031059826 -0.055449266 0.05262383 0.029071253
0002c0 83 b9 76 3d f9 4c 80 3d 56 fd 27 bd 82 5a 70 3d
       0.06023551 0.06264681 -0.041013084 0.058680065
0002d0 5d f8 0b 3d ce 12 13 bd 7e 8a 68 bd eb 50 67 bd
       0.034172405 -0.035906605 -0.0567727 -0.056473654
0002e0 9a 8e 82 3d 0f 32 7f bd d8 0d be 3c f3 53 79 3d
       0.06374855 -0.0623036 0.02319996 0.060871076
0002f0 e9 01 e1 3c 43 e0 28 3c 01 03 30 3d b8 9f 79 3c
       0.027466731 0.010307374 0.042971615 0.015235834
000300 9b e0 97 3c 52 5f 78 3d f8 a7 67 bd f2 b3 d2 3c
       0.018539717 0.06063778 -0.05655667 0.02572057
000310 71 0c 86 bc 0d ee 94 bc 18 4d 8b bc 78 cf 5f 3d
       -0.016363354 -0.018179918 -0.017004535 0.054641217
000320 91 40 04 bd 6b ec 30 3d 30 0e 8d 3d bd 1a 43 3d
       -0.032288138 0.043194216 0.06887472 0.04763292
000330 2f 7f 4e 3d cc 42 37 3d 60 21 44 3d 70 25 1c 3d
       0.05041426 0.044741437 0.04788339 0.03812164
000340 aa e9 4e 3d b0 50 64 3d a9 1e 7c 3d 5d 95 dd 3c
       0.05051581 0.055741012 0.061552677 0.027048761
000350 22 34 6c 3c d6 c1 56 bd a5 02 81 bc 2a 0c 6c 3d
       0.014416726 -0.05243095 -0.015748331 0.057628788
000360 aa 3e 86 3b 9a 19 35 3c b5 57 7a bc 2e f3 8d 3d
       0.0040968256 0.011053467 -0.0152797 0.069311485
000370 f1 c3 20 bd a5 76 36 3d ed dc 10 bb f9 00 19 bd
       -0.039249364 0.044546742 -0.0022104338 -0.037354443
000380 28 cf 0a bc 06 e4 7a bd f6 26 7b 3c fe 8c ca 3b
       -0.008472241 -0.061252616 0.015329113 0.0061813584
000390 0b c5 2f bd 45 54 c2 3c 09 c8 20 bd 72 63 2e 3d
       -0.042912524 0.023721823 -0.03925327 0.042575307
0003a0 61 5b 73 bd 83 af b8 3c bb 57 fd bc 14 4c 0c bc
       -0.059413318 0.022544628 -0.030925622 -0.00856306
0003b0 4b ca 84 3d de 26 14 bd 89 4b 1a 3d a1 f7 42 3d
       0.06483897 -0.03616988 0.037669692 0.04759944
0003c0 fb 24 cd 3c 5a 07 91 3c 83 34 59 3c 33 29 8a 3a
       0.025042048 0.0177037 0.013257149 0.0010540843
0003d0 8d 79 63 bd 8e cc d2 3b 12 a9 8f 3d 09 7a 52 3c
       -0.05553584 0.006433076 0.070146695 0.012846478
0003e0 eb 26 0e 3d 39 a2 29 bd ac 54 11 bd 0c 53 83 3d
       0.034705084 -0.041414473 -0.03548114 0.06412324
0003f0 2e f2 3e bd af 5b c5 bc b7 fa c1 bc 98 e5 f4 bc
       -0.04661768 -0.02409157 -0.02367912 -0.029894635

backbone.model.1.1.model.0.bias f4 [8]
000000 6a 75 78 bd b1 53 04 bd c4 38 89 3c 5b 21 27 bd
       -0.06065885 -0.032306377 0.0167507 -0.040803295
000010 97 ec 2b ba ae 6d e6 3b 72 6e e7 bc 29 f1 34 3d
       -0.0006558387 0.007032118 -0.028250907 0.0441753

backbone.model.2.0.model.0.weight f4 [8, 8, 3, 3]
000000 45 48 02 bd 8a 38 9f 3d de 38 3e bd c6 9e c9 bd
       -0.031807203 0.07774456 -0.04644095 -0.09844737
000010 d9 1c 8a 3d d0 30 15 bd d8 82 aa bd e5 d9 5f 3d
       0.067437835 -0.036423504 -0.08325738 0.05465116
000020 fa 62 ad 3c 55 0b 8c 3d 89 62 48 3c a3 b8 cd bc
       0.02116536 0.06838099 0.012230524 -0.025112456
000030 18 43 7d 3c e6 a0 36 bd 3f cf b1 bd a8 a3 be bc
       0.015457891 -0.04458704 -0.08682107 -0.023271397
000040 97 f9 40 3d 03 dd d2 bd 65 ef f0 3b e2 de b6 bd
       0.047113027 -0.10296061 0.007352757 -0.0892923
000050 0f 45 cf bc 72 f0 5f 3d 7e 0b e9 bd 62 ac 18 3d
       -0.025301484 0.054672666 -0.11379145 0.037273772
000060 98 b5 b2 3d ad e6 ee 3d 7b f9 a2 3c ae e1 9a bd
       0.087260425 0.11665092 0.019894352 -0.07562576
000070 ab 37 ac bd 3d 0e 5c 3d c5 2a af 3d 75 7d 86 bd
       -0.08409055 0.053724516 0.085530795 -0.06566898
000080 ae 95 fe bb 8f 7f 83 bc 6e 76 bd bc 8d 35 7c 3d
       -0.007769308 -0.016052036 -0.02312776 0.061574508
000090 97 59 63 bd 0e b5 70 3c 7a ff 7d 3c a5 bc 55 bd
       -0.05550536 0.014691604 0.015502805 -0.05218186
0000a0 a3 1e c4 bd 3e e0 20 bd 6c cd 9d 3d e8 fb 42 3c
       -0.09576156 -0.039276354 0.07705197 0.011900879
0000b0 31 7e 21 bd b6 16 4f 3d 9c 36 57 bd a0 82 a5 3d
       -0.039426986 0.05055877 -0.052542314 0.08081555
0000c0 f0 21 17 3c c3 e6 71 3c 2a c9 32 3d aa 9d 8f 3d
       0.0092244 0.014764491 0.043648876 0.07012494
0000d0 65 d6 a4 3d da 7c 8c 3d 3f c9 d8 3c 9c c6 b5 bc
       0.08048705 0.06859751 0.02646315 -0.02218943
0000e0 cf ba 4a bb 24 a2 d4 3c 2b 60 af bd d4 a6 e6 bd
       -0.00309341 0.02595622 -0.085632645 -0.11262289
0000f0 80 96 7c bc be 4f f3 bb 1c 0f 56 bd f4 c3 41 bd
       -0.015416741 -0.0074252775 -0.052260503 -0.047306016
000100 f1 cd b4 bc ba 49 9b 3d 12 ed 83 bb af 24 0d 3c
       -0.022070857 0.075824216 -0.0040260637 0.008614703
000110 92 14 0d bd 1a be 69 bd b6 bb 36 3d 57 51 32 3d
       -0.034443446 -0.05706606 0.04461261 0.043534603
000120 f8 79 b1 bc 14 9b 57 3d 73 16 03 3d 3d 8b d7 bd
       -0.021664605 0.05263813 0.03200383 -0.105246045
000130 e8 b2 b1 bd 27 2c 93 bd d7 19 1a bc 6c ba ac bd
       -0.08676702 -0.07186156 -0.009405575 -0.08433995
000140 f0 d0 0d 3d d5 56 14 bd bf 8d 8e 3d 7f 36 61 3d
       0.034623086 -0.036215622 0.0696063 0.054983612
000150 e6 94 ea bc 52 5b 21 bd 14 4c c5 bc 5f fe 1b bd
       -0.028635453 -0.03939373 -0.024084128 -0.038084384
000160 a4 e8 c4 3c 65 03 29 39 b0 a7 80 3d 97 1f 8e bc
       0.024036713 0.0001611836 0.06281984 -0.017349048
000170 4b aa 48 bd 50 d4 e1 bc d3 2c b4 bd 56 2a dd bc
       -0.04899053 -0.027567059 -0.08797612 -0.026997726
000180 33 dc 40 bc 7c 1a 80 bd 99 3d 46 3d 07 79 b2 bc
       -0.01177125 -0.062550515 0.048398588 -0.021786226
000190 86 94 c4 bd ca 72 60 bb 72 ce 43 bc a7 a0 70 3d
       -0.09598641 -0.0034248107 -0.011951076 0.05874696
0001a0 34 ea 52 bb 54 20 ab 3b 9b 2e df bd be ae 83 bd
       -0.0032183053 0.0052223597 -0.10897561 -0.06429814
0001b0 61 b0 81 bd 04 1c 97 3d 96 8d d9 bd 56 3f 70 3d
       -0.0633247 0.073783904 -0.106227085 0.05865415
0001c0 fc 88 3b bd 71 d8 b5 bd a9 05 dd 3d c1 55 ba 3d
       -0.045784935 -0.088791735 0.10792095 0.090983875
0001d0 d4 13 9c bd a2 3a ce 3d 39 eb 8b 3d 98 3c d9 bd
       -0.076209694 0.10069777 0.068319745 -0.106072605
0001e0 06 32 ea 3c 6d c5 f8 bc ff 05 93 bb 6e 0a a7 bc
       0.028588306 -0.030367577 -0.004486799 -0.020390715
0001f0 72 2e 03 bd 99 72 1a 3d 5b b3 13 bc 93 7b ed 3d
       -0.032026716 0.037706945 -0.00901493 0.115958355
000200 b3 f7 ba bd 88 db 8d 3c 6b bb 61 bc 75 3c 7a 3c
       -0.09129276 0.017316595 -0.013777594 0.015273203
000210 7a 11 06 bd 6c 2f 58 3c dc 2d 6d 3d c8 e6 42 3d
       -0.03273151 0.0131949 0.057905063 0.04758337
000220 7f ef a8 3d b3 3c cd bd 46 a0 8a 3c 64 c8 92 3d
       0.08248805 -0.10021343 0.016922127 0.07167128
000230 b1 9a 90 3b 8d dd 15 3d c4 b3 b4 3d d2 62 a8 3d
       0.004412972 0.03658824 0.0882335 0.082219735
000240 6d 6e bf 3d 39 da 9c 3d 9c c5 1b bd c2 db c0 bd
       0.09347234 0.0765881 -0.03803025 -0.094169155
000250 af 1a 7d 3d 53 ac 34 bb c1 e2 54 bd 73 d7 ed 3d
       0.061793026 -0.0027568534 -0.051974062 0.11613359
000260 e3 5c 29 bd 7b 7d 8b bd 77 27 ca 3c 81 6f a0 bc
       -0.04134835 -0.06811043 0.024677021 -0.01958442
000270 49 3f 4a bd d1 43 d8 3d 65 91 ea 3d cc a1 2f 3c
       -0.04937676 0.1055981 0.11453513 0.010719728
000280 03 7b 00 bd 10 27 b9 bd e6 52 7c bd ad b5 aa bd
       -0.031367313 -0.09040654 -0.061602496 -0.08335433
000290 07 b3 e4 3a af bf 43 3d 7c e5 6c 3c 74 4e c4 3d
       0.0017448374 0.047790226 0.01445901 0.09585276
0002a0 e4 86 c1 bd c4 dd de bc 64 bd d2 bc 1f aa 30 3d
       -0.094495565 -0.027205355 -0.025725074 0.04313099
0002b0 b5 52 6e 3d e1 b5 b0 3d c6 c0 a6 3d 99 2a 2c 3d
       0.058184344 0.08628441 0.08142237 0.04203281
0002c0 70 f5 5d 3d 6b fe d8 3d 3a 2e 87 bd be 5c e3 bd
       0.054189146 0.105954014 -0.06600614 -0.111016735
0002d0 1a 76 c9 bd 72 02 19 bd 1e 71 93 bd 8b c1 e6 3d
       -0.09836979 -0.037355848 -0.0719931 0.11267384
0002e0 fd f7 a6 bc ae f7 bd bd cc 3b 06 3d e9 e7 ca 3d
       -0.020381922 -0.09275757 0.03277187 0.099075146
0002f0 82 62 99 3d 49 b4 8d 3d e1 a0 56 3d fc 6b c4 3d
       0.07489492 0.06919152 0.05239952 0.09590909
000300 62 00 ca 3d e7 db c2 bd 62 71 55 3c 91 81 b0 3d
       0.09863354 -0.09514599 0.013027521 0.08618463
000310 3d 7e b1 bc 5f c1 8e 3d ca 01 db 3d 5a 40 e1 bc
       -0.02166664 0.06970476 0.106937006 -0.027496506
000320 42 77 62 3d c6 b6 93 bc dc 35 9a 3c c7 82 88 bc
       0.055289514 -0.01803149 0.01882451 -0.016663922
000330 64 4a 87 bd 7e 43 ae 3d b0 be 0d bd db 5a a4 3d
       -0.06605986 0.08508967 -0.034605682 0.08025142
000340 6e 40 96 bc db f3 e1 3d dd 69 d3 bd 64 6a 81 3d
       -0.01834127 0.1103284 -0.10322926 0.063191205
000350 5a af 3e 3b 11 47 b2 3d 9e 44 cd 3d 1d 6b 58 bd
       0.0029096217 0.08704961 0.10022853 -0.052836526
000360 99 40 87 3d 0b bb 5d bd 91 37 c2 3d d0 df 99 bd
       0.06604118 -0.054133456 0.09483255 -0.07513392
000370 09 60 7a bd d7 b7 e9 3b 8f 74 53 bc 4e 32 2d 3d
       -0.061126743 0.007132511 -0.012906208 0.042284302
000380 88 75 e1 bc 5e 8d de 3d 1a 6f 03 bd a3 f1 d0 bd
       -0.027521864 0.108668074 -0.032088377 -0.102023385
000390 90 3a 22 3d c8 1f 0e 3d e7 ab ca bc 9c 39 3a 3d
       0.03960663 0.034698278 -0.024740173 0.045465097
0003a0 8f 16 e8 bd 06 56 61 bd 6e 94 64 3d 02 a3 b0 3a
       -0.11332428 -0.05501368 0.055805616 0.0013476314
0003b0 11 46 4b 3d 14 48 03 bd 90 ce c9 3d b9 db 13 bd
       0.049627367 -0.03205116 0.09853852 -0.036098216
0003c0 cb 16 06 3d 72 85 0f 3c f3 db 48 bd 1d 49 d9 bd
       0.03273658 0.008759843 -0.049037885 -0.106096484
0003d0 fa 5b a7 3d ad 48 da 3d ab 1e 09 ba 26 2e d5 3c
       0.0817184 0.10658393 -0.0005230705 0.026022982
0003e0 e2 0a 1e bd 13 f7 ad bd 63 f5 77 bc 0f 41 e8 3d
       -0.038584597 -0.08494391 -0.015134188 0.11340534
0003f0 86 17 9c 3d 65 50 cf 3d 2a f0 da bd 55 33 b8 3d
       0.07621674 0.10122756 -0.10690339 0.08994166

backbone.model.2.0.model.0.bias f4 [8]
000000 48 7c 68 bd 02 0e a0 bd 54 84 d6 3c f9 26 c0 bc
       -0.05675915 -0.07815172 0.026186146 -0.023456084
000010 ee 05 15 bd ca b1 b9 bc 41 ed d6 3d fe a8 b1 3b
       -0.036382608 -0.022667784 0.10494471 0.0054217568

backbone.model.2.1.model.0.weight f4 [8, 8, 3, 3]
000000 d4 cf 83 3d b7 85 79 3d 6e 4a 68 3d 95 05 b5 bd
       0.064361244 0.060918536 0.056711607 -0.08838955
000010 f6 46 4a bd 2d 01 17 3c 5b 7c a4 bc 3c 82 e2 bc
       -0.04938408 0.009216589 -0.020078829 -0.027649991
000020 04 45 d3 3d 63 8a 27 3d f8 cf 4c bc 97 70 c8 3d
       0.10315898 0.04090346 -0.0125007555 0.097871
000030 d8 47 f2 bc 9c 2f b4 bc 23 84 b6 bd f0 ff 8c bd
       -0.029575273 -0.021995358 -0.08911922 -0.06884754
000040 d1 3d 83 bd 4c 9e c7 3d 3a d9 65 3d c0 24 ab 3c
       -0.06408275 0.097469896 0.056115367 0.020891547
000050 9f cd 66 bd f7 09 81 bd 05 a8 4d bd b9 8f 97 3d
       -0.05634844 -0.06300729 -0.050209064 0.0740046
000060 ef 76 54 bd 2d c8 e2 3d 78 1b fe bc 3b 6e 7f 3d
       -0.051871236 0.11073337 -0.031018957 0.062360983
000070 00 63 cc 3d 38 85 88 3d b1 68 f1 bc cb 3b de bd
       0.0997982 0.066660345 -0.029468866 -0.10851248
000080 9d 1d 52 3c 9f b0 ad bd 92 52 73 bd e3 fd 06 3d
       0.012824443 -0.084809534 -0.059404917 0.03295697
000090 2f 33 8f bc 02 14 e0 3d 10 f3 88 bd d8 84 8a 3c
       -0.01748046 0.10941316 -0.066869855 0.016909048
0000a0 d3 a7 bd 3d 2b 29 ae bd 0a 14 8e bc 85 72 2c bd
       0.092605256 -0.08503946 -0.01734354 -0.0421014
0000b0 73 57 af 3d 46 0f c5 3d ac 76 4e bd 1d 0b 94 3d
       0.085616015 0.09622054 -0.050406143 0.07228682
0000c0 e3 4c 82 3d 12 ac e6 bd af 49 b0 3d 41 ce 9f bb
       0.06362321 -0.112632886 0.08607804 -0.0048768823
0000d0 86 e8 b7 3d e1 1f 8b 3c cf e9 5a bd a5 45 d5 bd
       0.08979897 0.016982974 -0.053445634 -0.10413674
0000e0 2b e9 74 3d 85 57 05 bd d7 67 d6 bd da a7 bd bd
       0.05979268 -0.03255417 -0.10469025 -0.09260531
0000f0 b6 87 54 bd c0 a5 f7 bc 43 d1 c3 bd 3e 19 ed 3d
       -0.051887237 -0.030230403 -0.09561398 0.1157708
000100 68 2e 58 3d 0e 1f e6 3d 06 18 e4 3d 0b 21 3c bd
       0.05277863 0.11236392 0.111373946 -0.04592995
000110 31 7d c4 3d 0e 46 69 bc a0 e3 c0 bb 25 88 3b 3d
       0.09594191 -0.014237894 -0.00588651 0.045784134
000120 b8 e0 54 bb a1 1d 80 3d f7 47 58 3d 20 29 81 bd
       -0.0032482576 0.06255651 0.052803006 -0.06306672
000130 d4 21 8d bc 2e 77 ed bc 27 65 bc bd 16 f0 8b bd
       -0.017228045 -0.028987493 -0.09198981 -0.06832902
000140 a1 2e c8 3d 71 55 6d 3b 4a 54 c5 bd f8 ed cf 3c
       0.09774519 0.0036214257 -0.096352175 0.025382027
000150 5b 9e 3f bb c8 39 90 bd ee e5 28 3c aa 9d c4 bd
       -0.0029238674 -0.07042271 0.010308726 -0.096003845
000160 66 3b 52 bd 1e 79 a9 bd 20 df ea 3d 42 fc a6 3d
       -0.051326178 -0.082750544 0.11468339 0.08153583
000170 78 78 ee 3d 3a 2c bd 3d 57 17 9b bd 2d 34 90 bd
       0.11644071 0.09236951 -0.07572811 -0.07041202
000180 00 f7 bb bd 9c 15 a7 3d 30 18 6c 3c 79 c6 e7 bd
       -0.09177971 0.081584185 0.014410064 -0.113171525
000190 08 86 30 bd c8 22 28 3d 8c 08 86 3d a9 80 9b bd
       -0.043096572 0.041048795 0.06544599 -0.07592899
0001a0 ed 04 d7 3d 69 63 30 bd 76 b6 80 bd 25 7d 21 bd
       0.104989864 -0.043063555 -0.06284802 -0.039425988
0001b0 9c 80 06 bd 49 05 0a bd af ff d4 bc 50 23 67 3d
       -0.032837495 -0.033696447 -0.026000826 0.05643016
0001c0 87 ff 1f bd 4d d9 3b 3d dd 52 ca 3d 2a 9e 39 3c
       -0.03906205 0.04586153 0.09879086 0.011329213
0001d0 25 8e 04 bd 2b 2b dd 3d c8 27 ef 3c 69 f1 15 3c
       -0.032362122 0.10799249 0.029193774 0.009151795
0001e0 2a f8 f9 3c d8 5f e0 bc ed a8 6d bd 9f a1 c1 3d
       0.030513842 -0.027389452 -0.05802243 0.09454655
0001f0 71 b2 8b bd 70 66 a2 bd 9e 31 7b 3d 2d 80 aa bd
       -0.06821144 -0.07929695 0.061326616 -0.08325229
000200 3c d8 ec bd 5a e3 d5 bd 91 f6 ab bd 99 9d 6d 3d
       -0.11564681 -0.104437545 -0.08396638 0.058011625
000210 d3 97 1b 3d 8e 86 6c bd dc f3 5c bd b3 53 c7 bd
       0.037986588 -0.05774551 -0.0539435 -0.09732761
000220 b0 29 50 bc 7c c8 07 3c b4 18 c6 bd c1 fe b3 3d
       -0.012705252 0.008287545 -0.096726805 0.08788825
000230 03 84 d9 bc 2a e9 a4 bd 1f e6 6d bd a6 a8 c4 bd
       -0.026552206 -0.08052285 -0.05808079 -0.0960248
000240 ad 03 db 3b aa a5 89 3d c8 93 cf 3d bd 76 c4 3c
       0.006683788 0.06721051 0.10135609 0.0239824
000250 97 91 0b 3d a3 6b 8c bd 71 69 1e bd e3 11 4b 3d
       0.034074392 -0.068564676 -0.038674776 0.049577605
000260 9a b4 69 3d 62 4e e8 3d 3c 5a b3 3d 7a 46 97 bd
       0.057057 0.11343075 0.08757445 -0.07386489
000270 c9 74 4f 3d eb 59 ad bd 3e 20 c8 3b 46 e7 a9 bd
       0.050648484 -0.08464416 0.006107359 -0.08296065
000280 02 05 51 3c 76 08 8e bd 05 d1 48 3d cf fc c1 3d
       0.012757542 -0.069352075 0.04902746 0.094720475
000290 89 0a e6 3d e3 43 d7 3d 9d 47 86 3d 9c 47 20 3d
       0.11232478 0.10510995 0.06556628 0.039130792
0002a0 84 50 b2 3c 23 79 93 bc 57 5d 0c 3d 96 7e 26 bd
       0.021766908 -0.018002098 0.034268703 -0.040648066
0002b0 db a1 e7 bd c3 31 ec 3b 8f 57 e0 bd a4 26 35 bd
       -0.11310168 0.0072080805 -0.109542005 -0.044226304
0002c0 07 35 e2 bd 32 f9 51 bd 8b a5 cd bd e1 bf ac bd
       -0.110452704 -0.05126304 -0.100413404 -0.084350355
0002d0 29 f8 16 bc e2 46 71 bd 89 bb a2 bd 12 85 3d bc
       -0.009214439 -0.05890549 -0.07945926 -0.011567371
0002e0 fa 83 56 3d 07 b0 d9 3b cc 7f 90 3d 83 82 8b 3d
       0.052371956 0.0066432985 0.07055625 0.068120025
0002f0 49 7f 7e bc e6 f6 c2 bb cd a7 b9 3c b2 74 b8 3d
       -0.015533277 -0.0059498427 0.022663021 0.09006633
000300 af 93 60 3d 27 e7 3c bd ff 03 86 bc 09 a0 f0 bd
       0.054828342 -0.04611888 -0.016359327 -0.11749274
000310 8f dd 49 bd 70 f1 8d 3d a3 f0 9c 3d 4f 04 db bd
       -0.04928356 0.06930816 0.07663085 -0.10694181
000320 7a ee 68 3d 86 3d de bd f3 c5 93 3d b0 88 a8 3d
       0.056868054 -0.108515784 0.0721549 0.08229196
000330 e7 93 e2 bd 17 83 ba 3d d0 fb b6 bd 27 d6 96 bd
       -0.110633664 0.09107035 -0.08934748 -0.07365065
000340 f9 4b e0 3d 78 91 a6 bd da 7e 34 3d 4c 2e b9 bd
       0.10951991 -0.08133215 0.044066288 -0.090420336
000350 81 54 8a bd 2e 05 02 bd 4c 56 05 3d 97 9f d3 3d
       -0.06754399 -0.03174322 0.032553002 0.10333174
000360 e8 3e 36 ba e3 a6 8f 3c fc a0 ed 3b cc 49 a3 3d
       -0.0006952123 0.017535632 0.007251857 0.0797306
000370 25 eb 74 3d fa f4 15 3d 1d d3 97 bd 1c fa 43 3d
       0.059794564 0.03661058 -0.074133135 0.047845945
000380 bb 15 df bd 95 c6 6d 3d 24 59 13 bc 87 7b 91 3d
       -0.10892817 0.05805071 -0.008993421 0.07103639
000390 06 46 30 bc c8 e9 1e bd 67 78 66 3d cd fd e9 bd
       -0.010758882 -0.03879717 0.05626717 -0.11425362
0003a0 8e 22 cf bc 10 59 d3 bd 55 cd 76 3d 43 96 75 3d
       -0.025285032 -0.10319722 0.060254414 0.059957754
0003b0 c0 42 21 3d 7d fe 91 bd fc 1c ed bd 8f cc a7 bd
       0.0393703 -0.07128618 -0.11577794 -0.08193313
0003c0 42 82 bd bd ca d8 3c 3d b7 d5 8b bd 5d b3 89 3c
       -0.0925336 0.046105184 -0.06827872 0.01680916
0003d0 91 6f e8 3d f3 84 a3 bd e0 ff 8e 3d 2a 44 ab 3d
       0.113494046 -0.079843424 0.06982398 0.08362611
0003e0 a6 e7 79 bd 6f f9 19 3c bc 22 da 3d 6c 2e 5a bd
       -0.061011933 0.0093978485 0.10651156 -0.053266928
0003f0 6e 84 5b bc 35 0b 3a bd 2b 92 c1 3d 66 4c d5 3d
       -0.013398273 -0.045420844 0.094517075 0.104149625

backbone.model.2.1.model.0.bias f4 [8]
000000 4f 00 1e 3d f2 9f 48 3c 9d dc dc 3b 4b d2 a1 bd
       0.038574513 0.012245165 0.0067401663 -0.07901438
000010 0e af 6f 3d 24 3f 40 3d ee 7a 98 3d 9f 81 81 38
       0.058516555 0.046935216 0.07445322 6.175343e-05

backbone.model.3.0.model.0.weight f4 [16, 8, 3, 3]
000000 f2 7a f9 3c bc 2b a2 bd 69 3a 87 bd 69 68 62 3d
       0.030454133 -0.07918498 -0.06602938 0.055275355
000010 fa ee fd bc 9f 23 66 3d c9 a1 aa 3d a4 da c1 bd
       -0.030997742 0.056186315 0.08331639 -0.094655305
000020 04 e9 dc 3c 2c 22 97 3d 74 0b 9c 3d 38 b1 fb 3c
       0.02696658 0.07379565 0.07619372 0.030724153
000030 7f 83 ac bd 2f c4 e9 3c 21 99 41 bd 6c 23 88 bd
       -0.084235184 0.02853593 -0.047265176 -0.06647381
000040 61 3b e7 3d f2 51 e2 3c fb f0 45 3d 25 1a 8d 3d
       0.112906225 0.027626965 0.04832552 0.06889752
000050 b4 2b a1 3d 16 e3 af bc ff 4d a7 3d 7e e0 dc bd
       0.07869664 -0.021470588 0.081691734 -0.10785006
000060 bb 0f a9 bd 6d 49 da 3d 48 d2 b7 bd 65 d1 ab bd
       -0.082549535 0.10658536 -0.08975655 -0.08389548
000070 8d 8f 46 ba 80 a0 d8 ba a4 6d 63 bd 57 a4 e4 bd
       -0.00075744913 -0.0016527325 -0.055524483 -0.11164158
000080 ac 70 3e 3d 72 87 b4 bd 4d c0 89 bc a9 29 99 3b
       0.04649417 -0.08814897 -0.016815329 0.0046741557
000090 42 5c 17 3d b5 71 f2 bc 11 39 1e bd 65 db e6 3d
       0.03695322 -0.029595235 -0.03862864 0.11272315
0000a0 72 d8 41 bd e5 6d de bc 0e c7 00 3d da 6a f5 3c
       -0.04732556 -0.027152011 0.031439833 0.029958177
0000b0 db 19 92 3c b5 9c ea b9 01 d8 e5 3d ec ac eb 3d
       0.017834594 -0.00044748714 0.1122284 0.115075916
0000c0 ea 54 a5 bd b8 14 db bd 42 f2 95 bd 84 ea 91 3d
       -0.08072837 -0.10697311 -0.07321598 0.071248084
0000d0 dc d8 ae 3c 96 29 66 bd e9 76 86 3d b4 1b 62 bc
       0.021343641 -0.056192003 0.06565649 -0.01380055
0000e0 27 b0 69 3d bc f0 97 bc cb 81 ac 3d e9 df c7 bd
       0.057052758 -0.018547408 0.084231935 -0.09759504
0000f0 f2 7f 14 3c ee e7 3c 3d 17 0c bd 3d 4b 1c d8 bd
       0.009063708 0.046119623 0.092308216 -0.105522715
000100 8e 39 11 3c d7 c6 f9 3c a3 8b aa bd e7 5c 1c 3d
       0.00886382 0.030490322 -0.08327415 0.038174536
000110 b7 93 e7 3d b4 5e 7f bd c6 8b ba 3d 4e 3a d0 3d
       0.11307471 -0.062346175 0.09108691 0.10167371
000120 e7 0d c1 3c 96 b3 bd 3d 74 aa c0 3d 75 32 27 3d
       0.0235662 0.09262769 0.09407511 0.040819604
000130 f3 77 01 3d 76 69 57 3d b6 54 ef bc f6 91 a5 bd
       0.031608533 0.05259081 -0.029215198 -0.080844805
000140 fa 28 ce bd e5 44 c8 3d b5 26 40 3d a7 ed ef ba
       -0.100664094 0.097787656 0.046911914 -0.0018305079
000150 a1 45 40 3d 96 81 e2 3b d1 34 d0 bd d7 7e 8c bc
       0.046941403 0.0069124205 -0.10166324 -0.017150326
000160 1e 38 f6 3c 7f 4d ea bd 29 23 c8 3d 86 0e a6 3c
       0.030056056 -0.114405625 0.09772331 0.020270597
000170 db 5d 51 bd d3 75 ca 3d 0d d7 e9 bd c5 73 a5 bd
       -0.0511149 0.098857544 -0.11417971 -0.08078722
000180 b3 e5 39 bd fd 9b 5d bd e3 3d bf 3d ff ee 6a bd
       -0.045385074 -0.05410384 0.09337976 -0.05735683
000190 8e f3 65 bd 6a 46 42 3d 51 70 87 3d 96 65 eb bc
       -0.056140475 0.047430433 0.066132195 -0.028734963
0001a0 b3 cd 80 bd c5 fc 92 3d d3 30 de 3d d5 9d 27 bb
       -0.06289234 0.07177118 0.10849156 -0.0025576253
0001b0 47 12 83 bd 35 fe 7b 3d 96 73 61 bc 2f e5 c0 3d
       -0.063999705 0.061521728 -0.013760468 0.09418713
0001c0 df 47 7f 3d eb 6e 68 3d 43 8a a0 bd a2 7a 96 bd
       0.0623244 0.056746405 -0.07838871 -0.07347609
0001d0 63 52 5c 3d 83 68 7e bd 75 b0 ef bc 35 54 c4 3a
       0.053789508 -0.06211139 -0.029258946 0.0014978709
0001e0 f2 06 bf bd ae 31 94 bd 9b ce 94 3d ab aa b7 3d
       -0.093274966 -0.07236038 0.07265969 0.08968099
0001f0 b5 62 be bd 78 fa 99 3d ee 9a 73 3d 81 39 9f bd
       -0.092961706 0.07518476 0.059473924 -0.0777464
000200 21 e8 0e 3d 0f 92 50 3d 44 fc d0 3d 51 c3 c0 bd
       0.034889344 0.050920542 0.10204366 -0.09412254
000210 a9 bf a9 3d 71 5c 59 bd 92 b6 f5 3b e4 f8 89 bd
       0.082885094 -0.053066675 0.0074985707 -0.06736925
000220 df 3a 0e 3c a7 e1 cf 3c 10 08 00 3d 07 64 74 3d
       0.008681028 0.025376154 0.03125769 0.059665706
000230 07 fe 8e bd ca fd d6 3d cc 4b 9e 3d 18 1e ba 3c
       -0.069820456 0.10497625 0.07729301 0.022719428
000240 b1 b2 ec bd a8 75 90 3d f9 07 14 bb 52 3e de 3d
       -0.1155752 0.07053691 -0.002258776 0.108517304
000250 8e f5 8e 3d c0 ef 97 3d b7 b5 a1 bc 31 0d f0 3d
       0.069804296 0.074187756 -0.019739969 0.11721266
000260 ee dc e7 bd 3a d2 e0 3d 82 40 49 bb 82 1a f6 bb
       -0.11321436 0.109775975 -0.0030708616 -0.007510484
000270 8e cc 41 bd 49 18 dc 3d 67 3a c6 3c a4 70 c2 bd
       -0.04731422 0.107468195 0.02419777 -0.09494141
000280 50 be 42 3d 98 04 de bc ce e6 40 3c 3f b7 4b bc
       0.047544777 -0.0271018 0.011773778 -0.012433826
000290 b9 5f 9c bd 65 e0 d4 3d d9 cd 77 ba bc 78 39 3d
       -0.07635445 0.10394362 -0.0009452976 0.045281157
0002a0 79 07 c8 3d ae f2 bd 3d 52 58 6f 3d c2 fc 4f bd
       0.0976705 0.09274803 0.05843384 -0.050778158
0002b0 88 5a 81 bd 38 9b d5 bc 42 44 0f 3d 40 a7 da bd
       -0.063160956 -0.02607499 0.034977205 -0.10676432
0002c0 a1 7e 33 3d 91 35 9a bc 53 88 e9 bd 56 3f 94 bc
       0.043821935 -0.01882437 -0.11402955 -0.018096607
0002d0 ce d6 aa bd be 79 58 bd ca bf af 3a 2c cd b1 3d
       -0.08341752 -0.052850477 0.0013408598 0.086817116
0002e0 b4 85 3d 3d 44 50 b5 bd a4 5e a9 3d f2 96 3f 3d
       0.046270087 -0.088532 0.082700044 0.046774812
0002f0 a7 f8 b9 3d fa 3c da bc 73 37 ec bc 8c 84 b6 3d
       0.0908063 -0.026640404 -0.028835034 0.08912
000300 2b 71 44 bd 2b 08 6f 3d 1d 78 63 3d 47 22 91 bd
       -0.047959488 0.0583574 0.05553447 -0.07086616
000310 86 81 53 3a de 15 bf bd 92 42 98 3d 4d e4 c0 bd
       0.0008068312 -0.09330343 0.07434572 -0.09418545
000320 bc 1e 15 bd e1 36 e8 bd 2c b0 a0 bc 39 00 1a bd
       -0.036406264 -0.11338592 -0.019615255 -0.03759787
000330 ec 0e 34 bd 96 ab 8c bd 9b a1 ea bd 64 07 41 bd
       -0.043959543 -0.06868665 -0.11456605 -0.04712619
000340 40 05 31 bd bd d7 9e bc b3 03 59 3d d7 7a 63 3c
       -0.043217897 -0.019389981 0.052982043 0.013884268
000350 92 cf b7 3d b9 29 b9 bd 62 47 5b bd f9 ff ef bd
       0.08975138 -0.09041161 -0.053534873 -0.11718745
000360 82 fe c4 bd 16 51 98 bd 36 f4 96 bb 99 90 dc 3d
       -0.09618856 -0.07437341 -0.004606749 0.10769767
000370 c6 53 ff 3c 56 03 01 3d d0 4a 4d bd 78 90 8e bd
       0.031167876 0.031497322 -0.050120175 -0.06961149
000380 45 99 e0 bc d2 c0 a1 3d b0 67 9d bc a8 49 ec bd
       -0.027416835 0.07898106 -0.019214481 -0.11537486
000390 25 63 d9 3d 06 df 1b bd 8b 0f 44 3d d5 72 66 bd
       0.106146134 -0.03805449 0.047866385 -0.056261856
0003a0 47 d4 c2 bc e6 1c d6 bd 57 0c 01 bd 22 ee 8e bd
       -0.023782862 -0.10454731 -0.03150591 -0.06979014
0003b0 01 1f a8 bd f8 22 a9 bd d9 6e 99 bd ed 4f cd 3d
       -0.082090385 -0.08258623 -0.07491846 0.1002501
0003c0 cd 71 13 3d b5 6e 2f ba f7 21 b6 bd ba 4c c1 3d
       0.0359972 -0.0006692217 -0.08893197 0.094384626
0003d0 25 d1 6e bd 50 45 db 3d f9 9f 9e 3d 0b 5c fb bc
       -0.058304925 0.1070658 0.07745356 -0.030683538
0003e0 2c ee 88 bd 83 eb ae 3d 1a ba 84 bc f8 9e d1 3d
       -0.06686053 0.08541014 -0.016202021 0.10235399
0003f0 82 8c d0 3d 1e 38 3f bc 1e 56 b4 3c 87 13 96 bc
       0.1018305 -0.011671094 0.02201372 -0.018319858

backbone.model.3.0.model.0.bias f4 [16]
000000 af be 8b 3b 13 5a 4b 3d 28 be cc 3c eb 3a b1 3d
       0.0042646746 0.04964645 0.024993017 0.08653816
000010 dd 13 d7 3d 48 ec ba bd 1f 74 de 3d fc d8 cc bd
       0.105018355 -0.09127098 0.10861992 -0.10002324
000020 f1 2b b8 3d 85 22 f9 bc a3 d3 80 bc bf ac b3 bd
       0.08992756 -0.030411968 -0.015725916 -0.08773183
000030 79 f6 83 3c 51 af 6f 3d 6d fc 1c bd fc 02 da 3c
       0.016108738 0.058516804 -0.03832667 0.026612751
