software/logs/hyper_parameter_tuning/custom_model_hp/version_17/checkpoints/epoch=0-step=20.ckpt (torch, 195567 bytes, 54 tensors)

backbone.model.0.0.model.0.weight f4 [4, 2, 5, 5]
0.045848742 -0.122766964 -0.030744847 0.018659962 -0.08101129 -0.01960997 0.037479088 -0.091151804
-0.083780214 -0.11086053 0.016543144 0.108916715 -0.047015235 0.065404765 -0.0051789205 -0.0019262291
-0.014485957 0.038172655 -0.13485332 -0.10646554 -0.093761414 -0.011095496 -0.032775834 0.013775563
0.13739173 0.11986381 0.12833971 -0.13793619 -0.015782967 0.08928101 0.050924372 0.09222435
0.11395984 0.06273722 -0.060918737 0.10864119 0.05649519 -0.12721327 0.04563474 -0.027180858
0.011583775 -0.018225344 0.0009782958 0.03258007 0.037996817 0.008059506 0.058994666 0.1387186
-0.0540706 0.022408284 0.014011585 -0.11978588 0.06815048 0.13788688 -0.111704074 0.12231532
0.13553159 -0.02578922 0.07152327 0.14030315 0.028877927 0.1239319 0.13497986 -0.08423119
-0.044461504 -0.060016964 -0.029453011 0.08314603 -0.07910932 0.016675048 0.035569362 -0.0625582
0.102087036 -0.013121461 -0.026680136 -0.008879161 -0.13563679 0.011058069 -0.033507116 -0.13042955
-0.06091985 -0.03233879 0.053550236 -0.07862323 0.100414194 0.001999851 -0.0049945703 0.14011614
0.11638605 0.028083593 0.13111383 -0.09161252 0.046783864 -0.037080258 0.067343384 -0.051210884
0.015473138 0.09599894 0.09309656 -0.012045603 0.0026254454 0.07634357 0.087250136 -0.06418348
0.13078897 0.004513422 0.075649485 -0.050745398 -0.021054443 -0.07390953 -0.11380213 -0.05666263
-0.006007258 -0.07590976 -0.010843424 -0.10139763 -0.090137415 -0.026621755 0.009212677 0.047518045
-0.0492273 -0.008378119 0.12527008 0.034668177 0.033921875 -0.0050464617 0.06515401 0.004270656
0.11732997 0.011969351 -0.052986734 -0.07583215 0.011245707 0.13070917 -0.12510459 -0.111241855
0.04550206 -0.029785011 -0.09475057 0.11940494 -0.066788666 0.06271831 0.04452936 -0.031176446
-0.044999164 0.013961245 0.11595603 0.120476685 -0.0022604198 0.04087975 -0.061363216 0.13731597
-0.1097816 -0.119074665 -0.021416686 0.02084654 -0.12998009 0.020525735 0.13068382 0.019287039
-0.09483721 -0.023686497 -0.12616926 0.13941672 0.00064098614 0.0688016 0.034235787 0.098193094
0.13307482 -0.024784826 0.020793688 -0.111654155 -0.122402176 0.12641667 0.034858767 0.13506179
0.11874051 0.087457865 0.03692 -0.06453509 -0.008123637 -0.0040937406 0.06315662 -0.073405854
0.101776384 0.12538919 0.036947396 0.09927075 -0.10847074 -0.08872143 -0.057361964 -0.12887102
-0.08798118 -0.0143859 -0.09481118 -0.012522824 -0.086167805 0.105824724 -0.07118918 0.08914145
00000000: e4cb 3b3d 3f6d fbbd 9edc fbbc c7dc 983c
00000010: 3fe9 a5bd 16a5 a0bc ac83 193d ccad babd
00000020: f694 abbd d80a e3bd 7d85 873c ba0f df3d
00000030: 0c93 40bd eff2 853d efb3 a9bb 8679 fcba
00000040: 8256 6dbc ee5a 1c3d fd16 0abe 9b0a dabd
00000050: fc05 c0bd e2c9 35bc f43f 06bd e6b2 613c
00000060: 6bb0 0c3e 287b f53d 7c6b 033e 253f 0dbe
00000070: 484b 81bc f6d8 b63d 1396 503d 1fe0 bc3d
00000080: c763 e93d 5f7c 803d ed85 79bd 467f de3d
00000090: 8067 673d 3244 02be 7eeb 3a3d 64aa debc
000000a0: e0c9 3d3c 514d 95bc 293a 803a ae72 053d
000000b0: 8da2 1b3d 050c 043c 64a4 713d 400c 0e3e
000000c0: 2279 5dbd 9491 b73c d990 653c 4d52 f5bd
000000d0: 7b92 8b3d 3832 0d3e 1bc5 e4bd 7480 fa3d
000000e0: cbc8 0a3e ea43 d3bc cb7a 923d a1ab 0f3e
000000f0: 6791 ec3c 02d0 fd3d 2938 0a3e 6781 acbd
00000100: 441d 36bd 59d4 75bd 7147 f1bc 7748 aa3d
00000110: 1104 a2bd 1c9a 883c 2eb1 113d 831e 80bd
00000120: 0213 d13d 65fb 56bc 4d90 dabc e779 11bc
00000130: 5fe4 0abe e72c 353c c23e 09bd 538f 05be
00000140: 1887 79bd ae75 04bd 7e57 5b3d 3705 a1bd
00000150: f5a5 cd3d ef0f 033b 7ea9 a3bb 9b7a 0f3e
00000160: cf5b ee3d 900f e63c b442 063e 589f bbbd
00000170: 70a0 3f3d 78e1 17bd 54eb 893d 81c2 51bd
00000180: 0b83 7d3c 189b c43d 69a9 be3d ec5a 45bc
00000190: aa0f 2c3b 055a 9c3d 33b0 b23d a172 83bd
000001a0: 8bed 053e 54e5 933b 1eee 9a3d 68da 4fbd
000001b0: 5e7a acbc e15d 97bd 1711 e9bd 1317 68bd
000001c0: 88d8 c4bb 9476 9bbd 9ea8 31bc 90a9 cfbd
000001d0: f799 b8bd de15 dabc c5f0 163c 48a2 423d
000001e0: 91a2 49bd 6144 09bc cd46 003e 3800 0e3d
000001f0: aaf1 0a3d ca5c a5bb 776f 853d dcf0 8b3b
00000200: b24a f03d 191b 443c 9e08 59bd e34d 9bbd
00000210: ea3f 383c a0d8 053e 6b1b 00be c5d2 e3bd
00000220: 5e60 3a3d b2ff f3bc 960c c2bd 948a f43d
00000230: 7fc8 88bd 7572 803d 6b64 363d bf65 ffbc
00000240: 0b51 38bd b5bd 643c 5b7a ed3d 7bbc f63d
00000250: 8d23 14bb 8671 273d ff57 7bbd 8f9c 0c3e
00000260: 2dd5 e0bd 6bdd f3bd 0c72 afbc 5dc6 aa3c
00000270: 8019 05be 9625 a83c fbd1 053e daff 9d3c
00000280: 033a c2bd 2f0a c2bc 8432 01be 42c3 0e3e
00000290: da07 283a dae7 8c3d d33a 0c3d 7619 c93d
000002a0: c444 083e 8c09 cbbc 8657 aa3c efaa e4bd
000002b0: fead fabd 5f73 013e 11c8 0e3d a34d 0a3e
000002c0: 392e f33d 1c1d b33d 6d39 173d f92a 84bd
000002d0: 0119 05bc c924 86bb 4258 813d cf55 96bd
000002e0: 2370 d03d 0666 003e 2756 173d 774e cb3d
000002f0: e825 debd 95b3 b5bd 61f4 6abd c4f6 03be
00000300: 7a2f b4bd d7b2 6bbc 5d2c c2bd 882c 4dbc
00000310: bf78 b0bd a2ba d83d a2cb 91bd cb8f b63d

backbone.model.0.0.model.0.bias f4 [4]
-0.07658926 0.009644953 0.05173789 0.064946696
00000000: d4da 9cbd dd05 1e3c 1ceb 533d c602 853d

backbone.model.0.1.model.0.weight f4 [4, 4, 5, 5]
0.07273336 -0.09633547 -0.04342183 0.024078941 -0.037814986 -0.015055525 0.014580334 0.04272821
-0.079172604 -0.031787958 -0.051175665 -0.034527507 -0.0004836798 -0.03983431 -0.054107737 -0.025696946
0.01421032 -0.034547664 0.042610276 -7.861853e-05 0.056662776 0.075582564 -0.0886627 -0.010051215
0.010519469 -0.02166977 0.049205124 0.058714785 0.017126037 0.027857793 -0.003992045 0.081849255
-0.021787083 0.070867084 -0.025370527 0.010560322 0.04057504 0.061301004 0.07999835 0.025441492
0.030576099 -0.078454606 -0.023832535 0.014755929 0.087395445 -0.021232665 -0.012894178 -0.005924499
-0.0954281 0.05065862 -0.00728544 -0.04609691 -0.03111868 0.021850467 0.05700877 0.03749441
-0.037147917 0.019426107 -0.07567578 -0.024590874 -0.052650787 -0.038157284 0.050676715 -0.038872506
0.01942699 -0.09660137 -0.01743691 -0.01829815 0.048295498 0.061239887 -0.024630046 -0.0033331753
-0.05354463 0.025073994 0.05434773 -0.07019719 3.3259391e-06 0.023002578 -0.07214171 -0.01602223
0.019824028 -0.008076024 0.08248619 0.05664469 0.08200369 0.07538408 -0.044402625 0.07191944
0.051089503 0.074339725 0.08265106 0.0030467033 -0.027544856 -0.06777509 0.032246936 -0.07684451
-0.016624022 -0.0012598634 -0.04611447 0.06494456 0.034862425 0.009856594 -0.08526816 -0.07387519
0.02678739 -0.030097974 0.011784434 -0.039601516 -0.07590363 0.023355413 -0.09933034 0.09066466
0.003442514 0.057530142 0.0018424273 -0.043930996 -0.030526256 -0.07824147 -0.015705168 0.03176712
-0.08033923 -0.002715218 0.042517997 -0.007419062 -0.0392674 0.027242338 0.028423047 0.0201589
-0.07041042 0.06316074 -0.08848335 -0.046228956 -0.02522825 0.06494256 -0.017244434 -0.049528338
0.06272447 -0.07732184 -0.06702776 -0.06673693 0.0055148243 0.047476124 -0.06159227 0.017532563
-0.0907295 0.019222403 -0.058089998 -0.091195524 -0.04590975 0.019130623 0.053991772 -0.089853905
-0.025617456 0.095958546 0.0961355 0.088052265 -0.092406586 -0.038779117 0.0035755874 -0.041278638
-0.05273595 0.059450854 0.03907416 -0.0037895918 -0.036309995 -0.015186465 0.02083019 -0.006368268
-0.045479145 0.04763595 -0.049901094 0.057721447 -0.07195655 0.08882743 -0.08186392 0.0104481345
-0.059444096 0.015915502 0.07847341 0.04996517 -0.050495494 0.080068104 0.045918036 0.046557676
-0.065786295 0.039572038 -0.05600473 -0.019661129 0.09395045 -0.025030017 -0.034700014 -0.08875807
-0.06487217 -0.08213099 -0.026477778 0.069856755 -0.0105196005 -0.038216185 0.04426353 0.08510833
0.09763344 -0.024266744 -0.0048867348 -0.068038635 -0.09964651 -0.07865017 -0.051916696 -0.059654582
0.02114873 0.08571277 0.07432381 0.048327114 -0.030036438 0.09216 0.072480835 0.045407485
0.009158946 -0.096069574 0.09661831 -0.035604145 -0.0890046 -0.033660065 0.06757405 -0.065204285
-0.056774177 0.055594694 -0.045348465 0.018349636 -0.08314436 0.06985654 -0.026324261 0.06833469
-0.07514161 0.044582378 0.099359445 0.07658815 -0.05001351 0.054842032 -0.030684436 0.013944531
0.02946502 0.09703686 -0.087911025 0.09091089 -0.00033546687 0.012030196 -0.08963018 0.07571005
0.089532316 -0.086229645 -0.013418401 -0.0772204 -0.08211493 -0.059235133 -0.053136636 0.058923673
00000000: 3af5 943d 884b c5bd 17db 31bd 3341 c53c
00000010: e3e3 1abd 73ab 76bc 5ae2 6e3c c703 2f3d
00000020: 3f25 a2bd 1734 02bd 939d 51bd b76c 0dbd
00000030: 6796 fdb9 4d29 23bd 13a0 5dbd 6782 d2bc
00000040: 67d2 683c da81 0dbd 1d88 2e3d 00e0 a4b8
00000050: 3a17 683d 08cb 9a3d ca94 b5bd daad 24bc
00000060: da59 2c3c cd84 b1bc 508b 493d ea7e 703d
00000070: e74b 8c3c 0736 e43c b3cf 82bb 95a0 a73d
00000080: d37a b2bc c322 913d dad5 cfbc 3305 2d3c
00000090: 0332 263d c316 7b3d 2dd6 a33d ad6a d03c
000000a0: ba7a fa3c cfac a0bd 733c c3bc dac2 713c
000000b0: 62fc b23d 20f0 adbc 1a42 53bc 4d22 c2bb
000000c0: cf6f c3bd 6a7f 4f3d b3ba eebb 1dd0 3cbd
000000d0: 9aec febc c0ff b23c 0782 693d bd93 193d
000000e0: 6a28 18bd 8023 9f3c e7fb 9abd cd72 c9bc
000000f0: 5aa8 57bd d04a 1cbd 6392 4f3d c738 1fbd
00000100: 5a25 9f3c f0d6 c5bd dad7 8ebc 00e6 95bc
00000110: 80d1 453d add6 7a3d f3c4 c9bc 6771 5abb
00000120: 9d51 5bbd fa67 cd3c ba9b 5e3d 8bc3 8fbd
00000130: 3333 5f36 e76f bc3c 08bf 93bd 0d41 83bc
00000140: 0066 a23c 4d51 04bc 85ee a83d 4304 683d
00000150: 8df1 a73d f862 9a3d 87df 35bd 804a 933d
00000160: 3a43 513d 6d3f 983d f544 a93d 33ab 473b
00000170: c0a5 e1bc abcd 8abd 5d15 043d a860 9dbd
00000180: 1a2f 88bc 0022 a5ba 87e2 3cbd a701 853d
00000190: e7cb 0e3d 8d7d 213c 13a1 aebd e04b 97bd
000001a0: 3a71 db3c 0790 f6bc 8013 413c 3335 22bd
000001b0: 5d73 9bbd da53 bf3c b56d cbbd 65ae b93d
000001c0: cd9b 613b baa4 6b3d 9a7d f13a fdf0 33bd
000001d0: 3312 fabc 103d a0bd 20a8 80bc 3d1e 023d
000001e0: e588 a4bd cdf1 31bb 5a27 2e3d 9a1b f3bb
000001f0: dad6 20bd 532b df3c 73d7 e83c 4724 a53c
00000200: 5733 90bd 6b5a 813d c236 b5bd 935a 3dbd
00000210: 7aab cebc 9b00 853d 3344 8dbc 3ade 4abd
00000220: b075 803d ea5a 9ebd da45 89bd 5fad 88bd
00000230: b3b5 b43b 5376 423d 2d48 7cbd 73a0 8f3c
00000240: 63d0 b9bd 4d78 9d3c c7ef 6dbd b8c4 babd
00000250: dd0b 3cbd d3b7 9c3c 7a26 5d3d 5305 b8bd
00000260: b3db d1bc ea85 c43d b0e2 c43d bf54 b43d
00000270: aa3f bdbd dad6 1ebd 6754 6a3b ca13 29bd
00000280: a701 58bd bd82 733d 3a0c 203d cd5a 78bb
00000290: cab9 14bd a7d0 78bc 13a4 aa3c e7ac d0bb
000002a0: 5748 3abd ea1d 433d 1765 4cbd 536d 6c3d
000002b0: f55d 93bd 28eb b53d 45a8 a7bd a72e 2b3c
000002c0: a77b 73bd 3a61 823c abb6 a03d 47a8 4c3d
000002d0: 5dd4 4ebd bffa a33d 8d14 3c3d 43b3 3e3d
000002e0: f7ba 86bd 4a16 223d 3765 65bd 6010 a1bc
000002f0: 1869 c03d c00b cdbc 9a21 0ebd cac6 b5bd
00000300: b3db 84bd 4b34 a8bd ede7 d8bc 0f11 8f3d
00000310: 675a 2cbc 9388 1cbd ad4d 353d 474d ae3d
00000320: 0af4 c73d 0dcb c6bc e720 a0bb d757 8bbd
00000330: 7813 ccbd 5713 a1bd 9aa6 54bd 5d58 74bd
00000340: 1a40 ad3c 2d8a af3d 1537 983d a7f2 453d
00000350: fa0e f6bc 62be bc3d d570 943d 33fd 393d
00000360: 670f 163c 20c0 c4bd d2df c53d a7d5 11bd
00000370: 0b48 b6bd 23df 09bd 4364 8a3d d389 85bd
00000380: 0a8c 68bd 43b7 633d 50bf 39bd fa51 963c
00000390: 9747 aabd f210 8f3d faa5 d7bc 0ff3 8b3d
000003a0: d8e3 99bd 039c 363d f77c cb3d 3fda 9c3d
000003b0: f7da 4cbd 0aa2 603d ed5d fbbc 9a77 643c
000003c0: a060 f13c 43bb c63d b20a b4bd 7d2f ba3d
000003d0: 9ae1 afb9 4d1a 453c 0790 b7bd df0d 9b3d
000003e0: b85c b73d 2b99 b0bd dad8 5bbc bb25 9ebd
000003f0: df2b a8bd 8aa0 72bd cda5 59bd f359 713d

backbone.model.0.1.model.0.bias f4 [4]
0.07998377 0.07487627 -0.010594142 0.0082721235
00000000: 88ce a33d bb58 993d 0d93 2dbc cd87 073c

backbone.model.1.0.model.0.weight f4 [8, 4, 5, 5]
-0.02992866 0.06935576 0.013888538 -0.096664965 -0.0054834965 0.03491757 0.023406208 -0.07407483
0.05852994 -0.011516881 0.033711493 0.06928841 0.079311185 0.042431187 0.024562825 -0.030761743
0.03412919 -0.075923674 -0.01100744 0.08006244 0.05687852 0.097733416 0.071566634 -0.054777384
0.055179764 -0.019573772 0.07418281 0.03460561 0.044948876 0.05965959 0.005495441 0.014709532
0.0260741 -0.038823176 -0.076893985 -0.097129166 0.020776534 0.01180805 0.032340564 -0.07760461
0.07892199 0.07140704 0.08257091 0.084388815 0.0010689854 -0.06013123 -0.07620617 0.085526966
-0.06425667 -0.033390142 0.04473704 -0.0044663786 -0.056402802 -0.010421241 0.09276434 -0.08247069
-0.050954055 -0.06390295 0.079290465 -0.082338236 0.046166457 -0.072806194 -0.044124294 0.021259928
-0.046339583 -0.0579708 -0.058884896 -0.06864333 -0.045002677 0.01337825 0.042487133 0.08484157
0.08535915 -0.05831132 0.025579143 -0.04239309 0.07186574 0.0018488407 -0.009825098 0.03360013
-0.014049399 -0.027576113 0.042001773 -0.071895875 0.082602195 0.000110185145 0.041613188 0.024946047
-0.0969932 0.0079628825 0.04910438 -0.06748356 0.06869205 -0.079824366 -0.09358587 0.04088999
0.09026629 -0.015879726 0.066526465 0.07085263 -0.01698096 0.08567881 0.03256586 -0.022704959
-0.051911663 0.099857405 0.026937474 0.051821567 -0.087010205 -0.036700703 -0.0029125095 0.045719244
0.0022598149 0.01484853 -0.039618757 -0.019464398 0.025943851 0.08650451 0.040257942 0.08418938
0.09123901 0.0109511735 0.08469554 0.012242901 0.051853597 0.017407691 -0.004917002 0.06988006
0.00985632 -0.023172392 0.08528469 0.081836306 -0.047525585 -0.09837691 0.07316964 0.081626765
0.09182483 0.047673013 -0.0109478 0.008891726 -0.02647016 -0.025563706 0.097711325 0.08402244
-0.02465092 0.057962455 0.0046574594 -0.033090305 0.093923666 0.026548827 -0.0022018433 0.0037441372
0.06743743 0.012104118 0.06055695 -0.02185086 0.09782734 -0.077365674 -0.087589145 -0.04417118
0.03607477 0.098865055 -0.06429785 0.021479607 0.060141172 -0.026355052 -0.0834126 -0.03913634
0.095512144 -0.04707681 0.04419557 0.073669754 0.07190474 0.010560728 -0.040614713 -0.0675962
-0.026352394 0.06121956 -0.08881563 -0.012726641 -0.045070197 -0.015793478 -0.081974976 0.0621804
0.012206507 -0.017888248 -0.046681464 -0.00015186072 0.019954288 0.09241126 0.02753439 0.09851159
-0.00295372 -0.09175398 -0.058006525 0.048534106 -0.0495777 -0.0030782104 0.037042033 -0.08455073
-0.07471148 -0.085854545 0.031613268 -0.07418779 0.058858193 0.00078475475 0.01208458 0.027329862
-0.042916454 0.02023362 -0.070561185 0.034258615 -0.05493325 -0.02135458 -0.040163554 -0.049102426
-0.06599714 -0.06753122 -0.00090518 0.08764036 0.0793754 -0.04972577 -0.037984874 0.03725293
0.073527865 -0.013346004 -0.086177886 -0.05155958 0.098324314 -0.08711224 -0.048716225 0.07952551
-0.037776973 0.007916368 0.097086094 -0.08841081 0.072295964 0.083715715 0.030589331 -0.060870506
-0.04289576 0.026667213 0.015343833 0.026468039 0.005547595 0.08591272 -0.025023663 -0.06095506
-0.058259606 0.08472383 -0.07118845 0.046700217 0.047966864 0.06602156 -0.05672499 -0.0053491713
00000000: f32c f5bc 650a 8e3d c08c 633c 48f8 c5bd
00000010: e7ae b3bb ba05 0f3d 60be bf3c 8bb4 97bd
00000020: 17bd 6f3d 4db1 3cbc 1015 0a3d 15e7 8d3d
00000030: e76d a23d 53cc 2d3d fa37 c93c 0d00 fcbc
00000040: 0dcb 0b3d df7d 9bbd 8d58 34bc c7f7 a33d
00000050: 73f9 683d 7528 c83d 8791 923d 405e 60bd
00000060: 2d04 623d 2d59 a0bc 28ed 973d 9dbe 0d3d
00000070: 501c 383d 9d5d 743d 1a13 b43b 4000 713c
00000080: 5a99 d53c 0d05 1fbd 987a 9dbd a8eb c6bd
00000090: 8d33 aa3c 8d76 413c 8a77 043d 2aef 9ebd
000000a0: daa1 a13d db3d 923d f01a a93d 0bd4 ac3d
000000b0: 331d 8c3a 2a4c 76bd fb11 9cbd c328 af3d
000000c0: 0099 83bd 1ac4 08bd 303e 373d b35a 92bb
000000d0: a006 67bd dabd 2abc 3bfb bd3d 65e6 a8bd
000000e0: 33b5 50bd 8ddf 82bd 0a63 a23d f3a0 a8bd
000000f0: 0a19 3d3d 6a1b 95bd adbb 34bd 4d29 ae3c
00000100: 93ce 3dbd ca72 6dbd 4a31 71bd e094 8cbd
00000110: ba54 38bd 7330 5b3c fd06 2e3d 6bc1 ad3d
00000120: c7d0 ae3d dad7 6ebd 5a8b d13c 60a4 2dbd
00000130: 582e 933d cd54 f23a 73f9 20bc 4aa0 093d
00000140: 732f 66bc 4de7 e1bc 0d0a 2c3d 253e 93bd
00000150: 572b a93d 3313 e738 9772 2a3d a75b cc3c
00000160: 5fa4 c6bd c076 023c ad21 493d d234 8abd
00000170: 6bae 8c3d f57a a3bd f3a9 bfbd 437c 273d
00000180: 88dd b83d 3316 82bc 073f 883d 2f1b 913d
00000190: a71b 8bbc 5f78 af3d c763 053d c0ff b9bc
000001a0: 53a1 54bd 0a82 cc3d faab dc3c da42 543d
000001b0: 6832 b2bd 7a53 16bd cddf 3ebb 1a44 3b3d
000001c0: 6719 143b 4047 733c 4747 22bd cd73 9fbc
000001d0: 3388 d43c 4729 b13d 83e5 243d 7b6b ac3d
000001e0: 85db ba3d 8d6c 333c db74 ad3d 7396 483c
000001f0: 7064 543d 939a 8e3c cd1e a1bb 471d 8f3d
00000200: 677c 213c 07d4 bdbc bda9 ae3d cb99 a73d
00000210: 30aa 42bd d579 c9bd f7d9 953d ef2b a73d
00000220: a80e bc3d c744 433d 675e 33bc 9aae 113c
00000230: f3d7 d8bc fa6a d1bc e01c c83d f513 ac3d
00000240: baf0 c9bc 0a6a 6d3d 9a9d 983b b389 07bd
00000250: 0d5b c03d ed7c d93c cd4c 10bb 3360 753b
00000260: a31c 8a3d 5a50 463c 900a 783d 9300 b3bc
00000270: b359 c83d e571 9ebd f061 b3bd d7ec 34bd
00000280: 23c3 133d c379 ca3d 97ae 83bd 00f6 af3c
00000290: 9756 763d 8de6 d7bc 3ad4 aabd 6d4d 20bd
000002a0: df9b c33d 9dd3 40bd 6a06 353d 2be0 963d
000002b0: cb42 933d e706 2d3c 9d5b 26bd e06f 8abd
000002c0: fae0 d7bc 5dc1 7a3d f8e4 b5bd 6783 50bc
000002d0: 879b 38bd 5361 81bc 7fe2 a7bd e0b0 7e3d
000002e0: cdfd 473c 608a 92bc 1035 3fbd cd3c 1fb9
000002f0: 2d77 a33c 1d42 bd3d cd8f e13c 72c0 c93d
00000300: 3393 41bb 83e9 bbbd 4098 6dbd b3cb 463d
00000310: fd11 4bbd cdbb 49bb 63b9 173d ef28 adbd
00000320: 5502 99bd 82d4 afbd ea7c 013d c5ef 97bd
00000330: 4a15 713d 00b8 4d3a 67fe 453c e0e2 df3c
00000340: 2ac9 2fbd fac0 a53c 6282 90bd c352 0c3d
00000350: b001 61bd cdef aebc 8a82 24bd a01f 49bd
00000360: 8229 87bd cf4d 8abd 9a49 6dba ca7c b33d
00000370: 928f a23d 40ad 4bbd 0796 1bbd 8796 183d
00000380: c795 963d 33a9 5abc 087e b0bd 2330 53bd
00000390: 425e c93d e767 b2bd aa8a 47bd 45de a23d
000003a0: 07bc 1abd a7b3 013c 13d5 c63d ba10 b5bd
000003b0: e80f 943d 2573 ab3d 7a96 fa3c 5a53 79bd
000003c0: 77b3 2fbd 3375 da3c b364 7b3c 80d3 d83c
000003d0: 9ac8 b53b 02f3 af3d 6dfe ccbc 03ac 79bd
000003e0: a0a1 6ebd b083 ad3d 40cb 91bd ba48 3f3d
000003f0: e778 443d 5036 873d 7758 68bd 1a48 afbb

backbone.model.1.0.model.0.bias f4 [8]
0.061097063 0.04208045 -0.018783404 0.033006933 0.06584164 -0.08221711 0.012322855 -0.081849985
00000000: ea40 7a3d 8d5c 2c3d a7df 99bc 4732 073d
00000010: fbd7 863d 7261 a8bd cde5 493c f7a0 a7bd

backbone.model.1.1.model.0.weight f4 [8, 8, 5, 5]
-0.05264463 -0.056695532 -0.042477157 0.05035527 -0.064631455 0.031953692 -0.051311355 -0.02117386
0.03934895 -0.01737938 -0.06498427 0.06807015 -0.06457038 0.042092472 -0.0692849 0.029303744
0.038138676 0.05223449 0.056646403 -0.035941444 0.043416206 0.06619893 -0.066378035 -0.010691459
0.05693038 -0.035710808 -0.042653732 0.028841604 0.013598656 0.038707484 -0.030764233 0.007809601
0.017600643 0.042746093 -0.017102467 -0.024530655 0.008272508 -0.048324727 -0.06630771 -0.049753472
0.06474165 0.0001156931 -0.030709915 0.03807743 0.03301764 -1.9724726e-05 0.02095822 0.033265237
0.049432557 0.04107857 0.056809556 0.05863715 -0.06596859 -0.060736157 0.009503154 0.010275638
-0.021033553 -0.029926354 0.010780431 0.0020422172 -0.03190735 -0.007933891 -0.04112709 -0.04862568
0.014089844 0.06552472 0.0007926811 0.03103577 -0.046747256 -0.06438354 -0.0052949004 0.0037933597
-0.05006702 0.005438899 -0.015632132 0.051061973 0.018307082 0.050639525 0.014314655 0.041700944
-0.057361256 0.040252164 0.043183815 -0.030881006 -0.031892918 0.052083157 -0.052464038 -0.032571077
0.058324516 -0.018393205 -0.05039134 -0.030639673 0.02139181 0.05239683 -0.06926968 -0.037649125
0.03418816 0.050608985 0.024395296 -0.029226406 0.06036411 0.03451881 -0.015240368 -0.063801855
0.05518088 0.047807712 -0.012434577 -0.056210108 0.050220393 -0.052860547 -0.017526455 0.03789725
-0.01998527 -0.01341176 0.03971764 -0.021067558 0.060333367 0.011195341 -0.041170534 0.021109797
-0.00026044223 -0.06672748 0.016722657 0.0312857 -0.05047115 0.057734895 0.040977873 -0.021669473
0.0030554275 0.042092625 -0.06857135 0.015530288 -0.008541008 0.05057713 0.006898976 -0.06251845
-0.053338878 0.014571751 0.015181169 -0.03260406 0.010888454 0.032674473 0.039565727 -0.0229093
0.0043804063 -0.020371806 0.020339236 0.07054458 -0.027979726 -0.051338445 -0.0032286595 -0.0127553735
-0.0061393464 0.019654525 -0.037958525 -0.04674918 0.017090952 0.026287066 -0.069812685 0.047863152
0.016917797 -0.036639456 0.04495092 0.051843695 0.06227892 0.06652128 0.05767112 0.06352447
-0.06774243 -0.034384716 -0.060792178 0.0033522255 0.04320553 0.046876602 -0.06484763 0.03580696
-0.015465399 0.026681418 0.018608745 0.039389275 -0.039769262 -0.044738047 -0.02658475 -0.016727032
0.010364922 0.05590195 0.03146854 -0.0106906835 -0.037693083 -0.029982334 0.043143936 0.020819178
-0.023826003 -0.015030991 -0.052073553 -0.021613343 0.02434547 -0.0662912 0.012497873 -0.052226394
0.038830247 0.065087005 0.022140617 -0.059473876 0.032608833 0.046427775 -9.1037197e-07 -0.049822155
-0.06410779 0.001646492 -0.029046843 -0.07066029 -0.012585665 -0.02328848 -0.0073756566 -0.0075539546
-0.061941884 -0.019875208 0.060243208 -0.054162916 -0.027946161 -0.067122824 -0.002502132 -0.050886337
-0.014739471 0.057614524 0.050842226 0.06061952 -0.027868373 0.038778953 0.06929707 0.032131974
0.00900942 -0.006521458 -0.048578694 -0.03095736 -0.03333933 -0.05891832 -0.06582173 -0.02223732
-0.03343598 0.055046823 0.0014142966 -0.06667528 0.047086865 0.046543896 -0.017207995 0.031909287
0.042464074 -0.021011403 0.07053489 0.015259799 -0.017972184 0.031586908 -0.015596492 -0.009058556
00000000: e5a1 57bd 9339 68bd 87fc 2dbd 5441 4e3d
00000010: 7f5d 84bd e0e1 023d db2b 52bd ce74 adbc
00000020: 5d2c 213d 345f 8ebc 7916 85bd 5d68 8b3d
00000030: 7a3d 84bd 2869 2c3d 3ee5 8dbd 680e f03c
00000040: 4d37 1c3d d5f3 553d 0f06 683d 5637 13bd
00000050: 31d5 313d 4e93 873d 35f1 87bd 3b2b 2fbc
00000060: d52f 693d 7f45 12bd aeb5 2ebd 3a45 ec3c
00000070: e6cc 5e3c bd8b 1e3d 4605 fcbc aee7 ff3b
00000080: 392f 903c 8716 2f3d 791a 8cbc 83f4 c8bc
00000090: 6a89 073c 26f0 45bd 56cc 87bd 4cca 4bbd
000000a0: 4597 843d 43a0 f238 5c93 fbbc 14f7 1b3d
000000b0: 813d 073d 8776 a5b7 93b0 ab3c 2141 083d
000000c0: cb79 4a3d 0142 283d 23b1 683d 822d 703d
000000d0: 8a1a 87bd 7ac6 78bd 1eb3 1b3c 265b 283c
000000e0: 8f4e acbc 1d28 f5bc 68a0 303c b8d6 053b
000000f0: 48b1 02bd 27fd 01bc e174 28bd b92b 47bd
00000100: 17d9 663c d331 863d eecb 4f3a ba3e fe3c
00000110: 0d7a 3fbd 84db 83bd d880 adbb 049a 783b
00000120: 1313 4dbd cb38 b23b f50e 80bc 5c26 513d
00000130: bcf8 953c 646b 4f3d 0488 6a3c 9cce 2a3d
00000140: a3f3 6abd 74df 243d 83e1 303d 2afa fcbc
00000150: 26a2 02bd 2655 553d 88e4 56bd 4069 05bd
00000160: b0e5 6e3d 59ad 96bc 2667 4ebd 0d00 fbbc
00000170: e13d af3c 0f9e 563d 43dd 8dbd f835 1abd
00000180: e208 0c3d 5e4b 4f3d a5d8 c73c 376c efbc
00000190: 5b40 773d 9963 0d3d bdb2 79bc 8caa 82bd
000001a0: 5905 623d 05d2 433d 65ba 4bbc 923c 66bd
000001b0: e6b3 4d3d 4d84 58bd a493 8fbc 263a 1b3d
000001c0: 26b8 a3bc 00bd 5bbc f7ae 223d df95 acbc
000001d0: 1f20 773d aa6c 373c 6fa2 28bd 74ee ac3c
000001e0: f78b 88b9 6ba8 88bd f4fd 883c 6f25 003d
000001f0: d6ba 4ebd 6d7b 6c3d 6ad8 273d 2e84 b1bc
00000200: 913d 483b 5169 2c3d 236f 8cbd c072 7e3c
00000210: 96ef 0bbc f729 4f3d ce10 e23b ac09 80bd
00000220: de79 5abd 5abe 6e3c 70ba 783c d68b 05bd
00000230: 7c65 323c abd5 053d ac0f 223d 49ac bbbc
00000240: 8389 8f3b c6e2 a6bc 789e a63c ad79 903d
00000250: bd35 e5bc 4348 52bd eb97 53bb eafb 50bc
00000260: 922c c9bb 8702 a13c 667a 1bbd 117c 3fbd
00000270: 5302 8c3c f957 d73c f4f9 8ebd 270c 443d
00000280: 3197 8a3c 4113 16bd 751e 383d 0e5a 543d
00000290: 2e18 7f3d 4f3c 883d 8d38 6c3d 1e19 823d
000002a0: 8bbc 8abd fdd6 0cbd 3801 79bd 03b1 5b3b
000002b0: 48f8 303d ae01 403d d6ce 84bd 52aa 123d
000002c0: 9662 7dbc fd92 da3c 5e71 983c a656 213d
000002d0: 18e5 22bd 3e3f 37bd 43c8 d9bc 2107 89bc
000002e0: a2d1 293c 71f9 643d 28e5 003d fa27 2fbc
000002f0: 1064 1abd 839d f5bc b2b7 303d fb8c aa3c
00000300: c02e c3bc 8c44 76bc 144b 55bd 770e b1bc
00000310: 2770 c73c aec3 87bd e1c3 4c3c 58eb 55bd
00000320: 770c 1f3d 564c 853d 3d60 b53c e19a 73bd
00000330: d790 053d 0d2b 3e3d 4960 74b5 5112 4cbd
00000340: f24a 83bd 1bcf d73a a5f3 edbc 58b6 90bd
00000350: 1b34 4ebc 7bc7 bebc 7eaf f1bb 2a87 f7bb
00000360: c6b6 7dbd 55d1 a2bc 95c1 763d efd9 5dbd
00000370: 59ef e4bc b177 89bd cffa 23bb 316e 50bd
00000380: d27d 71bc 35fd 6b3d f03f 503d 2c4c 783d
00000390: 374c e4bc aed6 1e3d 9feb 8d3d d19c 033d
000003a0: 3f9c 133c f4b1 d5bb 74fa 46bd 4a9a fdbc
000003b0: d28e 08bd 5654 71bd 8bcd 86bd 0a2b b6bc
000003c0: 2bf4 08bd c778 613d eb5f b93a 0d8d 88bd
000003d0: 28de 403d d0a4 3e3d c8f7 8cbc 50b3 023d
000003e0: cfee 2d3d 1b20 acbc 9974 903d 3c04 7a3c
000003f0: 673a 93bc 4661 013d 6e88 7fbc 566a 14bc

backbone.model.1.1.model.0.bias f4 [8]
-0.029415771 0.05413367 0.06845363 -0.05234242 0.019373221 -0.0020772917 -0.02505434 -0.05558534
00000000: 58f9 f0bc 44bb 5d3d 6b31 8c3d 0165 56bd
00000010: 97b4 9e3c 2c23 08bb c23e cdbc 74ad 63bd

backbone.model.2.0.model.0.weight f4 [8, 8, 3, 3]
-0.10896403 -0.022576353 -0.02601031 0.08637516 0.060400438 -0.029497623 -0.076821595 0.11392161
0.08198447 -0.017087232 -0.083226964 0.111841284 -0.068026885 0.06226788 0.009004056 0.09895671
0.041879624 -0.10227749 0.07941888 0.087608434 -0.004252097 -0.06839599 -0.06783961 0.07077734
0.028445385 -0.03458267 -0.055316165 0.07197211 0.07978425 -0.06216968 0.07842784 -0.08315663
-0.08556905 0.09385912 0.060408335 -0.0067325374 -0.06647422 0.077021904 0.1049974 -0.07052775
-0.032061514 -0.026699059 0.08758791 -0.036527563 0.11342265 0.043271102 0.11408191 0.11407076
-0.036484744 -0.06680483 -0.0073444815 0.05167395 -0.031876672 0.03515022 0.06625545 0.010902393
-0.041999362 -0.05564026 -0.069443434 0.003673716 0.053310845 0.043733735 0.037282187 0.073922455
0.0823524 -0.06609967 -0.0039565633 0.0010811229 0.032113116 -0.0020444875 -0.08495424 0.070343964
0.082215056 -0.07847399 -0.086939804 0.011762666 0.09013354 -0.09125654 -0.094824985 0.049973644
-0.048236057 -0.060217466 -0.059179276 -0.003964684 0.09791418 0.031331968 -0.10113742 0.00045549503
-0.066190995 0.048548605 -0.044167142 0.07895202 0.084478565 -0.11109291 -0.061078962 0.039473053
-0.019013483 -0.07909206 0.07573106 -0.017179351 0.111296676 0.081568114 0.05557551 0.09936334
0.048065107 0.11528376 -0.03818243 0.05496241 0.08193397 -0.06067401 -0.10028895 -0.04517791
0.10158777 0.05535667 0.0904639 0.045931887 0.001530619 0.04849193 0.05373879 -0.07088344
-0.10578537 -0.08546649 0.09734535 -0.016534138 0.035900503 0.031996805 -0.0023257756 -0.039780837
0.117582925 -0.10970839 -0.020481164 0.065599136 0.049956687 0.055694252 0.07918601 0.007388764
-0.025312554 0.06245618 -0.10185091 -0.036681414 0.038282923 0.02381037 0.013180303 -0.010485111
0.042199224 0.10295358 -0.06571995 -0.082540825 0.028503112 0.06262937 0.11626572 -0.047526035
0.07699836 0.00613675 -0.027932389 -0.06145127 0.07369767 -0.063085504 -0.013374403 0.034813225
0.04355805 0.099929154 -0.0027030038 -0.002977717 0.032896515 0.024378214 -0.011132205 -0.0028766629
0.013435503 0.11669407 0.06111376 0.11558137 0.027675869 0.10377082 0.021437924 -0.0052969037
-0.10345731 0.010941378 -0.07459848 -0.039005954 0.020803517 0.025229188 -0.07088021 -0.06623664
0.05452917 0.04826317 -0.03554429 -0.074973255 0.06849408 0.11519018 0.033028252 0.005929373
-0.060127553 0.11527757 -0.012761925 -0.023208106 0.04624119 -0.028930144 0.025768105 -0.040176414
-0.0463839 0.1088762 -0.08567832 0.075853005 0.09506376 -0.11063666 -0.02190782 -0.1122075
-0.061721504 -0.031203855 -0.03329917 0.084981814 -0.02011478 0.10025086 -0.0026079065 0.01972769
0.06568353 0.040707476 0.043283366 0.112876005 0.09667082 -0.08809214 -0.10029839 0.058245484
0.08736196 -0.053269107 -0.07377878 0.014176697 0.02538624 -0.10000333 0.10316769 -0.024589807
-0.10381129 -0.11592977 -0.066498876 0.0394626 0.06701364 0.08143432 0.060874872 -0.045740526
0.0881815 0.03745901 -0.041257143 0.057357337 0.008507046 0.041117553 -0.06968563 0.034776617
0.054629818 -0.03659896 -0.038981564 0.023124263 0.006270032 -0.100891165 0.046589464 0.023999834
00000000: 8928 dfbd 0bf2 b8bc 9313 d5bc 76e5 b03d
00000010: 7366 773d 00a5 f1bc a454 9dbd bc4f e93d
00000020: 79e7 a73d 86fa 8bbc e672 aabd 0b0d e53d
00000030: ae51 8bbd 9b0c 7f3d c085 133c d1a9 ca3d
00000040: f889 2b3d dc76 d1bd 5ea6 a23d 0d6c b33d
00000050: 2d55 8bbb 3213 8cbd 7eef 8abd b6f3 903d
00000060: 4c06 e93c 8fa6 0dbd 3493 62bd 1d66 933d
00000070: ed65 a33d a2a5 7ebd c69e a03d 064e aabd
00000080: d33e afbd 3639 c03d bb6e 773d 9e9c dcbb
00000090: a323 88bd a9bd 9d3d e008 d73d da70 90bd
000000a0: ef52 03bd fcb7 dabc 4a61 b33d ed9d 15bd
000000b0: 224a e83d 0a3d 313d c7a3 e93d ee9d e93d
000000c0: 0771 15bd f9d0 88bd faa9 f0bb 10a8 533d
000000d0: 1d91 02bd adf9 0f3d f0b0 873d f39f 323c
000000e0: 8607 2cbd 0be7 63bd 5c38 8ebd bac2 703b
000000f0: 795c 5a3d 2522 333d 35b5 183d a864 973d
00000100: 60a8 a83d 445f 87bd 0fa6 81bb 77b4 8d3a
00000110: 0b89 033d cffc 05bb 7dfc adbd 7f10 903d
00000120: 5e60 a83d f9b6 a0bd 7f0d b2bd 32b8 403c
00000130: ef97 b83d b5e4 babd 9a33 c2bd 2ab1 4c3d
00000140: 2c93 45bd 97a6 76bd f865 72bd 2eea 81bb
00000150: 3b87 c83d f355 003d 2321 cfbd 82cf ee39
00000160: 258f 87bd e7da 463d 9be8 34bd 99b1 a13d
00000170: 1903 ad3d ae84 e3bd ef2d 7abd 7fae 213d
00000180: 2ac2 9bbc 05fb a1bd e318 9b3d b6bb 8cbc
00000190: 83ef e33d 2f0d a73d 25a3 633d 027f cb3d
000001a0: ebdf 443d e419 ec3d 2e65 1cbd 4420 613d
000001b0: ffcc a73d 5085 78bd 4b64 cdbd 790c 39bd
000001c0: 400d d03d adbd 623d 2345 b93d 1323 3c3d
000001d0: 0d9f c83a 799f 463d 351d 5c3d 562b 91bd
000001e0: 00a6 d8bd 0e09 afbd 005d c73d 9a72 87bc
000001f0: 680c 133d 150f 033d 0a6c 18bb 3bf1 22bd
00000200: 51cf f03d cbae e0bd 1dc8 a7bc d758 863d
00000210: 629f 4c3d a81f 643d 462c a23d 721d f23b
00000220: 465c cfbc 0dd2 7f3d 3697 d0bd 403f 16bd
00000230: 8ece 1c3d f70d c33c 33f2 573c bec9 2bbc
00000240: 18d9 2c3d 54d9 d23d 2e98 86bd 2a0b a9bd
00000250: 5c7f e93c d443 803d b91c ee3d a9aa 42bd
00000260: 51b1 9d3d ca16 c93b 77d2 e4bc 54b4 7bbd
00000270: ceee 963d f932 81bd 5020 5bbc 5098 0e3d
00000280: ed69 323d a8a7 cc3d e124 31bb cd25 43bb
00000290: 7fbe 063d d2b4 c73c da63 36bc 6586 3cbb
000002a0: 9520 5c3c 4dfd ee3d 6c52 7a3d edb5 ec3d
000002b0: 81b8 e23c cc85 d43d 969e af3c a691 adbb
000002c0: 6de1 d3bd 7743 333c 16c7 98bd b5c4 1fbd
000002d0: 236c aa3c 71ad ce3c a529 91bd 13a7 87bd
000002e0: fb59 5f3d 9aaf 453d e496 11bd 948b 99bd
000002f0: a046 8c3d d4e8 eb3d a248 073d 304b c23b
00000300: 4f48 76bd a616 ec3d 6517 51bc ed1e bebc
00000310: 6767 3d3d e9fe ecbc a217 d33c 0690 24bd
00000320: 0bfd 3dbd 7cfa de3d 1d78 afbd d258 9b3d
00000330: cab0 c23d 7995 e2bd 0778 b3bc 0ccd e5bd
00000340: b0cf 7cbd 3a9f ffbc b664 08bd f20a ae3d
00000350: c0c7 a4bc 5350 cd3d 69e9 2abb f79b a13c
00000360: 1685 863d e2bc 263d e649 313d 892b e73d
00000370: 5afb c53d a769 b4bd 3e69 cdbd d192 6e3d
00000380: d4ea b23d b530 5abd 5419 97bd 6045 683c
00000390: cef6 cf3c 8cce ccbd 9549 d33d 9070 c9bc
000003a0: 039b d4bd 966c edbd 9030 88bd 89a3 213d
000003b0: 733e 893d 09c7 a63d ee57 793d 6b5a 3bbd
000003c0: 8198 b43d 9e6e 193d 40fd 28bd 87ef 6a3d
000003d0: 2361 0b3c e16a 283d 57b7 8ebd ed71 0e3d
000003e0: 84c3 5f3d cbe8 15bd 22ab 1fbd 186f bd3c
000003f0: d774 cd3b 07a0 cebd 98d4 3e3d 4d9b c43c

backbone.model.2.0.model.0.bias f4 [8]
-0.047736645 0.0891854 0.052149013 -0.0132383285 0.01509746 0.045366842 0.07727469 0.028096486
00000000: 8087 43bd d6a6 b63d 349a 553d 93e5 58bc
00000010: 565b 773c 95d2 393d 3142 9e3d 9a2a e63c

backbone.model.2.1.model.0.weight f4 [8, 8, 3, 3]
-0.038073216 -0.026693748 0.09060041 -0.05341329 -0.022385526 0.023962773 0.03966655 -0.0052271504
-0.0024580886 0.076096125 -0.11336441 -0.023790464 -0.055814594 0.026034601 -0.10370044 -0.11196233
0.0986633 0.058695767 0.093743116 -0.07135896 0.03111914 0.07643366 0.03191757 -0.04951503
-0.07422586 -0.06769301 0.056314062 0.08561115 -0.09157455 -0.044050943 0.027672216 0.066591546
0.0374536 -0.077640384 -0.093596265 -0.11399757 -0.017118393 -0.021515474 -0.0017991366 -0.060377568
0.077964544 0.07626149 0.03667537 0.09247818 0.040976584 0.02487021 -0.012689616 -0.026832469
-0.08017854 -0.040676247 -0.0746977 -0.009175257 -0.020837782 0.107094705 -0.026946025 -0.07753631
-0.02718459 0.06916454 -0.03512777 0.058953524 0.06690054 -0.00090907945 -0.07882804 0.08354566
0.04431033 0.09236515 -0.062413555 0.06172202 0.037127525 -0.050965767 -0.08654812 0.06336746
-0.06903585 -0.0048230044 0.064496115 0.0901519 -0.03114173 0.044871908 0.048044905 -0.027540535
-0.06396702 -0.024396984 -0.08002517 0.05088895 -0.080687895 0.054491322 0.004738205 0.07049548
0.02139558 0.093647785 -0.043548893 -0.044767246 -0.015125914 -0.012550264 0.029104998 0.11356851
0.07967229 -0.07647084 0.04164162 0.023440981 0.09157011 0.019637538 0.0050308444 -0.10621855
0.08437172 0.064901456 0.07873047 0.087596744 0.05101952 -0.024445917 -0.06642322 -0.017977288
-0.066769175 -0.034973666 0.013104003 0.01350392 -0.06507899 0.021273622 -0.080621734 0.006157416
-0.035043266 0.11049743 0.02451227 -0.11143494 -0.10863265 -0.06766925 -0.019027308 -0.07624882
-0.020139184 0.057546787 -0.1170601 -0.11358924 0.05951 -0.0065508005 -0.0052839224 0.10616552
-0.028303042 -0.07367082 0.054116048 0.028326476 0.00847427 -0.074869424 0.03703504 0.060184687
0.004658758 0.10340117 -0.032437228 0.07938808 0.029179359 0.056020986 0.1172652 0.10652606
-0.062377434 0.05427136 0.009097804 -0.075111136 -0.06509266 -0.09324573 -0.05687203 0.0024480857
0.0806822 0.1149472 -0.11733414 0.09599126 -0.025059056 0.031734485 -0.046624936 0.098149866
0.03281347 -0.02195147 -0.007980211 0.009387817 0.03138742 0.08152869 0.09611774 0.057404008
-0.050556634 -0.10534463 0.00022950364 -0.023708347 0.10985378 -0.113469966 -0.059564594 -0.06719631
-0.087054685 0.032474697 0.018853508 -0.07832583 -0.07718369 -0.10123851 -0.031162847 0.028549545
-0.01171851 -0.042654675 0.074067175 -0.07808798 -0.046490572 0.042659845 0.05735932 -0.025198745
0.062352933 -0.05160473 0.11308074 0.020980954 0.03347807 -0.051777065 -0.06448365 -0.0055535496
-0.020969743 0.057442684 0.027765347 -0.103719965 -0.11154475 -0.009696613 -0.015682632 0.01992422
0.0460761 -0.03392875 -0.11714472 0.05290785 -0.083940424 0.020433383 -0.061402593 -0.015616966
0.03444919 -0.07732282 -0.06298896 0.07602952 -0.10997564 -0.10950663 0.111627065 0.082659975
-0.027000831 0.07502229 -0.0936424 0.06879373 0.06543123 -0.045029566 -0.08443847 0.032746345
-0.10726852 0.08464373 -0.10495422 0.10970481 0.048669748 0.044413533 0.04659354 0.022690725
-0.058468565 0.011753084 -0.055382688 -0.032096498 0.06617169 0.02099416 -0.025193756 -0.07176463
00000000: a9f2 1bbd d9ac dabc b58c b93d e5c7 5abd
00000010: da61 b7bc 944d c43c 6479 223d 8448 abbb
00000020: e217 21bb 49d8 9b3d 9a2b e8bd 38e4 c2bc
00000030: d89d 64bd 8446 d53c e560 d4bd 824c e5bd
00000040: fc0f ca3d f96a 703d 64fc bf3d a524 92bd
00000050: 91ed fe3c 4089 9c3d ffbb 023d 46d0 4abd
00000060: ba03 98bd a2a2 8abd 93a9 663d e654 af3d
00000070: 708b bbbd c36e 34bd d8b0 e23c 2661 883d
00000080: f268 193d ec01 9fbd 66af bfbd 8f77 e9bd
00000090: df3b 8cbc 3841 b0bc 02d1 ebba 784e 77bd
000000a0: e0ab 9f3d fc2e 9c3d ea38 163d 3365 bd3d
000000b0: 10d7 273d 9cbc cb3c 1be8 4fbc c4cf dbbc
000000c0: a534 a4bd 239c 26bd 1cfb 98bd d153 16bc
000000d0: ffb3 aabc 7854 db3d e9bd dcbc 5bcb 9ebd
000000e0: 38b2 debc 23a6 8d3d 23e2 0fbd 4079 713d
000000f0: 2603 893d 4a4f 6eba 9870 a1bd fd19 ab3d
00000100: c07e 353d f129 bd3d 5ba5 7fbd 3bd0 7c3d
00000110: 0813 183d 7bc1 50bd 2440 b1bd cdc6 813d
00000120: ab62 8dbd 4b0a 9ebb 8a16 843d 8fa1 b83d
00000130: f11c ffbc 9bcb 373d bcca 443d b09c e1bc
00000140: 2401 83bd 2fdc c7bc 3de4 a3bd ee70 503d
00000150: b23f a5bd 4b32 5f3d f242 9b3b ef5f 903d
00000160: c945 af3c 69ca bf3d 5360 32bd dc5d 37bd
00000170: aed2 77bc 9f9f 4dbc 9b6d ee3c 9b96 e83d
00000180: 3a2b a33d be9c 9cbd 6790 2a3d 4d07 c03c
00000190: 1c89 bb3d e7de a03c c8d9 a43b 1c89 d9bd
000001a0: 15cb ac3d 0eeb 843d 713d a13d ec65 b33d
000001b0: d8f9 503d ce42 c8bc e608 88bd 1b45 93bc
000001c0: 47be 88bd 8c40 0fbd 2cb2 563c 8c3f 5d3c
000001d0: 2248 85bd 0546 ae3c 021d a5bd 26c4 c93b
000001e0: 8789 0fbd 7a4c e23d f5cd c83c 0038 e4bd
000001f0: cb7a debd 2d96 8abd 28df 9bbc 5728 9cbd
00000200: eefa a4bc 2eb6 6b3d 35bd efbd 7aa1 e8bd
00000210: c2c0 733d 19a8 d6bb c124 adbb 4f6d d93d
00000220: c8db e7bc bae0 96bd caa8 5d3d ed0c e83c
00000230: aad7 0a3c 2455 99bd 0eb2 173d 3884 763d
00000240: 7fa8 983b fec3 d33d e6dc 04bd 3896 a23d
00000250: 8d09 ef3c 4376 653d bd28 f03d 562a da3d
00000260: 7b7f 7fbd a54b 5e3d f50e 153c ded3 99bd
00000270: 4d4f 85bd 9ef7 bebd a5f2 68bd 1070 203b
00000280: b63c a53d 7069 eb3d e24c f0bd 1197 c43d
00000290: a648 cdbc 05fc 013d caf9 3ebd cc02 c93d
000002a0: 6b67 063d 92d3 b3bc 6ebf 02bc 5ccf 193c
000002b0: 1890 003d 84f8 a63d 61d9 c43d 7720 6b3d
000002c0: 7914 4fbd edbe d7bd eaa6 7039 0238 c2bc
000002d0: 05fb e03d f162 e8bd 01fa 73bd 389e 89bd
000002e0: ba49 b2bd 3004 053d ac72 9a3c 4b69 a0bd
000002f0: 7c12 9ebd 2356 cfbd 3a49 ffbc bce0 e93c
00000300: fefe 3fbc abb6 2ebd 88b0 973d 97ec 9fbd
00000310: e66c 3ebd 17bc 2e3d 9bf1 6a3d 996d cebc
00000320: ca65 7f3d 7b5f 53bd e096 e73d 40e0 ab3c
00000330: 4d20 093d 3014 54bd 0110 84bd 8dfa b5bb
00000340: bdc8 abbc 0549 6b3d 2774 e33c 226b d4bd
00000350: 9371 e4bd 8bde 1ebc dd78 80bc 1e38 a33c
00000360: 4bba 3c3d dff8 0abd 92e9 efbd e7b5 583d
00000370: f5e8 abbd e963 a73c 4981 7bbd 4ede 7fbc
00000380: 981a 0d3d 6d5b 9ebd 5b00 81bd 5db5 9b3d
00000390: e93a e1bd 0345 e0bd bb9c e43d a249 a93d
000003a0: d930 ddbc 49a5 993d 96c7 bfbd bae3 8c3d
000003b0: cf00 863d ec70 38bd 14ee acbd 0821 063d
000003c0: 99af dbbd b159 ad3d 3df2 d6bd eaac e03d
000003d0: ee59 473d f7ea 353d ded8 3e3d e6e1 b93c
000003e0: bc7c 6fbd 0290 403c f5d8 62bd 9e77 03bd
000003f0: 0685 873d f2fb ab3c 2363 cebc 56f9 92bd

backbone.model.2.1.model.0.bias f4 [8]
0.115399584 0.10420852 0.088090606 -0.039546177 0.08399675 0.06127779 -0.021980241 0.0012971737
00000000: 9e56 ec3d 476b d53d d968 b43d 2cfb 21bd
00000010: 7d06 ac3d 6cfe 7a3d e80f b4bc ed05 aa3a

backbone.model.3.0.model.0.weight f4 [16, 8, 3, 3]
0.017813787 0.036373742 0.027054582 -0.10575347 0.029861562 -0.0051712636 0.09860741 -6.406321e-05
-0.0897738 0.08998563 0.044072017 -0.09536156 0.023219682 0.021471655 0.090865165 0.076127335
0.08328563 -0.08093053 -0.0152008515 0.019176956 -0.021306397 0.008457664 -0.11108753 -0.1131684
0.01481303 -0.075880244 -0.001015444 -0.030933764 -0.104684286 -0.008054164 0.0854017 -0.024104485
-0.0050705327 -0.11211684 0.008630439 -0.014025038 -0.05615687 -0.048923895 0.03836723 0.072672546
-0.02018164 0.040654104 0.04477091 0.08175404 -0.06693607 -0.020902716 -0.0022907937 0.10571379
0.025717234 0.050009497 -0.097447306 -0.075885005 -0.027853334 0.020816905 -0.059229597 0.07992572
0.060169138 -0.0023508528 0.07655339 -0.02167892 -0.07474478 0.08661606 -0.019900126 -0.095971145
-0.07898421 0.10881528 -0.06978489 -0.111604154 -0.05065926 0.045666713 0.051883683 -0.0054331645
-0.007897519 -0.08483093 -0.07042419 0.061332725 -0.049823407 -0.010278704 0.033803724 -0.014836295
0.0061780117 0.06667926 0.098817445 -0.11700163 -0.043380655 -0.110102884 0.08756292 -0.0671461
0.011305148 -0.031195736 0.015552945 0.01820741 -0.116556406 -0.030018559 -0.0069395206 -0.011133553
-0.092688054 0.055328753 0.06780915 0.11459176 -0.0937634 0.020234955 -0.036382157 0.03167899
-0.060205437 0.0862475 -0.052164648 0.06287825 -0.08269702 -0.044314772 0.049914554 0.036225356
0.032571547 0.0368831 -0.06442316 -0.02516903 -0.086880766 -0.09821584 -0.11168208 -0.085897975
0.011673539 0.054812975 -0.10771146 0.07790113 0.07227951 0.021179873 -0.005340455 0.027683651
-0.07868453 -0.051771417 0.007402715 0.070100635 0.11532283 0.08946476 0.03529276 0.030755918
0.031695876 -0.024816584 0.11388627 -0.087352745 -0.07066652 0.05577815 0.079721875 -0.07040908
0.008873204 0.045591947 -0.05134606 0.11330589 -0.103559904 0.05276853 0.019703062 -0.06463787
-0.05937797 0.090032905 -0.08157411 0.061964102 -0.10404558 0.055319678 0.06787903 0.010710779
-0.020575993 0.08657401 0.02289459 -0.104549006 -0.059946377 -0.017227776 -0.04252031 0.009586019
0.09019448 -0.113451995 -0.054782994 -0.089433126 -0.018851358 0.11466602 0.03067931 0.01446928
0.10224928 0.05947849 0.037414797 0.10986094 0.102019764 0.019819232 -0.085540384 -0.039920118
0.10255449 -0.0089618955 -0.04793485 -0.083869345 -0.073083 -0.048898786 0.015161332 -0.022524133
-0.058263257 -0.013374024 0.11249684 -0.00040902113 -0.05403209 -0.035739798 0.0059474544 0.09111473
-0.008401722 0.031076487 0.07637602 0.03171139 0.041359305 0.008374368 -0.017512325 0.056837637
0.030152854 -0.043828703 0.054114614 0.097466625 0.040788274 -0.047451355 0.1000632 0.0905423
0.027285842 -0.049633253 -0.08243733 0.106279224 0.011665672 0.09663608 0.045802977 -0.10857684
0.06700183 -0.02317852 0.008440623 0.100654796 -0.10686754 -0.10879764 -0.098750696 -0.07621509
0.09482676 -0.0024653377 -0.10460436 0.0055838535 0.04308297 0.077288106 3.921062e-05 -0.10875678
-0.055538025 0.071611665 0.095222235 0.08208662 -0.07845929 -0.07050891 0.08297422 0.028556274
0.028329384 -0.09124378 -0.019882102 0.064819336 0.097130604 0.07177699 -0.060616624 0.00378053
00000000: 38ee 913c a2fc 143d 92a1 dd3c 4695 d8bd
00000010: 3ca0 f43c b473 a9bb aff2 c93d ad59 86b8
00000020: 53db b7bd 634a b83d dc84 343d ec4c c3bd
00000030: 3437 be3c 53e5 af3c 8417 ba3d a6e8 9b3d
00000040: a891 aa3d e8be a5bd fe0c 79bc fe18 9d3c
00000050: c18a aebc 0492 0a3c dc81 e3bd d6c4 e7bd
00000060: 5ab2 723c 1a67 9bbd a618 85ba ce68 fdbc
00000070: b764 d6bd 9df5 03bc 16e7 ae3d c576 c5bc
00000080: b626 a6bb 849d e5bd af66 0d3c 46c9 65bc
00000090: bf04 66bd 6c64 48bd f526 1d3d 58d5 943d
000000a0: f753 a5bc eb84 263d b461 373d aa6e a73d
000000b0: c715 89bd 2c3c abbc 2421 16bb 7980 d83d
000000c0: f3ac d23c c2d6 4c3d 7492 c7bd 9969 9bbd
000000d0: ad2c e4bc 3788 aa3c bc9a 72bd 19b0 a33d
000000e0: ea73 763d c410 1abb 06c8 9c3d fe97 b1bc
000000f0: cb13 99bd c363 b13d 9705 a3bc 858c c4bd
00000100: 79c2 a1bd 8cda de3d 61eb 8ebd b890 e4bd
00000110: 1680 4fbd 050d 3b3d fc83 543d b008 b2bb
00000120: 9864 01bc d7bb adbd 8f3a 90bd 0638 7b3d
00000130: a113 4cbd 0268 28bc c675 0a3d ee13 73bc
00000140: eb70 ca3b 238f 883d cd60 ca3d 8d9e efbd
00000150: eaaf 31bd 9f7d e1bd 3054 b33d e583 89bd
00000160: 3a39 393c 338e ffbc c8d1 7e3c b527 953c
00000170: 20b5 eebd 7be9 f5bc eb64 e3bb 8269 36bc
00000180: 3cd3 bdbd 67a0 623d 86df 8a3d 16af ea3d
00000190: 0707 c0bd c7c3 a53c 7505 15bd d4c1 013d
000001a0: fa99 76bd 87a2 b03d 99aa 55bd 50c6 803d
000001b0: 0e5d a9bd 6883 35bd 3473 4c3d 0a61 143d
000001c0: be69 053d bc12 173d 4af0 83bd 482f cebc
000001d0: 8bee b1bd 6325 c9bd 93b9 e4bd 47eb afbd
000001e0: 5f42 3f3c 9283 603d d397 dcbd a18a 9f3d
000001f0: 4807 943d 6a81 ad3c fcfe aebb d3c8 e23c
00000200: 5b25 a1bd 440e 54bd 7992 f23b ec90 8f3d
00000210: 602e ec3d 4d39 b73d 248f 103d d6f3 fb3c
00000220: 89d3 013d 264c cbbc 343d e93d ffe5 b2bd
00000230: 9cb9 90bd a177 643d 3945 a33d a332 90bd
00000240: ea60 113c 9fbe 3a3d 3f50 52bd eb0c e83d
00000250: 3717 d4bd d023 583d 5168 a13c dc60 84bd
00000260: 5036 73bd 2c63 b83d 5410 a7bd 12ce 7d3d
00000270: d915 d5bd e396 623d 2904 8b3d 437c 2f3c
00000280: fc8e a8bc b74d b13d 6f8d bb3c ca1d d6bd
00000290: 558a 75bd 4421 8dbc c729 2ebd ae0e 1d3c
000002a0: e2b7 b83d 8559 e8bd 2264 60bd b728 b7bd
000002b0: 2a6e 9abc 05d6 ea3d 2d53 fb3c 8f10 6d3c
000002c0: 1268 d13d b89f 733d 4240 193d c6fe e03d
000002d0: bdef d03d f15b a23c cc2f afbd 4783 23bd
000002e0: 1708 d23d ead4 12bc 5557 44bd b1c3 abbd
000002f0: 8aac 95bd 184a 48bd 3c67 783c 8884 b8bc
00000300: 74a5 6ebd b91e 5bbc be64 e63d e371 d6b9
00000310: c150 5dbd e563 12bd dde2 c23b 5c9a ba3d
00000320: 60a7 09bc 1e94 fe3c 086b 9c3d cde3 013d
00000330: 6068 293d a534 093c 0276 8fbc 95ce 683d
00000340: 1e03 f73c ba85 33bd 49a7 5d3d 959c c73d
00000350: 9b11 273d 5a5c 42bd efed cc3d 3e6e b93d
00000360: 8f86 df3c 3d4c 4bbd e7d4 a8bd eca8 d93d
00000370: 6021 3f3c 23e9 c53d e79b 3b3d 895d debd
00000380: 4138 893d e1e0 bdbc 8a4a 0a3c 1a24 ce3d
00000390: 5edd dabd 4cd1 debd ce3d cabd a816 9cbd
000003a0: 8834 c23d 8191 21bb d03a d6bd c2f8 b63b
000003b0: c577 303d 3a49 9e3d 1576 2438 e0bb debd
000003c0: d77b 63bd 23a9 923d e003 c33d 081d a83d
000003d0: 44af a0bd fa66 90bd 63ee a93d d9ee e93c
000003e0: 0613 e83c 05de babd cadf a2bc 00c0 843d
000003f0: 69ec c63d d1ff 923d 2349 78bd c5c2 773b

backbone.model.3.0.model.0.bias f4 [16]
0.01855807 0.06533164 -0.035853557 -0.116220206 -0.002940596 -0.014518696 0.019538734 -0.10770819
0.10419261 -0.0949289 0.06272972 -0.001502285 0.0705135 -0.105976 0.064316675 -0.002457711
00000000: 1807 983c 98cc 853d 2edb 12bd dc04 eebd
00000010: 04b7 40bb d3df 6dbc b20f a03c 1d96 dcbd
00000020: ef62 d53d 156a c2bd 7078 803d 52e8 c4ba
00000030: 6269 903d f209 d9bd 76b8 833d 8c11 21bb
