software/logs/hyper_parameter_tuning/custom_model_hp/version_19/checkpoints/epoch=0-step=20.ckpt (torch, 195567 bytes, 54 tensors)

backbone.model.0.0.model.0.weight f4 [4, 2, 5, 5]
00000000: f7af ec3d f165 0d3e 00f5 a8bd 9c1b 323d
00000010: b3ff c4bd ec79 18bc 663d b23d 6808 413d
00000020: 6ae9 7dbd f53b b5bd 0ae6 cf3d f512 fd3d
00000030: c7b5 0d3d 70a4 d9bd 9f79 44bd 47ad e1bc
00000040: dce5 063e 1fb0 fb3d 2289 c33d acac 113d
00000050: 0a90 b4bd 9b78 c53d a510 0b3e 0627 0cbc
00000060: d7ca e6bc 7dd6 71bd cc01 cb3d 55b2 b7bd
00000070: c514 e6bd 9a7a a4bd e683 06be 29e4 bdbd
00000080: f499 63bc 4d19 07bc 3e80 f8bd 1a31 cc3d
00000090: 0b7d f0bd 1e9e c2bd efa3 b83c b1d8 463c
000000a0: d7f2 a1bc a4ff c7bd c7a8 abbc 6e5d d63b
000000b0: d19c 9bbd f77c a1bd 82be 1e3d a0a8 2e3b
000000c0: aa87 9b3c 293a b5bd f644 03be a239 0e3e
000000d0: 5909 f53d fbf5 b33d 3f99 bb3d e1e3 e73d
000000e0: 9296 80bd bfb0 12bc 17fe 003e ae41 453d
000000f0: 7e77 843d bd1b 093e 58a5 e03d db81 b23d
00000100: ed34 7bbd 93d6 f63d bc20 483d 3fcc 91bd
00000110: 6e1e 013e cb68 84bc a89a bebd 8549 bb3d
00000120: bed8 923d 8ef0 11bd 7790 75bd 40b1 bc3d
00000130: 7ad2 b03d 3a86 f9bc c7ce e33d 67fb 833c
00000140: 0e1a 00be 75a1 c63d b1de 86bd bc28 c93d
00000150: 9b18 b83d ef00 b2bc 8e46 0fbe 650e 9dbd
00000160: f2d0 c8bd efd0 14bd a7b7 8ebd d966 e53c
00000170: c507 62bd 5bf9 0cbe efa7 07be ee2c cbbd
00000180: 1f74 08bd 2551 b1bd 8f28 243d da13 183d
00000190: 5f06 f23d c888 ce3c 6fb4 72bd 2218 eb3d
000001a0: ab24 06be 9fc5 213d 9c9a 583d c218 d8bd
000001b0: 0837 e3bc a2ba 0a3d d0e0 053e 384b d8bd
000001c0: 865d acbd 5649 e4bd 403e 713d ed41 0b3e
000001d0: 12c0 b33c cef0 1abd d8f2 493b f12d 8fbd
000001e0: 8c6c 26bd ed59 fabd 2b83 80bc 6a0e a4bd
000001f0: 5753 ba3c c69d aebd 579c 9b3d ba76 a83c
00000200: 1c46 063e 75c0 073e ce48 7c3d 355d 0c3e
00000210: c771 bf3d 0480 d3bb 06af 063c c57b d93d
00000220: dbd4 aebc ca43 1c3c 5dd9 b93c 48f1 70bc
00000230: b299 dcbd 38da fd3d e216 fcbd e00e 0c3e
00000240: 329a e2bb 4082 083e 439e cbbd 1e18 9bbc
00000250: e37f 8e3c 7a58 e2bd e0b1 9fbd e679 cd3d
00000260: c5e6 dbbd 9d45 fbbc f812 c4bd 4706 ecbc
00000270: 7409 b13d 806a 6b3c d32e 253d 4bfd 47bd
00000280: 8258 e7bd f86c 61b8 b04b 223c 7db4 653c
00000290: 431c 67bc 75d4 b9bd 39d2 23bb 9754 df3d
000002a0: 94da 8a3d aec0 203d a911 163d 966e ffbc
000002b0: 1d98 fd3d 608e 0abe e156 073e 0bfe afbd
000002c0: 2a9f 923d 9ae3 ecbb e2cf 943d 4907 bebc
000002d0: 712d 78bd 94c8 843d 5a4b 36bc 81e6 90bc
000002e0: 0321 d0bd eb03 d63d 4c9b 513d 051f 55bd
000002f0: 3ec7 863c bb0c ed3d 2718 0dbe bc17 d5bb
00000300: 0550 d53d 2cca 0f3e c33a c23c f0f1 9fbd
00000310: 438c 0ebd a8e7 85bc a8c2 db3d 6d46 fcbd
0.11557 0.13808419 -0.08249855 0.04348336 -0.09619083 -0.009306412 0.08703117 0.047127157
-0.06199018 -0.088493265 0.10151298 0.123571314 0.034597185 -0.10627067 -0.04796755 -0.027548445
0.13173622 0.12289452 0.095476404 0.035565063 -0.08816536 0.09642144 0.13580568 -0.008554226
-0.028172893 -0.059042443 0.09912452 -0.08969561 -0.1123443 -0.08031197 -0.13136253 -0.09272034
-0.013891686 -0.008245778 -0.12133835 0.09970303 -0.117426 -0.09502815 0.022539107 0.012136624
-0.019769115 -0.097655565 -0.020954503 0.0065418994 -0.0759827 -0.07885163 0.0387559 0.0026650801
0.018985588 -0.08848984 -0.12819275 0.13889173 0.119646735 0.087871514 0.09160089 0.11322761
-0.06278719 -0.008953272 0.12596928 0.04815834 0.06468104 0.13389488 0.10969037 0.08716174
-0.06132977 0.120526455 0.048859343 -0.07119035 0.12609264 -0.01616325 -0.09306842 0.09144882
0.071702465 -0.0356298 -0.059952226 0.09213495 0.08633895 -0.030459512 0.11123424 0.016111089
-0.12509939 0.09698764 -0.06585444 0.098222226 0.08989068 -0.02172896 -0.13991758 -0.07668761
-0.09805478 -0.036332067 -0.06968623 0.028003143 -0.05518319 -0.13766997 -0.13247655 -0.09920679
-0.033313867 -0.08658055 0.040077742 0.037128307 0.118176214 0.025211707 -0.059254106 0.11479212
-0.13099925 0.039495107 0.052881822 -0.10551597 -0.027736202 0.033869393 0.1307404 -0.10561222
-0.08416276 -0.111468 0.058897257 0.13599367 0.021942172 -0.037827305 0.0030814912 -0.069911845
-0.040630862 -0.12224183 -0.015687546 -0.08010562 0.022744818 -0.08526187 0.07598179 0.020564426
0.13112682 0.1325701 0.06159287 0.1370743 0.09347873 -0.0064544696 0.00822044 0.1061931
-0.021341732 0.009537647 0.022686655 -0.014705963 -0.107715026 0.123951375 -0.12309052 0.1367755
-0.006915354 0.13330936 -0.099422954 -0.018932398 0.017394966 -0.11052032 -0.07797599 0.10033016
-0.10737375 -0.030672843 -0.095739305 -0.028811587 0.08644381 0.014368653 0.04032786 -0.048825543
-0.112961784 -5.3745665e-05 0.009905741 0.014020083 -0.014105859 -0.09073726 -0.0024997129 0.10904806
0.06779972 0.039246254 0.036637936 -0.031180661 0.12382529 -0.13530874 0.13216735 -0.08593377
0.071592644 -0.0072292807 0.07266213 -0.023196833 -0.06059021 0.0648357 -0.011126364 -0.017688038
-0.101625465 0.10449966 0.051173493 -0.052031536 0.016452428 0.11574694 -0.13778745 -0.0065030735
0.10415653 0.14041966 0.02370966 -0.07809818 -0.034801733 -0.016345814 0.10730487 -0.1231812

backbone.model.0.0.model.0.bias f4 [4]
00000000: aed6 f83d 603f 8bbd 2229 72bd bee4 6dbd
0.12150322 -0.06799197 -0.05912126 -0.058079474

backbone.model.0.1.model.0.weight f4 [4, 4, 5, 5]
00000000: 1acc 8e3d 0df2 bebd d39f 8fbc 3fb4 8e3d
00000010: e5fe 80bd 9adb ce3c cd8f 06bc b5f2 89bd
00000020: 3be0 a8bd c7e1 aa3d 078b 743d d27c c33d
00000030: bd66 ae3d da38 78bc 3011 95bd 4836 953d
00000040: c09b af3c 18cf b7bd 1a26 a8bb 93cd 99bd
00000050: 3fff 8d3d 3217 87bd c326 00bd ed6a 1dbd
00000060: 8dd4 333d d37f c5bd ddc3 95bd 87be b03d
00000070: 33d1 6dbd 6a22 ca3d 8f4a 99bd 83ed bebd
00000080: e702 e9bc 3726 6ebd 4820 cabd e774 46bd
00000090: b7c6 803d 9a2a 323b fba9 bd3d 2a53 a1bd
000000a0: e7e0 84bc 87d6 eabc 6704 4c3b d067 1e3d
000000b0: 021a b3bd 67d4 453d 5331 59bd 20a6 97bc
000000c0: b3e1 dbbb fab5 8cbc a073 42bd d791 073d
000000d0: 1a99 803c 7fac c83d 6ad8 3b3d a016 bcbd
000000e0: ea96 543d c8f0 8b3d f31f 2c3c 9a10 b93b
000000f0: 67f4 7dbd 2d5e 86bc 8d99 313c e75c 993d
00000100: e7c8 913d cd02 b4bd 4877 bb3d 08bc ccbd
00000110: f327 8d3d cdd8 41bb 0347 bbbd 9a75 18ba
00000120: 2d0f 7fbd 5d92 853d b32e 973b f368 96bc
00000130: ba74 bbbd 45c7 853d 479e aa3c d0e1 48bd
00000140: 8763 a03d 737b c4bc 603d 1dbd cdb4 1b3c
00000150: 07bf 17bd 80da a33b 1233 94bd fab1 41bd
00000160: e215 893d 9d16 bdbd 7359 0dbc 4761 7a3d
00000170: 7da8 08bd 90d1 183d 0b4a a0bd 733c de3c
00000180: 1864 c0bd 2328 a73d 1ac1 16bc 2d55 8fbd
00000190: e3db 00bd 73a2 b23c 8d92 10bc 7d5d 5a3d
000001a0: 374b 99bd 6b68 b0bd e8f9 85bd 9a29 86b9
000001b0: 4d28 4c3d 83c3 143d 7042 5f3d 07d0 0e3d
000001c0: c354 4ebd 0b39 833d a0e0 bbbc bd64 5e3d
000001d0: 7390 913d 1af1 89bc 43da 693d 9af2 edbc
000001e0: fa0c fdbc 0094 c23b 8d30 5e3d e882 99bd
000001f0: cdc5 fc3b 90b6 a53d e33b 0c3d 3d9a babd
00000200: 5d04 51bd 2818 9fbd c73e 83bd 5862 913d
00000210: 67f1 4dbb 67dd ba3c 83bc bbbd 77d0 44bd
00000220: 1acd 28bc ad39 3e3d 9a04 c13c 4010 1dbd
00000230: 27c2 cabd 4305 8bbd 18f3 cbbd 1739 b3bd
00000240: b028 26bd 33c4 24bc b022 7cbd a066 113d
00000250: 1314 aa3d 8f3c c73d b3f1 4abc 4346 c93d
00000260: 3a88 6c3d 8055 87bb e756 783c 53fa b4bc
00000270: d536 833d 27a4 8bbd 8d3a 193c 7381 aa3d
00000280: 4d6f 933b bdfa c73d 0d3c 17bc a727 d93c
00000290: 3569 a93d f368 60bc 7f70 84bd b312 16bc
000002a0: 1341 0ebd edcd 93bc 730d 39bd 977d c63d
000002b0: 2d59 71bd bad8 ca3c ed7d aebd 927e 99bd
000002c0: edab c1bc 33f4 1cbc 600c aabc caf3 9dbd
000002d0: 0df6 c43c b5c0 91bd b314 1cbc 0834 b03d
000002e0: 808f f13b 2d4e 9b3c 43da 173d 9a85 5dbb
000002f0: 7041 733d cd10 df3c 009a f63a 783a bd3d
00000300: d34a c4bd f7ad 88bd f87d 8dbd 7288 843d
00000310: d35f 173d 0d6d 883d 637b 0f3d 332d 693b
00000320: 2d8c 353d 139d 8d3c 673f 93bc 1aa6 12bc
00000330: 7367 8abd cbf4 86bd b38a a33d 42fc b63d
00000340: f355 c1bc 07eb 43bd d3cd b33d dd84 143d
00000350: e02c f4bc 0385 bf3d fa85 ad3c e7f8 d13b
00000360: 9347 62bd 7d6f 1a3d 9a41 003a 1a79 9abc
00000370: d0f6 bcbd 0014 04ba 9a6d f6bc b7f3 b33d
00000380: 7d64 6abd 6a8f 46bd e346 79bd 870d abbd
00000390: e598 953d cdb5 173d fb97 b13d e006 fb3c
000003a0: 7729 33bd bd52 293d adcf ff3c 3a36 483d
000003b0: 9818 983d da46 983c a7d2 4b3c da99 99bd
000003c0: 53fd e0bc cda4 9fbd 933c c0bd aa11 18bd
000003d0: 7386 2d3c 3ae8 04bd 9745 cb3d a30a 073d
000003e0: 9a2a c73d 5786 473d 8076 97bc e07f 94bc
000003f0: 62d4 93bd ade8 903c edb9 cb3c 43e9 473d
0.06972523 -0.09323511 -0.017532265 0.06967973 -0.06298617 0.025251199 -0.008212996 -0.06735746
-0.082458936 0.08343845 0.0597029 0.09545292 0.085156895 -0.015150273 -0.07278669 0.07285744
0.021436572 -0.08975047 -0.005131495 -0.07509913 0.0693345 -0.06596221 -0.031286966 -0.03843205
0.043903876 -0.09643521 -0.073127486 0.0863009 -0.058060836 0.09869845 -0.07484924 -0.093226455
-0.028443767 -0.058141913 -0.098694384 -0.04845133 0.06287902 0.0027186037 0.09260937 -0.078771904
-0.016220523 -0.028666748 0.0031130554 0.038673222 -0.08745195 0.048298266 -0.053025555 -0.018511832
-0.006710255 -0.017176617 -0.04747355 0.033098068 0.015698005 0.09798526 0.045860685 -0.09184003
0.051901735 0.06833035 0.010505664 0.005647731 -0.06200066 -0.016402328 0.010839832 0.07488423
0.07118397 -0.08789597 0.091536105 -0.099968016 0.06892385 -0.0029578686 -0.09144404 -0.0005815864
-0.062270332 0.06522057 0.0046137213 -0.01836059 -0.09153123 0.06532148 0.020827426 -0.049043477
0.07831483 -0.023984646 -0.03838861 0.0095035555 -0.037047412 0.0050004125 -0.072363034 -0.047288872
0.06693627 -0.09232829 -0.008627283 0.061127927 -0.033363808 0.03730923 -0.078266226 0.027128434
-0.09394091 0.08161952 -0.009201312 -0.06998668 -0.0314597 0.021805977 -0.008824003 0.053311814
-0.07485049 -0.08613666 -0.065418065 -0.00025589467 0.04984312 0.036319267 0.05450672 0.03486636
-0.050373804 0.064073645 -0.022934258 0.05429529 0.071076296 -0.016838599 0.057092916 -0.029046346
-0.030889977 0.005938053 0.05424552 -0.074956715 0.0077140094 0.08091462 0.0342368 -0.0911145
-0.05102955 -0.07768279 -0.06408458 0.07098836 -0.0031424405 0.022810651 -0.09166815 -0.04805037
-0.010302806 0.046441723 0.023561765 -0.038345575 -0.09900313 -0.06788113 -0.09958476 -0.087511234
-0.040566146 -0.010056543 -0.061556518 0.03549826 0.0830461 0.097283475 -0.012386727 0.098278545
0.057747103 -0.0041300654 0.015157438 -0.02209202 0.06406943 -0.06818419 0.0093523385 0.08325472
0.004499352 0.097646214 -0.009230626 0.026508166 0.0827202 -0.013696897 -0.064667694 -0.009159732
-0.03473003 -0.018042529 -0.04517884 0.09691923 -0.058922935 0.024761546 -0.08520112 -0.074948445
-0.02364155 -0.009579706 -0.020757854 -0.07712515 0.024043107 -0.07116834 -0.009526419 0.08603674
0.007371843 0.018958176 0.037073385 -0.0033801557 0.059388578 0.02722969 0.0018814206 0.09239668
-0.09584584 -0.06673806 -0.06908792 0.064713374 0.03695662 0.06661425 0.03502978 0.003557992
0.044323135 0.017286813 -0.017974569 -0.0089507345 -0.067580126 -0.06589659 0.07985439 0.08934833
-0.023600554 -0.04783156 0.08779492 0.03625952 -0.029806554 0.09351542 0.021182049 0.0064078453
-0.05524404 0.03770398 0.0004892588 -0.018856574 -0.09226763 -0.00050383806 -0.030081559 0.08786719
-0.05722474 -0.048476614 -0.06085862 -0.083521895 0.07304553 0.037038613 0.08671566 0.030642927
-0.043740716 0.04133867 0.031226957 0.04887984 0.07426566 0.018588472 0.01244036 -0.07500048
-0.027464544 -0.07795105 -0.093865536 -0.03712622 0.010591137 -0.03244803 0.099253826 0.03296913
0.097249225 0.0487121 -0.018489122 -0.018127382 -0.07218243 0.017689073 0.02486893 0.04880644

backbone.model.0.1.model.0.bias f4 [4]
00000000: da6f 983d 282b b9bd 008e eb3c d702 9dbd
0.07443209 -0.090414345 0.028754234 -0.07666557

backbone.model.1.0.model.0.weight f4 [8, 4, 5, 5]
00000000: 8df4 42bd e0ba 8abc 973d 163d a39f 6d3d
00000010: 2a03 c1bd 8a8c 803d 6049 a6bc c077 ebbc
00000020: aa78 5a3d cbef 8ebd 58cc a2bd ea26 423d
00000030: 90ae 643d 1362 843d e7d2 b23c b773 33bd
00000040: 33ba 81bc 18f3 883d 5bda a5bd da09 86bc
00000050: 8ad0 2cbd 333a cf3c 3a36 1ebd f0d6 98bd
00000060: 6054 34bd d0a8 bfbd 0738 053d 230b 5dbd
00000070: 1ae5 fcbc 60b6 49bd e74b 7b3d 85a6 aebd
00000080: 3aa6 8d3c 978c 37bd ed97 4cbd 1a0b c1bd
00000090: 47a5 3abd 6755 dfbc 3320 883c 0dd8 56bd
000000a0: e033 b0bd 9584 b03d 0722 29bd d877 8cbd
000000b0: e03a 9d3c 8d58 25bc e015 e7bc a7f2 c0bc
000000c0: 5a6a 0bbc 6056 083d c078 cb3d e5cb 8fbd
000000d0: 45cb c4bd c737 1abd 67f0 8a3b 5f55 b33d
000000e0: c56d cc3d 67e6 3e39 d3b4 e83c b21b a63d
000000f0: 85ba a53d 5309 fcbc 22ea abbd e710 9e3b
00000100: 7738 573d 209e ff3c 03f7 c4bd fa04 9b3d
00000110: 775e 56bd 67d4 8d3c 335f 883d 1d45 743d
00000120: 62d1 99bd 2770 2abd c8ee 863d 0d3a 23bd
00000130: 1add ca3b 00d9 673b 7521 c83d c0b5 753d
00000140: 3a2f fcbc b5a2 b23d 2dbc 85bd 90fb 2cbd
00000150: 7f70 9e3d e0eb edbc 6773 753c e704 9fbb
00000160: 50e6 9ebd 502b 34bd 6785 b43c 3308 133b
00000170: 10bd 1fbd 606a d1bc fd62 053d b70b 9fbd
00000180: 6aed 393d 086c 9bbd 0007 8b3d 22c0 823d
00000190: 68c1 803d b358 30bd 5d98 493d a040 dcbc
000001a0: 1ab5 093d 576d 7e3d f02b c5bd e749 443c
000001b0: ba84 9fbc 53c5 4f3d 1318 bfbc 7388 c5bc
000001c0: 071b fa3c 570f a0bd 1a6e 893b 90fb 11bd
000001d0: b768 8d3d 47b2 473d 8029 0bbd 2d0e 3abd
000001e0: a5f2 9abd ca38 5f3d eb4e c33d caf6 33bd
000001f0: d3df aa3c cdcb 76bd c78a c5bc 274e 863d
00000200: 1f58 9c3d b5e6 ab3d 07c4 81bc 67de 88bd
00000210: 6750 f5bb 9089 32bd 00a3 4abc 1a4b 3c3c
00000220: ea63 85bd 7a06 d23c 9d2d a4bd 4bc5 90bd
00000230: ab33 b8bd ca82 3b3d cffe c1bd 9a31 10ba
00000240: 9314 593d eaa5 a43d 0b93 813d f0c7 85bd
00000250: 4d97 e2bb 8abe c63d 1329 6a3d e807 8f3d
00000260: fae2 273d 1835 b93d 00c2 27bc cd63 68bb
00000270: 6aaa 483d 8096 b83b a315 72bd ef1a 833d
00000280: 0008 5d3b 575d 12bd 67a9 d23c f334 233c
00000290: 0020 a73a 15e2 aa3d 005e cc3b 3331 303c
000002a0: 2007 0e3d e764 02bc 3726 95bd 8d3e 03bc
000002b0: 730a bcbd ea45 503d 73cc 30bd 43e5 21bd
000002c0: 1302 7a3d a50d a03d 9039 bebd 6d13 b9bc
000002d0: b731 143d 6379 883d 0db8 34bc 6041 fc3c
000002e0: 2aef 033d 054d be3d fa79 1fbd 2d6d bb3d
000002f0: c039 0ebc 5a61 1f3c 4a5f 6e3d 5b7d c1bd
00000300: f383 053c 6744 293b ed19 9bbd 5390 f1bc
00000310: 673f 95bc 9ae5 173b f399 903c f036 3abd
00000320: a79c 053d c2c4 813d aa66 8dbd d8d0 a63d
00000330: 6d0f a53c ddaf 22bd a755 d0bc d313 6dbd
00000340: 4f85 b8bd 1d6c 4a3d 2036 0abd 80cd 7b3c
00000350: 5ac1 d23c cbcb 98bd 80da 14bd 7042 263d
00000360: cdfe 61bc 9a2c 9fbd d347 ba3c 00f2 8ebb
00000370: 53d1 4abd db24 a83d 557f 903d b7c6 75bd
00000380: a342 c33d 9fb7 c0bd 1d7f 4c3d 33cc bebd
00000390: 1fd3 963d 9ab8 8bbb 5fe5 b6bd f3c6 06bc
000003a0: cdee 6bbb 1afe d03c 23d9 13bd 7a51 bf3c
000003b0: e769 7dbc 7d38 473d 52de bd3d 8573 91bd
000003c0: 9a9f b93b f3b6 9a3d c3a5 933d 3333 57b7
000003d0: a723 95bc bd9f 2dbd 9d67 a53d 1dfe 653d
000003e0: e7f9 97bc 8b31 89bd 4a6f 093d 6843 c6bd
000003f0: e27c a53d 9a4a b7bb 1dcd 453d bda6 753d
-0.047596503 -0.016934812 0.03667983 0.05801357 -0.094244316 0.06276806 -0.02029866 -0.028743625
0.05333773 -0.06979331 -0.07949132 0.047400393 0.05583054 0.06464019 0.021829082 -0.043811526
-0.015835857 0.066869915 -0.080982886 -0.01636212 -0.042191066 0.025296306 -0.038625933 -0.07462871
-0.04402578 -0.0935837 0.032524135 -0.0539657 -0.030870963 -0.049246192 0.061351683 -0.08527855
0.017291177 -0.04481181 -0.049949575 -0.094259456 -0.045567777 -0.027262403 0.016616916 -0.052452136
-0.08603644 0.08619038 -0.041292217 -0.06858796 0.019193113 -0.010091913 -0.028208673 -0.023553206
-0.008509243 0.0332855 0.099351406 -0.07021312 -0.09609083 -0.03765085 0.004240084 0.087565176
0.099818744 0.00018205644 0.028406536 0.08110751 0.080922164 -0.030766165 -0.08394267 0.0048237923
0.052544083 0.03120333 -0.09617426 0.075693086 -0.052336182 0.017313195 0.06658783 0.059636224
-0.0751064 -0.041610863 0.06588513 -0.039850283 0.006190908 0.0035377145 0.097720064 0.059987783
-0.030784238 0.0872244 -0.06530032 -0.042232096 0.07736301 -0.029043138 0.014981127 -0.0048528793
-0.077587724 -0.04398662 0.022036267 0.0022435307 -0.038998663 -0.025563419 0.032565106 -0.07765906
0.04539243 -0.07588965 0.067884445 0.06384303 0.06286889 -0.04305334 0.04921757 -0.026886284
0.033619978 0.062115993 -0.09627521 0.01198051 -0.019472469 0.050725292 -0.02332691 -0.024112916
0.030530466 -0.07815426 0.0041940333 -0.0356403 0.069047384 0.048754003 -0.033975124 -0.045423675
-0.07565812 0.054497518 0.09536537 -0.04393653 0.02085868 -0.060252953 -0.024114026 0.06557875
0.07633995 0.08393613 -0.015840543 -0.06683045 -0.0074863913 -0.04358822 -0.012367964 0.011492515
-0.06513198 0.025637854 -0.080165125 -0.07068881 -0.0899423 0.045779027 -0.09472429 -0.0005500555
0.052998137 0.08039458 0.06326874 -0.06532276 -0.006915009 0.09704311 0.057168078 0.0698393
0.040987946 0.0904333 -0.010239124 -0.0035459877 0.048990645 0.0056331754 -0.059102666 0.064016216
0.0033726692 -0.035733547 0.025715543 0.009961355 0.0012750626 0.08343903 0.0062367916 0.0107539175
0.034674764 -0.007958627 -0.072826795 -0.008010519 -0.091816805 0.050847925 -0.043163728 -0.03952528
0.061037134 0.078151025 -0.09288323 -0.02259227 0.036180224 0.06663778 -0.011030209 0.030792892
0.032210506 0.09292034 -0.038934685 0.09151683 -0.008680761 0.0097278 0.058196343 -0.09447738
0.008149135 0.0025828124 -0.07573304 -0.029487764 -0.01821871 0.0023177625 0.017651534 -0.04546255
0.0326201 0.06336357 -0.06904347 0.081453025 0.020148957 -0.039718498 -0.025431467 -0.057880234
-0.090098016 0.04941951 -0.033743024 0.015368819 0.025726963 -0.074607454 -0.03634119 0.040590703
-0.013793659 -0.07772179 0.022739327 -0.0043623447 -0.049516033 0.082101546 0.07055537 -0.060003962
0.09534194 -0.09410023 0.049925912 -0.09316292 0.07364487 -0.0042639496 -0.08930468 -0.008226144
-0.003600049 0.02551179 -0.03609575 0.02335428 -0.015467144 0.048637856 0.0927092 -0.07102112
0.005664778 0.07554426 0.07209351 -1.2826919e-05 -0.018205477 -0.042388666 0.08076403 0.056150544
-0.01855178 -0.06698903 0.0335534 -0.096808255 0.0808046 -0.00559361 0.048291314 0.059973467

backbone.model.1.0.model.0.bias f4 [8]
00000000: 2d87 b23d fa38 c8bc dfd9 be3d e031 43bd
00000010: b353 34bd 672c 8fbb f082 3cbd 4d86 4b3d
0.08717189 -0.024441231 0.09318899 -0.047654986 -0.044025134 -0.004369307 -0.04602331 0.049688626

backbone.model.1.1.model.0.weight f4 [8, 8, 5, 5]
00000000: 73ec 413c 9007 813d a84c e63b f2d5 0abc
00000010: e333 863d 9a3f c6ba 4677 3fbd d2c4 1a3c
00000020: 07f4 88bd 9558 4d3a 1aed 3abd 67b8 813d
00000030: 78ca 7e3d 9930 ecbc 59f5 443d 4465 18bd
00000040: dc82 43bb 7912 1839 7f27 5dbb 58f2 86bd
00000050: d929 47bd ba58 c2bc 5d65 8d3b 465b 8f3d
00000060: 4dc2 813d da69 7bbb 5c0a 0d3c c47a e93c
00000070: 51b3 a0bc a6fe 6c3d 9246 183d 14fb c2bc
00000080: 9a67 4c3a 840e 753c aac1 26bd 1532 6dbd
00000090: 568f 49bd 3842 88bd 24ff 46bd 6bca 00bd
000000a0: f71b 673d bc68 e9bc 0a8a 56bd 573a 613b
000000b0: fe22 453c 2812 893d 7eb8 6fbc e5b0 80bd
000000c0: f072 723c c5d4 ee3b c2bb c93b 4132 84bd
000000d0: 52e0 6ebd 39c4 573d cc39 cebb 7f07 8b3c
000000e0: acdb 203d e9cb 793b ffd0 0abd 5769 723d
000000f0: 40cb e03b 8d41 893c 8787 20bc 75a9 89bd
00000100: df77 51bb 8d17 bebc 3c53 a23c 2f32 80bd
00000110: e8da 3f3d debd 6d3d e8f6 203d e9aa 543d
00000120: 50af e83b 82ed 2e3d 35ea 54bd 3f49 59bd
00000130: eded 553d 28fe bcbb 1c18 463d 202e 523c
00000140: af49 d4ba e4ff 113d 9840 8d3a 6e19 ef3a
00000150: 3f0e 673d 6ac1 8dbd dd5c 0a3d 277e d2bc
00000160: f814 8dbd 4e11 19bd e3de 85bc 185e 673c
00000170: aacb e33a 3692 503d 1b7d 4f3d d7cb 593d
00000180: 1a56 b6bc 043e c93c d361 a93c 7856 3a3d
00000190: 5852 f73c 4983 013d 93d5 85bd b9dc 373d
000001a0: 5b09 be3c b273 293c b677 5abd 256a 4e3d
000001b0: ab95 4cbc 8d57 22bd 61ed f73c 5e68 643d
000001c0: 815a 823d ec81 c1bb a859 913a d09a 63bd
000001d0: 1bec 3e3d b18d bc3c ae36 893d 914d da3c
000001e0: 9568 cbbc 66bb f23c ef3a c8bc 84a8 753d
000001f0: 6d3f fbbc 37e9 d7bc 439f d63c d10a 11bd
00000200: 5205 da3c e18d 46bc 7948 57bd 6103 09bd
00000210: ecc6 153d 4d3b 42bd 8755 40bd 4276 57bc
00000220: 0754 303d ef01 053d a9f3 993c 6fd7 dcbc
00000230: 2411 36bd 48fb 8abb 2835 2ebd 10f8 593d
00000240: 8266 f43c 2d43 eebb e582 783d cc09 52bd
00000250: 60a3 f9bc 2ada 75ba bee2 413d 5327 8a3d
00000260: d795 13bd 8a0e 99bc 60e6 4fbc b272 1f3c
00000270: e08f 1dbd b4c6 813d 7355 52bd 922f f7bc
00000280: 0ee2 a0bc 8a3f 3dbd 9e96 e13b 103f 39bd
00000290: 2dab 1fbd 8d8e b0ba f831 87bd c1bc 82bd
000002a0: 89e6 4fbd 82d9 6ebd bba0 d2bc 335b 16bd
000002b0: 4314 333d fc11 45bc d269 0abd 996b 5f3d
000002c0: 286d 8fbc 8ec2 343d 38f8 50bd afb4 00bd
000002d0: 3f1f 603c e19d 653d d69b 653d 64e0 ef3c
000002e0: 33c4 143d ba0d 50bd 3af0 9d3c b41f 5abd
000002f0: cfb5 623d 54a0 81bc 1ddf 283d 4589 a13c
00000300: d786 3ebd 65b5 9d3c ec88 fa3c 2879 e2bc
00000310: 081b 1f3d 3655 73bd 4bbe 14bd 140f 19bd
00000320: 5301 e3bc f52c 60bd eba9 383d 744f 233d
00000330: 447a 43bc ebc3 673c 3f34 a4bc 9728 613d
00000340: ad8c 3e3d 4952 fdbc 0b9c d83c 8efc 093d
00000350: 7226 7ebd faa5 633c f9af 2ebd 8a7b 513d
00000360: 4a5e 313d b2d2 063c e23f 27bc 81e4 7fbd
00000370: 4f71 c83c cc4a b3bc 80b7 9dbc 8b37 2c3b
00000380: c706 a63a 8563 3e3d 6d98 4fbd 6e76 fabc
00000390: f375 f3bb f55c 243d 372f 893d 345b 6b3d
000003a0: 0c5a 26bd 00ae dabc 53cb bd3c 7876 863d
000003b0: a97d 593d 77c8 2fbd 6435 543d f98c 553c
000003c0: 8a09 3e3d 7b62 d1bc 3c4e 1e3c 139c 2fbd
000003d0: e02d 573d 7bbb ef3c 1626 d0bc dea9 6d3d
000003e0: aacc 7a3d 906d 103d 43f6 00bd 316f c63c
000003f0: 3928 523d 28ac 29bb 6b4d 71bd e5e9 82bc
0.011836159 0.063002706 0.007028181 -0.00847386 0.06552865 -0.0015125156 -0.046744607 0.00944634
-0.066871695 0.0007833329 -0.045636274 0.06334 0.062204808 -0.028831767 0.048085544 -0.03720595
-0.0029832637 0.00014502731 -0.0033745465 -0.06589192 -0.048623893 -0.023723949 0.004315062 0.06999831
0.06335888 -0.0038362653 0.008608427 0.028500922 -0.019616755 0.05786004 0.037176676 -0.023801364
0.000779742 0.014957074 -0.040712036 -0.05790909 -0.04920896 -0.06653255 -0.048583165 -0.03144304
0.056423154 -0.028492324 -0.052377738 0.0034367049 0.012032269 0.06692916 -0.014631389 -0.0628374
0.014797911 0.0072885477 0.0061564157 -0.06454898 -0.058319397 0.052677367 -0.006293511 0.016971348
0.039271995 0.0038115925 -0.03389072 0.05918249 0.006860167 0.01675489 -0.009797937 -0.067217745
-0.0031962318 -0.02320459 0.01981508 -0.06259572 0.046839625 0.0580424 0.03929797 0.051920805
0.007100977 0.042706974 -0.05198117 -0.05304837 0.052228857 -0.0057676025 0.048362836 0.01282838
-0.0016196276 0.035644427 0.0010776697 0.0018241832 0.05641007 -0.069216564 0.033779968 -0.02569492
-0.06888765 -0.03737002 -0.016341632 0.014121555 0.0017379422 0.050920688 0.05065642 0.053172912
-0.022257853 0.024565704 0.020676529 0.04549262 0.030190632 0.031619344 -0.06534877 0.044888232
0.02319782 0.010342525 -0.05333682 0.050394196 -0.0124868555 -0.039634276 0.030264558 0.055763595
0.063649185 -0.0059053805 0.0011089342 -0.055567563 0.046611886 0.023016782 0.066998824 0.026648315
-0.024830142 0.029630374 -0.024442164 0.059975162 -0.030669892 -0.026356323 0.026198989 -0.035410706
0.026613865 -0.0121187875 -0.05255935 -0.033450488 0.03656666 -0.047419835 -0.046956565 -0.013150753
0.043048885 0.032472547 0.018792944 -0.026958195 -0.04444994 -0.004241381 -0.042531163 0.053215086
0.029834036 -0.0072711916 0.060671706 -0.051278874 -0.030473411 -0.0009378517 0.04733538 0.06745782
-0.03603157 -0.01868369 -0.012689203 0.009731935 -0.038467288 0.06336728 -0.051351022 -0.03017405
-0.019639041 -0.046203174 0.00688441 -0.045226157 -0.038981605 -0.0013470218 -0.06601328 -0.06383658
-0.050756965 -0.0583129 -0.025711408 -0.036708068 0.043720495 -0.012028214 -0.033792324 0.054545972
-0.017508104 0.044130854 -0.05101797 -0.031422313 0.013679325 0.05605877 0.05605682 0.029281802
0.036319923 -0.05079434 0.019279588 -0.05325289 0.055349167 -0.01582352 0.041228402 0.019718776
-0.046515312 0.019251535 0.030582868 -0.027645662 0.03884414 -0.059407435 -0.03631429 -0.037367895
-0.027710592 -0.054730374 0.04508392 0.039870694 -0.011931006 0.014145832 -0.020044444 0.05497035
0.046520878 -0.030923026 0.026441595 0.03368812 -0.062048383 0.013894552 -0.04264829 0.051143207
0.04330281 0.008228945 -0.010208102 -0.062473778 0.024468092 -0.021886252 -0.019252539 0.0026278223
0.0012666815 0.046481628 -0.050682474 -0.03057405 -0.007429832 0.040127713 0.06698459 0.057460025
-0.04061322 -0.026694298 0.023168242 0.06565565 0.053098354 -0.042915788 0.05180873 0.013034099
0.046395816 -0.025559654 0.009662207 -0.042873453 0.052533984 0.029264202 -0.025408786 0.058023326
0.06123034 0.035260737 -0.031484853 0.024222942 0.05130789 -0.0025889967 -0.058911722 -0.01598067

backbone.model.1.1.model.0.bias f4 [8]
00000000: 2516 b23c 1259 563d 34d4 63bd 1d78 3ebd
00000010: 0123 b3bc c18e c73c c9dc ef3c b3cb 21bd
0.021739075 0.052331038 -0.055622295 -0.046501268 -0.021867277 0.024360063 0.029280083 -0.039500903

backbone.model.2.0.model.0.weight f4 [8, 8, 3, 3]
00000000: 3452 ed3d bed5 14bd 9a15 c13d 930d 843d
00000010: 0dcc 313c 4d0b 933c a9d0 a93d 3b61 673d
00000020: 035f 88bc e660 963d 460e e5bd 2c6d a2bd
00000030: dfea 9abd d341 b63d a965 e5bd a4f6 cd3d
00000040: 0ded a33c 2bf6 9cbd 9c3f 50bc f34a 8cbd
00000050: 4baa cf3c ce11 acbb 4a29 983d f9f0 c1bc
00000060: a0ce 75bd b490 ebbd 7df8 19bc d1d3 dc3d
00000070: 2520 27bc 534c 203d 860d d03c d167 cfbd
00000080: c987 c9bd 4346 4ebc 327e 1b3d 2029 c03d
00000090: bb06 94bd b4b7 9e3d 1979 b8bc 22f1 1dbd
000000a0: 44c7 0f3b 9081 503d dddb c43d dda2 313c
000000b0: d714 973d f968 79bd 0486 06bd 9e4f 8cbd
000000c0: e5d9 a53d c5eb ed3d f822 dd3c 8bc6 d5bd
000000d0: 41db b73d 3f3a 3a3d c76c 5e3c f4cb 973d
000000e0: c908 2a3d dcf4 403d a19c 7d3d e496 c4bd
000000f0: 8bf9 313d b394 6dbd 0e7b 06bd 2ca7 fb3c
00000100: 6e6b 553c 4718 193c 07a0 ab3d 9bd3 753d
00000110: 8371 68bc c88a 8dbd ae7e 29bd 2890 1e3d
00000120: 4a8b 133b 920e 443d aadc a2bb 2db9 dfbc
00000130: 0774 6e3d d979 e1bd 7347 9e3d 3eed b83d
00000140: dff5 7c3d 753e a53c 25f9 fe3b a71d f3bc
00000150: cddf 60bd ee37 323d 3cd1 bbbd 37e6 693d
00000160: 9c19 e23c 2973 e43d c95e 6e3d a750 2d3d
00000170: 7b98 02bc b465 423c e962 cc3d 1159 bc3d
00000180: ca3d 923d 0d82 ca3d 368b b43b 9905 983c
00000190: 108b 993d 6f55 54bd 4a12 95bd 6e50 a2bd
000001a0: 1c5f 53bc ddf2 b53d 99cc 403d eb25 503b
000001b0: b346 893d c254 8c3d 9bfd f6bc 6431 48bc
000001c0: ce95 bc3c 20cb b2bd 4483 70bc ebdd b43d
000001d0: 3a69 e5bc 8f7e c4bd 04ca 683c 04cd 2e3c
000001e0: 19e5 e63d db40 70bc af20 d5bc 48fc 003d
000001f0: 9c01 bebd ac95 a1bd 81ec 9c3c 7fd9 36bd
00000200: 85e7 b8bd b8d2 af3d 1db9 8ebd dc55 1b3d
00000210: 6c22 173d 91b5 bd3d d32d b6bd 70b1 5ebd
00000220: cb1c ab3a f0a1 f13b 22a7 cdbd 623e d8bd
00000230: dc17 ee3d 6e9a 9c3d fa26 6c3d 52de d93d
00000240: 699e 53bd 3c5c 933c 74dc 3abd c8f7 0a3c
00000250: 180e 793d ce3e d93c a3d3 2a3d d7a2 d3bd
00000260: a5cf 463d 1984 c33d 1131 cc3d 84bc 33bd
00000270: 8714 4c3d 1f45 443d a69e 4cbd 28d1 0b3d
00000280: 1c77 31bd 6b09 3d3d f49c babd 872d 543c
00000290: 3349 e53c 5dee 82bd ae3d 043d 4fc8 943b
000002a0: eb6f 75bc 4577 89bd c87b 63bc 9c61 6cbc
000002b0: 5f93 ebbc 8e12 d03d 13d4 aabd 5734 883d
000002c0: e282 1dbc 1ffb ab3c 3042 de3d 1ab6 1cbd
000002d0: b72c 673c 18c7 95bd 61d6 d5bc 0eda 99bc
000002e0: bbd6 b43d 1035 5f3b 0fe4 593d b5bc 183c
000002f0: 0eda 3cbd 4c06 5bbd 54e3 dcbb f075 5dbc
00000300: 35ed aebd 2581 c3bd f34d cc3d f8d4 643c
00000310: 4974 e03d a10f f0bd 1ea7 c53d a7a3 9d3d
00000320: 5eba cebd 16cf 8ebd 89c6 8e3d f078 4e3b
00000330: fd87 d23d 2bf7 76bd 7844 80bd c446 403c
00000340: 2c73 e63d ac59 eebd 437f 09bd 183e 363d
00000350: efcf d53d dc44 2abd 7bdf a6bd 8810 c03d
00000360: 2e0b 72bc 58c5 4a3d 7b89 95bd 5fcb 91bd
00000370: df3a 6fbc 85e0 d3bd 9bbf 4d3d a4b5 e03d
00000380: e900 dd3b 6292 033d 7d21 bdba 1761 813c
00000390: 80c7 ad3d b29d b93b ecd3 b0bd 9949 1fbd
000003a0: 339f c83c 8f7d a4bd 6f5c 7fbc 590f 333d
000003b0: 73c3 0fbd 46e3 643d f4cc b33d 9ab1 cdbd
000003c0: 70b8 aabd 1754 85bd 50b4 8cbd c548 cfbc
000003d0: 57e5 60bb 5c78 21bd bea1 70bd 6b91 683d
000003e0: 0bcd 63bd eafc 613d 7dff 89bd e21a 793d
000003f0: e880 9dbd 791c d33d 06d4 eabd acbc dbbc
0.115879446 -0.036336653 0.09427948 0.064479016 0.010851872 0.017949725 0.08291752 0.05648921
-0.016646868 0.07342701 -0.11184363 -0.07930979 -0.07564329 0.08899274 -0.11201031 0.100568086
0.020010496 -0.0766414 -0.012710478 -0.06850233 0.025349757 -0.005251146 0.0742975 -0.023674475
-0.060011506 -0.11502209 -0.009397623 0.10782588 -0.010200535 0.03913529 0.025397073 -0.10127223
-0.09840352 -0.012589994 0.037962146 0.09382844 -0.07227846 0.07749882 -0.022518681 -0.03856004
0.002193884 0.05090481 0.09612248 0.010842052 0.07377022 -0.060891125 -0.03284265 -0.06851123
0.08098201 0.11617235 0.026994213 -0.1043826 0.08977366 0.045465704 0.013575739 0.07411948
0.041512284 0.047108516 0.06191695 -0.095990926 0.043450873 -0.05800314 -0.032832198 0.030719362
0.0130261015 0.009344167 0.08380132 0.060016256 -0.01418722 -0.06911236 -0.041380577 0.038711697
0.0022513443 0.047865458 -0.004970153 -0.027309978 0.05821612 -0.11009569 0.077284716 0.09029625
0.06175792 0.020171383 0.007781165 -0.029677225 -0.054900933 0.04351037 -0.09170768 0.057104316
0.027600102 0.111547776 0.058195863 0.042313244 -0.0079709245 0.011865068 0.09979803 0.091966756
0.071406916 0.098880865 0.0055097593 0.018557357 0.07497227 -0.05183929 -0.07278879 -0.07925497
-0.012901094 0.08884213 0.04707012 0.0031760882 0.06702938 0.06852104 -0.030150225 -0.012218807
0.023020651 -0.08730149 -0.014679734 0.0883139 -0.028004277 -0.09594452 0.0142083205 0.010668997
0.11274166 -0.0146639 -0.026016561 0.031490594 -0.09277651 -0.07889876 0.019155743 -0.044641014
-0.09028534 0.08585113 -0.06968901 0.03792368 0.03689806 0.09263147 -0.08895459 -0.054368436
0.0013054846 0.007374041 -0.10041644 -0.105587736 0.116256446 0.076466426 0.05765436 0.10638107
-0.051664744 0.017988317 -0.045620397 0.008481927 0.060804456 0.026519205 0.04170574 -0.103337936
0.04853787 0.0954668 0.09970296 -0.043880954 0.049824264 0.04791748 -0.049955986 0.034135014
-0.043326482 0.04615156 -0.09111968 0.012950308 0.027989006 -0.063931204 0.032285385 0.00454048
-0.014980297 -0.06712202 -0.013884492 -0.014427569 -0.028756795 0.10159789 -0.08341231 0.06650608
-0.009613724 0.020993767 0.10852468 -0.038259603 0.014109782 -0.07313365 -0.0261032 -0.018780734
0.08830019 0.0034058727 0.05319601 0.009322335 -0.04610639 -0.053472802 -0.006740967 -0.013516888
-0.085413374 -0.09546117 0.09975805 0.013966791 0.1095968 -0.11721731 0.09651016 0.0769723
-0.100941405 -0.06973092 0.06971461 0.003150519 0.10279844 -0.06029431 -0.062630594 0.011735622
0.11252436 -0.11638197 -0.03356863 0.04449281 0.10440051 -0.041569576 -0.08148094 0.09378153
-0.014773173 0.049504608 -0.07301613 -0.07118868 -0.014601438 -0.10345558 0.050231557 0.10972145
0.0067444933 0.032122023 -0.0014429536 0.015793366 0.08485317 0.0056645507 -0.08634171 -0.038888548
0.024489975 -0.08031761 -0.015586003 0.04371581 -0.035098504 0.055880807 0.08779326 -0.100436404
-0.0833596 -0.065101795 -0.068703294 -0.025303254 -0.0034316385 -0.039421424 -0.058748 0.056779306
-0.055615466 0.05517284 -0.06738184 0.060816653 -0.076906025 0.10308165 -0.114662215 -0.026823364

backbone.model.2.0.model.0.bias f4 [8]
00000000: 0e70 4ebd 2a6c 3f3d a521 c93d 8f79 c3bd
00000010: f3c7 f0bd 33c6 e73d a4b3 e5bd e0ae ad38
-0.050399832 0.046734013 0.0982087 -0.0954467 -0.11756887 0.113171004 -0.11215904 8.281856e-05

backbone.model.2.1.model.0.weight f4 [8, 8, 3, 3]
00000000: a9a6 e73c 40ff 493d 3443 4fbd 62e2 b8bd
00000010: 11c1 83bd c5c2 693d 97bf 2b3d ecd1 d7bd
00000020: 4310 42bc e5c9 bfbd 55fc 57bd e449 ccbd
00000030: 9867 9b3b 5a2c 3abd e4d5 87bd 22e1 843d
00000040: 4ee5 b2bc c431 74bd a58c 67bc eb5d f6bb
00000050: b348 d1bd 5dcc 81bb e446 d93d bf11 d1bd
00000060: 1388 a4bd 479c 0ebc 2241 683c 3d7a dd3c
00000070: 699e 603d 27a6 943d eb26 80bd 84bf b9b9
00000080: 4e5a 6d3d 5527 8bbd 3830 e7bc 2b54 d73d
00000090: 300c 7cbd f082 14bd 1e68 1ebd e154 9a3d
000000a0: fc27 7bbd 638c c13a cdc7 d7bd 21c5 883d
000000b0: 6e9e c63c 6dbd 09bd 1c89 8ebd 7272 debd
000000c0: 5c6c 24bd 1005 a53d c4f4 303d a3be 183d
000000d0: 7e50 493d 946b afbd d9fe 483d 5fed 763d
000000e0: f7eb c8bd 412a c1bd e141 ab3d 1553 56bd
000000f0: 277d b3bd b269 5dbd 7f04 f5bc ad4d 3a3d
00000100: 3170 17bd 3034 7e3d 96fb b3bd 2875 a6bd
00000110: 4f68 b93a 35f5 d93c 4641 573d 5399 d4bd
00000120: e935 e9bc a8ea 573c 7a1a d73d 318d a93c
00000130: f1f2 cc3d 664b 36bd 7ea3 86bd 84fc 4c3b
00000140: 0bfa ca3d 8aba ba3d 4c85 81bc 0273 9dbd
00000150: 7270 cabd aa12 65bc 3399 803d 481b 803d
00000160: 7879 93bd 479d 303d 8039 f5bc 081c 1ebd
00000170: afdf 6dbc ae9e 00bd 9a02 c6ba 8793 9cbc
00000180: 0c8c abbb b03b 973c 8572 d03d 6c35 0dbd
00000190: 90e8 34bd 7bea 5f3d 9e6f a23d c39e c33d
000001a0: 5441 d93d 416d 8b3d d926 053c b53f cbbd
000001b0: 3f3a b0bd 3bf7 1d3d c08e c83d 4167 27bd
000001c0: 9025 d03c 54da edbd 9dfd 0a3a c55c d6bd
000001d0: 70c8 fbbb 4341 2f3d 9a4e f83c 63e7 2f3c
000001e0: 1e25 a4bc 019e b6bd 6613 98bd 8d3e 0bbc
000001f0: fe0f e6bd 6eb8 383d aeb0 dbbb ada5 be3d
00000200: f239 f0bd 466e 083d c718 99bd af2b 6fbd
00000210: 0c7e 53bd 5c95 c9bc 374a 0bbc 0d6a 913d
00000220: 197f c83d 009e 0e3d 2a8c d93d 1406 d4bc
00000230: bd63 703b fa9e c8bd 8d70 8dbd 3aa6 0abd
00000240: 3e66 e23a dc74 333d f9f4 873c 5a90 a03d
00000250: 3aa1 763d c52f cfbd 3716 c6bd a856 ca3d
00000260: 1a48 bbbd 116c a5bd 2489 5bbd 5e48 2abc
00000270: a215 913d 1560 b6bd 91f5 bfbb 794b 4bbc
00000280: bacf 573d d6fc 84ba 698f bc3d f04f 373d
00000290: 5862 333d aef3 ce3d e48b 52bd bc6b dabc
000002a0: fba3 babd 2fe7 68bc 14a3 c33d 5b6b 77bd
000002b0: 968b cdbc bb29 55bc 88db 903d af3b e83d
000002c0: 9c64 f73c 2d34 a9bd d715 543c 4bcb 88bd
000002d0: 3e2f d33d d93f b63d 0e0c 6fbd cbb0 d93c
000002e0: b2b9 68bd e546 b4bd 3017 d43d aaec b4bd
000002f0: 6b57 d23d 0cd6 123d 84f0 f2bb 6893 c43c
00000300: efd6 363d f517 283d 17fc e9bd 330e 48bd
00000310: 6e26 713c c728 9cbd 979a 6cbd 8c4c f13d
00000320: aecd 8b3d 2fec d6bd 7462 b2bd ae64 763d
00000330: 0661 b23d ef01 e73d 290a b73d 488d 9dbc
00000340: e58a 813c 1d7e 48bc 9c7a 583d 8296 c93d
00000350: 93b8 9ebd 7023 f13d 5b6f 433d c8a4 86bd
00000360: c9d6 dfbd 406c 673d 1703 413d df18 8e3b
00000370: 583c 9fbd 1399 aabd 65bd a13d 24ff a33c
00000380: 2977 dabd d42e 503d 7231 ecbd c34c d33d
00000390: ea66 2ebd b127 2a3d a537 dabd a903 a73d
000003a0: 2d94 b83a 228b 3a3d d68e d7bd 81c3 c43d
000003b0: c4bb b13d e5d7 773d 61a9 a33d d18d a2bd
000003c0: 8281 cb3c 219e a1bd a30a a7bd 8990 073d
000003d0: 3fc4 c33d 1d47 e83c 753d 3b3d 5b30 80ba
000003e0: ad5e adbd 08ce 98bc 6066 b43d 8aad b93d
000003f0: 24b6 8cbd 2c21 48bd 67b4 13bd ff28 183d
0.028277712 0.04931569 -0.0506012 -0.09027554 -0.06433309 0.057070512 0.04193076 -0.10538086
-0.011844697 -0.0936468 -0.052730877 -0.09975031 0.004742574 -0.045452453 -0.06632593 0.06488253
-0.021837857 -0.059617773 -0.014132653 -0.00751852 -0.102189444 -0.0039611296 0.106092244 -0.10208463
-0.080337666 -0.008704252 0.014175685 0.027035827 0.05483857 0.072582535 -0.06257423 -0.0003542864
0.05794745 -0.06794611 -0.028221235 0.10514101 -0.06153506 -0.036257684 -0.038673513 0.075357206
-0.06131743 0.001476657 -0.10536156 0.06678224 0.024245467 -0.033627916 -0.06959745 -0.108616725
-0.040142402 0.08057606 0.043202177 0.03729118 0.04914903 -0.08565441 0.049071167 0.06028497
-0.09810632 -0.094318874 0.08362175 -0.052325327 -0.08764105 -0.054055877 -0.02990937 0.045484234
-0.03697223 0.06206149 -0.087882206 -0.081278145 0.0014145466 0.026606182 0.052552484 -0.10380807
-0.02846809 0.013178505 0.10503097 0.020697208 0.10007275 -0.0445055 -0.065741524 0.003127844
0.09910973 0.09117611 -0.015810631 -0.076879516 -0.098847285 -0.013981501 0.062792204 0.062552035
-0.07200903 0.04311874 -0.029934645 -0.03860095 -0.014518662 -0.03140133 -0.0015106976 -0.019113315
-0.0052352007 0.018461078 0.10178093 -0.034474775 -0.0441671 0.054666977 0.079314455 0.09551766
0.106081635 0.06807948 0.008126938 -0.099242605 -0.086048596 0.038565855 0.097928524 -0.040869955
0.025408536 -0.116139084 0.00053020736 -0.10466913 -0.007683806 0.042786848 0.030310918 0.010736319
-0.02003723 -0.089168556 -0.07425575 -0.0084988 -0.11233519 0.04509776 -0.0067044115 0.09308944
-0.11729802 0.03330829 -0.07475429 -0.05839127 -0.05163388 -0.024607353 -0.008501581 0.07100306
0.09789867 0.03481865 0.10622437 -0.025881805 0.0036680542 -0.097959474 -0.06906233 -0.033849932
0.0017272902 0.043812618 0.016596304 0.07840033 0.06021235 -0.10116533 -0.09672206 0.098798096
-0.09144612 -0.08077253 -0.053597584 -0.01039323 0.07084204 -0.08905045 -0.005858131 -0.012408131
0.052688338 -0.0010146152 0.09207041 0.04475397 0.04379496 0.10105072 -0.05140294 -0.0266627
-0.09113308 -0.014215275 0.09552589 -0.060405117 -0.025090974 -0.013010438 0.07073122 0.11339509
0.030199341 -0.08261905 0.01294466 -0.066794 0.10311745 0.08898897 -0.058361106 0.02657356
-0.056817718 -0.088025846 0.10355985 -0.088342026 0.1027058 0.035848662 -0.0074139256 0.02399607
0.04463857 0.041038472 -0.114250354 -0.048841666 0.014718635 -0.07624965 -0.057764616 0.11782178
0.0682634 -0.10494267 -0.08710185 0.06015461 0.08709912 0.11279666 0.08937485 -0.019232407
0.0158133 -0.012237099 0.052851304 0.0984316 -0.077500485 0.11774337 0.04771362 -0.06574398
-0.10929639 0.05649972 0.047122087 0.004336461 -0.077751815 -0.08329978 0.07897452 0.020019121
-0.10667259 0.05082591 -0.115328684 0.103173755 -0.042578615 0.04154176 -0.106551446 0.08154995
0.0014082246 0.045542844 -0.10525291 0.09607602 0.086783916 0.060508627 0.07991291 -0.079372056
0.024842028 -0.07891489 -0.08156326 0.033096824 0.09558915 0.028354222 0.045712907 -0.0009780036
-0.084653236 -0.01865293 0.08808589 0.09066303 -0.06870678 -0.04885976 -0.036060717 0.037148472

backbone.model.2.1.model.0.bias f4 [8]
00000000: 45fc 9e3d 2ab8 ec3d 76f1 dd3d 0597 c3bd
00000010: a57e b83d abfa 5d3d fa81 e73d 8a9a 813c
0.0776296 0.11558564 0.10837071 -0.09550289 0.090085305 0.054194134 0.11304088 0.01582076

backbone.model.3.0.model.0.weight f4 [16, 8, 3, 3]
00000000: 060f de3b 0500 adbd c1aa e63d 94c2 e53d
00000010: 53d0 a33c 8ba4 de3d a2bb e9bd c3dc 343c
00000020: 216a b7bb 98b8 cf3d d068 49bb edf0 393d
00000030: d7c1 7c3d f308 dbbc ae33 513c e597 73bd
00000040: d2b0 92bd 6fbf 8fbd 22c7 3fbc 52ee 4fbd
00000050: f886 b4bd ce4b 723d 8d7d 393d a88d c23c
00000060: aacc 923c 6498 8f3d d3c7 08bd baa3 7b3c
00000070: 5b65 a13d 0a04 143d 6b4e 893d 3e41 90bd
00000080: b071 bfbd a1c6 95bb 3d64 5b3d 853d 583d
00000090: e3d1 b1bc 6aff ca3d bf9b e5bd c81c d53d
000000a0: 8a5e d4bd bf3f 983d 2c05 afbc f21e 7fbd
000000b0: 7d84 77bc 80b1 b93d d023 733d 5967 a03d
000000c0: 5e80 e83d 7874 673d 9d85 99bd c731 573d
000000d0: 65a5 cd3b ec0f 3abd 4917 1dbb 2571 b8bc
000000e0: 6184 c03d 6ad9 bf3d 4b3e 9abd 7d64 543d
000000f0: b0be 8ebd 4a0f 9c3d e97d 3c3d ffbf 663c
00000100: 8b39 8dbd 2461 eabd aa51 c3bd 2451 85bd
00000110: ecd5 16bd e1e4 f2bc 547e b5bd aebe 4fbb
00000120: 2b6f 893d ceee d5bd 7ab1 2a3d 23b9 b5bd
00000130: 99cb 81bd aed5 13bd 3cf9 703d 4ec8 a7bd
00000140: 94bd 5f3d b104 debd b4d5 1e3b cb1d 0e3d
00000150: 04af 46bd 2bc5 7cbd 5351 88bd 6ffa 9dbd
00000160: bdc9 1c3d ad00 eb3c a444 a7bd 0989 36bd
00000170: 5dfc f3bc 9689 2cbd fee1 babd 21f8 693d
00000180: a21f a9bd 939c 883d 5788 85bc b5c0 45bd
00000190: 8265 243d 6e63 77bd 3dd1 a4bc 695e cf3d
000001a0: 72aa 14bd c8b3 7a3c 850c b0bd ab34 94bc
000001b0: 9f55 93bd acd7 d0bd 526d bbbb a3a7 a4bc
000001c0: 6536 813c 64a6 bbbc ed06 e9bd 5e07 67bd
000001d0: ee8f 2fbd 34ec ec3c 4ef5 723d 1fe2 c73d
000001e0: 617e 3b3d ada9 88bd 25ad c3bd ec5e e5bd
000001f0: 1769 173d b5f1 6abd 1b2c e23d f11c b2bd
00000200: e513 1dbd cda6 793d cab8 8a3d ed65 ae3d
00000210: cfb0 0dbd 126f eb3d 5336 acbd b3e5 01bd
00000220: 48bc 833a d7af e1bd 6944 debd 6b3d af3d
00000230: b131 593d 5994 a9bd 0257 b4bd cc56 6dbd
00000240: 2876 90bd 4f69 f13c 5f81 7a3d 2ec3 e33d
00000250: 1b5b d13d 9d88 4e3d 77f2 133c 7c53 75bd
00000260: 683f a1bd 1db3 023b 96d6 02bd 063e 6ebd
00000270: d2a7 ecbc 615a 85bd c66d ebbc 370d b53d
00000280: 0d68 6dbd 9a37 ee3d 2187 d33d 4b83 62bc
00000290: 1e50 633d aa3a e03c ac52 d1bd ef37 f3bb
000002a0: 32f9 183d 7c0e 443d c757 ce3d 82ef dd3d
000002b0: 3e45 523d 1e36 bfbc d8d5 eebd 4fc3 e5bd
000002c0: 4460 47bc 980c 49bd 1fa0 8e3d 01a7 b5bd
000002d0: 70d1 90bd 8adc c4bd 19a9 983d 2e37 ce3a
000002e0: 18fa 913c 3bd1 ecbd 74b2 ef3d 45d6 df3d
000002f0: af60 843b 98a0 803d 0198 b1bd 6a09 afbc
00000300: c2f4 82bc bbe5 5bbd 8069 403d 069f b1bd
00000310: c982 c0bd 02f1 133d dc0f cd3d fe93 a8bd
00000320: 4f6e 50bd b1ae aabd 5e4d c2bc a1bb c33d
00000330: 861a c6bb 084f b4bd 30ff f13c ba93 05bd
00000340: 2e29 533d 6803 cc3d 2502 09bc a233 de3d
00000350: ba0b 6d3c 0e2b d53c 1008 60bd 9f85 47bd
00000360: ff77 bd3d fd04 993d ae72 793d e6cb 05bc
00000370: a2d9 4c3d 82fe aa3b 3082 c53d 1609 09bd
00000380: 6d5f 56bd db7e 7c3d 60c8 a3bd 9a4f 953b
00000390: 15d9 fabc ab6e d43c 5333 20bd 70a3 3fbd
000003a0: 6353 84bd 4626 853d c923 1abd fed6 5fbd
000003b0: 52b0 e2bd 03cc 91bc 219a acbc 5f10 cc3d
000003c0: 7568 4f3d 7272 173d 6f0f 2c3d a5b8 fb3b
000003d0: 41f3 fe3c 50ca bf3d fb72 853d 3f79 96bd
000003e0: af0c 4a3c 24dc 93bd 3a83 193c 158a bebd
000003f0: 6308 94bd c0b8 c5bd 12e7 773c 07f0 d9bd
0.0067766933 -0.08447269 0.112630375 0.112187535 0.019996798 0.10871228 -0.11412741 0.011038962
-0.0055973683 0.1014263 -0.003073264 0.04539578 0.061708298 -0.026737666 0.012768669 -0.05947103
-0.07162632 -0.07018935 -0.011705192 -0.05076439 -0.08814806 0.059154324 0.04528575 0.023749188
0.017919857 0.07011488 -0.033393692 0.01535886 0.0788066 0.036136664 0.0670441 -0.07043694
-0.09347856 -0.0045707976 0.05356239 0.052793045 -0.021706527 0.099119976 -0.11211347 0.1040588
-0.103695944 0.074340336 -0.02136477 -0.06228537 -0.015107271 0.090670586 0.059360325 0.07832212
0.11352609 0.056507558 -0.07496188 0.052537706 0.00627582 -0.04542534 -0.0023970178 -0.022514889
0.09400249 0.0936764 -0.07531413 0.051853646 -0.069699645 0.07620104 0.046018515 0.014083861
-0.06895741 -0.11444309 -0.095370606 -0.06509617 -0.036825106 -0.029650154 -0.08861986 -0.0031699347
0.06710657 -0.10445939 0.04167316 -0.08873203 -0.06337661 -0.036092453 0.05883144 -0.08192502
0.054624155 -0.108407386 0.0024236264 0.03469638 -0.04850675 -0.06171147 -0.06656136 -0.07713782
0.03827833 0.028686846 -0.08167389 -0.04456428 -0.029783422 -0.0421234 -0.09125136 0.0571214
-0.082579866 0.06670489 -0.016300363 -0.048279483 0.040135868 -0.060397558 -0.020119304 0.10125429
-0.03629536 0.015301652 -0.08596138 -0.01809152 -0.07194065 -0.10197386 -0.005719819 -0.020099467
0.015773008 -0.02290649 -0.11378274 -0.05640351 -0.04286187 0.028921224 0.059315972 0.09759926
0.04577482 -0.06672988 -0.09554509 -0.111997455 0.036965456 -0.057359416 0.11043569 -0.086969264
-0.03834905 0.06095009 0.06773527 0.085155345 -0.034592446 0.11495794 -0.08408799 -0.0317132
0.0010050619 -0.11019867 -0.10852892 0.085566364 0.053025905 -0.08280248 -0.08805658 -0.057944104
-0.070537865 0.02946916 0.061158534 0.11121212 0.10222455 0.050423253 0.009029976 -0.05989407
-0.07873422 0.0019943186 -0.031942926 -0.05816462 -0.028888617 -0.06511379 -0.028738867 0.08840411
-0.05796056 0.11631699 0.10328508 -0.013825248 0.055496328 0.027371723 -0.102208465 -0.0074224393
0.037347026 0.047865376 0.10075336 0.10836698 0.051335566 -0.023341235 -0.11661881 -0.11218893
-0.012168948 -0.049084276 0.069641344 -0.08869744 -0.07071197 -0.09612377 0.07454128 0.0015732998
0.01781945 -0.11563345 0.11703959 0.109295405 0.004039846 0.06280631 -0.086715706 -0.021366794
-0.01598585 -0.053685885 0.046975613 -0.086729094 -0.09399945 0.036118515 0.100127906 -0.08231352
-0.05088645 -0.08334101 -0.023718532 0.09557272 -0.0060456423 -0.088041365 0.029540628 -0.032611586
0.051552944 0.09961587 -0.008362328 0.10849692 0.014468128 0.026021507 -0.05469519 -0.048711415
0.09251403 0.074716546 0.060900383 -0.008166289 0.05001224 0.005218328 0.09643972 -0.03345593
-0.0523371 0.061644416 -0.07997203 0.0045566084 -0.03062109 0.025931677 -0.039111447 -0.046786726
-0.06461217 0.06501441 -0.037631784 -0.054648392 -0.11068787 -0.017797476 -0.021069588 0.0996406
0.050636727 0.036974378 0.042006906 0.0076819235 0.031121852 0.0936476 0.065160714 -0.073473446
0.012332126 -0.07219723 0.009369666 -0.09303681 -0.07228162 -0.09654379 0.015130775 -0.10641485

backbone.model.3.0.model.0.bias f4 [16]
00000000: a47b a6bd 8a84 b2bd 6b4f 88bd 6e2f f03d
00000010: 7e65 873d b0d3 c13c 737f 0fbd 7fd8 1bbc
00000020: 4328 9c3d bc13 993d 8c2d 2cbd 1a48 61bc
00000030: 4db4 29bd 0ea4 e1bd 3f6d 873d 3909 b6bd
-0.08129051 -0.08716686 -0.06655773 0.117277965 0.06611155 0.02366051 -0.035033654 -0.009512066
0.07624867 0.07474467 -0.042035624 -0.0137501005 -0.041431714 -0.11017619 0.06612634 -0.08888478
