software/logs/hyper_parameter_tuning/custom_model_hp/version_6/checkpoints/epoch=0-step=20.ckpt (torch, 195567 bytes, 54 tensors)

backbone.model.0.0.model.0.weight f4 [4, 2, 5, 5]
0.05689653 -0.13218893 -0.026297493 -0.06805782 -0.036606528 0.12827885 -0.016909536 -0.12419097
0.10435665 -0.119559675 0.13192186 -0.13207619 0.025212549 0.00059514726 0.12925188 0.09539376
-0.12022551 -0.102769494 0.11836887 -0.104510784 -0.04638197 -0.1344531 0.009504149 0.07630893
-0.13641092 0.03928742 -0.09510683 -0.12625629 0.009139039 -0.00659814 -0.09679264 0.12699267
0.057053752 -0.012030954 -0.12743834 -0.06695806 -0.08924309 0.09964111 -0.06879926 -0.019189158
-0.13012145 -0.12506856 0.017181989 0.11497973 0.09318803 0.06040856 -0.029116241 -0.05241637
-0.10213733 0.073150106 0.07809621 0.05914429 0.0046265777 -0.070470124 -0.076277085 0.12588483
0.05380354 -0.041162536 -0.10056399 -0.004862145 -0.084135495 -0.12626712 0.06953861 -0.060789615
0.06124396 -0.12223015 -0.06833488 -0.07388584 0.045517165 -0.1250517 -0.05547372 -0.07697842
-0.11851174 0.08934758 0.012400817 0.13595651 0.13702773 0.050815497 -0.027687564 0.109563686
-0.09862225 0.119970724 0.12059163 -0.008213207 0.11910596 0.015497565 -0.13786648 -0.088551074
0.051033918 0.041026738 -0.114537574 -0.13446273 0.06734057 0.093552336 0.14040777 -0.06947748
-0.08209947 0.06167991 -0.05427427 -0.05140476 -0.06679895 -0.06105413 0.029729057 0.014816422
-0.021671068 0.08080634 0.06488149 -0.11047049 -0.110806175 -0.03651888 -0.0075789476 0.03797856
0.06801707 -0.11054733 -0.047648683 -0.096324354 0.052476134 0.039077044 -0.057196952 0.07040416
-0.08344412 0.0033796886 0.076025486 -0.004015853 -0.002669868 0.029471422 -0.012724505 0.091938704
-0.13125028 -0.094315045 -0.05739828 -0.0695831 -0.05851743 0.13435799 -0.0401969 0.059574302
0.039740298 0.07518514 -0.13713121 -0.1038468 -0.13568015 0.09998042 0.046499103 0.11804537
0.13140659 -0.11956466 0.02204481 -0.073272504 -0.08002853 -0.12752135 0.090805724 0.041872844
-0.019413581 -0.10240358 -0.06293774 -0.018573206 0.117533624 -0.045874856 0.06690632 0.061582804
-0.04504905 -0.0653566 -0.09463077 0.036998443 -0.063103326 -0.07031484 -0.043557085 0.07634025
-0.019443674 -0.031365283 0.103235155 -0.07726125 -0.09464443 -0.08712108 -0.10895627 -0.04220604
0.1048021 0.119065255 -0.09564196 -0.08056807 0.04374344 -0.14007981 0.020821236 -0.13583657
-0.13585906 -0.10270417 0.12733181 -0.10866008 0.07212545 -0.015907064 -0.12675992 0.10208901
0.016145227 0.007871599 -0.1165266 -0.06764657 -0.050473586 -0.0945951 -0.065092705 -0.08435891
00000000: 560c 693d 895c 07be d76d d7bc e661 8bbd
00000010: baf0 15bd 885b 033e de85 8abc d657 febd
00000020: f0b8 d53d b4db f4bd 8616 073e fb3e 07be
00000030: 8c8a ce3c a803 1c3a 9b5a 043e ce5d c33d
00000040: cb38 f6bd d078 d2bd 616b f23d c009 d6bd
00000050: 05fb 3dbd 13ae 09be 4ab7 1b3c db47 9c3d
00000060: 4eaf 0bbe d9eb 203d 5fc7 c2bd 5449 01be
00000070: e8bb 153c 3635 d8bb 383b c6bd 5e0a 023e
00000080: 32b1 693d 7a1d 45bc 327f 02be 4f21 89bd
00000090: 15c5 b6bd a310 cc3d a0e6 8cbd 9532 9dbc
000000a0: 8f3e 05be f911 00be 3ec1 8c3c 7e7a eb3d
000000b0: 5ed9 be3d f76e 773d 2f85 eebc 8cb2 56bd
000000c0: 602d d1bd b9cf 953d e8f0 9f3d 4841 723d
000000d0: 8c9a 973b a452 90bd 2937 9cbd f4e7 003e
000000e0: 1a61 5c3d 0c9a 28bd 7ef4 cdbd a152 9fbb
000000f0: 3b4f acbd 2b4c 01be 426a 8e3d 88fe 78bd
00000100: f2da 7a3d cd53 fabd 28f3 8bbd 7651 97bd
00000110: 3570 3a3d 8e0d 00be 6938 63bd dda6 9dbd
00000120: 48b6 f2bd ddfb b63d cc2c 4b3c 2f38 0b3e
00000130: ff50 0c3e e923 503d 08d1 e2bc ed62 e03d
00000140: 76fa c9bd 36b3 f53d bff8 f63d b090 06bc
00000150: d3ed f33d 80e9 7d3c df2c 0dbe 445a b5bd
00000160: f108 513d a70b 283d ad92 eabd 99b0 09be
00000170: dae9 893d 5e98 bf3d 0ec7 0f3e 364a 8ebd
00000180: c423 a8bd 13a4 7c3d b24e 5ebd cc8d 52bd
00000190: e3cd 88bd e513 7abd 5a8a f33c 94c0 723c
000001a0: 8687 b1bc cb7d a53d 96e0 843d 5a3e e2bd
000001b0: 59ee e2bd d294 15bd d258 f8bb 688f 1b3d
000001c0: 894c 8b3d a366 e2bd 442b 43bd b445 c5bd
000001d0: 37f1 563d 400f 203d 5a47 6abd 0e30 903d
000001e0: c0e4 aabd c47d 5d3b 40b3 9b3d 6b97 83bb
000001f0: f4f8 2ebb 0d6e f13c 717a 50bc 5c4a bc3d
00000200: 7966 06be 3f28 c1bd 751a 6bbd 9681 8ebd
00000210: f9af 6fbd 2495 093e 81a5 24bd 2f04 743d
00000220: b9c6 223d abfa 993d 206c 0cbe a2ad d4bd
00000230: bdef 0abe 89c2 cc3d d875 3e3d c5c1 f13d
00000240: 738f 063e 51de f4bd 5197 b43c e50f 96bd
00000250: ffe5 a3bd f594 02be 5af8 b93d dc82 2b3d
00000260: 3b09 9fbc f8b8 d1bd 80e5 80bd d626 98bc
00000270: 78b5 f03d 46e7 3bbd 2e06 893d 403e 7c3d
00000280: 5a85 38bd aed9 85bd c7cd c1bd ae8b 173d
00000290: 513c 81bd 3a01 90bd ea68 32bd 4758 9c3d
000002a0: 5748 9fbc e278 00bd f46c d33d 253b 9ebd
000002b0: f0d4 c1bd 896c b2bd 7724 dfbd 3ee0 2cbd
000002c0: 7ca2 d63d 7cd8 f33d efdf c3bd df00 a5bd
000002d0: 522c 333d 1571 0fbe 4c91 aa3c be18 0bbe
000002e0: a31e 0bbe 9056 d2bd 4563 023e 2d89 debd
000002f0: 82b6 933d 884f 82bc 5acd 01be 0b14 d13d
00000300: ff42 843c e1f7 003c 80a5 eebd 498a 8abd
00000310: 64bd 4ebd 13bb c1bd 534f 85bd 5dc4 acbd

backbone.model.0.0.model.0.bias f4 [4]
-0.0231221 0.11932616 0.1069986 0.13201821
00000000: 8f6a bdbc 4661 f43d 1522 db3d c82f 073e

backbone.model.0.1.model.0.weight f4 [4, 4, 5, 5]
0.073853604 -0.018628025 -0.02802316 -0.09965058 0.085681535 0.051011752 -0.076991476 -0.09618037
-0.0014631391 -0.08856442 -0.055328548 -0.096412495 0.059970237 0.080864154 0.092855014 -0.06943635
-0.07421684 -0.024151934 -0.021170104 0.015206742 0.015714014 -0.004423988 0.03675121 0.08830326
0.029649114 0.042901527 0.025987685 0.023130942 -0.093568124 0.09594699 -0.0871444 -0.021812035
-0.048913825 -0.028764868 -0.048961736 0.08882262 -0.09137291 -0.037057616 0.065028206 0.00993346
-0.046372272 0.039372634 0.08438247 -0.07361191 0.09524971 -0.002972746 0.054361414 -0.026417434
0.054126956 0.0543638 -0.08996923 0.092044674 -0.087132335 -0.038369454 0.042194307 -0.044114757
0.03854201 0.0020089985 0.024126207 -0.06798822 -0.039203156 -0.082971506 0.043049645 -0.037478533
-0.031283915 0.07301631 -0.047355212 -0.0691664 0.055764735 -0.09696125 0.088931225 0.016591644
-0.030949593 0.08213921 -0.04166459 -0.098171555 0.09016492 -0.020832598 0.07649714 0.086078994
-0.07506635 -0.05262487 -0.0383896 -0.08904605 0.06503941 0.09707417 0.047046732 0.06793789
0.0651891 -0.07663933 0.051053155 -0.08801297 -0.049084377 0.0025228858 0.016623676 -0.0027746202
-0.07187227 -0.08199089 0.014258849 0.08325823 0.004597831 -0.08069825 0.02837782 -0.063048005
0.0070525887 0.024651384 -0.044638574 0.08160497 0.09832646 0.097496465 0.00248034 0.06506695
-0.088271916 0.037332095 0.059114445 -0.099923216 0.055042814 0.08892106 0.023596002 0.04798907
-0.02550974 0.04975983 0.084729195 0.011068988 -0.04377041 -0.06530636 -0.0809176 -0.009389723
0.029108262 0.0995635 -0.02458321 0.044460453 0.097648285 0.017376257 0.036412563 0.05342251
-0.08706685 -0.08723829 -0.065565504 0.06363851 -0.06800415 -0.022016501 -0.050281834 -0.021989167
0.025481367 -0.068559326 -0.064355806 -0.033139944 -0.083892286 0.041092183 -0.041874897 0.054980148
-0.013047255 0.07520038 -0.027363658 -0.00040584803 0.08227189 0.07429456 0.06836609 -0.09956475
-0.09689317 0.08190872 0.08700985 0.017065216 -0.061187185 -0.0889791 -0.034246635 -0.03768977
0.02595073 0.0053560375 -0.07950586 0.03774941 0.0771955 0.048974764 0.00043164493 -0.022787083
-0.02416848 -0.034197427 0.017419338 -0.07611158 -0.043161668 0.035602976 0.011322796 0.0781809
-0.08888117 -0.012592173 0.046745002 -0.03996184 -0.03887657 -0.0378348 -0.08717598 -0.023538996
0.085477926 -0.0665971 -0.06281346 -0.009048939 0.026254976 0.09756304 0.028367031 -0.093678914
-0.05543337 -0.010376644 0.0414351 0.08476453 -0.026638567 0.09838142 0.07454731 -0.00012540817
-0.08382225 -0.07351144 0.034966897 0.02425741 0.054543685 -0.05358056 -0.046399247 -0.08711006
0.035653662 -0.0666914 0.09560503 0.09896838 -0.07999181 0.057903256 -0.08469089 -0.07977754
0.084302925 0.09689374 -0.06825413 0.0075287702 0.036198974 0.027003944 0.0011605859 0.09712847
-0.08774354 0.07426307 0.044533957 -0.07948082 -0.002332139 -0.062115002 -0.0034389736 0.097747944
-0.08713072 -0.05238471 0.03173225 0.004702461 -0.011647916 0.09098338 -0.011822581 0.055693805
-0.034846354 -0.051892854 0.015532577 0.09266621 0.0054078936 -0.024150038 -0.006676936 -0.06183782
00000000: 8f40 973d cd99 98bc d390 e5bc 9a15 ccbd
00000010: cd79 af3d b3f1 503d b5ad 9dbd 37fa c4bd
00000020: cdc6 bfba 4361 b5bd 30a0 62bd ea73 c5bd
00000030: 5aa3 753d 1b9c a53d c52a be3d a534 8ebd
00000040: 00ff 97bd 47da c5bc ed6c adbc b325 793c
00000050: adba 803c 1af7 90bb 7088 163d 57d8 b43d
00000060: b3e2 f23c 83b9 2f3d 20e4 d43c 1a7d bd3c
00000070: a5a0 bfbd db7f c43d c378 b2bd 27af b2bc
00000080: dd59 48bd 4da4 ebbc 1a8c 48bd a2e8 b53d
00000090: b821 bbbd bac9 17bd 822d 853d f3bf 223c
000000a0: daf0 3dbd 3345 213d b7d0 ac3d d7c1 96bd
000000b0: 4812 c33d 67d2 42bb 13aa 5e3d 6069 d8bc
000000c0: 3ab4 5d3d 93ac 5e3d ca41 b8bd eb81 bc3d
000000d0: 7072 b2bd 4a29 1dbd f0d3 2c3d adb1 34bd
000000e0: 3ade 1d3d 67a9 033b 53a4 c53c 683d 8bbd
000000f0: 7d93 20bd f7ec a9bd d354 303d 1783 19bd
00000100: 9023 00bd 9389 953d 8af7 41bd 1da7 8dbd
00000110: 9069 643d 9f93 c6bd 9321 b63d 33eb 873c
00000120: 008a fdbc 9a38 a83d 7da8 2abd 2b0e c9bd
00000130: 63a8 b83d 20a9 aabc 88aa 9c3d 2f4a b03d
00000140: 63bc 99bd 2d8d 57bd 6a3e 1dbd c75d b6bd
00000150: 6233 853d d3ce c63d 13b4 403d 0523 8b3d
00000160: dd81 853d 15f5 9cbd 1d1d 513d 2540 b4bd
00000170: b30c 49bd 0057 253b 602e 883c 67d6 35bb
00000180: c531 93bd d7ea a7bd f39d 693c 4a83 aa3d
00000190: 67a9 963b 2045 a5bd 9a78 e83c 501f 81bd
000001a0: 6719 e73b b3f1 c93c f0d6 36bd 8220 a73d
000001b0: 625f c93d 3aac c73d 338d 223b d241 853d
000001c0: e8c7 b4bd 8ae9 183d fd21 723d 8ba4 ccbd
000001d0: 9374 613d 3f1c b63d 674c c13c 3090 443d
000001e0: cdf9 d0bc f7d0 4b3d 8086 ad3d b35a 353c
000001f0: 9a48 33bd 57bf 85bd 20b8 a5bd 5ad7 19bc
00000200: 7374 ee3c f3e7 cb3d ba62 c9bc 2a1c 363d
00000210: d3fb c73d a758 8e3c 5725 153d 90d1 5a3d
00000220: 1b50 b2bd fda9 b2bd 3547 86bd e854 823d
00000230: c345 8bbd f35b b4bc 53f4 4dbd a022 b4bc
00000240: 4dbe d03c d568 8cbd facc 83bd c0bd 07bd
00000250: b8cf abbd 4750 283d 0385 2bbd dd32 613d
00000260: 27c4 55bc a802 9a3d c029 e0bc 00c8 d4b9
00000270: 2a7e a83d bf27 983d 8503 8c3d 9be8 cbbd
00000280: ed6f c6bd c2bf a73d 3832 b23d 5acc 8b3c
00000290: 6a9f 7abd ad3a b6bd 3346 0cbd 9760 1abd
000002a0: a096 d43c b381 af3b f8d3 a2bd 209f 1a3d
000002b0: ad18 9e3d c399 483d 674e e239 faab babc
000002c0: fafc c5bc 9a12 0cbd 00b3 8e3c 63e0 9bbd
000002d0: 4aca 30bd 6dd4 113d 4083 393c 4f1d a03d
000002e0: 5507 b6bd 674f 4ebc b077 3f3d 07af 23bd
000002f0: 0a3d 1fbd aaf8 1abd 5289 b2bd dad4 c0bc
00000300: 0d0f af3d 0f64 88bd 58a4 80bd 0042 14bc
00000310: ad14 d73c 22cf c73d fa61 e83c bbda bfbd
00000320: 1a0e 63bd cd02 2abc dab7 293d 0799 ad3d
00000330: 2039 dabc 337c c93d 43ac 983d 0080 03b9
00000340: 00ab abbd 2a8d 96bd 7339 0f3d 7ab7 c63c
00000350: 3369 5f3d 4a77 5bbd 230d 3ebd c266 b2bd
00000360: 9309 123d 8095 88bd 92cc c33d efaf ca3d
00000370: bfd2 a3bd f72b 6d3d 6b72 adbd 6862 a3bd
00000380: 03a7 ac3d 3a70 c63d d2c8 8bbd e7b3 f63b
00000390: 6045 143d 6037 dd3c cd1e 983a 4beb c63d
000003a0: e3b2 b3bd 3d17 983d 3d69 363d d7c6 a2bd
000003b0: cdd6 18bb 4d6c 7ebd 6760 61bb 1330 c83d
000003c0: 9771 b2bd 5a91 56bd adf9 013d 1a17 9a3b
000003d0: e7d6 3ebc 7f55 ba3d 80b3 41bc 301f 643d
000003e0: 0dbb 0ebd 9a8d 54bd 5a7c 7e3c c8c7 bd3d
000003f0: b334 b13b 4dd6 c5bc 33ca dabb a749 7dbd

backbone.model.0.1.model.0.bias f4 [4]
-0.04232333 0.05623089 -0.035337437 -0.09711951
00000000: 3a5b 2dbd 5d52 663d fdbd 10bd 98e6 c6bd

backbone.model.1.0.model.0.weight f4 [8, 4, 5, 5]
-0.091959976 0.08362962 0.08951926 -0.08801694 0.062156893 0.046329714 0.061140873 -0.018869532
-0.028966714 -0.024233019 0.08676064 -0.09269537 -0.060285605 -0.016595317 0.018946135 0.07635808
0.04159776 -0.064721085 0.024696589 -0.043673147 -0.05025002 -0.031818774 -0.006968856 0.05592234
-0.049461495 -0.06566782 0.054984357 -0.011942232 0.080221616 0.08998294 -0.05463655 -0.027313912
0.09284399 0.004037702 -0.0032078386 0.053862 0.0039622784 -0.018053686 -0.049920082 -0.08258704
0.09850229 -0.062150538 -0.028326452 0.08856864 0.052349936 -0.009094047 -0.08240694 -0.08512161
0.009973443 0.04828737 -0.06568129 -0.027651442 -0.05525328 0.056446254 0.04302163 -0.07466376
-0.042965304 -0.03918729 -0.09657579 -0.09156287 -0.09509456 0.08071753 0.09187199 -0.07435288
0.018375337 -0.06214695 0.04826963 -0.07419755 0.06050023 -0.0762514 -0.07060634 -0.07502246
0.007606113 0.02526009 0.0985459 -0.0843007 -0.028884828 -0.00034275054 0.0042394637 -0.006851971
-0.016216671 -0.027564442 0.09886996 -0.016571952 0.054894127 0.08632862 0.007348943 0.033640873
-0.01169256 0.024005413 0.051107418 0.07355317 0.089569345 -0.07131974 0.052908063 0.06395985
-0.057684053 -0.021754611 0.078022115 0.014875543 0.0435861 -0.05095878 0.012170327 0.02812462
0.08443006 0.07493167 0.02509563 -0.06849953 0.072657324 0.008569158 -0.023197223 -0.018309688
0.07157574 -0.06349291 0.025447106 -0.06034075 -0.052044988 -0.009238553 0.073109165 0.079543725
-0.06457441 -0.06117567 -0.007514465 0.033631515 -0.07233065 0.037469685 -0.06264841 -0.08312241
0.032200206 -0.05075699 0.09517677 -0.017112447 0.084521614 0.030040396 0.020937597 0.046197403
0.07098217 -0.050371636 -0.008970737 -0.0019730448 0.074441545 -0.024836695 -0.019836545 -0.08511467
0.07898597 0.05477004 -0.02852962 0.09426222 0.0025345087 0.0327029 -0.09611702 -0.073548816
0.043707192 -0.05928675 -0.03377378 0.07696215 -0.009968305 0.08608111 -0.00019134283 -0.08896329
0.09804405 -0.07797145 -0.07450088 -0.012680042 0.08646428 0.018173862 0.047347974 0.039744377
-0.056089353 -0.04427315 -0.027907943 0.016479803 0.0012800813 -0.04176805 0.06370801 -0.035456587
0.054076206 0.084512345 -0.012251759 -0.007976127 -0.059599068 -0.03446151 -0.012879646 0.013740993
0.023733854 -0.06808504 -0.043262552 -0.0043775323 -0.06269325 0.04854232 0.032674324 -0.08591323
-0.00011358261 0.026637388 -0.06370669 -0.058631875 0.09530779 0.019323302 -0.04761374 0.022428071
0.021760512 -0.026177024 -0.088563696 0.08692392 0.07077521 -0.027558029 0.054125667 0.08518542
0.019024862 0.050275363 -0.0068294406 0.09396497 0.08550407 0.08101974 0.047296226 0.063255966
-0.0030150772 0.024300193 0.04383544 0.065477066 -0.092317246 0.0075082304 -0.010727 0.08499702
-0.097446635 -0.0076756002 0.08665835 -0.060106184 0.08237604 0.008941042 -0.040322747 0.053811062
-0.030568719 -0.0030501008 -0.03142748 0.068721175 0.0995023 0.030727684 0.045571078 0.03442445
-0.075798586 0.07503002 0.097628586 -0.022392666 0.058978666 -0.022056913 -0.0023926855 -0.005910802
-0.037893143 -0.093267 -0.059040714 0.017263377 0.06387804 -0.023874069 0.0216388 -0.064083375
00000000: 8355 bcbd 0246 ab3d e055 b73d 3a42 b4bd
00000010: 3a98 7e3d 3ac4 3d3d da6e 7a3d 4794 9abc
00000020: 9a4b edbc 5384 c6bc 90af b13d 12d7 bdbd
00000030: 0aee 76bd e7f2 87bc ed34 9b3c a061 9c3d
00000040: 6a62 2a3d 7d8c 84bd 8050 ca3c 9de2 32bd
00000050: f7d2 4dbd 6754 02bd 005b e4bb d30e 653d
00000060: 2398 4abd da7c 86bd 4737 613d 5aa9 43bc
00000070: 3b4b a43d fa48 b83d 93ca 5fbd 6dc1 dfbc
00000080: fd24 be3d b34e 843b 9a3a 52bb 679e 5c3d
00000090: 00d6 813b 53e5 93bc 0079 4cbd 6523 a9bd
000000a0: 92bb c93d 9091 7ebd e00c e8bc 7a63 b53d
000000b0: e36c 563d 33ff 14bc f8c4 a8bd 3d54 aebd
000000c0: a767 233c fac8 453d ea83 86bd 4785 e2bc
000000d0: 4351 62bd 3034 673d 7337 303d 50e9 98bd
000000e0: 63fc 2fbd da82 20bd 87c9 c5bd 5085 bbbd
000000f0: f0c0 c2bd 3b4f a53d 6227 bc3d 5346 98bd
00000100: e087 963c cd8d 7ebd 60b6 453d e3f4 97bd
00000110: 17cf 773d b229 9cbd 0f9a 90bd 60a5 99bd
00000120: b33c f93b 40ee ce3c 6fd2 c93d d8a5 acbd
00000130: e09f ecbc 33b3 b3b9 33eb 8a3b 8086 e0bb
00000140: d3d8 84bc d3ce e1bc 557c ca3d e7c1 87bc
00000150: aad8 603d 0fcd b03d 67cf f03b 03cb 093d
00000160: 2792 3fbc 00a7 c43c 0356 513d 0ba3 963d
00000170: 2270 b73d 1510 92bd 20b6 583d 62fd 823d
00000180: 1d46 6cbd ba36 b2bc 0fca 9f3d 8db8 733c
00000190: 5787 323d 27ba 50bd 0d66 473c 9a65 e63c
000001a0: abe9 ac3d c775 993d 5a95 cd3c 7b49 8cbd
000001b0: 5dcd 943d a765 0c3c 1a08 bebc 33fe 95bc
000001c0: 4d96 923d 9208 82bd 7376 d03c dd27 77bd
000001d0: 202d 55bd 4d5d 17bc 42ba 953d d2e7 a23d
000001e0: 973f 84bd 5793 7abd e73b f6bb 33c1 093d
000001f0: 1822 94bd d079 193d cf4d 80bd 153c aabd
00000200: 5de4 033d 90e6 4fbd 0aec c23d 672f 8cbc
00000210: ab19 ad3d 4717 f63c 5385 ab3c 7d39 3d3d
00000220: 1a5f 913d 7d52 4ebd 00fa 12bc 334e 01bb
00000230: cf74 983d 5376 cbbc 4080 a2bc 9a50 aebd
00000240: 65c3 a13d 8d56 603d f3b6 e9bc 8d0c c13d
00000250: 001a 263b 7af3 053d 00d9 c4bd c3a0 96bd
00000260: 5006 333d aad6 72bd 6056 0abd 559e 9d3d
00000270: 1a52 23bc 4b4b b03d 33a3 48b9 6332 b6bd
00000280: 52cb c83d 7faf 9fbd eb93 98bd f3bf 4fbc
00000290: 2f14 b13d 5ae1 943c f3ef 413d 00cb 223d
000002a0: f3bd 65bd c357 35bd 339f e4bc a700 873c
000002b0: 67c8 a73a fa14 2bbd 5879 823d ed3a 11bd
000002c0: 037f 5d3d cf14 ad3d 9abb 48bc 4dae 02bc
000002d0: 271e 74bd 8327 0dbd 2705 53bc e721 613c
000002e0: 806d c23c 2b70 8bbd 1334 31bd 6771 8fbb
000002f0: 5265 80bd 50d4 463d 83d5 053d 47f3 afbd
00000300: 3333 eeb8 a736 da3c a778 82bd fa27 70bd
00000310: bb30 c33d e74b 9e3c a006 43bd 13bb b73c
00000320: 1a43 b23c 3371 d6bc e260 b5bd 2b05 b23d
00000330: 98f2 903d 60c1 e1bc e0b2 5d3d b275 ae3d
00000340: 07da 9b3c 8aed 4d3d 80c9 dfbb b570 c03d
00000350: c21c af3d aded a53d b0b9 413d 588c 813d
00000360: 9a98 45bb 3311 c73c ca8c 333d d718 863d
00000370: d310 bdbd 9a07 f63b 4dc0 2fbc eb12 ae3d
00000380: 1a92 c7bd 9a83 fbbb ef79 b13d e731 76bd
00000390: c5b4 a83d 737d 123c 7729 25bd fd68 5c3d
000003a0: 406b fabc 33e4 47bb 1aba 00bd b0bd 8c3d
000003b0: ddc7 cb3d a0b8 fb3c bda8 3a3d a700 0d3d
000003c0: 4a3c 9bbd 57a9 993d 7ff1 c73d d370 b7bc
000003d0: 9d93 713d b3b0 b4bc 9ace 1cbb 67af c1bb
000003e0: d735 1bbd c502 bfbd add4 71bd ed6b 8d3c
000003f0: 7dd2 823d 8d93 c3bc da43 b13c 253e 83bd

backbone.model.1.0.model.0.bias f4 [8]
0.028655803 -0.019474864 -0.023960209 -0.06874223 0.08768107 -0.06334312 0.039938606 0.09976707
00000000: 93bf ea3c c089 9fbc 3348 c4bc bac8 8cbd
00000010: 2292 b33d 0aba 81bd aa96 233d ad52 cc3d

backbone.model.1.1.model.0.weight f4 [8, 8, 5, 5]
0.0196398 -0.0644908 0.00023889678 -0.027274491 0.013473353 -0.012097478 0.020151513 0.041675515
-0.046482816 -0.014562445 -0.020699035 -0.057647005 -0.004207832 -0.0026650887 0.04318909 0.044257414
-0.051610228 -0.0074536535 -0.0469463 0.036772527 -0.034584586 0.018773068 -0.052826982 -0.045789983
0.023464171 0.052852545 0.06716396 0.025816673 -0.007887623 0.025609026 -0.008983938 0.014092997
0.033095066 0.049497016 -0.06815964 0.052514832 0.052279256 -0.0025437311 -0.02413042 0.014544726
-0.07018042 0.00049959193 -0.014813944 -0.016085219 0.04826912 0.0016745029 -0.0107463 -0.051780205
-0.04325903 0.06184007 0.05150689 0.017204344 -0.03358949 -0.008576699 0.04762052 0.022296865
0.047097944 -0.0654712 -0.06422878 0.016592465 0.05523618 -0.047541868 -0.040146686 0.04597709
0.034307722 -0.02683038 0.07055437 0.00011020558 0.06266746 -0.07042642 -0.050568987 -0.01404076
-0.06388622 -0.057167582 -0.02490013 0.049211767 -0.011549257 -0.0560002 -0.05167322 -0.024126923
-0.020784678 -0.03300697 -0.026479222 -0.037812613 0.060064565 -0.05387041 0.012098608 0.0088175675
0.056021173 -0.025701689 -0.046885658 0.04957911 0.01302647 0.06784387 0.045975868 0.02595543
0.010330513 0.03266101 0.021904899 0.062841035 0.03837877 -0.049369033 0.069274016 -0.06193655
0.0617272 0.010679861 0.047188792 0.060596745 -0.01102592 -0.044688515 0.052509774 0.07053332
-0.03721165 0.05035859 -0.011378208 0.025137763 0.0017644694 0.0125866085 -0.047633477 0.015874147
0.02668919 0.053867865 0.050223343 0.031458594 -0.049346257 0.06943255 -0.0120465895 -0.035685062
-0.015088193 0.06571924 0.00717567 -0.031514194 0.061447173 0.060192134 0.034197565 -0.043435913
-0.022816205 -0.024565123 0.06991895 0.0313859 -0.024053527 -0.047399543 -0.05510994 0.0055320607
-0.017559448 0.05110405 0.036531154 -0.04221678 0.049746297 -0.023526927 0.038316004 0.013291178
-0.027564926 0.020175941 0.02704625 -0.04721405 0.026961727 0.06770403 -0.003705121 0.0290518
-0.06947391 -0.038341343 0.06674864 0.01578204 0.043116726 0.06599603 0.0019507754 -0.002440134
0.004605833 0.02726075 0.03464293 -0.039832693 -0.045783795 0.022884745 0.016096076 0.031144524
0.005638802 0.0127225835 -0.0055668657 0.06518937 0.05174813 0.028991554 0.039298162 -0.070044756
-0.06315747 -0.048067447 0.070344254 0.0038166586 -0.030014493 -0.013129384 0.03518419 -0.025274927
-0.04104621 0.031300537 0.029287357 0.0040675336 -0.05513526 0.022046268 -0.012985613 0.045411427
0.03551104 -0.006998316 -0.020104343 -0.059402343 -0.026383929 0.013187614 -0.03773664 -0.011290897
-0.06582133 -0.037541784 -0.0014904728 0.062931575 -0.028596057 0.06050247 -0.030584173 0.034057748
0.045677155 0.0469529 0.008644479 0.021987902 0.0036996084 -0.043309428 0.063581295 0.014657697
-0.023646887 0.0066617564 0.020700838 -0.065891586 -0.015612601 0.03542867 0.027099237 -0.010896866
-0.011700252 0.0420846 0.05126802 -0.0013864291 -0.036146857 0.0015263229 -0.047191903 -0.011173678
-0.027707398 0.024678212 0.028199809 -0.024580069 -0.0142709995 0.023112582 0.020472014 -0.0452406
-0.019151546 0.031541884 0.010440921 -0.008838802 0.057301123 -0.012440486 -0.0660062 -0.014406628
00000000: a5e3 a03c c113 84bd 5e80 7a39 c16e dfbc
00000010: 57bf 5c3c 8034 46bc c914 a53c f2b3 2a3d
00000020: c464 3ebd 5297 6ebc 0691 a9bc 441f 6cbd
00000030: dae1 89bb c5a8 2ebb 0be7 303d 4347 353d
00000040: 3f65 53bd c73d f4bb c34a 40bd ca9e 163d
00000050: 91a8 0dbd fac9 993c 1b61 58bd 478e 3bbd
00000060: ef37 c03c e97b 583d 428d 893d 7d7d d33c
00000070: 173b 01bc 05ca d13c 5e31 13bc 50e6 663c
00000080: b18e 073d 62bd 4a3d 4897 8bbd cb19 573d
00000090: c622 563d bab4 26bb 29ad c5bc 014d 6e3c
000000a0: c1ba 8fbd 0cf7 023a 2fb6 72bc 26c5 83bc
000000b0: d7b5 453d fe7a db3a 4011 30bc 7b17 54bd
000000c0: 6130 31bd 034c 7d3d e4f8 523d 20f0 8c3c
000000d0: 2295 09bd 4885 0cbc bc0d 433d eaa7 b63c
000000e0: c6e9 403d c415 86bd 618a 83bd ecec 873c
000000f0: 553f 623d 43bb 42bd da70 24bd 7952 3c3d
00000100: 4186 0c3d 63cb dbbc cf7e 903d 2c1e e738
00000110: cc57 803d ba3b 90bd 6d21 4fbd 370b 66bc
00000120: c7d6 82bd 8e28 6abd 5cfb cbbc 4792 493d
00000130: 1839 3dbc 7760 65bd 4ca7 53bd d3a5 c5bc
00000140: a144 aabc 5132 07bd f4ea d8bc 66e1 1abd
00000150: 4306 763d 38a7 5cbd 3d39 463c 8f77 103c
00000160: 7576 653d 598c d2bc 2d0b 40bd 7713 4b3d
00000170: fa6c 553c baf1 8a3d 3151 3c3d 7ba0 d43c
00000180: 5041 293c 8dc7 053d e771 b33c cdb2 803d
00000190: 0f33 1d3d 2f37 4abd 89df 8d3d 2eb1 7dbd
000001a0: a9d5 7c3d 95fa 2e3c 0949 413d 4b34 783d
000001b0: 0fa6 34bc 4e0b 37bd 7d14 573d c673 903d
000001c0: 3e6b 18bd cf44 4e3d aa6b 3abc b6ed cd3c
000001d0: c545 e73a 1038 4e3c 521b 43bd 800a 823c
000001e0: 4aa3 da3c 8da4 5c3d feb6 4d3d bada 003d
000001f0: 4d1f 4abd a732 8e3d 0f5f 45bc 802a 12bd
00000200: 7834 77bc cf97 863d e221 eb3b 0715 01bd
00000210: 08b0 7b3d 078c 763d bf12 0c3d dbe9 31bd
00000220: 0de9 babc cc3c c9bc ab31 8f3d 808e 003d
00000230: e70b c5bc 0626 42bd f6ba 61bd 4a46 b53b
00000240: d5d8 8fbc 7b52 513d b1a1 153d 81eb 2cbd
00000250: c6c2 4b3d 8bbb c0bc 3ef1 1c3d 3ec3 593c
00000260: d7cf e1bc 0448 a53c 1990 dd3c 8563 41bd
00000270: d7de dc3c 69a8 8a3d 9ed1 72bb 0afe ed3c
00000280: 5648 8ebd d00b 1dbd 83b3 883d 5649 813c
00000290: 2a9b 303d ed28 873d 29b1 ff3a a8ea 1fbb
000002a0: 87ec 963b f051 df3c bfe5 0d3d 9b27 23bd
000002b0: ca87 3bbd ca78 bb3c ebdb 833c cd22 ff3c
000002c0: b3c5 b83b 6272 503c 416a b6bb 0182 853d
000002d0: d9f5 533d b27f ed3c 1cf7 203d a073 8fbd
000002e0: b458 81bd 5fe2 44bd a610 903d e820 7a3b
000002f0: f4e0 f5bc a11c 57bc 4c1d 103d 5d0d cfbc
00000300: 1220 28bd fe34 003d 0aec ef3c f248 853b
00000310: 83d5 61bd 609a b43c 9cc1 54bc 5501 3a3d
00000320: 0674 113d 2152 e5bb ddb1 a4bc df4f 73bd
00000330: 1c23 d8bc dd10 583c bc91 1abd 74fd 38bc
00000340: 55cd 86bd 6ac5 19bd f85b c3ba 45e2 803d
00000350: 4742 eabc 70d1 773d a98b fabc 2380 0b3d
00000360: f817 3b3d af51 403d 93a1 0d3c f91f b43c
00000370: 2175 723b 3a65 31bd e936 823d d626 703c
00000380: 1eb7 c1bc dd4a da3b ce94 a93c 2bf2 86bd
00000390: ffcb 7fbc a71d 113d 38ff dd3c c588 32bc
000003a0: 6ab2 3fbc e760 2c3d 6afe 513d d7b8 b5ba
000003b0: ba0e 14bd e60e c83a 4c4c 41bd cd11 37bc
000003c0: a0fa e2bc f629 ca3c 4903 e73c 245c c9bc
000003d0: e9d0 69bc 9956 bd3c edb4 a73c 354e 39bd
000003e0: b4e3 9cbc 1032 013d 6610 2b3c 9fd0 10bc
000003f0: 95b4 6a3d 2ed3 4bbc 422e 87bd c709 6cbc

backbone.model.1.1.model.0.bias f4 [8]
0.026362669 -0.05214739 -0.046627987 0.010653501 0.06657078 0.030483173 0.04013562 -0.025341662
00000000: 86f6 d73c 8098 55bd fdfc 3ebd 068c 2e3c
00000010: 4356 883d d9b7 f93c 3f65 243d 5199 cfbc

backbone.model.2.0.model.0.weight f4 [8, 8, 3, 3]
0.04666207 -0.0012353101 -0.11394766 -0.054450147 -0.03218294 0.056422703 0.056494225 -0.09350031
-0.084072374 0.06413701 0.030017337 -0.09271999 0.065741204 -0.05139457 0.008808354 -0.08783198
-0.07861708 0.013650522 0.086196 0.112991095 -0.08621124 0.08075519 -0.11535459 0.032370888
0.0032547202 0.07398488 0.07629296 0.11757966 0.07032917 0.07975879 -0.07235022 0.09066016
-0.008273694 -0.028959423 0.114686914 -0.10147051 -0.07620344 -0.084620096 -0.025723726 0.059506547
0.06020138 -0.031022314 0.1071282 -0.022551443 -0.085766956 -0.073068894 0.06961079 0.11379688
0.05404797 -0.10597468 -0.08105457 -0.049548272 0.0349853 -0.05639851 0.030938232 -0.03551948
0.025266727 0.0935782 -0.062472362 -0.09768075 -0.064300805 0.013864768 0.09912548 0.00041197138
-0.07702674 -0.046059847 -0.043264147 -0.046631288 0.08882681 0.09346458 0.0034570952 -0.07257784
0.10400165 -0.09959623 0.011622148 -0.06238436 -0.05190237 0.00034877923 0.06462313 -0.08010155
-0.11220674 -0.007150255 0.10436814 -0.066899806 0.10342938 0.09512555 0.10866515 -0.056690488
-0.068563975 -0.0509223 -0.0015378683 -0.014056578 0.021984542 0.092688955 0.07784571 -0.110940695
-0.10742828 -0.00012489516 -0.0908398 -0.022118807 0.010456633 -0.05872971 -0.0056484225 0.11743975
-0.04503971 -0.02453028 -0.10295288 0.023747642 0.08963651 0.10394367 -0.043381725 0.090820655
0.02601555 -0.07493315 0.06004466 -0.080758 -0.012647932 0.018777952 0.09521132 -0.09064534
-0.07850063 0.114874944 0.036599495 0.064597845 0.04329622 0.073357575 0.10359559 -0.03581607
0.040427778 -0.11074856 -0.096102305 0.04463447 0.10548607 0.003826653 0.10952686 -0.11599925
-0.08985458 0.095873505 0.01940292 0.044200763 0.037103485 0.03026773 -0.0710721 -0.08556254
0.024761457 0.08651159 -0.09286121 -0.04063774 -0.031456243 -0.09712507 -0.06221951 0.09062342
0.11237991 0.10148896 0.046955243 0.06999049 -0.07841165 -0.090349585 -0.09173572 0.02772827
-0.07853775 -0.010620795 -0.049623474 0.01742501 -0.023909543 -0.10715117 0.035282083 -0.11755477
0.070689246 -0.10554148 0.052594967 -0.05476032 0.07940588 0.10927515 0.056567322 -0.09460348
-0.05303758 -0.019052034 -0.03750589 -0.040246166 -0.019762587 0.031185325 0.08018442 0.09690964
0.08237318 0.034400344 0.03531334 0.09693816 -0.021814562 0.021910938 -0.0797003 0.021704461
-0.094715886 -0.08145986 -0.10862129 -0.016625794 -0.059296835 -0.11243189 -0.07048917 -0.05578189
-0.03819582 -0.1007131 0.059298284 0.022031253 -0.0949178 0.037381515 -0.07182544 -0.08993847
0.09683168 0.00032281678 -0.019490065 0.09343888 -0.10344919 0.0027852324 0.043250058 0.07374542
-0.038995374 0.0071578976 0.061403688 -0.068575904 -0.046712898 -0.05149537 -0.003522999 -0.09976481
0.09413223 -0.040120892 -0.046488017 0.1026498 0.0060233325 -0.04528821 -0.06690587 0.096699536
-0.07194342 -0.1046479 -0.069262445 0.063065074 0.006677634 -0.11533942 0.05720926 0.0539088
0.11778108 0.07528546 -0.048082445 -0.053383254 -0.042570606 0.06499643 0.06729076 -0.0068461373
0.030444706 0.0013898205 -0.0040125065 0.07708379 0.057767145 -0.075418934 -0.01687734 -0.044831365
00000000: ba20 3f3d 21ea a1ba 645d e9bd 1e07 5fbd
00000010: 42d2 03bd 7e1b 673d 7d66 673d 177d bfbd
00000020: 232e acbd 445a 833d ebe6 f53c fae3 bdbd
00000030: 53a3 863d 1d83 52bd ea50 103c 41e1 b3bd
00000040: fe01 a1bd 70a6 5f3c 8787 b03d e067 e73d
00000050: 858f b0bd fa62 a53d 073f ecbd 5697 043d
00000060: 254d 553b 6285 973d 7c3f 9c3d 9bcd f03d
00000070: bd08 903d 9458 a33d 5a2c 94bd 09ac b93d
00000080: 638e 07bc 503c edbc f9e0 ea3d c5cf cfbd
00000090: 8d10 9cbd 4d4d adbd 90ba d2bc 23bd 733d
000000a0: b995 763d 8222 febc 0866 db3d cebd b8bc
000000b0: 96a6 afbd 25a5 95bd 1a90 8e3d 570e e93d
000000c0: 6761 5d3d 4109 d9bd f0ff a5bd 21f3 4abd
000000d0: bf4c 0f3d 2002 67bd 2d72 fd3c e07c 11bd
000000e0: 2bfc ce3c eda5 bf3d 05e3 7fbd d80c c8bd
000000f0: 24b0 83bd 0d29 633c 4d02 cb3d ddfd d739
00000100: 32c0 9dbd 40a9 3cbd bf35 31bd 7300 3fbd
00000110: d5ea b53d 5c6a bf3d 6f90 623b b1a3 94bd
00000120: d1fe d43d 1cf9 cbbd d26a 3e3c be86 7fbd
00000130: 9497 54bd 5bdc b639 2259 843d 480c a4bd
00000140: a6cc e5bd b04c eabb f7be d53d c402 89bd
00000150: c8d2 d33d 2fd1 c23d d68b de3d 4934 68bd
00000160: 456b 8cbd e793 50bd 4c92 c9ba 904d 66bc
00000170: ed18 b43c b5d3 bd3d 926d 9f3d e034 e3bd
00000180: 5c03 dcbd 4af6 02b9 380a babd 8032 b5bc
00000190: 4c52 2b3c 908e 70bd 6716 b9bb 4084 f03d
000001a0: 8f7b 38bd baf3 c8bc f6d8 d2bd 6a8a c23c
000001b0: 5993 b73d 6be0 d43d 09b1 31bd 2e00 ba3d
000001c0: 901e d53c 8d76 99bd 64f1 753d 7364 a5bd
000001d0: 4639 4fbc 38d4 993c 27fe c23d 44a4 b9bd
000001e0: f0c4 a0bd 8e43 eb3d 5ae9 153d e04b 843d
000001f0: 6157 313d 7f3c 963d ed29 d43d dfb3 12bd
00000200: 9997 253d 24d0 e2bd 49d1 c4bd a2d2 363d
00000210: 1509 d83d 95c8 7a3b 9e4f e03d 0491 edbd
00000220: ae05 b8bd 5459 c43d dff2 9e3c dc0b 353d
00000230: d3f9 173d 08f4 f73c 408e 91bd 6a3b afbd
00000240: 8ad8 ca3c fd2c b13d 052e bebd c273 26bd
00000250: 43d8 00bd 82e9 c6bd e3d9 7ebd c698 b93d
00000260: 7027 e63d 72d9 cf3d 2454 403d 2d57 8f3d
00000270: 4a96 a0bd 3409 b9bd f0df bbbd 6626 e33c
00000280: 66d8 a0bd d802 2ebc fc41 4bbd e5be 8e3c
00000290: f2dd c3bc 1372 dbbd f283 103d 8ec0 f0bd
000002a0: 86c5 903d 2226 d8bd d26d 573d 5b4c 60bd
000002b0: 8d9f a23d a6cb df3d 23b3 673d 78bf c1bd
000002c0: ef3d 59bd 0313 9cbc c79f 19bd 2ad9 24bd
000002d0: 26e5 a1bc 5e78 ff3c bb37 a43d 9078 c63d
000002e0: 45b3 a83d 60e7 0c3d b9a4 103d 8487 c63d
000002f0: 74b4 b2bc 917e b33c e939 a3bd 8ecd b13c
00000300: 67fa c1bd 6dd4 a6bd d774 debd d132 88bc
00000310: 3de1 72bd b142 e6bd a05c 90bd 8d7b 64bd
00000320: 3873 1cbd ab42 cebd c2e2 723d e37a b43c
00000330: 4364 c2bd 5c1d 193d 3719 93bd a931 b8bd
00000340: b04f c63d bc3f a939 a1a9 9fbc e25c bf3d
00000350: 2bdd d3bd 7288 363b f926 313d d707 973d
00000360: 9db9 1fbd cc8c ea3b 6f82 7b3d 8671 8cbd
00000370: 0656 3fbd cfec 52bd 1de2 66bb 7e51 ccbd
00000380: 66c8 c03d ce55 24bd 386a 3ebd 0f3a d23d
00000390: 605f c53b 2180 39bd f205 89bd 680a c63d
000003a0: 1257 93bd a351 d6bd 78d9 8dbd 4328 813d
000003b0: 0ed0 da3b 1337 ecbd 4254 6a3d 79cf 5c3d
000003c0: 3537 f13d 432f 9a3d 19f2 44bd 66a8 5abd
000003d0: 845e 2ebd d91c 853d bdcf 893d 9055 e0bb
000003e0: 2d67 f93c a32a b63a 587b 83bb 1bde 9d3d
000003f0: 3e9d 6c3d 3e75 9abd 5942 8abc 18a1 37bd

backbone.model.2.0.model.0.bias f4 [8]
-0.07664775 0.10021106 -0.09848522 0.01866365 -0.08805282 0.015296075 -0.04910497 0.045081533
00000000: 7ff9 9cbd 753b cd3d 9eb2 c9bd 83e4 983c
00000010: 0955 b4bd 639c 7a3c 4b22 49bd 6aa7 383d

backbone.model.2.1.model.0.weight f4 [8, 8, 3, 3]
0.0658818 -0.022985106 -0.013924237 0.0005325957 0.085047364 -0.043373827 0.049418937 0.068038374
0.030384745 0.06678351 -0.10222198 0.10291346 -0.09228017 -0.07484755 0.060268126 -0.040787894
-0.017902816 0.117733724 0.004623439 0.07916707 -0.07281416 -0.037870448 -0.038015123 0.020743331
0.015061232 0.09222829 -0.0069175344 0.040654372 0.0038518147 -0.044354964 -0.10485398 -0.0071480633
0.10803009 0.020206505 -0.06515646 0.10630493 -0.03902048 -0.06523803 -0.006939563 0.014492672
0.018500641 0.013107459 -0.0959326 -0.07029715 -0.009434361 -0.048222374 0.067818426 -0.099157006
-0.116905466 0.08162465 -0.0045122276 -0.084512904 -0.07348807 -0.078288995 -0.086393535 0.11590719
0.001195102 -0.1041751 -0.07567249 -0.018259307 0.00620684 -0.030569278 -0.001049583 -0.07990134
0.042145934 -0.01609695 -0.00068969105 -0.039175496 -0.035865746 -0.065106876 -0.065325975 -0.040425543
0.0079071 -0.029555183 0.06949913 0.0645936 0.059042454 -0.0041942997 -0.08160935 0.069146104
-0.09904241 -0.088928685 0.11722868 -0.03268672 0.089432366 -0.008269788 0.021942085 0.079778306
-0.052781116 0.055569537 0.011396143 0.015805714 -0.013168151 0.06936583 -0.11514952 0.00051524525
-0.09994438 -0.034839723 -0.018684639 -0.017441615 0.051660545 0.04474894 0.0109539945 -0.082601994
0.041140817 0.07843827 0.08212809 0.06809913 -0.043875545 -0.0796336 0.05372841 -0.02305906
0.036162823 0.0034197671 0.10578549 -0.076895565 0.020238847 -0.029042635 0.01207791 -0.0710071
0.09648175 0.011789134 -0.11397647 0.11245607 -0.014947914 -0.0073392414 0.036154523 0.06115648
0.07723815 0.06927174 -0.09937807 0.0869749 0.0015547411 0.11777614 -0.10158181 -0.11773104
-0.052707177 -0.08335521 -0.09280357 0.116936095 -0.10430082 -0.061849207 -0.11280202 -0.009777198
-0.0021159966 0.09557556 0.05912641 -0.032189824 -0.03334952 -0.018803816 -0.017289635 0.09120948
0.10529133 -0.09983818 -0.07526517 0.0340061 -0.063610286 0.06261722 -0.061445244 0.050986126
-0.05827284 0.03305281 -0.021764478 0.07236962 0.05732442 0.036732595 -0.07693182 -0.06502554
0.07019128 0.07649934 0.07819818 0.04770936 0.09510161 0.08010298 -0.11573116 -0.05797326
0.011601398 0.07260257 -0.10725683 -0.11417774 -0.06755519 0.06592943 0.00924279 0.100485474
-0.035505474 -0.019045515 -0.097104356 0.00072696287 0.0053624418 0.10817629 -0.08865783 -0.042692777
0.009564441 0.043345112 0.10098867 0.068857946 -0.09396742 0.04073008 -0.002007314 0.10468005
-0.01932603 -0.030738976 0.002173555 0.015403591 0.05362324 0.021102408 -0.048881717 0.012520143
0.012876283 -0.06680585 0.005664396 0.010255129 -0.10951637 0.0922223 -0.06577825 0.05794124
-0.08809381 0.09696196 0.08338886 -0.046012275 -0.012842609 0.021453196 0.10087996 0.09746604
0.050692882 0.014868116 -0.08572124 -0.04864029 -0.024858057 0.01941732 -0.05104932 -0.1065755
-0.044801045 -0.015698325 -0.09048844 0.07972252 0.114819646 0.09780411 0.0006687862 0.018013746
0.017699063 0.07119694 -0.026916157 0.022952823 0.06357154 0.08475901 -0.01057914 0.0608444
0.115011476 0.103967674 0.008349797 -0.10758468 -0.0897219 -0.11036391 -0.058015164 0.047533497
00000000: 0aed 863d 434b bcbc 7c22 64bc e49d 0b3a
00000010: 502d ae3d c1a8 31bd 836b 4a3d b457 8b3d
00000020: 6ee9 f83c cbc5 883d c259 d1bd 4bc4 d23d
00000030: 63fd bcbd ac49 99bd b6db 763d 3511 27bd
00000040: eda8 92bc 611e f13d 3880 973b 5822 a23d
00000050: 971f 95bd 0b1e 1bbd bfb5 1bbd ebed a93c
00000060: 63c3 763c 30e2 bc3d 7cac e2bb 3385 263d
00000070: ba6e 7c3b 8dad 35bd afbd d6bd 4d3a eabb
00000080: e13e dd3d 1d88 a53c c070 85bd 66b6 d93d
00000090: f0d3 1fbd 849b 85bd 4665 e3bb ac72 6d3c
000000a0: a88e 973c abc0 563c 5078 c4bd f4f7 8fbd
000000b0: 9492 1abc d384 45bd 63e4 8a3d d412 cbbd
000000c0: 226c efbd d32a a73d 4fdb 93bb 1a15 adbd
000000d0: ea80 96bd fb55 a0bd 18ef b0bd c060 ed3d
000000e0: f8a4 9c3a c159 d5bd 2efa 9abd 8b94 95bc
000000f0: bf62 cb3b 6c6c fabc 2992 89ba 50a3 a3bd
00000100: 37a1 2c3d c0dd 83bc 62cc 34ba 7c76 20bd
00000110: f6e7 12bd c156 85bd a0c9 85bd 4195 25bd
00000120: c88c 013c b61d f2bc 8f55 8e3d a649 843d
00000130: 80d6 713d 5670 89bb ce22 a7bd 799c 8d3d
00000140: bfd6 cabd 3e20 b6bd 9715 f03d 83e2 05bd
00000150: 5128 b73d 017e 07bc e3bf b33c cf62 a33d
00000160: 0331 58bd e29c 633d e3b6 3a3c fc7a 813c
00000170: 3abf 57bc ac0f 8e3d 83d3 ebbd 8611 073a
00000180: a4af ccbd 19b4 0ebd 8710 99bc b8e1 8ebc
00000190: 029a 533d aa4a 373d 6278 333c 3c2b a9bd
000001a0: 4683 283d 3ea4 a03d c632 a83d 8f77 8b3d
000001b0: d8b6 33bd f116 a3bd 5212 5c3d 5be6 bcbc
000001c0: 781f 143d 2c1e 603b 10a6 d83d 6c7b 9dbd
000001d0: f0cb a53c d2ea edbc 6de2 453c 2c6c 91bd
000001e0: 3998 c53d 3627 413c 7f6c e9bd 5e4f e63d
000001f0: 18e8 74bc 057e f0bb c416 143d 387f 7a3d
00000200: 092f 9e3d 58de 8d3d bb86 cbbd e51f b23d
00000210: 74c8 cb3a 9e34 f13d 200a d0bd f91c f1bd
00000220: 7be3 57bd 23b6 aabd cc0f bebd 317c ef3d
00000230: ab9b d5bd 9855 7dbd bf04 e7bd 8a30 20bc
00000240: 88ac 0abb 1fbd c33d 892e 723d 7ad9 03bd
00000250: 8299 08bd 760a 9abc fea2 8dbc 09cc ba3d
00000260: fba2 d73d f677 ccbd a024 9abd fb49 0b3d
00000270: 1c46 82bd 753d 803d 02ae 7bbd d4d6 503d
00000280: 80af 6ebd 6262 073d 6b4b b2bc 8636 943d
00000290: 03cd 6a3d eb74 163d 6e8e 9dbd 1c2c 85bd
000002a0: 72c0 8f3d b0ab 9c3d 5e26 a03d e46a 433d
000002b0: a2c4 c23d 080d a43d 7504 edbd 5e75 6dbd
000002c0: ca13 3e3c a8b0 943d 78a9 dbbd 05d6 e9bd
000002d0: 605a 8abd 0206 873d 126f 173c 54cb cd3d
000002e0: 306e 11bd 5705 9cbc a6de c6bd a791 3e3a
000002f0: 6cb7 af3b 888b dd3d 3d92 b5bd 9fde 2ebd
00000300: 2cb4 1c3c a58a 313d 26d3 ce3d 6505 8d3d
00000310: fe71 c0bd 96d4 263d 248d 03bb 7e62 d63d
00000320: 9f51 9ebc 4ed0 fbbc 3472 0e3b 585f 7c3c
00000330: 0ba4 5b3d f5de ac3c 3238 48bd 4921 4d3c
00000340: 0cf7 523c 81d1 88bd 669c b93b 2105 283c
00000350: 1e4a e0bd 0cdf bc3d bfb6 86bd cb53 6d3d
00000360: 876a b4bd fe93 c63d c7c7 aa3d 5e77 3cbd
00000370: ce69 52bc 9dbe af3c 279a ce3d 469c c73d
00000380: 57a3 4f3d 6699 733c 9e8e afbd 0a3b 47bd
00000390: 20a3 cbbc 1211 9f3c 1719 51bd 4144 dabd
000003a0: 4d81 37bd c699 80bc 0152 b9bd 9045 a33d
000003b0: 9026 eb3d 854d c83d 7b51 2f3a 9091 933c
000003c0: a0fd 903c b4cf 913d 467f dcbc 8f07 bc3c
000003d0: cc31 823d 2296 ad3d 2154 2dbc fa37 793d
000003e0: 238b eb3d 01ed d43d 96cd 083c 5b55 dcbd
000003f0: 1ec0 b7bd 7906 e2bd 4fa1 6dbd 7cb2 423d

backbone.model.2.1.model.0.bias f4 [8]
-0.03942006 0.10822088 0.08638622 0.007212899 0.019461041 0.086137705 0.07385027 -0.04310548
00000000: ee76 21bd e9a2 dd3d 42eb b03d 2f5a ec3b
00000010: c36c 9f3c f768 b03d cf3e 973d 5f8f 30bd

backbone.model.3.0.model.0.weight f4 [16, 8, 3, 3]
0.013754174 0.093692265 0.075076185 0.022573262 0.018638333 -0.07605303 -0.08351693 0.08032474
0.07560379 0.071942285 -0.113225736 0.083505325 -0.055110347 -0.057586294 0.0003817521 0.087115094
0.005563707 0.107406974 -0.05246648 0.052850716 0.07095666 -0.05520352 -0.044436365 -0.009134304
0.059683505 -0.026637988 -0.029343423 -0.027877808 0.10627317 -0.03810043 0.0021179914 0.04598245
-0.059182353 0.06841772 0.06124055 -0.027921613 -0.095836654 0.04435804 -0.05334247 -0.050348315
-0.040324926 -0.11129006 -0.00011687321 0.024534496 -0.0330033 0.105352215 -0.06808333 -0.060491685
-0.09799704 0.039385922 -0.055958636 0.05513679 -0.046899777 0.08005182 0.026268065 -0.02212836
0.082731284 0.03351262 0.017525965 -0.019678125 0.09418788 0.025449924 -0.07749597 0.013464063
0.016052246 0.0008035297 -0.05008695 -0.028719803 -0.03171795 0.043892134 0.007557787 -0.10366955
0.09199182 -0.061864465 0.024283469 0.013857083 -0.10906025 -0.001132809 0.05949802 -0.054368
-0.014488401 0.03313231 -0.094706215 0.023881136 -0.05383188 0.043652616 -0.005792789 -0.08764471
-0.055941373 0.074953 -0.06955864 0.10595179 0.0522217 0.100263365 0.06825331 -0.00963675
-0.08202649 -0.09620482 0.05844047 0.007758055 0.021030195 -0.02823142 -0.036406968 -0.004331333
-0.08108664 0.022815606 0.046794016 -0.097162575 -0.07488729 0.10285599 0.048229624 -0.057418942
0.113073364 0.08310829 -0.05864525 -0.021521024 -0.010596758 0.1111056 0.09841926 0.00053797645
0.06086845 0.0059670946 -0.07983345 0.10701297 0.0040658927 -0.03180151 -0.03173811 0.06687442
-0.09046849 0.008647873 -0.096725546 -0.022860479 -6.484995e-05 0.041046888 0.044928104 -0.09899511
0.060615852 0.033668548 0.081007734 -0.099075496 -0.07395279 0.038734287 0.07277364 0.062415577
0.10891492 0.027304035 -0.084835775 0.081533946 0.10442458 0.07648424 -0.1099838 0.02857815
-0.008789248 -0.069324166 0.05937527 0.09177801 -0.041456822 -0.09445497 0.11193342 -0.0055709705
0.112866014 0.11442622 -0.022023723 0.07552555 0.006204255 -0.026185935 -0.11610769 -0.010440575
0.00048849604 0.088300966 0.0033851645 -0.02065329 0.04613501 -0.10047581 -0.06374398 -0.10951572
0.046057317 -0.08371659 -0.032896373 -0.084992856 -0.020321567 0.11316197 0.028133696 0.090137355
-0.0828883 -0.055371013 -0.098216996 0.007894653 -0.114584595 0.040295746 -0.116053276 0.016628955
0.0682114 0.0808742 -0.0025080044 -0.01056606 -0.07912154 0.05452497 -0.105265826 -0.09451407
-0.039343633 -0.07192436 0.093510985 0.07785702 -0.06091622 0.08385121 0.08300166 0.043154046
0.08309522 -0.06335979 -0.11388316 0.09621137 -0.0245232 0.06443972 0.09048868 -0.007989427
-0.0195152 0.09682442 -0.10897885 -0.07661797 -0.07671245 0.052050963 -0.013071901 0.044679254
0.10538515 0.113663614 -0.0630735 -0.04603096 0.021376025 -0.028439654 0.03651176 0.070920065
0.038494714 -0.02450984 0.10901926 0.066060744 0.018685158 0.10409565 -0.03875775 -0.020365063
-0.11666588 0.089172505 -0.013396277 0.06903318 0.075684175 0.10265259 0.023421679 0.044529717
0.086341694 -0.0408255 -0.044847466 0.06655386 -0.09432435 0.018690161 0.1161635 0.0885142
00000000: 3059 613c bbe1 bf3d 8bc1 993d 90eb b83c
00000010: 6baf 983c b1c1 9bbd ed0a abbd 4c81 a43d
00000020: 29d6 9a3d 7a56 933d e5e2 e7bd d704 ab3d
00000030: 63bb 61bd 9bdf 6bbd e625 c839 6669 b23d
00000040: c24f b63b 30f8 db3d 17e7 56bd fe79 583d
00000050: ba51 913d 161d 62bd e802 36bd 0ca8 15bc
00000060: b176 743d e937 dabc 9e61 f0bc 0060 e4bc
00000070: bfa5 d93d 320f 1cbd 00ce 0a3b 1858 3c3d
00000080: 3269 72bd 971e 8c3d 5fd7 7a3d debb e4bc
00000090: 0246 c4bd c7b0 353d a27d 5abd 093a 4ebd
000000a0: c02b 25bd 0bec e3bd d419 f5b8 91fc c83c
000000b0: 782e 07bd e7c2 d73d 466f 8bbd 21c6 77bd
000000c0: acb2 c8bd 2253 213d e234 65bd 1dd7 613d
000000d0: fb19 40bd 35f2 a33d 2030 d73c 8946 b5bc
000000e0: 056f a93d 8744 093d 9d92 8f3c 0534 a1bc
000000f0: 93e5 c03d 5c7c d03c 35b6 9ebd 6098 5c3c
00000100: 0080 833c f7a3 523a f927 4dbd cb45 ebbc
00000110: aeea 01bd 3dc8 333d 50a7 f73b b350 d4bd
00000120: 3566 bc3d 9865 7dbd 20ee c63c d208 633c
00000130: fb5a dfbd c37a 94ba 32b4 733d fbb0 5ebd
00000140: c260 6dbc bfb5 073d 55f5 c1bd 5fa2 c33c
00000150: d17e 5cbd 16cd 323d 70d1 bdbb 127f b3bd
00000160: c822 65bd f580 993d c374 8ebd 41fd d83d
00000170: 6ce6 553d e156 cd3d 64c8 8b3d 76e3 1dbc
00000180: 81fd a7bd 0807 c5bd 465f 6f3d 4837 fe3b
00000190: 8447 ac3c 9445 e7bc 791f 15bd dbed 8dbb
000001a0: c110 a6bd cbe7 ba3c 15ab 3f3d 2cfd c6bd
000001b0: 825e 99bd 29a6 d23d 6d8c 453d 2030 6bbd
000001c0: 0293 e73d ae34 aa3d 0036 70bd dc4c b0bc
000001d0: 069e 2dbc 558b e33d 0990 c93d fd06 0d3a
000001e0: 3251 793d 9e87 c33b b87f a3bd 9e29 db3d
000001f0: 2e3b 853b 4d42 02bd d2ff 01bd 75f5 883d
00000200: 8b47 b9bd cfaf 0d3c 0b18 c6bd e645 bbbc
00000210: 0d00 88b8 c820 283d 8806 383d f3bd cabd
00000220: 5448 783d 08e8 093d 62e7 a53d 18e8 cabd
00000230: 8f74 97bd d8a7 1e3d 590a 953d 7aa7 7f3d
00000240: c90e df3d b6ac df3c 61be adbd 45fb a63d
00000250: 8edc d53d c5a3 9c3d 303f e1bd b91c ea3c
00000260: c700 10bc d4f9 8dbd 7c33 733d 1cf6 bb3d
00000270: a1ce 29bd 9b71 c1bd 593d e53d b08c b6bb
00000280: 4c26 e73d 4b58 ea3d 186b b4bc 24ad 9a3d
00000290: 104d cb3b e383 d6bc dec9 edbd f20e 2bbc
000002a0: 6a0e 003a 23d7 b43d a3d9 5d3b 1731 a9bc
000002b0: 10f8 3c3d 43c6 cdbd 348c 82bd c749 e0bd
000002c0: 99a6 3c3d 9b73 abbd 59be 06bd bc10 aebd
000002d0: 6a79 a6bc 77c1 e73d a378 e63c ef99 b83d
000002e0: 57c1 a9bd b7cc 62bd fe25 c9bd 9358 013c
000002f0: 54ab eabd 270d 253d 57ad edbd 7239 883c
00000300: 6bb2 8b3d 5fa1 a53d 555d 24bb 451d 2dbc
00000310: 790a a2bd 9355 5f3d 9c95 d7bd 9890 c1bd
00000320: ca26 21bd 144d 93bd b082 bf3d 8073 9f3d
00000330: 4983 79bd 2fba ab3d c6fc a93d 4cc2 303d
00000340: d42d aa3d c7c2 81bd 933b e9bd 770a c53d
00000350: e1e4 c8bc f9f8 833d 2152 b93d 16e6 02bc
00000360: 57de 9fbc e24b c63d 4e30 dfbd e2e9 9cbd
00000370: 6b1b 9dbd 6433 553d 872b 56bc 9801 373d
00000380: 2bd4 d73d 78c8 e83d ae2c 81bd f68a 3cbd
00000390: c61c af3c 47fa e8bc 5b8d 153d 8a3e 913d
000003a0: a2ac 1d3d dcc8 c8bc 7d45 df3d db4a 873d
000003b0: 9e11 993c 1a30 d53d 72c0 1ebd a2d4 a6bc
000003c0: 85ee eebd 13a0 b63d 0f7c 5bbc 4561 8d3d
000003d0: 4e00 9b3d 853b d23d d2de bf3c cb64 363d
000003e0: ead3 b03d a438 27bd fab1 37bd 644d 883d
000003f0: 202d c1bd 1c1c 993c 21e7 ed3d ef46 b53d

backbone.model.3.0.model.0.bias f4 [16]
0.07537646 -0.08275161 0.020853296 0.094955176 -0.112413034 0.1079444 -0.029071063 -0.07410298
-0.085002996 0.018276252 0.009888752 -0.029344128 0.04670539 -0.0080871675 0.106242575 0.028886696
00000000: f95e 9a3d ad79 a9bd 88d4 aa3c dc77 c23d
00000010: ce38 e6bd f411 dd3d 7026 eebc 4ec3 97bd
00000020: 0d16 aebd 14b8 953c 6f04 223c 1963 f0bc
00000030: 274e 3f3d 0a80 04bc b595 d93d cba3 ec3c
