software/logs/hyper_parameter_tuning/custom_model_hp/version_14/checkpoints/epoch=0-step=20.ckpt (torch, 195567 bytes, 54 tensors)

backbone.model.0.0.model.0.weight f4 [4, 2, 5, 5]
00000000: cb7e 8f3d c11e 693c 9e11 acbd 0c4d c5bd
00000010: d3a8 8a3d c39b bc3d 312f 0dbe 7165 fdbd
00000020: 2d8f 5fbd a3bf 20bb 8230 c43d cd05 0b3e
00000030: 6cd7 f93d 363d 76bd 75f1 7bbd 2b19 763c
00000040: b483 eabc 5d52 023e 18ac a23d ad32 07be
00000050: a40b 36bc d35b 31bd 6410 003d 7b69 5a3b
00000060: 94d8 98bd c7b2 753c f3ad a13d 93d4 d6bd
00000070: 62d1 2dbc 25d3 94bd 0c60 aa3a 8bff 7fbd
00000080: 417f 9f3d 565e 1bbd bf1f 7b3c 634d a13d
00000090: c73c f7bc b396 da3d 0f03 b73d d348 b8bc
000000a0: c608 923d d9cb 19bd 1bc2 a6bd ace9 e43d
000000b0: 8a93 40bd 7930 acbc 1363 c4bd af96 073e
000000c0: 054e af3c 8c0e 9cbc c70c e73c 7b8d 073e
000000d0: 2edd 9cbd 2e6c 4a3b 888c 6bbd 764b d53c
000000e0: add7 85bc abf5 77bd 7cca a8bd d96e 503d
000000f0: d711 c03c 59cf a63d cec8 4b3d 7c6c 3bbd
00000100: 23e6 453d 0eba 063d c6e7 b83d 0caf 0ebe
00000110: f4d3 0dbc 0688 ecbd 42b9 093e 6b0a 1dbd
00000120: 8190 243d 1808 a5bd 8563 ccbd 2dd5 163d
00000130: 84bf 7f3d bde1 d33c 90f2 6f3d 24e0 903d
00000140: 18d7 8c3c df59 efbd eb4a ef3d ed20 ef3b
00000150: 2020 bc3d 00a0 f83d 60e8 aa3a d8df 3abd
00000160: 8fc2 db3d 3d52 8b3d 6489 44bd 9951 fbbc
00000170: 760d d03d 3629 083e 67fb 993c 04b0 373b
00000180: be69 a73c 5f4d 943d 5571 423d 377e c63c
00000190: d66c c8bd d575 ad3d 2ec9 f83c 48b6 013e
000001a0: 4370 c33d adfd 94bd 598a d8bb fd2c ae3c
000001b0: b535 0a3e dae7 a2bd 49ea 12bd a0a8 053e
000001c0: d7c7 ecbd 979f 0b3e efdb 12bd b8ce 083e
000001d0: 6e73 08be ca6b af3b af2e fdbb f039 afbc
000001e0: 19d1 3abd 21ec 03be 3862 bf3d 2e20 47bb
000001f0: 77fd de3d 1d8b 01be 3c10 da3d 750e 883d
00000200: 424c d3bb b479 153d f773 f13d d5d5 e1bc
00000210: d06c fa3c c631 ff3d 0cf6 e4bd ad45 af3d
00000220: 2f3d 2ebd cea3 d4bc 7028 b63d 2b20 9ebb
00000230: 9b85 2ebd 728e 03be c6ed 0c3e d28a c53d
00000240: 352a f6bd a452 a33d c3c2 7c3d 6a6a 10be
00000250: a3dc 8bbd 6de6 023e 6ea2 f9bd 8b58 d2bd
00000260: c51a dd3c 7bb8 e63d 42e6 ef3d 5cc5 0cbe
00000270: d49d cd3d 602c 92bd 027e f5bd 9851 94bd
00000280: f351 b3bd 59f1 f4bd 84ab e73d 20fa 9d3c
00000290: 0549 bfbd 7387 753d 5c9f e03d 4cf5 f6bd
000002a0: 062a 493b 0b6c 4f3b dc13 99ba bc75 0d3e
000002b0: 4e7e bbbc 09f8 f9bb da3e 0bbe 0c8b 3fbd
000002c0: 6000 063e c0b5 06be f253 b6bc a842 29bb
000002d0: a800 f83d aa64 b1bb 4a8a 693d de83 003e
000002e0: da28 a5bd 0ec9 bd3d d76d c1bb a3c5 e13d
000002f0: cfdd f1bb 7d27 a8bd e09e f33d ef1a ee3d
00000300: ad54 80bc 767e f2bd 0b0c 103e cb5a 37bd
00000310: 3025 763d 9cf0 e73b 4393 3c3d e46d 6fbd
0.07006606 0.014228524 -0.08401798 -0.09633836 0.06770482 0.09209397 -0.13787533 -0.12372864
-0.054579902 -0.0024528287 0.09579565 0.13576432 0.121992916 -0.06011697 -0.06150957 0.015020649
-0.028627254 0.12726732 0.079429805 -0.13202925 -0.011111174 -0.04330046 0.03126563 0.0033327031
-0.07463184 0.014996237 0.07894506 -0.10489764 -0.010609003 -0.07266835 0.0012998595 -0.062499564
0.07787944 -0.037931763 0.015327393 0.078760885 -0.030180348 0.10673275 0.0893613 -0.022495663
0.0713058 -0.03754792 -0.081424914 0.11177382 -0.047015704 -0.021019207 -0.095892094 0.13241075
0.021399507 -0.019049905 0.028204335 0.13237564 -0.07659374 0.0030887234 -0.057507068 0.02603696
-0.016338194 -0.06053702 -0.08241746 0.050886963 0.023446007 0.08145017 0.04975205 -0.045757756
0.04831518 0.03289228 0.09028582 -0.13933963 -0.008656491 -0.11549382 0.13449576 -0.038340013
0.040176872 -0.080581844 -0.09979919 0.036824394 0.062438503 0.025864476 0.058580935 0.070740014
0.017192408 -0.116870634 0.11684211 0.007297626 0.09185815 0.121398926 0.0013039224 -0.04562363
0.107304685 0.06802795 -0.04798259 -0.030678557 0.101588175 0.1329697 0.018796636 0.0028028497
0.020436164 0.0724132 0.047471363 0.024230106 -0.09786384 0.0846974 0.030369367 0.12667191
0.095428966 -0.07274947 -0.006608289 0.021261686 0.1349705 -0.079543784 -0.035867963 0.13052607
-0.11561554 0.13635097 -0.035854276 0.13360107 -0.13325283 0.0053534256 -0.0077265124 -0.021389931
-0.045609567 -0.12883045 0.093449056 -0.003038417 0.10888188 -0.12650724 0.10647628 0.066433825
-0.0064482996 0.03649302 0.11789697 -0.027567783 0.030569464 0.124606654 -0.11179742 0.085582115
-0.042538818 -0.025957014 0.088944316 -0.004825612 -0.042607885 -0.12847307 0.13762578 0.096456185
-0.12019769 0.07974747 0.061709177 -0.14103094 -0.068291925 0.12783213 -0.12189184 -0.102707945
0.026990304 0.112656556 0.1171384 -0.13747162 0.10039869 -0.0713737 -0.11986925 -0.07242125
-0.08755865 -0.11960096 0.11312011 0.019284308 -0.09340099 0.059943628 0.109678954 -0.120585054
0.0030695214 0.0031650092 -0.0011678892 0.13814443 -0.022887375 -0.007628445 -0.13598195 -0.046763465
0.1308608 -0.1315527 -0.022256825 -0.0025827084 0.121095 -0.0054136114 0.05701665 0.12550303
-0.080644324 0.09266864 -0.0059029865 0.11024024 -0.007381178 -0.08210657 0.118955374 0.11626231
-0.015665377 -0.11840527 0.14067094 -0.04476432 0.06009406 0.0070782434 0.046038877 -0.05845441

backbone.model.0.0.model.0.bias f4 [4]
00000000: b58f 063e fd64 d33d c16a e33c 8cfe 06be
0.13140757 0.10321996 0.027760865 -0.1318304

backbone.model.0.1.model.0.weight f4 [4, 4, 5, 5]
00000000: 4d79 593d 800b 37bc 8ffa 92bd 77c8 253d
00000010: bf23 b3bd 4d6e 11bc 70c6 b0bd d314 84bd
00000020: 0755 5a3d 886c aa3d 60ce 723d 7258 ab3d
00000030: daa4 243d 805e d03b 337c 1abd 38f3 a03d
00000040: 0744 3e3d 10b8 1abd e0e6 b13d 3d36 5bbd
00000050: 0794 94bd e73a 273c 5b2e 80bd 1b2a c33d
00000060: 1a03 463c e87a 8cbd baab ec3c d059 c2bd
00000070: 4071 e93c a7e5 bdbd 9372 903d 9a07 f5bc
00000080: f311 83bc d05f 32bd 2d7e d13c 4b24 9e3d
00000090: 9a31 22bd 0da9 16bd c749 e43c 3b31 85bd
000000a0: a379 96bd cbff 9a3d a801 8cbd 90bd 8c3d
000000b0: 7a2b 833d d02e c2bd b8d1 8f3d 3355 fe3a
000000c0: c058 b53d 1ac4 00bd 473b d43c 137e dfbc
000000d0: 07af 0fbd e2d4 c53d ead7 863d adf7 f6bc
000000e0: 82ea a3bd 3d3f 343d cd34 4dbb 0df0 943d
000000f0: 67cb 523d 601c b83c 80d2 8dbb 7d8e 0abd
00000100: 03e9 21bd 7325 373d 0ad6 b6bd 12ba ac3d
00000110: 43f3 3b3d 7306 5d3c c309 99bd 4aea c4bd
00000120: 9aa3 6e3d a301 c3bd 37ea 91bd e015 96bc
00000130: 8abf b43d a5cc c7bd 476d bc3d e37b 9ebd
00000140: 6853 8f3d 6dc7 97bd fa29 e5bc f0e8 04bd
00000150: 8d9e 72bc 800d a9bc 2aee 363d d054 bb3d
00000160: 5a5b 153c 92e2 81bd eb23 8e3d af30 883d
00000170: 2f5f 8d3d 3fa8 a5bd 8796 333d 5a5d 87bc
00000180: bb03 c9bd b363 513c 67f2 dcbc 4d6c 483c
00000190: e0f9 f5bc ed96 9bbc 3323 f93a c03c 3b3c
000001a0: 48cf afbd 9a5f bbbc 678b 72bd cfdc c6bd
000001b0: 137b d43c 33a5 ad3d 5d6c 1abd f7bb 93bd
000001c0: 434f 08bd 35e8 c43d 977c 983d 6a77 883d
000001d0: 4d16 b0bb 001e 943d 60b8 61bd 2346 b13d
000001e0: cda5 a33b 50ed 98bd 2ac6 323d 70e0 17bd
000001f0: 67c4 03bb 00e7 7a3c 7590 c13d 074a 1d3d
00000200: 1a64 883c 9ab5 07bc ede1 303d 675b b93b
00000210: 83a8 c23d 3017 64bd 57cb 193d 4d83 63bd
00000220: 2a82 2c3d c04a 763d 9d20 7e3d 8396 92bd
00000230: 405f 2f3c 0371 79bd 034b 88bd 4fde cabd
00000240: 3f39 88bd 9f3b ae3d 125d a53d 4033 463d
00000250: 6007 eb3c 43ec 463d ed7b 69bd 8d7e 9dbc
00000260: 82e9 923d 1a3a 44bd b3ba c43d fd97 b2bd
00000270: e722 8e3d f3d7 52bd 6225 863d 6770 413b
00000280: ed0e 1fbd fa4f 13bd 7710 7e3d f385 363d
00000290: b342 133d 8dbb 52bc 4dfa 8bbd 986c cabd
000002a0: bd0e 22bd e7f8 59bc 705d b03d 3a31 61bd
000002b0: 4d16 cabb ca20 183d 276a 7cbd 9384 69bd
000002c0: 7f79 b53d e2c9 a63d a757 933c cd81 8bbd
000002d0: 67d0 dbba 23ad 6abd 6023 b53d a7f2 c8bc
000002e0: d04a 023d 672f 173d a06c 9a3d 65b3 bb3d
000002f0: b32c c83d 9d53 88bd 7f7e b33d a757 f5bc
00000300: 0559 a3bd 2314 6bbd 77ad 06bd 2d19 763d
00000310: 009f 14bd e005 3bbd adb3 5d3d e790 1abc
00000320: 67d3 42bb 8061 e9bb 7d9a c5bd ca07 b1bd
00000330: 2d7b 77bd 3300 3fbb 0fde c5bd ba40 30bd
00000340: 0d56 eebc 8aef 28bd 7312 f53c 5079 1abd
00000350: ed70 aabc 6d21 97bc f3a7 2abd 0395 59bd
00000360: 6884 bbbd e79f 71bc e773 8ebd 2043 e63c
00000370: 9818 8e3d c0be 43bc c09a 9f3c ca1c 833d
00000380: 4d08 c8bd 835d 1abd 1256 99bd 6031 c0bc
00000390: e545 92bd 439f 2dbd 879f ff3c 0789 b1bd
000003a0: b340 d33c f37b 99bd 2ae3 4d3d 8d11 fa3c
000003b0: 376d 32bd c5e3 b4bd 73e8 1ebd fa46 2ebd
000003c0: 8abc bdbd b3db 2d3c f3c0 b83d 1a07 2c3c
000003d0: e067 c03d 80dc 9e3b 1d16 51bd 950a bc3d
000003e0: 7ae8 8ebc 2a78 aebd 33bd 983a a78a 4f3c
000003f0: 43f5 833d 9003 81bd cd20 34bb 2a67 77bd
0.053094197 -0.011172175 -0.071766965 0.04047438 -0.087470524 -0.008876395 -0.08631599 -0.064492844
0.053303745 0.08321482 0.059278846 0.08366479 0.040196277 0.0063589215 -0.0377161 0.0785889
0.046451595 -0.037773192 0.08686614 -0.053518523 -0.072547965 0.0102069145 -0.062588416 0.09529515
0.0120857 -0.0685938 0.02889048 -0.094897866 0.028496385 -0.09272318 0.07053103 -0.029910851
-0.01599977 -0.043548405 0.02557286 0.07721766 -0.039598085 -0.036782313 0.027867211 -0.065035306
-0.07347419 0.0756832 -0.068362534 0.06872094 0.06404777 -0.09481585 0.070224226 0.0019404053
0.08854818 -0.031437017 0.025907172 -0.027281797 -0.03507903 0.09659745 0.06584151 -0.030147398
-0.08003713 0.04400562 -0.003131199 0.072723486 0.05146351 0.022474468 -0.004328072 -0.033827294
-0.039528858 0.04471345 -0.089275435 0.084339276 0.04588629 0.013490307 -0.07472565 -0.096149996
0.05826149 -0.095217966 -0.07124751 -0.018320978 0.08825596 -0.0975583 0.092005305 -0.07738473
0.0699833 -0.07411084 -0.027974118 -0.03244871 -0.014808309 -0.02063632 0.044660725 0.09147036
0.009116018 -0.06342043 0.069404446 0.06649911 0.069029205 -0.08088731 0.043844726 -0.016524006
-0.09815165 0.012780118 -0.026971055 0.012232852 -0.030026376 -0.018992865 0.0019007683 0.011428058
-0.08584458 -0.022872735 -0.059214976 -0.09710085 0.025937593 0.08478775 -0.037701 -0.07213586
-0.033278715 0.096146025 0.074456386 0.066634014 -0.005373752 0.072322845 -0.055107474 0.08655956
0.00499413 -0.07467139 0.043646015 -0.037079275 -0.0020106079 0.015313864 0.09451381 0.038400676
0.016649295 -0.008283043 0.04318421 0.005656648 0.09504797 -0.055686176 0.037547436 -0.05554514
0.04211632 0.06012988 0.06204282 -0.07157614 0.010703862 -0.060898792 -0.06654932 -0.09905683
-0.06651544 0.085074656 0.080743924 0.04838872 0.02869004 0.04856516 -0.05700295 -0.019225383
0.07173444 -0.047906972 0.096059225 -0.08720396 0.06940251 -0.051475476 0.06550099 0.002951646
-0.038832594 -0.035964943 0.06202742 0.044561338 0.03595228 -0.012862098 -0.068348505 -0.09883994
-0.039564837 -0.013303972 0.08611572 -0.054978587 -0.0061672092 0.037140645 -0.061624672 -0.0570112
0.08861064 0.08143975 0.017986132 -0.06811867 -0.0016770483 -0.057294022 0.08844638 -0.024529768
0.031809628 0.03691044 0.0754025 0.09165076 0.09774151 -0.06656573 0.087643616 -0.029949022
-0.079759635 -0.05739225 -0.032880273 0.060082603 -0.036284447 -0.0456599 0.05412643 -0.0094339615
-0.0029728056 -0.0071222186 -0.09648607 -0.08644064 -0.060420204 -0.0029144406 -0.09661495 -0.043030478
-0.029093767 -0.041244067 0.029916024 -0.03771335 -0.0208058 -0.018448556 -0.041664075 -0.053120624
-0.09156114 -0.014747596 -0.069557 0.02810818 0.06938285 -0.011947334 0.01948297 0.064019755
-0.09767208 -0.037686836 -0.0748712 -0.023461044 -0.071422376 -0.042388212 0.031203998 -0.08668714
0.025787687 -0.074943446 0.05026547 0.030525947 -0.043561187 -0.08832506 -0.0387959 -0.042548157
-0.092644766 0.010611462 0.09021177 0.01049974 0.093948126 0.004848063 -0.05104648 0.09181706
-0.017444838 -0.08519013 0.0011653065 0.012667335 0.06443264 -0.062995076 -0.002748537 -0.06040112

backbone.model.0.1.model.0.bias f4 [4]
00000000: 9a3c 23bb 2d83 c73d b352 913b 4fdc c9bd
-0.0024907948 0.09741817 0.0044349073 -0.09856474

backbone.model.1.0.model.0.weight f4 [8, 4, 5, 5]
00000000: 3da7 2b3d cba9 ca3d 2b3e ab3d 25de af3d
00000010: ed21 e0bc 83d0 103d f0a2 493d ab80 bd3d
00000020: c0a8 863c 0dac 43bc fdd1 423d d8e5 c63d
00000030: c714 b73c 63ac 5fbd 9a0b 7b3d 8d79 43bd
00000040: 9a55 c5bd 3300 e03b d7bd 973d 42a6 9abd
00000050: 9a65 52bd 1003 6abd daf9 49bc f311 533c
00000060: 6029 fcbc f748 97bd 009f 133c d55c be3d
00000070: 9779 59bd 620b a73d 9ae9 c3bd 8097 ae3c
00000080: 33f8 5d3b 6d55 9fbd df7d c33d 0ff3 af3d
00000090: 9b67 86bd 379e 873d f317 af3d fbc8 8fbd
000000a0: 5a14 2c3d b7a7 4ebd 8365 88bd fd0c 22bd
000000b0: 2d07 1abd cbb6 9bbd 13ce 083d 621b 9d3d
000000c0: 4d5a b33c 87be 5e3d ede1 9dbd 1a03 a1bc
000000d0: b396 bd3b 07b5 c3bc 4d68 61bd dfc3 863d
000000e0: 1786 a03d 3347 003a c089 bc3c 3a1a d1bc
000000f0: 07c6 09bd c5ad b8bd 5a35 5abc e7a7 f83c
00000100: 1064 45bd 782e 933d d341 00bd 1a11 2fbd
00000110: 72e3 bc3d 27be 8a3c 23c3 b43d b065 513d
00000120: aaf0 783d bda5 80bd 9d7f 223d 9a3b 88bd
00000130: c7aa ec3c a332 813d 1aef 8cbc cbc9 af3d
00000140: 5a3b 51bc 5ddc 6ebd a067 65bd 9a5f 833c
00000150: 6005 113d f035 bfbd 4810 843d 6769 a8bb
00000160: 8353 603d 33c0 033c 7a4c 94bd 8329 083d
00000170: a0f6 c83d 73c7 973c e372 93bd 523d 83bd
00000180: 3fdd 97bd 7aa9 66bd 4d25 8c3d 2d80 9b3c
00000190: ea85 833d e738 21bc e313 92bd 584e c13d
000001a0: 0b43 bcbd b32d c73c 4fd1 84bd 0011 c43d
000001b0: 4739 67bd fbef a1bd a090 063d ed53 863d
000001c0: e749 fb3c cdbc 80bd 4059 893c 1bcb a63d
000001d0: 0dfc 273c 8d01 ce3c 4d0d db3c cd8b 03bd
000001e0: 80cd 1bbc 8d5c bd3c 2007 8b3c 235c 3c3d
000001f0: b38a be3d aa20 4c3d 175b 21bd e7b7 db3c
00000200: 7851 9ebd 43e9 6abd 7f0b ca3d cd3c 7c3a
00000210: 3bcc 9dbd 1d64 97bd 33f0 06bc 339a c73d
00000220: 3d9d 49bd 1a39 853d 3d38 1cbd 3a3e a0bd
00000230: f0ed 5e3d 4069 cabc 75fb be3d eacc a5bd
00000240: a793 12bd 80f5 a9bc 00f0 513a dafa 47bc
00000250: a715 d3bc f0c5 0a3d c8d5 c5bd f367 cc3c
00000260: d075 593d e044 9dbd e705 0a3c 58d6 a73d
00000270: 4039 393c 4d61 b9bd 4093 cb3c 1020 0dbd
00000280: 2852 86bd 0833 bebd ad23 acbd 8b37 933d
00000290: 4f4f ba3d 330d 41bb 6058 8d3c 50f3 b2bd
000002a0: 8079 503d 2361 c83d 4f8c b03d 335a 353c
000002b0: e71b b2bc c712 a7bd 8f63 c23d cda8 3d3c
000002c0: e7ac dcbb 60f6 b4bd 0020 71ba 704e 2abd
000002d0: b317 48bd cb21 a43d 2dd3 4e3d 407b d13c
000002e0: 208c 57bd b2b3 a43d 67ae 19bc 70e7 bbbd
000002f0: cdff a23c 8a1e 3cbd 0a5a 9a3d 3365 5c3d
00000300: 8d18 223d 8ac6 47bd c795 d9bc 8076 84bd
00000310: ad3a 1ebd 6068 3f3d b040 b03d 63f5 17bd
00000320: 68e9 a53d 3a85 bb3d c7c5 4b3d 73cf 20bd
00000330: 803b 99bc 628f b63d 0076 c9bb 6d75 c0bd
00000340: 0db3 9a3d e386 2abd 7d16 5b3d d389 d0bc
00000350: 9fa1 bdbd b774 5b3d 1317 d63c 8007 9f3c
00000360: 3375 ad3b 7ab6 503d 0845 8a3d cde4 f9ba
00000370: 807c 413d 0d62 42bc 0738 26bd f360 30bc
00000380: 0058 9c3a 8588 903d 2767 febc 9378 6dbd
00000390: 7797 08bd 2a38 99bd af8f 95bd 0b52 cbbd
000003a0: c06e 4fbd e21a 9b3d 632d 21bd 1a67 f4bb
000003b0: 13ad 633d 3a20 7abd 07ba e53c faf2 203d
000003c0: 75f1 aa3d a3de 34bd 8054 2abd 677c f4bc
000003d0: ca5a 2b3d eb9f b9bd 2361 23bd ad4b 323d
000003e0: 2ddb 46bd 48b1 c83d 5f6f af3d add5 35bd
000003f0: d3f5 5ebd 5ab7 c43c eac1 17bd e745 c23d
0.041907538 0.09895667 0.08361467 0.085872926 -0.027359927 0.035355102 0.049227655 0.09253057
0.016437888 -0.011942876 0.04756354 0.09711808 0.022348775 -0.05460776 0.06129036 -0.04772334
-0.09635468 0.0068359612 0.07409256 -0.075512424 -0.051366426 -0.057131827 -0.012327636 0.012882697
-0.030781448 -0.07386964 0.0090100765 0.0929505 -0.053094473 0.08156468 -0.0956604 0.021312475
0.0033869862 -0.077799655 0.095454924 0.085912816 -0.0656273 0.06621974 0.0854949 -0.07020756
0.042011596 -0.050452914 -0.06659987 -0.039563168 -0.0376045 -0.07603224 0.033399653 0.076712385
0.021893645 0.05438092 -0.077091075 -0.0196548 0.005785787 -0.023890032 -0.05503111 0.06580328
0.078380756 0.0004893422 0.023014903 -0.025525201 -0.03363612 -0.09017519 -0.013318384 0.0303535
-0.04819113 0.071865976 -0.031312775 -0.04274092 0.09223069 0.016936375 0.08826282 0.051122367
0.06077639 -0.06281612 0.039672483 -0.06651993 0.028890027 0.06308486 -0.017203856 0.08583411
-0.012770498 -0.058315624 -0.056007028 0.016036797 0.035405517 -0.0933646 0.06448418 -0.005139518
0.054767143 0.008041429 -0.07241149 0.033242714 0.09812665 0.018527722 -0.07199647 -0.0640818
-0.07415246 -0.05631397 0.06843052 0.018982017 0.064220265 -0.009840227 -0.07132699 0.09438771
-0.09192475 0.024313783 -0.06485235 0.09573555 -0.05645111 -0.07907101 0.03285277 0.06558976
0.030674888 -0.06286011 0.01676619 0.08144208 0.010252965 0.025147224 0.02673974 -0.032115746
-0.009509444 0.02311542 0.01697117 0.045986306 0.093037985 0.04983584 -0.03939351 0.02682109
-0.07730383 -0.057351362 0.09865474 0.0009622097 -0.077049695 -0.07392142 -0.008235979 0.09746208
-0.04922222 0.06505032 -0.03813957 -0.07824369 0.054426134 -0.02470839 0.09325305 -0.08095725
-0.035785343 -0.020746946 0.000800848 -0.012205804 -0.02576716 0.033880174 -0.09659916 0.02495191
0.05309087 -0.076791525 0.008424259 0.0819518 0.011305153 -0.09051762 0.024850488 -0.034454405
-0.06558639 -0.09287077 -0.08405242 0.07188328 0.09097158 -0.002945733 0.017254055 -0.087378144
0.05089712 0.09784152 0.08620512 0.011068868 -0.02174182 -0.08157878 0.094916455 0.01157589
-0.0067344788 -0.08836055 -0.0009198189 -0.04157871 -0.048850726 0.08014258 0.05049436 0.025571465
-0.052623868 0.08042087 -0.00937996 -0.091750026 0.019897366 -0.04592756 0.07536705 0.05380745
0.039574195 -0.048773326 -0.026560677 -0.064679146 -0.038630176 0.0467304 0.08606088 -0.037099253
0.08101159 0.0915627 0.049749162 -0.03926034 -0.01870513 0.08914067 -0.0061481 -0.09397397
0.075536825 -0.041632544 0.053488243 -0.025456345 -0.092593424 0.053578105 0.02613405 0.019412756
0.0052935123 0.050955273 0.06751448 -0.001906538 0.047237873 -0.011864197 -0.040580776 -0.010765302
0.0011928082 0.07057289 -0.031055046 -0.057976317 -0.033347573 -0.074814156 -0.07302796 -0.09927758
-0.05064273 0.07573487 -0.039349925 -0.0074585797 0.05558498 -0.06106589 0.028042806 0.03929422
0.083468355 -0.044157635 -0.04158449 -0.029844476 0.04183463 -0.09063705 -0.03988756 0.0435292
-0.048548866 0.09799439 0.08566164 -0.04439323 -0.054433655 0.02401321 -0.037050165 0.09485989

backbone.model.1.0.model.0.bias f4 [8]
00000000: 0374 83bd 5ade 9fbc e7cc 62bd b733 97bd
00000010: 5f11 883d 7f87 8f3d 7321 d33c 8dd5 f43c
-0.06418612 -0.019515205 -0.05537119 -0.07382911 0.06643938 0.07008266 0.025772786 0.029886985

backbone.model.1.1.model.0.weight f4 [8, 8, 5, 5]
00000000: 2b62 343d 6abc 543d 2996 853b bde7 6cbc
00000010: 7423 22bc 6f3a 8c3d aaca 883d 503e 46bd
00000020: 90af 3abd 4023 39bc d90c a93b 5445 1dbd
00000030: 2d64 5e3d 8a92 81bc 5f8b 0dbc e749 6fbc
00000040: cbdf 1ebd 451c 7e3b dabb 703d 5256 8b3c
00000050: 7123 da3c 0e61 073d a637 303c aa81 223d
00000060: f38c 8dbd 39ca 033c 06c6 06bd e207 853d
00000070: c87d 34bd bb23 60bd 7457 773d 9fc9 2dbd
00000080: cc6a 1abd 6300 e5bc 5db3 253d 7fa7 2ebc
00000090: 254a 3ebd 471d 963c ffa0 133d 7161 01bd
000000a0: 94c1 4fbd d9cf 7f3b 97e5 15bd 8b1a 3a3d
000000b0: edb0 2dbc 6fe0 7d3d 08da a73a 8f01 533d
000000c0: 97ac 2b3d 5228 d13b e7b3 e93c 0cfa 86bb
000000d0: 555b 213d 9df7 553d f5bf 6bbd 76ac b03b
000000e0: 1527 f43c 0488 a83c 0d91 26bd f899 753d
000000f0: f7a5 cebc 4b71 1d3d 667f f4bc 9522 133d
00000100: 19be 0abd 53e9 5d3d 3a57 e8bc 8c1e 77bc
00000110: 2505 21bd 37fc 453c 5481 f9bc ca87 833d
00000120: beb9 d4bc e199 81bd 1953 7d3d 548e 71bc
00000130: fd00 103d c8d8 65bd 5e28 95bc e35c d0bb
00000140: 7384 05bd d01a 7d3d d5cf 8cbd 5eba 88bd
00000150: d21b 063d 7237 42bd 7236 463c 138e cfbc
00000160: 27aa 83bd 63ea 5c3d 7834 4abd 7b71 72bd
00000170: 6295 b1bb b86e 683c d967 4c3d 5890 503d
00000180: a3a1 78bd e673 df3c 1a33 47bd 99f5 e13c
00000190: d2d7 013c c787 d3bc 258a 003d c625 b23b
000001a0: 74c8 5cbd 4715 16bd 8c41 e5bc 456b 4b3c
000001b0: 6fca 50bd bcf3 9ebb 082c 8ebd 4e83 32bd
000001c0: 44ff 213d f81e 3cbd d982 843c 29b6 95bc
000001d0: 091f 1ebc a0f8 47bc 9830 5a3c 0eb1 72bd
000001e0: 6917 5bbd 7cb0 02bd 10e9 033d b1d1 453d
000001f0: b771 33bd 2a00 493b 6516 7cbd 199c dd3c
00000200: 8803 90bd 52ba 1cbd 6bcd 8ebd 42de 053d
00000210: f963 10bc 82ff 7dbd 49eb 5f3d d0ed 9c3c
00000220: c4f3 8d3d 7aa5 553c 27a2 fdbb 3eac 783d
00000230: 43b8 c5bb 6b89 763d 2e09 9dbc 4bb0 293c
00000240: e493 663d 8017 473d 3f54 8ebd 7a73 e6bc
00000250: 2bb0 013d 68b5 2f3d 0316 833d ff95 2abc
00000260: 99b2 2cbd 26d4 44bd 9b25 ddbc c4a6 4a3d
00000270: 7c37 953c d98e 843d 83d7 0abd 19ae 0d3d
00000280: 831d 5bbc 7148 853d ffac 83bd 9c6c 513d
00000290: f265 f93b 7c82 ddbc 6e49 d3ba 99e5 61bc
000002a0: 5a4c 36bd 815c e93c 2129 583d ce97 8ebc
000002b0: 3437 313d f7cf 7f3d 344e 91bc 3fd0 8b3c
000002c0: c074 a4bc 65b7 8ebc 10ad 45bd cc66 b7bc
000002d0: 4c6f 023d a164 24bc ef7a f33c d147 42bd
000002e0: 0354 2dbc c708 873d ac6f 00bd 0d1c 48bd
000002f0: aadd c0bc 983d 14bd 00d7 743d 7304 523d
00000300: ea82 763d 069a e7bc f92f 113d 7e49 82bd
00000310: b6f5 a0bc 029c aabc 1786 543d 6bfc 5a3b
00000320: df17 d23c 2158 8cbd 7c9a 503d 153b 27bd
00000330: 0d32 73bd d795 c73a 5f20 dd3c e2cd 8e3c
00000340: 077e e8bb 0091 2d3c 1e11 febc f527 31bd
00000350: dd18 0d3d 7dc5 22bc c59f 5bbd eb95 0cbd
00000360: a426 1cbd 8786 22bd 79cb c03c aca8 03bd
00000370: c7d1 53bd e7c3 0e3d 1a49 5f3d 74bb 0e3d
00000380: 7353 f83b 8036 79bd 14f2 86bd 0bd8 33bc
00000390: 74a6 7a3d eba3 4dbd 8f9a 5f3d b89b bf3b
000003a0: c24b abbc da40 813d 78dd 563d 3c8e 37bd
000003b0: c191 2abd 4568 51bd 0380 7cbd 2768 86bc
000003c0: a274 68bd 0137 b83c 53c2 863d 7da3 283c
000003d0: f518 933c 01ce a63c 9d80 8fbd b10b 193c
000003e0: c006 8b3d e1e0 b7bb 3b9c b43b 829c 4f3d
000003f0: 884c 863d 7fd6 60bd 8fdd 743d 83c4 47bb
0.044038933 0.0519375 0.0040767384 -0.014459548 -0.009896148 0.06847083 0.0667928 -0.04839927
-0.045577586 -0.011299908 0.0051590023 -0.038396195 0.054294754 -0.015816946 -0.008639186 -0.014605022
-0.038787644 0.0038774174 0.0587729 0.017008934 0.026628228 0.033051543 0.010755455 0.03967444
-0.069116496 0.008043819 -0.032903694 0.06495644 -0.044065267 -0.054721575 0.060386136 -0.04242861
-0.037699506 -0.027954286 0.040454257 -0.010660051 -0.04645743 0.018324507 0.03604221 -0.031587068
-0.05072172 0.00390338 -0.036595907 0.04543547 -0.010601264 0.061981615 0.0012806067 0.05151516
0.04191264 0.0063829804 0.028528167 -0.0041191634 0.03939374 0.052238096 -0.05755611 0.0053916527
0.029803792 0.02057267 -0.040665675 0.05996129 -0.025225623 0.038438123 -0.029845905 0.035921652
-0.033872698 0.054177593 -0.028361905 -0.015082967 -0.039311547 0.0120840585 -0.030457176 0.06422384
-0.025967475 -0.06328178 0.061846826 -0.014743406 0.035157192 -0.05611494 -0.018207725 -0.006358729
-0.032597017 0.06179315 -0.06875578 -0.06676172 0.032741375 -0.047416158 0.012097942 -0.025336301
-0.06428938 0.053934466 -0.049366444 -0.059190255 -0.005419419 0.014186554 0.049903724 0.050918907
-0.060701024 0.027276944 -0.04863272 0.02758293 0.007924991 -0.02582158 0.031381745 0.005436632
-0.053902104 -0.036641385 -0.027985357 0.012415712 -0.050974306 -0.0048508327 -0.06941992 -0.043582253
0.03955008 -0.04592797 0.016175674 -0.018275337 -0.009650954 -0.012205273 0.01331725 -0.059250884
-0.053489123 -0.03190659 0.032204688 0.04829568 -0.04380962 0.0030670264 -0.061544795 0.027051972
-0.070319235 -0.038263626 -0.06972774 0.032682665 -0.008812898 -0.06201125 0.054667745 0.019156367
0.0693126 0.013039941 -0.0077402773 0.060711138 -0.0060339286 0.060189646 -0.019169416 0.010356973
0.056293383 0.048606396 -0.069496624 -0.028131235 0.031662147 0.04289761 0.06400683 -0.010411738
-0.04216251 -0.048053883 -0.02699547 0.049475446 0.018214934 0.064725585 -0.033896934 0.03458986
-0.013373735 0.06507958 -0.06429481 0.05112897 0.00761103 -0.027039759 -0.0016119906 -0.0137876505
-0.04450641 0.028486492 0.0527736 -0.01740637 0.043265536 0.06245419 -0.017737485 0.017067073
-0.020075202 -0.017421434 -0.04826075 -0.022387885 0.031844422 -0.010033757 0.029721705 -0.04743177
-0.010579112 0.06593471 -0.0313565 -0.048854876 -0.023543198 -0.036191553 0.059775352 0.051273774
0.060183443 -0.028271686 0.03544614 -0.06361674 -0.019648414 -0.020826343 0.05188569 0.0033414613
0.025646148 -0.06852747 0.050928578 -0.04082783 -0.059373904 0.0015227151 0.026992975 0.017432157
-0.0070951018 0.010593653 -0.031014021 -0.043250997 0.03444754 -0.00993478 -0.053619165 -0.03432266
-0.038122788 -0.039679077 0.023534523 -0.03214328 -0.05171373 0.034854796 0.054513074 0.034846738
0.0075783073 -0.06084299 -0.065891415 -0.010976802 0.0611939 -0.050205152 0.054590758 0.0058474205
-0.020910148 0.063111976 0.052457303 -0.04481338 -0.041642908 -0.05112483 -0.06164552 -0.016407086
-0.056751855 0.022487165 0.06580033 0.010292885 0.017956236 0.020361902 -0.07006953 0.009341166
0.06788397 -0.0056115245 0.005511788 0.050686367 0.06557566 -0.05489206 0.059781607 -0.003048212

backbone.model.1.1.model.0.bias f4 [8]
00000000: 9e33 72bd 05ae 183d 7fb2 903a ae94 a9ba
00000010: 6b0d 90bd f509 71bb 6b4f 2dbd 9b63 62bd
-0.059131257 0.037275333 0.0011039524 -0.0012937987 -0.07033809 -0.0036779616 -0.042312067 -0.055270772

backbone.model.2.0.model.0.weight f4 [8, 8, 3, 3]
00000000: 12d8 063d 97af e83c 6d4a a43d 11ac 683d
00000010: 04e3 b83c 4ad5 9abd 9a8a d43d 46e0 cf3d
00000020: c54c 3e3c 730a 06bd 6c48 cabd 0742 9a3b
00000030: 84e6 cdbd bbe4 c83d 4b0c 7e3d 2a13 0a3d
00000040: 5602 313d e641 e53d 7363 493c f0f4 91bc
00000050: d59b c5bb 4f37 cabd 8bf1 963d f467 f03d
00000060: 2d62 87bd 721b f43c 5e57 6a3d 95c9 cfbc
00000070: b928 15bd 151d b5bc 56bd e2bd a3f2 d9bd
00000080: 3cfb 86bd ae6e 213d 894b de3d 32f8 0c3c
00000090: 47fa 1b3d 19e8 9536 64b9 dabd 7ac6 e63d
000000a0: f011 323d 17be eb3d 058f e1bd 3c74 d6bd
000000b0: 0de0 ec3d 80a6 a9bb 2706 acbd 9de9 eebc
000000c0: 194e 153d 83f4 8ebd b64a f7bc 823c 763d
000000d0: 51a5 20bd 9ca5 db3d 85c0 713d 4b74 b63b
000000e0: 198e dabd b8f2 8dbc de72 c5bd 5e7b 45bd
000000f0: 7f6d b3bd e75a d5bc 385d 643d 1bfe 213d
00000100: dfba f53c e0a2 b03d 432b 9e3c 8604 203d
00000110: bb9c b0bc 4b09 a63d 5ad7 b9bc d0b6 943d
00000120: eb5b bf3c 2a20 d4bd bdb2 943c 3f69 22bd
00000130: b25a 393c 406e bcbd 741b e9bc 64de 8d3d
00000140: 0b1a c2bd 3c80 573c 3c1e 98bd 970a 843d
00000150: 592b 80bc d4dd 9dbd f649 17bd ba8d b9bd
00000160: 7903 ddbd 6c1b 873c dc22 07bd 04ab b1bd
00000170: 3564 b6bc 9f86 4dbd 06b4 003d b16b 07bd
00000180: 98d4 983d fa01 853d 8e27 f33a 0932 ad3d
00000190: c234 dabc 6da4 85bd 29d1 ad3d fd51 08bd
000001a0: e689 913d 5d48 a83b 8140 eebd 5331 1a3d
000001b0: 04f9 85bd adee ec3d 2c32 173d d121 b83d
000001c0: 70d3 f23c 0e62 e33d 78fb 0dbc 6edd 93bc
000001d0: 83cb eebd 4e35 763d adac db3b 09fd eebd
000001e0: 687d 98bd 5f2d 8bbd 93d6 10bd 5c8d 793d
000001f0: a316 7ebc 1b3c 3c3d a839 6cbc eaf0 acbd
00000200: 9ef2 80bd 3410 e9bd 31be b63d 34bb b43c
00000210: 6fd7 19bd 241c 913d 5816 9fbc a20f 5fbd
00000220: 3a46 b93d c0d3 bdbd 36ee c5bd 810f 96bd
00000230: b3cd e4bd e750 d2bd 90d0 253c 1253 e53c
00000240: f519 c33c 011e c1bd 2704 b0bd 4894 ebbc
00000250: 5c95 e5bd f51d 96bb 98eb 7fbd bf08 6bbd
00000260: 4dea babd 3e99 153d 5e92 ee3d ffc0 e5bd
00000270: 8633 85bd 909a 93bd cd6a ef3d 050d d3bd
00000280: fd6d a5bd 81de a7bc cf72 b43d 5815 723d
00000290: 82ea aebc 81e9 c53d 4c72 e4bd ada0 123d
000002a0: 61ee b0bd 707b eabd 69c0 c1bd ffb5 c93d
000002b0: 897f 1cbd 7ab6 f33c 08e4 86bb 5b4a 463d
000002c0: 52ec 803d f355 3f3d 504f 7a3c 3d33 893d
000002d0: dbbf c03c 48fa cbbd e1f8 61bd d1b8 dc3d
000002e0: 1da7 ce3d 8cf9 173d dda2 6abd 35f7 1f3d
000002f0: d322 7a3c 0354 d03d b2e2 edbd 6cca e43d
00000300: edbd c7bd ff56 b43d 641a 98bd 5d4a 4a3d
00000310: 5f5a e9bd c7fe 863d 0ba5 4d3c 4776 813d
00000320: fc71 d73d f436 233d cbab 5dbc 2d4c bc3b
00000330: ddd3 a53a e1ae 7cbd 3ffc 9abd 9737 e93d
00000340: c954 f63c d076 213d e87b c93d bbe9 9e3d
00000350: 9ba2 dfbc 8844 c03d cbfd d1bc bf95 993d
00000360: b091 d93d 1b56 733c b2d8 a5bd dbae ea3c
00000370: 8ddc e83d 7531 063d 6648 aabd c2b9 bdbd
00000380: 2a3d 12bd f9a7 fd3c 3aaf bd3d c431 df3b
00000390: 46d6 9b3d 671d 833d 276c ea3a a5db bcbd
000003a0: 5009 94bd 3f17 efbd 4dc2 6abc 777b 8c3d
000003b0: c200 76bd 4dbc 06bd fe85 6abd ba8c 79bd
000003c0: 9d4b 87bd cf41 d93c 2703 183c 9bba f4bb
000003d0: a7c9 b9bb 7dec 83bd 678d 47bb ddce 6fbd
000003e0: 13a3 1ebd 6aaf 95bc ee7d 463c 5aed e23d
000003f0: bca1 193d a6f2 2abd bac9 853d 9015 4f3c
0.032920904 0.02840404 0.08022008 0.05680472 0.022569187 -0.07560213 0.10377999 0.10150199
0.011614983 -0.03272481 -0.098770946 0.004707578 -0.10053733 0.09809252 0.062023442 0.033709683
0.04321512 0.1119421 0.012291777 -0.01781699 -0.0060305395 -0.098738305 0.073702894 0.117385775
-0.066105224 0.029798243 0.057212226 -0.025364676 -0.03641579 -0.022108594 -0.11071269 -0.106419824
-0.06590888 0.039412193 0.10854251 0.008604096 0.03808048 4.4675658e-06 -0.10679892 0.11268325
0.043474138 0.11510866 -0.11013607 -0.10471389 0.11566172 -0.005177319 -0.08399611 -0.02916413
0.036451433 -0.06980231 -0.030186992 0.0601163 -0.039220158 0.10724947 0.05902149 0.0055680624
-0.10671634 -0.017327651 -0.0964105 -0.048213355 -0.08761119 -0.026044322 0.055752963 0.039548974
0.029996334 0.08624816 0.019307738 0.039066814 -0.02155911 0.08107241 -0.022685695 0.07261431
0.02335926 -0.10357697 0.018151635 -0.03965115 0.011313127 -0.09200716 -0.028455473 0.06927183
-0.094776236 0.013153132 -0.07427642 0.06447332 -0.01564567 -0.07708326 -0.03693577 -0.09060235
-0.10791678 0.016492568 -0.03299223 -0.08675197 -0.02226458 -0.050177213 0.031421684 -0.033061687
0.07462424 0.064945176 0.0018551217 0.08456809 -0.026636485 -0.06525502 0.0848716 -0.033281315
0.0710638 0.0051355795 -0.11633397 0.037644695 -0.065416366 0.11568961 0.036913082 0.08990825
0.029641837 0.11102687 -0.008665912 -0.018049922 -0.116599105 0.06010943 0.006703934 -0.116693564
-0.07445794 -0.06795763 -0.035360884 0.060925826 -0.015508327 0.04595576 -0.014418043 -0.08444388
-0.062962756 -0.113800436 0.08922995 0.022061922 -0.03755897 0.070854455 -0.019419834 -0.054458268
0.09046598 -0.09268904 -0.09664576 -0.07327176 -0.111720465 -0.10269337 0.010120526 0.027993713
0.023816088 -0.09429551 -0.08594542 -0.02875723 -0.11210129 -0.004581208 -0.06248054 -0.057381388
-0.091267206 0.036523096 0.11649011 -0.11218452 -0.06503968 -0.07207215 0.116902925 -0.10305218
-0.08077619 -0.02049184 0.088109605 0.059102386 -0.021352056 0.09663678 -0.11154613 0.035797764
-0.08639217 -0.11449325 -0.094605274 0.09849166 -0.038207565 0.029750098 -0.004116539 0.048410755
0.062950745 0.046712827 0.015277699 0.06699226 0.023528984 -0.09959847 -0.05516899 0.107774384
0.10090468 0.03710322 -0.057284225 0.039054114 0.015267092 0.10172274 -0.11615504 0.111714214
-0.09753022 0.08805656 -0.074269086 0.049387325 -0.1139419 0.06591564 0.012551556 0.06321388
0.10519788 0.03984733 -0.013529728 0.0057463855 0.0012651641 -0.061690215 -0.075676434 0.11387556
0.030069726 0.03941995 0.09838086 0.07759424 -0.027299216 0.09388071 -0.025633713 0.07499265
0.10623491 0.014852072 -0.08097972 0.02864783 0.11370192 0.03276201 -0.0831459 -0.09263946
-0.03570286 0.030963885 0.092619374 0.0068113524 0.07609229 0.064020924 0.0017885015 -0.09221581
-0.07228339 -0.11674356 -0.0143285515 0.068594866 -0.060059316 -0.03289442 -0.05725669 -0.060925223
-0.06606219 0.026520638 0.009278095 -0.007468534 -0.005669791 -0.06441591 -0.0030449273 -0.05854689
-0.03872974 -0.01827212 0.012114985 0.110804275 0.037507758 -0.041735314 0.06532617 0.012639418

backbone.model.2.0.model.0.bias f4 [8]
00000000: 49a4 7b3d c101 933d 6440 8ebd 66dc 9ebd
00000010: cc0e e2bc c8b4 b4bd 0068 983c e5b1 92bd
0.06143597 0.07178069 -0.06945875 -0.077568814 -0.027594946 -0.08823544 0.018604279 -0.07162837

backbone.model.2.1.model.0.weight f4 [8, 8, 3, 3]
00000000: 438f da3d 9e30 a93c 72aa d63d 0330 b3bd
00000010: d2d8 a8bd da71 d83d 1ea3 3bbd 2d46 6b3d
00000020: aade 79bd 4ed8 3e3c ed0d a63d 6e31 aa3d
00000030: fed1 113c 3e2f 123d 8406 52bc 2f08 81bd
00000040: 4702 1eb9 424e 6fbd 28f3 27bb 11fa 733d
00000050: 011a b23d a9fa 923d d429 b1bc 798e 31bb
00000060: a4d9 4abd b1fb 803d a8b9 ac3d 2a43 e83c
00000070: 86b0 183d 2d00 d0bd 35a9 82bd 92f9 b7bd
00000080: 4b4a 8dbd 6533 893d f0a6 c43d 4330 893d
00000090: 2036 58bd 228e b33d ec7f 173c 4633 9abd
000000a0: 22c5 653d 43ac f0bd 19e5 5cbc cea5 d83d
000000b0: 660d 693d 981a d9bd cb22 82bd d773 bb3d
000000c0: 0146 843d 1569 e6bc e873 663d 1c14 933d
000000d0: 71bc d9bd 2085 c9bc 131f b03c 154b 82bc
000000e0: 8884 38bd 8541 24bc 9f09 c03d 7abb 86bd
000000f0: 13fc 7dbd 67d5 98bd dc29 0e3d 8254 feba
00000100: 45d8 263d 919e a6bd 0669 943c a37d 07bd
00000110: 664d a63c 54a1 223d 5a7b 943c 85f7 4b3d
00000120: 3ffa 5abc 4940 b4bd 5811 94bc cb85 c43d
00000130: 158d adbd 8beb a53d 3e47 44bc 5c8c eb3c
00000140: ad82 823b 9c1a 36bd 77f0 e8bd d2e1 283d
00000150: b0a2 093d 4e3f 30bd 9fc2 ee3d e4fb 273d
00000160: a331 7ebd 1e74 8ebd e65e a6bd 95ba 25bd
00000170: 4a13 453d 30ab 8cbd 1b9a 923d 4111 673b
00000180: 502e b4bd bf05 963d 58db e93c b419 e43c
00000190: 2851 963d 6039 ee3d 0692 bb3d f3f7 c1bd
000001a0: 5267 71bd 6376 adbd 7449 a8bc 49df 743d
000001b0: d864 55bd ccb7 953d eeb2 88bd 57bb bdbc
000001c0: 7cb4 6bbd 4737 aa3c b7c5 de3d d851 a5bc
000001d0: ab5c d0bd c797 b23d a1ae 45bc 519f acbd
000001e0: 7e43 a33c 2d5f 9bbd c1a6 623d 3c4c e5bc
000001f0: a5a8 ed3b 488c 5c3d 00de 983c 9dad d5bd
00000200: ad5a a1bc 3a73 9fbd 79b9 d2bc 496e efbc
00000210: 7a83 ae3b 365d 7d3d 505f e23d 9c1c 52bd
00000220: bbfd 64bd 8e4f 53ba db11 aebd f24c b6bd
00000230: 515c ae3d 5a12 1ebd be72 04bd 884d b4bd
00000240: 9284 2f3d c7b0 51bd d2c9 0c3d a556 b2bc
00000250: 39c9 7e3d 11cf a83a d5a8 3abd e022 e4bd
00000260: 0e05 a43d 488d 8f3c 29dd 95bd 748b 873d
00000270: 89c2 7d3d b5a1 eabd 9ca1 bf3d a77d 96bc
00000280: 717b e93d 7fdb e2bd c0f2 bebd 37a4 9f3d
00000290: 9a76 a3bd df88 12bd 4075 b03d 03f0 b9bc
000002a0: 2f46 7c3b 8d39 1ebd 33d1 3b3d 0696 aabd
000002b0: 3b88 9dbd cd8e 88bc 2664 b0bd f630 313d
000002c0: 9c3b a9bd d098 97bd 0f88 fabc 13dc 20bc
000002d0: ee86 763d 040e b13b 67d1 ed3d 84ee debd
000002e0: f941 95bd bd01 de3d 8c87 f5bc bc30 b73a
000002f0: 1282 61bd 2abd 923c 1daf 13bb d28e 1f3d
00000300: 31aa 353d 3573 bfbd 946e 00bc e365 7c3c
00000310: f7be bcbb 0c2e bebd 2d54 cabd eca2 cdbd
00000320: f994 54bd 15f4 5ebd 331b 5a3d 3589 793c
00000330: 36ea 933d b4d3 42bd c2df 3d3d 080e bcbd
00000340: 5d56 383c 456d b1bc 7dbb 8fbd 4403 72bd
00000350: fe49 2cbd 5357 97ba f3f6 e63d d8d4 45bd
00000360: 970a dd3d b65a 553d 5d84 93bc 9182 a13c
00000370: 47ed 043d ee11 ae3c bb79 8a3d cada 34bd
00000380: 73e6 c5bd 350b 2cbd 40cd 343d 6900 0abc
00000390: eae9 db3d cf3a c7bd 8dd0 573d 611e a1bd
000003a0: 82d8 73bd 6b0c 98bd a3d0 833c a044 ad3d
000003b0: d15c e238 426a b23d cf80 79bd 6425 d63d
000003c0: cbb8 283d c5a1 89bd 8d98 d1bd 564b c2bc
000003d0: 4709 82bd cf78 ef3d e25f e33d 5f64 4dbd
000003e0: da20 db3d aac8 0fbd 82c3 31ba aae0 e4bd
000003f0: 50b0 313d 8ece b1bc fddc 1b3d 9312 04bd
0.10671856 0.020653065 0.104817286 -0.08749392 -0.0824448 0.105685905 -0.045809858 0.05743997
-0.061003365 0.011648251 0.08108125 0.08310209 0.008900164 0.035689585 -0.012818936 -0.06300389
-0.00015068903 -0.05842424 -0.002562711 0.059564654 0.08696366 0.07176716 -0.02162639 -0.0027092977
-0.049523965 0.06298006 0.084338486 0.028352339 0.03727772 -0.101562835 -0.0637993 -0.08983149
-0.06898936 0.06699256 0.09602153 0.06698658 -0.052785993 0.08767344 0.009246808 -0.07529311
0.056096204 -0.11751606 -0.0134823555 0.105785 0.056897543 -0.106007755 -0.063542925 0.09152954
0.06458665 -0.028126279 0.05626288 0.0718157 -0.106316455 -0.024599612 0.021499192 -0.015904943
-0.045048267 -0.010025387 0.09376835 -0.06578727 -0.062007975 -0.07462578 0.03470789 -0.0019403847
0.040733594 -0.08135713 0.018116485 -0.0330788 0.020300578 0.039704636 0.018125225 0.0497966
-0.013365327 -0.08801324 -0.018074676 0.095958315 -0.08474175 0.08101567 -0.011979876 0.028753452
0.003982863 -0.04445897 -0.1137399 0.041230984 0.033602417 -0.043029122 0.11658215 0.041011706
-0.062059056 -0.06955741 -0.08123569 -0.04046114 0.0481141 -0.06868589 0.071582995 0.0035258087
-0.08797896 0.07325315 0.028546974 0.027844287 0.07339698 0.11632037 0.09158711 -0.09471121
-0.058936425 -0.08469846 -0.020542838 0.059783254 -0.052098125 0.07310447 -0.06674753 -0.02316062
-0.05754517 0.020778311 0.10877555 -0.020180628 -0.10173925 0.087203555 -0.012065561 -0.08428825
0.019929644 -0.07586513 0.05533481 -0.027990453 0.00725277 0.05384472 0.018660545 -0.10433505
-0.019696558 -0.077856496 -0.025723206 -0.029227393 0.005325732 0.06185647 0.11053336 -0.051296815
-0.05590604 -0.0008060866 -0.084994994 -0.08901395 0.08513702 -0.03859172 -0.03233599 -0.088038504
0.04285104 -0.05119398 0.03437216 -0.021769831 0.06220362 0.0012879093 -0.045571167 -0.111394644
0.080087766 0.017523423 -0.073175736 0.066183954 0.0619531 -0.114566244 0.093569964 -0.018370463
0.11400498 -0.11077022 -0.09323645 0.07794993 -0.07981606 -0.03577506 0.08616114 -0.022697454
0.003849398 -0.038629103 0.045853805 -0.08329396 -0.076919995 -0.016669655 -0.08612852 0.043259583
-0.08263323 -0.074021935 -0.030582456 -0.009818095 0.060187273 0.005403282 0.11612206 -0.10885337
-0.07287974 0.10840175 -0.02997186 0.0013976316 -0.055055685 0.017912466 -0.0022534796 0.038954563
0.04435176 -0.09348146 -0.007838864 0.015405151 -0.0057600695 -0.092861265 -0.098793365 -0.100408405
-0.051899884 -0.054431994 0.053248595 0.015230467 0.072224066 -0.047565177 0.04635597 -0.09182364
0.011251059 -0.02165855 -0.070181824 -0.059085146 -0.042062752 -0.001154641 0.112775706 -0.048298687
0.107930355 0.05208846 -0.018007452 0.01971558 0.032452848 0.021248784 0.067614995 -0.044153966
-0.09663095 -0.042002875 0.044141054 -0.008422949 0.10737975 -0.09728014 0.052689124 -0.078671224
-0.05953265 -0.074242435 0.016090697 0.08460355 0.00010793808 0.08711673 -0.060913857 0.104563504
0.041191857 -0.06720308 -0.10234175 -0.023717564 -0.06349426 0.11692964 0.111022726 -0.05014455
0.10699625 -0.035103478 -0.0006781147 -0.11175664 0.043381035 -0.021704938 0.038052548 -0.032244276

backbone.model.2.1.model.0.bias f4 [8]
00000000: d608 b33c bd0c 59bb 5b8e e8bc 3136 9dbc
00000010: 6fca b33c 7402 a1bd fcfd 213d 1e96 873d
0.0218548 -0.0033119165 -0.028388193 -0.01919088 0.021947114 -0.07861796 0.03954886 0.066204295

backbone.model.3.0.model.0.weight f4 [16, 8, 3, 3]
00000000: c747 84bd 2fb5 8d3d 1391 81bd a734 673d
00000010: 9c1a babd 6842 8ebd ca72 cf3d f681 50bc
00000020: bf34 9c3d 9bd3 e13d 8b5b 7bbd 7cff f33c
00000030: bbdb b63d b2ad bebd eea8 b03c aabb af3b
00000040: f631 db3d c3eb 4abd 3b03 e7bb 6a59 d2bd
00000050: e920 0b3c d5f6 cdbc 0536 d8bd 7612 cbbd
00000060: 5a18 ca3d 8357 b2bd b723 0e3d 8848 4ebd
00000070: 2ace c939 5b9c 6abd 9dcd a6bd 6c3d 953d
00000080: 27f6 ebbd 201b e73d 8444 04bd 0acb 093d
00000090: 5730 b0bb 7de0 eb3d d894 03bd d84f 183d
000000a0: 4732 d83c 5f20 e8bd 96c3 3b3d 0e8f 92bd
000000b0: ed8b 963d f3fd 3abb a3de 9a3d a7b8 d43b
000000c0: 672a 9c3c b404 97bd 3a73 9e3d 5886 dc3c
000000d0: 36b0 a8bd 194a cc3d 2379 05bd 616b 813d
000000e0: f8a4 bfbd 3371 3d3d 15bf 88bd 8718 e8bd
000000f0: 36df ed3c 992f 9cbd c1bc a0bd 1f28 31bc
00000100: cac0 0abd a22b 493d 7845 89bc f795 c33d
00000110: 04ca c1bd 0cb0 ae3d 4744 64bd 41aa cc3a
00000120: eaf9 71bc 5d9e c4bc b86d 42bd bb87 253d
00000130: 3145 643a dba9 ee3d 4851 953d b41b f13c
00000140: 9b46 1f39 498c a2bd 1d71 d43c cb7a a63d
00000150: e49f cfbc ea4a 07bd d1b0 f1bc 4cc0 963d
00000160: eb46 b23d 4bf4 13bd b48d b6bd a70d 553d
00000170: 8b34 72bb 9443 4cbd d4a8 68bd 6bdc 5bbd
00000180: 601d 6dbd c51a 853b c776 563d b04e ae3d
00000190: f418 debd e9fc d2bc 830f b53d 194f d9bd
000001a0: 0a3b 5dbd 0a69 cf3d 3d9d 413c 134c 3cbd
000001b0: 45cb 29b9 4094 c03c a08d a5ba da8b aebd
000001c0: 049e e23c 2e0c 973d 13dc e6bc 5d95 04bc
000001d0: fcdf 9dbd da3e 073d 1345 8b3d d4ee ebbd
000001e0: 582e debd 4628 2d3d d272 0c3d ddfc 5e3d
000001f0: 1c04 c63d 1f23 c03d 4a77 c03d 2878 c6bd
00000200: 20b8 89bd 54a8 703c 2efe 3e3d f023 463d
00000210: 875f f0bd f6ba 53bd 14e9 123d 735c acbd
00000220: 4d85 783d ecbe cb3d 4ba2 86bd f93e 023c
00000230: 9e20 eabd 6f2e 9d3d 3f2f c3bd 4221 a53d
00000240: c221 78ba 42a3 29bc 6db1 dc3d 407e cbbd
00000250: b672 babd 31f1 d4bc ab33 bbbd 1922 f03d
00000260: a9bf 86bd 464f 3ebd 2861 a83d 4764 2e3d
00000270: bd66 d53d c7b5 15bc 2053 103d ba99 5a3c
00000280: bbde 00bd 8611 38bd 5284 b6bc 1084 acbc
00000290: 79e7 86bd 1850 4abd 6216 e9b9 bf0f 98bd
000002a0: e9fd 92bd 7761 e03b 371a 95bb 7ebb ccbd
000002b0: 138e 1cbd 440f 8c3b 41fb 793d a1b0 91bd
000002c0: 37e5 8f3d d697 83bc 5ed0 0ebc 0f65 f0bd
000002d0: 83a1 6b3d b487 0a3d 0bdc 5fbd 4436 783c
000002e0: 80c7 08bd 728d 02bd 2641 693d e5d5 783c
000002f0: fa29 0fbd 7c0c f6bb efa6 b43c 4a15 60bd
00000300: 60a8 b23c d213 37bd 22e4 b93d b901 efbd
00000310: 5af1 debd 1b77 0d3d 4d3e 883d afb7 733c
00000320: 2d3f a0bd dcb4 ca3c caa7 cd3d 3112 11bd
00000330: 2bd2 9eba 6446 82bd 69b3 7f3c e8bc 8bbd
00000340: 0d4d ebbd 7fde 1c3d 4193 a63a b435 3fbb
00000350: a662 92bd 03dd ac3d 10aa cb3d 95bc 5bbd
00000360: 302b e7bd ddc6 d2bd 7703 a13d 0194 49bd
00000370: cc5b dabd 47a9 6bbd 248b e6bb 34d9 44bc
00000380: afa8 62bd 4f92 dcbc 6088 ccbc 925a 1939
00000390: 7527 aa3c 41a3 eabd 137a 64bd d417 b2bc
000003a0: 0da0 d4bd f50b 88bb eb86 8e3d c70e 74bd
000003b0: e7ae 64bc b41d 14bd a593 b73c 015e 3d3d
000003c0: 225c eb3d 7610 953d ec9e bf3d 9834 b9bd
000003d0: 4b35 a1bd 1011 7cbd cbf1 68bd c021 3cbd
000003e0: e5d9 c33d 1972 e73d ac2e 6ebd 1db8 a7bd
000003f0: 2abf ac3d 3304 d83c ef9e b33d 27f8 9ebd
-0.06459003 0.06919324 -0.06326499 0.056446698 -0.090871066 -0.0694626 0.10129316 -0.012726298
0.07627248 0.11026689 -0.0613666 0.02978491 0.08928629 -0.093104735 0.021564927 0.0053629475
0.10702889 -0.049541246 -0.0070499456 -0.10270961 0.008491733 -0.025142113 -0.105571784 -0.099156305
0.09867926 -0.08708098 0.03470203 -0.05036214 0.00038491312 -0.05727802 -0.08144686 0.07287106
-0.11521559 0.112844706 -0.032291904 0.0336409 -0.0053768563 0.11517427 -0.03212437 0.03718552
0.026391162 -0.11334299 0.045840822 -0.07156192 0.073509075 -0.0028532713 0.07561996 0.006491739
0.019063188 -0.07373944 0.077368215 0.026919529 -0.082367346 0.099750705 -0.032586228 0.06319309
-0.09357637 0.046250533 -0.06677071 -0.11332803 0.0290371 -0.07626266 -0.07848502 -0.010812788
-0.033875264 0.049113877 -0.016756758 0.09550088 -0.094623595 0.08529672 -0.055729177 0.0015614704
-0.014769057 -0.024001295 -0.047467917 0.040412646 0.000870782 0.11653491 0.07290894 0.029432155
0.00015189724 -0.079369135 0.025932843 0.0812889 -0.025344796 -0.033030428 -0.029503258 0.073608965
0.08704933 -0.036121648 -0.089137465 0.052014973 -0.0036957588 -0.049869135 -0.056801632 -0.053677004
-0.057889342 0.004062029 0.05235937 0.08511102 -0.10844603 -0.025755363 0.08840849 -0.1061079
-0.054011382 0.101274565 0.011817274 -0.045970988 -0.0001619282 0.023508191 -0.0012630709 -0.08522768
0.027663238 0.0737537 -0.028181111 -0.008092252 -0.07708737 0.033018924 0.06800284 -0.11520162
-0.10848683 0.042274736 0.03428919 0.054440368 0.096687526 0.09381699 0.093977526 -0.09690887
-0.06724572 0.01468857 0.046629123 0.048374116 -0.117369704 -0.05169197 0.035866812 -0.08416071
0.060674 0.09948525 -0.06573924 0.007949584 -0.114320025 0.07674872 -0.09530496 0.08062984
-0.00094654795 -0.010353865 0.10776029 -0.0993619 -0.091039106 -0.025993915 -0.09140714 0.117252536
-0.06579525 -0.04646232 0.08221656 0.0425761 0.104199864 -0.009137577 0.035235524 0.013342315
-0.031462412 -0.044938587 -0.022279892 -0.021059066 -0.06587119 -0.04939279 -0.000444579 -0.07424878
-0.07177336 0.006847556 -0.004550244 -0.09996699 -0.03822143 0.0042742807 0.06103063 -0.071137674
0.07026141 -0.016063612 -0.008716671 -0.117380254 0.057527076 0.033820823 -0.05465321 0.015149657
-0.033393383 -0.031873174 0.056946896 0.015187715 -0.03495214 -0.0075088125 0.022052256 -0.054707803
0.021808803 -0.044696636 0.09076716 -0.116702504 -0.10885878 0.034537416 0.06652508 0.014875337
-0.0782455 0.024744444 0.10041769 -0.03541774 -0.0012117078 -0.06361082 0.01560674 -0.068231404
-0.11489306 0.038298126 0.001270868 -0.0029176297 -0.07147722 0.08440592 0.09944546 -0.053646643
-0.11287534 -0.102918364 0.07861989 -0.049213413 -0.1066204 -0.057534482 -0.00703563 -0.012014676
-0.05533665 -0.026925234 -0.024967372 0.00014624957 0.020770768 -0.114569195 -0.05578048 -0.021739878
-0.1038209 -0.004151816 0.06959327 -0.059584405 -0.013957716 -0.03616114 0.02240927 0.046232227
0.11492182 0.0727853 0.09356484 -0.090432346 -0.07871493 -0.06153971 -0.056871217 -0.045930624
0.095630445 0.11301059 -0.05814998 -0.08189414 0.08434899 0.02636919 0.087705486 -0.07762175

backbone.model.3.0.model.0.bias f4 [16]
00000000: 19c1 d23d 1315 94bd a9da 4a3d 3396 ab3b
00000010: eeca f0bd 4ab1 05bb be68 5ebb 8716 2e3d
00000020: c2ac f73c 88dd 99bc 2425 20bd 0478 adbd
00000030: 17d3 b5bd fc27 a53d 20e3 7fbd 4f6b c5bd
0.10290737 -0.07230582 0.049524937 0.005236411 -0.11757456 -0.0020399862 -0.0033936943 0.042501952
0.030233745 -0.018782392 -0.03909792 -0.08470157 -0.08878153 0.08064267 -0.062472463 -0.09639608
