software/logs/old_model/checkpoints/epoch=399-step=6399.ckpt (torch, 182811 bytes, 30 tensors)

backbone.0.weight f4 [4, 2, 5, 5]
000000 5c ea a6 bd fc 4f 23 3c d8 1c 03 be 5a 6c 0f 3d
       -0.08150169 0.0099678 -0.12803972 0.03501544
000010 5f f9 4f 3c 07 7c 0d be 28 8e f9 bb 2b 3f fa 3d
       0.012693732 -0.13816844 -0.0076158233 0.122190796
000020 3c 3c 71 bc b6 86 fa ba f1 35 53 bd 71 80 30 3b
       -0.014723834 -0.0019113633 -0.051565114 0.0026932026
000030 ba 55 c5 bd 27 0f 62 3d 9c 6d ea bd e9 41 2f 3c
       -0.09635492 0.05519023 -0.114466876 0.010696867
000040 f8 ed c8 39 bf 85 f3 3d 03 2e b6 3d ef 4d 4e bd
       0.00038324273 0.118907444 0.08895495 -0.050367292
000050 f5 85 0e be 2a 79 68 bd 5b 3c 31 3c c6 6a e0 3a
       -0.13918288 -0.056756176 0.0108176125 0.0017121665
000060 80 0a 0f 3d 5b 6d df 3d 31 62 02 be 6c dc 29 bc
       0.034922123 0.1090953 -0.1273277 -0.010367494
000070 1c b2 79 3d c3 17 50 bd ee 14 a8 3d a3 78 c3 bd
       0.060960874 -0.05080391 0.08207117 -0.09544494
000080 89 90 d3 3d 17 c2 7b bc 8c 7f a5 3d 12 57 09 bd
       0.10330302 -0.015366099 0.08080968 -0.033530302
000090 aa 92 09 bd cb 1c 3a 3c d5 16 8d 3c e7 6c 84 3d
       -0.033587135 0.011359404 0.017222801 0.06466084
0000a0 fb f8 69 bd 46 36 5f 3d 33 a8 9a bd 39 ff e1 bc
       -0.057122212 0.05449512 -0.07551613 -0.02758752
0000b0 94 06 07 be 11 f3 1a bd 2d e8 0f be 73 2e 75 bd
       -0.13186103 -0.037829462 -0.14053412 -0.05985875
0000c0 d3 d5 f7 bd c7 37 e0 bd 61 60 05 3e 0a 9e 04 3e
       -0.121013306 -0.10948139 0.13025047 0.12950912
0000d0 3c ba e6 3d 10 66 06 be 37 6d 0f be f7 03 23 3e
       0.1126599 -0.13124871 -0.14006506 0.15919481
0000e0 d8 a8 bb bc d5 a3 6c bd 6c be 34 be de 48 11 be
       -0.02290766 -0.05777343 -0.17650765 -0.14187953
0000f0 43 7d 91 3b 40 f6 c9 bd 67 e0 0b be e2 99 14 be
       0.004439981 -0.098614216 -0.13659821 -0.14511827
000100 df bb 26 be fd 62 0e 3e 51 32 f1 3d f9 8c 07 be
       -0.16282605 0.13904949 0.11777175 -0.1323737
000110 3b cd b6 3c 2d 9a 78 bd 3c 1a bf bd cf 56 6b 3d
       0.022314658 -0.06069391 -0.09331176 0.057455834
000120 aa 40 38 bd cb 5c 3f be e9 f5 b0 3d 3d 52 e4 3d
       -0.044983543 -0.18687741 0.08640654 0.11148498
000130 fb 71 d6 3c 51 99 cb bd 54 82 e8 bd 2c 49 6a bd
       0.026177397 -0.09941352 -0.11352983 -0.05719869
000140 06 06 dd 3c ad 0b 78 bd 8e b0 75 3d b3 95 f8 bd
       0.026980411 -0.06055801 0.05998283 -0.12137928
000150 2c df 15 3c 47 2b 8c bc fa e8 a6 3c 43 23 1f be
       0.009147447 -0.01711048 0.020374764 -0.15540795
000160 29 21 22 bc 79 31 39 be 3a a9 01 be f2 41 94 3d
       -0.009895601 -0.18085279 -0.12662211 0.072391406
000170 cb d5 c5 bd d1 02 62 be 86 93 2f be 25 40 d7 3b
       -0.096599184 -0.22071387 -0.1714612 0.006568926
000180 7b 9b bd 3d 91 e0 59 bd 79 bd b7 bd 8b c8 9f ba
       0.09258171 -0.05319268 -0.08971686 -0.0012190504
000190 1d 47 10 be 83 ef 0e 3e 6e bd 1f be d7 49 1a be
       -0.14089628 0.13958554 -0.15599605 -0.1506723
0001a0 0a bc dc bd c0 ec 9d bd 67 00 b9 3c c8 fe e7 bc
       -0.10778053 -0.07711172 0.0225832 -0.028319731
0001b0 5a 4c 8d 3c 7a 7e 0f be c6 a6 10 bc aa 8c 9f 3d
       0.017248321 -0.1401309 -0.008828824 0.077905014
0001c0 32 d9 04 3e 76 ef 8d 3d 6f 0d 01 be d8 b9 d2 bd
       0.12973478 0.06930439 -0.12602781 -0.10289353
0001d0 0a a8 82 bc d8 70 fa bd 8c 95 1b be 18 fd ac bd
       -0.015949268 -0.122285545 -0.15193766 -0.08446711
0001e0 54 03 3c 3d c8 84 e4 3b 77 ab d6 3d 0a 12 34 be
       0.04590161 0.0069738366 0.10481923 -0.17585006
0001f0 e1 32 05 bd 9b ed b9 bc 02 d1 67 3d 2e 26 1d ba
       -0.032519225 -0.022696307 0.05659581 -0.0005994764
000200 5e 44 cb bd ab 36 be bd 7e 57 fa 3d 6b 02 cf bd
       -0.099251494 -0.09287771 0.12223719 -0.10107883
000210 e8 f9 3a 3e 2d 4c a3 3d b6 1c 1e be d9 7d 3b be
       0.18259394 0.07973514 -0.1544064 -0.18309726
000220 3a 84 e9 3c dc 83 01 3d 4d bd 22 be 44 a4 42 be
       0.028505433 0.03161989 -0.15892525 -0.19007975
000230 fe dc 0a be 91 2c d3 bd 20 f1 b8 3d 72 f7 03 be
       -0.13560864 -0.10311235 0.09030366 -0.12887362
000240 c3 3d 3f be 82 71 d0 3b cc ca 39 bd fd fd 1f 3e
       -0.18675904 0.0063611874 -0.045359418 0.15624233
000250 1a 61 29 be 38 67 94 bd 51 a8 a5 bc d2 90 0f 3e
       -0.16540948 -0.0724625 -0.020221861 0.14020088
000260 19 ee 4b 3e 6d 26 69 3c 04 5b e7 3d 7e 10 8e 3b
       0.19915046 0.014230353 0.11296657 0.004335462
000270 37 c7 bf 3c 96 8d f2 3d 05 54 50 3e 30 94 b4 bc
       0.023410423 0.118434116 0.20344551 -0.022043318
000280 e3 db 86 bd b1 53 44 3e 35 bc 2a 3d 4e 79 a2 bc
       -0.06584909 0.1917255 0.041683394 -0.019833233
000290 80 fa 46 3e c6 10 65 3d ce 48 80 3c 2f 04 32 3d
       0.19431496 0.0559242 0.015659716 0.04346102
0002a0 3e 7d 08 3e c0 a2 ad 3d 3f 30 ca bd f8 3e c6 3d
       0.13329026 0.08478308 -0.098724835 0.09679979
0002b0 2a 81 30 3d 69 f5 03 3e b1 6d 37 3c e9 0f 4e 3e
       0.04309193 0.12886585 0.011195586 0.20123257
0002c0 5f db 0f 3e cc fe 10 bd 04 d7 3f bd d3 53 29 bd
       0.14048527 -0.035399243 -0.046835914 -0.041339707
0002d0 e7 50 fa 3d 0f b7 35 3c a2 91 17 3e 6e 0a ef 3d
       0.12222462 0.011091008 0.14801648 0.11671911
0002e0 07 8e 1d 3d 8b d5 fa 3d bc a3 7d bd a0 8f 68 3d
       0.038465526 0.12247761 -0.061923727 0.056777596
0002f0 8f 89 b5 bc b5 f0 50 3e 72 f5 29 3e b9 08 86 bc
       -0.02216032 0.20404322 0.16597536 -0.016361581
000300 3f fa 02 bd 06 26 b8 3d e9 1f 00 3e 45 35 d4 3d
       -0.031976935 0.089916274 0.12512173 0.10361723
000310 35 26 b9 bd 24 be 8d 3c c2 5f 7d 3e 1d 16 e6 3c
       -0.090404905 0.01730258 0.2474356 0.028086716

backbone.0.bias f4 [4]
000000 16 f6 0c be 83 80 f8 3d f5 2d 10 3e a4 8e 05 3d
       -0.1376575 0.12133887 0.14080031 0.032606736

backbone.2.weight f4 [8, 4, 5, 5]
000000 71 da c3 3d 1c 8d d9 3c 86 34 ae 3d ca f3 cb 3d
       0.09563149 0.026556544 0.08506112 0.099586084
000010 de c7 af bc 69 50 88 bd 7c b1 88 3b 79 c6 63 3d
       -0.021457609 -0.06655962 0.0041715484 0.0556092
000020 8f 25 c3 3d 31 34 f6 bb f2 01 84 3d 0a 4c eb bc
       0.09528648 -0.007513546 0.064456835 -0.028722782
000030 bb 27 8d 3c 03 c7 e1 bc 7e 5e 83 bd c2 bb 4d bd
       0.017230859 -0.027560716 -0.06414507 -0.050227888
000040 f2 aa e2 3d 37 a8 a9 bc f1 46 af bd 97 3c a9 bd
       0.110677615 -0.020710094 -0.08558453 -0.0826351
000050 3c 4b 1a 3e 47 1c 8d 3d c9 89 a7 3d 6c ad 87 3d
       0.15067762 0.06890159 0.08180577 0.066248745
000060 2e 3e c9 3d 05 77 40 be 83 d9 52 be e5 f7 11 bd
       0.09826313 -0.18795402 -0.20590787 -0.0356368
000070 05 bd f1 bc 60 28 65 bc 41 3a 77 be 74 3b 4f be
       -0.029509077 -0.013986677 -0.24143316 -0.20237523
000080 02 46 e5 bd 07 a3 9b bd 0f 3a 2b be 03 24 30 be
       -0.111949936 -0.075994544 -0.16721366 -0.17201237
000090 5a f2 06 be 62 94 e6 bd 5c a5 23 be 64 a8 e7 bd
       -0.13178387 -0.112587705 -0.15981048 -0.11311415
0000a0 b1 80 21 be 25 ef 79 be 36 b4 88 be 43 9a 17 be
       -0.15771748 -0.24407633 -0.2669999 -0.1480494
0000b0 fd 05 08 be 35 ad 20 be d0 ba 23 be 05 3b de be
       -0.13283534 -0.15691073 -0.15989232 -0.43404403
0000c0 37 14 a5 be 51 11 10 be 42 e2 3b 3b af 21 b0 bd
       -0.32241985 -0.14069106 0.0028668796 -0.08600175
0000d0 24 03 18 be 71 51 4e bd 77 d0 7a bc 11 ff 6a bd
       -0.14844948 -0.050370637 -0.015308491 -0.057372157
0000e0 87 0f 0e be fc 9b 12 be 21 13 80 be 4a 19 91 bd
       -0.1387311 -0.14317316 -0.25014594 -0.07084902
0000f0 17 9e 5b bb e3 b9 fc 3b 13 f7 4e be 6d ac 19 be
       -0.0033510977 0.007712589 -0.20211439 -0.15007181
000100 e2 67 29 be 15 f4 8a be e5 c4 8f be 5e 45 9a be
       -0.16543534 -0.27139345 -0.28079906 -0.30131048
000110 72 0a 4d be 36 fa 72 be 26 31 e0 3c b2 78 52 be
       -0.20023516 -0.2372826 0.027367186 -0.20553854
000120 45 7b bf bd 60 fa 16 be c0 c5 85 be 86 67 35 bc
       -0.09349684 -0.14743948 -0.26127434 -0.011072045
000130 6a 82 19 3b 65 73 b5 bd 83 9d 9f 3a 41 09 f2 bc
       0.002342368 -0.088599004 0.001217768 -0.029545428
000140 25 46 2f bd 9a 38 df bd 4e 4b b3 bc e0 41 34 bd
       -0.042791504 -0.10899468 -0.021886494 -0.044008136
000150 4c b3 54 bd 9e 3a 8e 3d a3 f9 dc 3d 63 5a 1a 3e
       -0.051928803 0.06944774 0.10789802 0.15073542
000160 3e d2 fd 3d 61 f1 80 3c ef 7c b6 bc 02 0d e6 3d
       0.12393616 0.015740098 -0.02227637 0.1123295
000170 05 31 01 3e ad 06 21 3e 9d 1b 34 3e 6f 4f 1e 3d
       0.12616356 0.15725203 0.17588659 0.038649973
000180 7a 86 29 ba a4 53 6e bd b7 b2 1b 3e 94 28 f6 3d
       -0.0006466877 -0.058185235 0.15204893 0.120194584
000190 cc 32 66 bd 77 48 f7 bc 64 59 a5 bc 94 4a 84 3d
       -0.056200787 -0.030185921 -0.020184226 0.06459537
0001a0 07 ea 81 3d 5d 12 d9 3d 72 56 9f 3b de ce 26 3c
       0.06343465 0.10599206 0.0048626 0.010181157
0001b0 e6 af 29 3d 0b 4c f7 3c 1d fb 7f 3d 0f 17 59 bd
       0.041427515 0.030187627 0.06249534 -0.053000506
0001c0 27 dd 03 3e 15 12 99 3d 31 60 99 3d 26 64 ab 3d
       0.12877332 0.07474152 0.0748905 0.08368711
0001d0 83 93 50 3b c6 79 ca bc 83 c5 fd bc 7d f4 95 3c
       0.0031826205 -0.02471627 -0.03097797 0.018305058
0001e0 f3 9e 8f bd c9 a3 33 3d b9 5f 8e 3d ac 5b b2 3d
       -0.07012739 0.04385737 0.069518514 0.08708891
0001f0 7a 42 56 3d e4 0d c2 3d 2c 17 44 bd 76 0d 27 be
       0.05230949 0.09475306 -0.04787366 -0.16313729
000200 7d 48 25 3d 28 2d f0 3c 3d c9 ad 3d c6 06 3c 3c
       0.040352333 0.029318407 0.08485649 0.011476224
000210 eb a1 de bd 10 76 71 3b b3 40 1b be e4 63 01 3e
       -0.10870727 0.0036844052 -0.151614 0.12635761
000220 32 e7 64 bd e8 46 3a 3d 05 13 8d ba ba f7 21 bd
       -0.055884548 0.045477778 -0.0010763115 -0.03954289
000230 76 5b 0b bd 87 96 5d 3d 7c dc 01 3e b7 4b a2 bd
       -0.03402277 0.054098632 0.12681764 -0.07924598
000240 a1 34 b5 bd 97 32 2c bb f6 bb 29 bd 62 8e 55 bd
       -0.08847929 -0.002627527 -0.04143902 -0.05213774
000250 a6 f3 12 3d 20 2f 8b bd 26 8f 2e bc 1f 49 ae bd
       0.035876893 -0.06796098 -0.010654246 -0.085100405
000260 db e4 ca bd c2 2a ff bd 0f 98 fa bd e2 1a 7f 3d
       -0.09906932 -0.12459327 -0.12236034 0.062281497
000270 75 bb 91 bc 00 7c d6 bd 06 3b aa bd 51 7d 06 3d
       -0.017789582 -0.1047287 -0.08312039 0.032834355
000280 9b 20 9b bd a6 51 e2 bd af 5d 3c bd ec 4d be bd
       -0.075745784 -0.110507295 -0.04598778 -0.09292206
000290 5b f6 59 3d a7 bf 7f 3d 84 4a 40 3d d9 78 b9 bd
       0.05321346 0.062438633 0.046946064 -0.09056253
0002a0 9a ab 4d 3c b5 c1 31 bd 51 5d 18 3e 8d ec b7 bd
       0.01255312 -0.043397624 0.14879347 -0.08980665
0002b0 46 8b b1 3a 3b a3 e0 3d c5 c4 1e be eb 30 d7 bc
       0.0013545535 0.10968634 -0.15504749 -0.026268443
0002c0 8a 0b e6 3d 99 99 38 3d cd 31 84 3e 43 9f 83 3e
       0.1123267 0.045068357 0.25819245 0.25707445
0002d0 af 1a 9a bb d0 aa 55 3d a8 3a 1b bc b4 03 ae 3d
       -0.004702888 0.052164853 -0.009474434 0.084968
0002e0 c4 3a 11 3e 56 b5 f0 bc 6c 00 c2 3c d9 f7 d4 3c
       0.14182574 -0.029383343 0.023681842 0.02599709
0002f0 21 cb a1 3d 61 f9 eb 3d b8 1c 11 3d 3e 99 ac 3d
       0.07900072 0.115221746 0.03542778 0.08427666
000300 bf 3b 3f 3c 30 f0 a4 bc 3c b1 0a 3a e7 b8 a8 bc
       0.011671959 -0.020134062 0.0005290692 -0.02059598
000310 62 cf 2b bd 63 16 bc 3d 0f 47 4c 3d 6c 8e bd 3d
       -0.041945823 0.091839574 0.049872454 0.092556804
000320 7b 95 48 bd c4 a2 24 3d 0b 56 c6 bc 7d 1d 88 3c
       -0.04897068 0.040194288 -0.02421095 0.016615624
000330 a7 95 fa bd 9b c3 82 3c 34 bc 9d bd 86 2c 86 bd
       -0.12235575 0.015962413 -0.077019125 -0.06551461
000340 8e 7f 5c bd 77 02 e6 bd 77 cb 98 bd 59 20 cb bd
       -0.053832583 -0.11230939 -0.07460683 -0.09918279
000350 22 f8 3e bd c5 ff 17 be 35 21 4a 3d 73 97 87 bd
       -0.046623357 -0.14843662 0.049348075 -0.066206835
000360 da 01 46 bd a1 25 10 3d 46 cb 88 bd a7 d3 c0 bc
       -0.04834161 0.035192136 -0.06679396 -0.023538424
000370 5a da 6f bd 16 d6 c9 bc 7f 46 02 be 0a 46 04 be
       -0.058557846 -0.024638217 -0.12722205 -0.12917343
000380 c7 4f 56 bd f9 36 48 3d d1 f2 95 bd 5e 28 a9 bc
       -0.052322175 0.04888055 -0.07321704 -0.020649131
000390 f6 26 84 bc 5c 59 70 bb f9 7f 6a bd 84 49 60 bd
       -0.01613186 -0.0036674356 -0.05725095 -0.05475761
0003a0 f5 47 4e 3c 7e 9e 4c bd fb 4f fd bd da a1 3e be
       0.012590398 -0.049955837 -0.12368771 -0.18616429
0003b0 d9 49 91 bd 34 26 40 be e7 03 db bd 45 e6 79 bd
       -0.070941634 -0.18764573 -0.10694104 -0.061010618
0003c0 3a c6 12 bc b7 47 59 bd 61 21 33 be 83 75 8a bd
       -0.008958394 -0.05304691 -0.17493202 -0.06760695
0003d0 3a 0f 6c 3d d0 4d d0 3c 2e 36 fb b8 4b ac 80 bd
       0.05763171 0.025427729 -0.000119787044 -0.06282862
0003e0 06 c7 27 bc 46 ce 61 3d 20 aa 12 3c 0f 33 c0 bd
       -0.010240322 0.05512836 0.008951694 -0.09384739
0003f0 2b dc 2e bd fd 82 cd bc 51 1c 60 ba 58 a8 14 be
       -0.042690437 -0.025086874 -0.00085491413 -0.14517343

backbone.2.bias f4 [8]
000000 d3 19 02 be b8 30 90 bd 48 5b a0 3d a5 64 e1 bc
       -0.12705164 -0.07040542 0.078299105 -0.027513811
000010 e2 93 de bd e0 8f b2 3b d4 64 22 bd 00 d5 36 3c
       -0.1086805 0.00544928 -0.03964694 0.011159182

backbone.4.weight f4 [8, 8, 3, 3]
000000 28 4a 11 bd 3a 9e af 3e 7c a2 c2 3e da 00 db 3d
       -0.03547111 0.34300405 0.3801459 0.10693522
000010 f7 62 c2 3e 1c 0b db 3e 42 6c bc 3e 7a d6 e3 3e
       0.3796613 0.42781913 0.36801344 0.4449957
000020 51 b8 28 3e e2 3a 32 bd 7b 45 ed bc 9c f3 d2 3d
       0.16476561 -0.043513186 -0.028963795 0.10300371
000030 32 d5 ff bc ee ca 1a be da 11 5a 3e 86 95 d0 3b
       -0.03122959 -0.15116474 0.21295872 0.006365481
000040 7d 8a 8e bd 91 b8 f6 3d 5d 44 49 bd 3a 43 af bb
       -0.06960008 0.12046922 -0.049137462 -0.00534859
000050 2a d5 01 3e 58 94 ba bd 1c ce 39 3d 9e 47 0e 3e
       0.12678972 -0.091103256 0.045362577 0.13894507
000060 27 81 a1 3d 9e 89 d0 3d a5 e4 ad bc af 63 c4 bd
       0.07885962 0.101824984 -0.02122719 -0.09589326
000070 0f 9c a5 be 5e b6 c3 bd 0f 9e ee bd 31 e9 3f be
       -0.32345626 -0.09556268 -0.11651241 -0.18741299
000080 3c ad 5b bd b8 f1 b1 bd 1c 77 c9 bd 6f 3d 52 be
       -0.053632006 -0.08688682 -0.098371714 -0.20531248
000090 2b 3c a9 bd 72 9e 28 3e f7 68 9e 3e d5 5b 1d 3e
       -0.08263429 0.16466692 0.30939457 0.15367062
0000a0 f4 20 aa 3e e9 0a 0a 3f da e2 99 3d 71 47 b8 3e
       0.33228266 0.539229 0.075139716 0.35992005
0000b0 68 d4 ef 3e 26 ec e4 bd ce 2e 91 3e d9 5d bf 3e
       0.4684174 -0.11177854 0.28356022 0.37376288
0000c0 e1 64 43 bd d2 29 e9 3e bf ef 11 3f 4a a8 9d 3e
       -0.047703627 0.4553972 0.5700645 0.30792457
0000d0 1c 09 04 3f c0 7e 8a 3e 87 fe 65 be 8c 7b 3d bd
       0.515764 0.27049828 -0.22460376 -0.0462604
0000e0 f4 bc 4f 3e 84 f9 58 be 36 8b cc 3d be 75 02 3f
       0.20286924 -0.21188933 0.0998749 0.5096091
0000f0 34 7d 13 3e 40 44 a0 3e ed 25 b1 3d 56 2c 1c ba
       0.1440323 0.3130207 0.08649812 -0.00059575343
000100 3f d5 2e be f7 14 3f 3c 4d 73 b2 3c 69 71 27 3d
       -0.17073534 0.011662713 0.021783495 0.04087964
000110 3e 12 31 bd 73 5a 41 3c 0f fd 0f be 66 e1 ff bc
       -0.043230288 0.01180135 -0.14061378 -0.031235408
000120 e3 94 44 bd f9 d4 6f 3d cf 7f 55 3e c6 31 a2 3e
       -0.047993552 0.058552716 0.20849536 0.316786
000130 e5 50 af 3e 7d 24 c3 3d fd 13 cb 3a 3c d0 c4 3d
       0.34241405 0.09528444 0.0015493628 0.0961003
000140 df a6 84 3d 7a 10 f4 3c 48 7e 07 be 76 29 9b be
       0.06477141 0.029793013 -0.13231766 -0.3030507
000150 54 cb 40 3d 08 8d 69 3b 16 7b 3b bd 77 12 99 3d
       0.04706891 0.003563704 -0.04577168 0.07474225
000160 92 11 ba 3d 32 8e c3 3d 1c 3e 61 bd 1d 1e 36 bd
       0.090853825 0.09548606 -0.054990873 -0.044462312
000170 cb bf 2d be e0 e6 f5 bd e1 b4 2d 3d 09 c9 c3 bc
       -0.16967694 -0.120069265 0.042408828 -0.023899572
000180 a4 aa 18 be 68 c7 cb bd c8 34 8b bd 9e 6c 4a 3d
       -0.14908844 -0.09950143 -0.067971766 0.04941999
000190 f6 ae ce bd da 9c d7 3d ee ed a1 3d 3d ea 5a 3d
       -0.10091965 0.10527964 0.079067096 0.053446043
0001a0 a1 03 b5 bd 43 9c 8a be f6 f5 08 bd a0 6b 4c bd
       -0.08838583 -0.27072343 -0.03343769 -0.049907327
0001b0 67 e7 d1 3d 8a 1b 29 bd a0 cc 39 bd 41 c0 29 3d
       0.102492146 -0.04128603 -0.04536116 0.041443113
0001c0 07 4f 4c 3e 9b d5 5b 3d 24 35 0e 3e 80 e7 e1 3d
       0.19952022 0.053670507 0.13887459 0.11030483
0001d0 dd 0c a5 3d 77 ac 04 be ad 12 9b bd 6a eb 84 3d
       0.08059094 -0.12956415 -0.075719215 0.06490214
0001e0 25 ac 8b bb 5c f1 d1 3b 75 94 7c bc d2 fb 2a 3e
       -0.0042624646 0.006406946 -0.015416254 0.16697624
0001f0 d6 ac 71 3e d8 2d 6b 3d e5 28 4f bd 93 83 f9 bb
       0.23601088 0.057416767 -0.05057611 -0.007614562
000200 46 1c 38 bd 39 2b 00 bc c5 39 76 3b bd 9f 92 3d
       -0.04494884 -0.007822805 0.0037571054 0.07159374
000210 52 1d 60 bd 26 50 44 3d ed 7d b7 3d 40 17 5c be
       -0.054715462 0.047927998 0.08959565 -0.21493244
000220 f1 5e b8 3d 5a 2f a6 3d c7 22 6c be d8 8b 99 bb
       0.09002484 0.081145 -0.23060142 -0.00468586
000230 2b 4e 09 3d d3 f2 60 be bf d1 a1 bd a3 37 82 bd
       0.033521812 -0.2196763 -0.07901334 -0.06358268
000240 13 b2 a8 be 9a c6 0d bf bd db 14 bf b6 9f 01 be
       -0.3294836 -0.55381167 -0.58147794 -0.12658581
000250 c5 5f 8f be e5 b5 78 be 1d 55 73 bc fd da 48 be
       -0.28002754 -0.24288137 -0.014851836 -0.19614787
000260 26 29 2c bd 7e 62 5b bd d0 c0 7c bc c9 e8 7e bd
       -0.04203143 -0.053560726 -0.015426829 -0.06223372
000270 fd f8 0a 3e b2 43 4e bc 5a b9 52 be ba cf 77 3c
       0.13571544 -0.012589382 -0.20578519 0.015125209
000280 25 09 05 3e 86 c2 45 bc ef 37 1e bc be f9 82 bd
       0.1299177 -0.012070304 -0.00965689 -0.06395291
000290 f9 5e 07 be 92 76 22 3e 1f 71 2f 3e af 7b 7a bd
       -0.13219823 0.15865543 0.17132996 -0.06115311
0002a0 3a 64 9b 3e ec f3 c6 3e 7e 61 75 3e f2 50 51 3b
       0.30349904 0.38857973 0.23962972 0.0031939116
0002b0 5b 57 7d bd b6 66 4a bd c1 06 a9 bd 35 31 fc bc
       -0.061850887 -0.04941436 -0.08253241 -0.030785182
0002c0 d2 6c 9e 3d 10 e6 5b 3e 94 1c 68 3c 96 3d 4d 3c
       0.077355996 0.2147448 0.01416697 0.01252689
0002d0 3e 6a 53 be 87 22 ea be dc c3 5f be f1 f0 47 be
       -0.20645997 -0.45729467 -0.21852058 -0.19525506
0002e0 a1 70 a9 be 49 30 a5 be 0b 2d 42 be ef 73 35 bd
       -0.33093742 -0.322634 -0.18962495 -0.044300016
0002f0 70 28 22 be 1f 6a 8c be 49 e2 6c bd 24 ab 6b be
       -0.15835738 -0.27424714 -0.05783299 -0.23014504
000300 96 af 9f bd ff e8 36 be f9 31 88 be a4 c6 6e bd
       -0.07797162 -0.17862318 -0.26600626 -0.058294907
000310 91 c0 8e bd e6 5f 38 be e8 46 a1 bd 2b 1a d8 bd
       -0.06970323 -0.18005332 -0.078748524 -0.10551866
000320 a4 fd 58 be 8f 46 e9 3c 11 e8 d8 bc f0 ba 1d be
       -0.21190506 0.028476028 -0.026477845 -0.15403342
000330 c9 59 3c 3e e0 c0 98 3e 3b 31 7b 3e 14 33 8b 3c
       0.18393625 0.29834652 0.24530499 0.01699213
000340 fb c5 17 bd 06 db f4 bd 47 0e 01 bd cc 30 57 bd
       -0.037054043 -0.11955838 -0.031507757 -0.05253677
000350 5c bf e7 bc 4d 34 85 bd 09 7e ff 3c 9e de 56 3d
       -0.02828949 -0.06504116 0.031188028 0.052458398
000360 64 18 02 3e d9 10 87 3e 09 20 2d 3e 07 3a b5 3e
       0.12704617 0.2638004 0.16906752 0.35395834
000370 99 48 e3 3e a8 3d 23 3e c4 21 30 3e bd 72 e3 3e
       0.44391325 0.15941489 0.1720038 0.44423476
000380 79 4a 26 3e de 69 5a be 9d aa d6 bd f0 76 05 be
       0.16239347 -0.21329448 -0.10481761 -0.13033652
000390 8f fd 6e bd c6 ce b5 bd 2d f4 05 3e 67 a9 1b bb
       -0.05834728 -0.088773295 0.13081427 -0.0023752095
0003a0 a5 41 0a 3e fe 30 46 3d a7 75 58 be 74 96 47 3a
       0.13501604 0.048386566 -0.21138631 0.0007613667
0003b0 9f c8 8b bc ee af a7 bd e9 12 8d bc b3 bb ee bc
       -0.017063437 -0.08187853 -0.017220931 -0.029142236
0003c0 7a ad 77 3d 62 13 ba 3d 2f 58 96 3d 8c 6c 84 bd
       0.060468175 0.09085728 0.073410384 -0.06466016
0003d0 df bb 09 be fd 0f b3 bd b7 82 9e be ae 32 6d 3d
       -0.13450573 -0.08743284 -0.30959103 0.05790966
0003e0 be 99 5c bd 82 1e ab be 93 81 a1 bd 0f 9a 63 3c
       -0.053857557 -0.33421713 -0.078860424 0.013891711
0003f0 34 9a af bc b8 a0 4f bd 01 d8 ba 3d 04 0e 9a 3d
       -0.021435834 -0.050690383 0.09123231 0.075222045

backbone.4.bias f4 [8]
000000 8e 66 5f bd 63 34 cd bc a6 03 e3 bc 8b 8e ac bd
       -0.054541163 -0.025049394 -0.0277117 -0.084256254
000010 74 d8 63 bc b8 32 2d be 7d 5c 9b 3c d9 04 bb bd
       -0.013906587 -0.16913879 0.018965 -0.09131784

backbone.6.weight f4 [16, 8, 3, 3]
000000 52 da 57 bd f4 1d 2b 3d 09 6d 2f be 3d be 83 3d
       -0.05269844 0.041776612 -0.17131437 0.064327694
000010 f1 b2 d6 3d 88 3d a1 3d ef b5 4c bc d4 df 72 3e
       0.10483349 0.07873064 -0.012494548 0.23718196
000020 93 21 83 bc f3 53 e8 bd 38 d9 10 be d8 8e 8c bc
       -0.01600722 -0.11344137 -0.14145362 -0.017157957
000030 7f c7 6e be 55 8f c6 3b 9b 9d e8 3d b5 b7 d3 be
       -0.23318289 0.006059567 0.11358186 -0.41351095
000040 a9 cd bb bd 6c 75 7c 3e 58 3d 11 be 2f 76 05 3d
       -0.09170086 0.24654168 -0.14183557 0.03258341
000050 68 fc 88 3d a9 90 c3 bd bf ed 3d bd 3c b6 bd 3e
       0.06688768 -0.09549076 -0.04636931 0.37053096
000060 2b e2 69 3d a2 dc bd 3c ef 4c 88 3c 5c 8f 8a bd
       0.057100456 0.023176495 0.016638247 -0.06765625
000070 f1 b6 64 3d d1 9d c2 3d 39 05 23 be 1f 37 a2 3d
       0.05583853 0.09502757 -0.15919961 0.0792067
000080 84 36 61 3e 21 7c 31 be a9 b8 92 3d 71 ce 0a 3d
       0.21993452 -0.17332508 0.071641274 0.033888284
000090 56 32 bb bd da 2f 21 3e 8f 2e 58 bd 62 5b 53 3c
       -0.0914046 0.1574091 -0.052778777 0.012900205
0000a0 a0 55 09 3e 5c cb 95 3c df 88 08 3d dc b5 66 bd
       0.1341157 0.018285446 0.033333655 -0.05632578
0000b0 bd 3e 9c bd 59 e9 44 bd 18 eb 97 bd 3f f2 48 3d
       -0.07629154 -0.0480741 -0.074178874 0.04905915
0000c0 15 3c 8f be 54 0f 1d be 3b 16 f1 3d 41 f7 86 be
       -0.27975526 -0.15337878 0.11771818 -0.26360515
0000d0 a5 45 ec bd 46 24 00 3e d1 c6 8b 3a 66 0b 5b bd
       -0.11536721 0.12513837 0.001066411 -0.053477667
0000e0 3d f6 e3 bd cb 6e d3 bd a3 e4 ee 3d e9 ee 81 be
       -0.111309506 -0.103238665 0.11664703 -0.25377586
0000f0 23 8d 1f 3e 84 a7 a1 3e fd 7d c3 3d 06 07 f1 3b
       0.15581183 0.31573117 0.09545515 0.0073555736
000100 a5 de 98 3d ab 21 30 bd f8 97 4b bd ce 8e 83 3c
       0.07464341 -0.04300086 -0.049705476 0.016059306
000110 a2 08 10 bd ab a2 6d bb a3 8e 17 3e 47 23 fc 3d
       -0.035164483 -0.0036260288 0.14800505 0.12311416
000120 6c c8 a8 bd 95 95 c2 3c f1 94 47 bb c6 86 ec 3d
       -0.082413524 0.023752967 -0.0030453766 0.115491435
000130 a5 4f 1f 3e 62 51 a6 3e 23 e6 e0 3d a6 a4 66 3e
       0.15557726 0.32483965 0.10981395 0.22523746
000140 d4 20 61 3e 28 f9 23 3d ec 4a 66 be 84 d8 1c 3d
       0.21985179 0.040032536 -0.22489518 0.038292423
000150 e9 32 ad ba c9 98 02 3d 1c 0a 33 3e 49 14 65 3e
       -0.0013214025 0.03188399 0.17484325 0.2237102
000160 9b 4a d0 3d ff f4 63 3e 91 be 09 bf 39 21 03 3d
       0.1017048 0.22261427 -0.53806406 0.032014105
000170 be ac 1c 3c f3 79 e9 3c 95 5e 11 3e b7 bd af 3d
       0.009562669 0.028500533 0.14196236 0.08581107
000180 10 33 35 3e 6c 50 00 be ef c6 3c be 42 d0 2d be
       0.1769526 -0.12530679 -0.18435262 -0.16973975
000190 d8 e8 c3 bd b8 87 7d 3e a7 64 94 bc 20 61 6e 3e
       -0.09565896 0.24758804 -0.018114401 0.23279238
0001a0 8f 70 85 3e 40 cc 23 3e 3c 92 ae 3c 7c b2 95 3d
       0.26062438 0.15995884 0.021309964 0.07309434
0001b0 da 39 52 bc 70 eb 46 3d 04 69 9e 3d 91 ed 25 be
       -0.012831176 0.048564374 0.07734874 -0.16203906
0001c0 ef 18 e6 bd ce 70 a9 bd 9b f6 08 be 3f 08 7c 3d
       -0.112352245 -0.08273469 -0.13375323 0.0615313
0001d0 6c 38 e5 bd bc 91 f6 bd 00 62 76 bb 56 e6 3d bd
       -0.11192402 -0.120395154 -0.0037595034 -0.046362244
0001e0 b3 45 c3 bd 39 4f f2 3d 50 2e 1b 3e 15 88 96 3e
       -0.095347784 0.11831517 0.15154386 0.29400697
0001f0 7e 2d f0 3d 41 e4 cb 3e d9 29 11 3d 62 49 c8 bd
       0.11727427 0.3982258 0.0354403 -0.09779622
000200 5f 22 9a 3c d3 fe 98 be 04 7d 9a bd 18 1b eb 3d
       0.018815218 -0.29881915 -0.07543376 0.11479777
000210 27 aa ec bd 02 98 9b 3c 99 a9 29 3e e2 f4 09 3d
       -0.115558915 0.018993381 0.16568603 0.033680804
000220 61 e3 1a 3c 2b 6d eb 3c f6 1a a0 3d 76 23 49 bc
       0.009453625 0.028738579 0.078176424 -0.012276521
000230 49 51 9f 3d e0 91 2d bc d8 57 7c 3e ac 7c 8c bd
       0.07779176 -0.010593861 0.24642885 -0.06859717
000240 a1 8b e2 bd 7b 03 91 be a7 f5 50 be ef f5 aa 3c
       -0.11061788 -0.28322968 -0.20406209 0.020869223
000250 59 46 e4 bc 66 d4 bc 3c f4 87 ca 3c 20 f8 8c 3e
       -0.027865576 0.023050498 0.02472303 0.27533054
000260 fa c1 b4 3d 12 18 33 3d 93 fe 88 be e1 fd a0 3c
       0.088260606 0.043724127 -0.26756725 0.019652309
000270 c4 f3 40 3d d4 15 1b 3e 6c 69 01 bc bf a4 aa 3e
       0.047107473 0.15145046 -0.00789867 0.33328816
000280 4a 0b bf 3d 87 ea 9f 3c f2 39 8f bd f4 f8 f4 bd
       0.09328325 0.019521011 -0.06993474 -0.119615465
000290 db 8e 4d bd 09 f3 cc 3b f7 27 a7 3d 81 52 89 3a
       -0.050185066 0.006254558 0.081619196 0.0010476859
0002a0 50 14 8c bb f7 fe 55 3c 55 3f 43 bd 7a 66 74 be
       -0.0042748824 0.013061277 -0.04766782 -0.23867217
0002b0 a2 88 86 be a3 f7 90 be 8b bf 6b bd 0d ba 41 bd
       -0.26276118 -0.28313932 -0.057555716 -0.047296572
0002c0 7c ba 26 3e 48 8f 5f 3e 0b 5e 29 3e b2 d0 47 bd
       0.16282076 0.21832001 0.16539781 -0.04878301
0002d0 7e 5b 34 3e a3 1d 0e be 8e bb d1 3d 6e b9 3f bd
       0.17613026 -0.13878493 0.10240851 -0.0468077
0002e0 a5 ea 96 bd 6e 16 09 be cc 58 8b 3d 61 b8 21 bd
       -0.07368974 -0.13387462 0.06804046 -0.039482478
0002f0 b5 93 01 3c 07 67 04 3d 95 4e 63 be 58 ec 9a 3d
       0.007908751 0.032324817 -0.22197945 0.0756461
000300 e8 2e 6e 3a 6f 9e c4 3d 01 4e 29 be 40 ee ef 3d
       0.0009085969 0.09600531 -0.16533662 0.117153645
000310 b3 db 50 3e 44 1b 8c bd 94 f8 73 3d 71 1a 9d 3c
       0.20396309 -0.06841138 0.059563234 0.019177647
000320 3f 0a 22 be 4e 58 ae bd 97 57 a9 be 8b 9d 6a be
       -0.15824221 -0.085129365 -0.33074638 -0.2291166
000330 e4 37 a0 3d 6d b0 c4 bd 14 bb 15 3e ce 52 33 be
       0.0782316 -0.09603963 0.14622146 -0.17512056
000340 e5 d6 ef bd c5 3c 3f be 85 51 fc bd 3d d6 d2 bd
       -0.1171091 -0.18675525 -0.12320236 -0.10294769
000350 cc ea 01 bc 5a 5c bf 3d 82 e5 a3 3e 0b 80 85 ba
       -0.007929515 0.093437865 0.32011038 -0.0010185255
000360 29 b4 97 bc 6a e4 2a 3d 42 01 77 3c f4 47 91 3e
       -0.018518524 0.04172174 0.0150759835 0.28375208
000370 5e 51 c9 3d 44 f2 95 bd df f5 41 3e cf cb 9d 3d
       0.09829973 -0.07321599 0.18941449 0.07704889
000380 d1 08 44 bd d5 e1 2c 3e 03 49 13 be 62 05 90 bc
       -0.04785997 0.16883023 -0.1438332 -0.017580692
000390 33 78 65 3e 60 a2 a5 3e d2 08 09 3e ec f7 18 be
       0.22409134 0.32350445 0.13382271 -0.14938325
0003a0 59 01 20 3e 3a 07 d1 bd 7b 96 62 bd 5f 81 4b 3e
       0.15625514 -0.102064565 -0.05531929 0.1987357
0003b0 7c 11 88 be a9 c5 c8 bd 06 c2 b5 bb 7d 58 9d be
       -0.2657584 -0.09803326 -0.005546811 -0.30731574
0003c0 99 09 85 bd 3d 87 b7 bd e5 75 de 3d 1e 09 99 3e
       -0.06495971 -0.089613415 0.1086233 0.29889768
0003d0 ee b5 88 3d fb 2e c0 bc b2 aa 82 3e 99 21 9d 3e
       0.06675325 -0.023459902 0.25520855 0.30689695
0003e0 96 34 f0 3d 37 99 0f be ee cb 65 3d 91 4e d1 bd
       0.1172878 -0.1402329 0.056102686 -0.102200635
0003f0 cb 1e 4a 3d 14 cf 19 be 95 76 ed bc c6 bc 28 3d
       0.049345773 -0.150204 -0.028987208 0.041195653

backbone.6.bias f4 [16]
000000 79 fa f4 3b ed 92 67 bd 96 26 62 bd cc 32 a1 bd
       0.0074761477 -0.056536604 -0.05521258 -0.07871017
000010 9c 7f c7 bd ee fb 73 bb ec fb 4d 3d df bc ab 3d
       -0.097411364 -0.003722902 0.05028908 0.08385634
000020 e4 99 42 bc a1 3e 95 3d 56 aa 80 bd 69 54 c4 3d
       -0.011877511 0.07287336 -0.06282489 0.095864125
000030 20 9b 11 3d 87 d3 c1 3d ea ff e5 3c 6d 65 be 3d
       0.03554833 0.09464174 0.02807613 0.09296689

backbone.10.weight f4 [11, 1024]
000000 96 c7 65 3c 20 48 bf 3d 67 c8 b5 bb 48 38 04 be
       0.014024636 0.093399286 -0.0055475715 -0.12912095
000010 c3 71 cb bd cd 70 55 3e e6 1e a5 3b 5f 55 0f be
       -0.09933808 0.20843811 0.005039084 -0.1399741
000020 8a e8 e4 bd ef a5 cd 3c f3 1c 07 3d cc 50 09 3c
       -0.11177166 0.025103537 0.032986593 0.00838108
000030 4f 17 10 3e 5f 30 6c bd 0f 0e c8 3d 3c dd b7 3e
       0.14071392 -0.057663318 0.097683065 0.35910976
000040 e1 80 9e bd d7 12 fb bd 22 19 14 3d f5 df 5c bd
       -0.077394255 -0.12259453 0.03615678 -0.05392452
000050 c3 91 84 3c e8 e4 3c be 3f 1d 78 3d b0 c9 80 3e
       0.016182786 -0.18446696 0.060574766 0.25153875
000060 a3 56 a5 3d cd cb e5 bd bb 06 91 bd 5f 44 0c be
       0.08073165 -0.112205125 -0.07081362 -0.13697957
000070 64 fa a2 bd f7 3e 37 be 90 54 64 3c ec ee 21 3e
       -0.079579145 -0.17895113 0.013936177 0.15813798
000080 cd c6 eb 3d 00 f4 ff ba 8b b6 c0 3d 51 1e 47 3e
       0.115125276 -0.0019527674 0.09409817 0.19445159
000090 e2 5e bf bd bb c1 68 3e 81 36 a7 be ec ea fc 3b
       -0.09344269 0.22730152 -0.3265877 0.0077184346
0000a0 7d 62 a3 bd d5 84 1a 3c 24 af 97 bb e9 39 6e bb
       -0.079777695 0.009431084 -0.0046290327 -0.0036350435
0000b0 58 a1 19 3e b6 3a b2 3d 9b e4 c9 be ee ba 55 bd
       0.15002954 0.087026045 -0.39432225 -0.052180223
0000c0 3c 4b 20 3c 76 91 76 bd f2 1e 28 bd 32 f4 5d 3d
       0.009783562 -0.060197316 -0.041045137 0.05418796
0000d0 af 8f e2 3c 4e 26 5a 3d b0 24 a2 bd fd 80 1d bd
       0.027656404 0.053259186 -0.07917154 -0.03845309
0000e0 67 33 10 3d fc df 18 bd 70 b1 2c be 59 c9 bc 3b
       0.03520527 -0.037322983 -0.16864562 0.005761307
0000f0 5b ac 76 bc d3 c1 b8 be 88 df a9 bc 31 c7 b0 3d
       -0.015055741 -0.36085376 -0.02073647 0.08631743
000100 e4 a2 f0 bc 11 9f 13 bd 59 a7 67 3c 67 16 97 bd
       -0.029374547 -0.03604037 0.01413902 -0.0737732
000110 26 9d 74 bc 80 02 9f 3d cf 32 22 3d a2 82 95 bd
       -0.014930045 0.07764149 0.039599236 -0.07300307
000120 80 e8 fa bc e0 5f e8 b9 63 49 f8 3b 58 83 2f bc
       -0.030628443 -0.0004432192 0.0075771078 -0.010712467
000130 75 01 34 3d ec 68 2f 3c 9f a8 7c bd 68 d7 46 3e
       0.043946702 0.010706168 -0.061684247 0.19418108
000140 67 dc bb bd 27 84 c1 bc e4 90 06 bd df b8 98 3c
       -0.09172898 -0.023622585 -0.032853022 0.01864284
000150 d6 df 0a bd 64 a9 9f bb 8c 83 77 bc 96 ed 0d 3e
       -0.033904873 -0.004872488 -0.015107047 0.13860163
000160 6f 28 58 bd 7d 13 1b be f4 ea ce bd 0a 93 96 bd
       -0.052772935 -0.15144153 -0.101034075 -0.07352264
000170 ad e1 ba bc e8 b8 ae bd b5 cd 73 bd 45 db cd 3d
       -0.022812689 -0.08531362 -0.05952235 0.10051588
000180 34 e9 e4 3d 41 bf 40 ba 4d ce 80 3d e4 17 85 3e
       0.111772925 -0.0007352718 0.06289349 0.2599479
000190 a9 9e ec bd 04 66 d5 3d 4e 89 e9 bd 25 c5 3e be
       -0.115536995 0.104198486 -0.11403142 -0.18629892
0001a0 48 ce 44 bb 91 20 10 be 68 f2 60 3d b2 e7 f2 3d
       -0.003003018 -0.14074923 0.054918677 0.118605986
0001b0 0c 45 e2 3d 5e ea 8a bd db 2b 8f 3d 6f 9e 44 bd
       0.11048326 -0.06782983 0.06990787 -0.048002657
0001c0 00 25 b0 3d 6d 36 ba bc 3e 6c bf bd 46 6b e3 bd
       0.08600807 -0.02273103 -0.093468174 -0.11104445
0001d0 a7 b3 27 bd 58 40 1e 3d 7a 32 d2 3c 25 c0 98 3d
       -0.040942814 0.03863558 0.025658835 0.07458524
0001e0 44 d9 33 be b8 a2 05 3d 66 81 2e 3d 08 e0 65 be
       -0.17563349 0.032625884 0.042603873 -0.22448742
0001f0 9b 51 89 bd db 25 72 be 61 5d 0f be af e1 2e 3d
       -0.06705018 -0.23647253 -0.14000465 0.042695697
000200 2d 80 23 bd 40 d2 95 bd eb be 8b be bd 9d 45 be
       -0.03991716 -0.07315493 -0.27294096 -0.19298454
000210 21 c1 b4 3c e7 09 48 3e f5 44 20 3e bf ec 99 bd
       0.022064747 0.19535027 0.15651305 -0.07515859
000220 2e e1 f3 be e8 33 95 bb f7 30 82 be 55 af b2 bb
       -0.47632736 -0.004553307 -0.25427982 -0.00545303
000230 d5 dc 57 3d 8f 47 99 bd b2 93 6b be 71 02 00 3c
       0.052700836 -0.07484352 -0.2300556 0.007813082
000240 17 00 08 bf dc 9f 83 be de 72 a6 bd 17 13 0a 3d
       -0.5312514 -0.257079 -0.08127378 0.03370961
000250 37 ab bd 3c b0 22 3e 3c 5f 30 dd 3d 64 c7 9a bd
       0.02315293 0.01160495 0.10800242 -0.07557562
000260 e3 ee a0 be 3a 51 88 be 88 1d 4b 3c a6 29 83 bd
       -0.31432256 -0.2662447 0.0123971775 -0.06404428
000270 06 5e db 3d 7d c6 a1 bd e9 40 14 bf eb 37 ab be
       0.10711293 -0.07899187 -0.57911545 -0.334411
000280 f9 6a 17 be 01 f5 45 be 9a 5c 94 3d e2 12 6f 3c
       -0.147869 -0.19331743 0.07244225 0.014591904
000290 f5 58 2e 3e ce 8d 9a bd 23 dc 9c bd e1 e3 1c bf
       0.17026122 -0.07546578 -0.07659175 -0.61285216
0002a0 50 03 73 bd ad 9d 39 3c cd dc 09 be 33 b2 d9 3d
       -0.05932933 0.011329097 -0.13463135 0.10629692
0002b0 04 1c 1a 3e c3 af fc bd eb d4 b9 3c 86 da 68 be
       0.1504975 -0.123382114 0.022684535 -0.2273961
0002c0 70 41 55 3e 4c 54 d6 be 8d 66 e0 bd 2d 4a fe 3d
       0.20825744 -0.41861188 -0.1095706 0.12416492
0002d0 ef f5 81 3d 12 c4 b1 bd 93 b6 6f be c8 5e a1 be
       0.06345736 -0.086799756 -0.2340949 -0.31517625
0002e0 ab aa 84 be 4e 79 e1 bd c3 13 b9 be 8b 2f 86 be
       -0.2591146 -0.11009465 -0.3614789 -0.26208147
0002f0 8e 11 29 bd 05 5a b1 be 02 ec c4 bd 5b 01 70 be
       -0.041276507 -0.34638992 -0.096153274 -0.23438017
000300 f0 97 b1 3d a9 1d 8d be 31 f2 fa 3c 43 b0 03 be
       0.08671558 -0.2756169 0.030633064 -0.12860207
000310 e4 49 63 be 4d ea 85 bb 44 d9 37 bd 11 e7 3c be
       -0.22196156 -0.0040867687 -0.044884935 -0.1844752
000320 02 ba 08 be 80 d2 2d be 93 d5 01 bf ba a9 61 3c
       -0.13352206 -0.1697483 -0.50716513 0.013773376
000330 0b e7 75 bd 41 5d 85 3d 9f fa ea 3b 76 1d c8 be
       -0.060034793 0.065119274 0.0071709896 -0.39084977
000340 89 bd 93 bd 22 7a 3c be 58 69 64 be af 68 fd bb
       -0.07213885 -0.18405965 -0.2230581 -0.0077334265
000350 cf 86 10 3d 6b 30 03 3e 12 93 19 be 72 52 62 bd
       0.035284813 0.12811439 -0.14997509 -0.055254407
000360 ef df a3 be 7c 1f 0e be 1f 0d d4 3d 80 93 3d be
       -0.32006785 -0.13879198 0.10354065 -0.18513298
000370 9d 3f ef bd 6d 14 ec bc cd b1 b1 3d 29 0c 4d 3d
       -0.11682055 -0.028818334 0.08676491 0.050060425
000380 b0 90 a1 be 33 54 a4 bc a9 12 9e bd b8 59 1a 3e
       -0.315557 -0.02005968 -0.07718403 0.15073287
000390 66 61 48 3e 34 56 8e bd 12 3b a8 bd 3c 2e 1d bf
       0.19568405 -0.06950036 -0.08214392 -0.61398673
0003a0 1b f0 cc be 0f 72 ba bd 96 f6 52 be e2 96 2d 3e
       -0.40026936 -0.09103786 -0.20601878 0.16952088
0003b0 e0 b7 08 bd 99 bc 46 bd af 20 a2 bd 6c cc 3e be
       -0.033378482 -0.048519704 -0.0791639 -0.18632668
0003c0 64 81 7a be 29 07 06 3d fe fd 49 be 6f b2 e2 3d
       -0.24463421 0.032721672 -0.19725797 0.1106919
0003d0 37 ff 8d 3b 6d 62 a5 3d 08 98 06 be c1 89 00 3d
       0.0043334025 0.08075414 -0.13143933 0.031381372
0003e0 a7 b0 fd be 8e 1d c0 3d da 21 88 bd e5 a6 0f 3e
       -0.49548838 0.09380637 -0.06647082 0.14028509
0003f0 03 e9 97 be 73 f4 92 3d 96 a3 aa be 8b 36 ad be
       -0.2966996 0.07175531 -0.3332793 -0.33830675

backbone.10.bias f4 [11]
000000 11 2b 9f 3c af 35 e5 bb 42 0a 39 3d 75 81 56 be
       0.019429715 -0.006994925 0.0451758 -0.20947821
000010 36 d9 1e be fa 68 c5 bd 87 32 f8 bd 84 b1 5e bd
       -0.15512547 -0.09639163 -0.12119012 -0.05436851
000020 3c 9e d8 bd 53 54 73 be da 3c 41 3e
       -0.10577056 -0.23762636 0.1887087

exp_avg f4 [4, 2, 5, 5]
000000 f5 ed ab 2e 39 53 ef 2e 90 59 b7 2e af 77 c4 2f
       7.8184494e-11 1.0883245e-10 8.337786e-11 3.5737233e-10
000010 e9 76 ea 2e 87 2a 7e 2e b0 c3 c8 2e ae 0f db 2c
       1.0662211e-10 5.7790685e-11 9.129708e-11 6.226095e-12
000020 aa d6 30 ad eb 61 00 ae 8a 3f 97 2d 80 30 0e 2e
       -1.0052107e-11 -2.91908e-11 1.719493e-11 3.233014e-11
000030 c6 bd 65 2e a2 67 52 2f 02 57 2d ae ac df 48 2f
       5.2237124e-11 1.9136207e-10 -3.9412924e-11 1.8269358e-10
000040 6a 6f 39 ae fa 96 8d 2f 3b 04 3b 2f e4 d1 c8 2d
       -4.2163086e-11 2.5755026e-10 1.7009054e-10 2.2830578e-11
000050 5c 4a f6 2c ba 6f 62 2e 04 ee 0c 2f dd 42 15 2f
       6.999996e-12 5.1485684e-11 1.2817486e-10 1.3575226e-10
000060 53 3e f1 2e 1f 74 8c 2f eb ee d7 2e 24 ba ac 2e
       1.0970482e-10 2.554836e-10 9.8195084e-11 7.8547197e-11
000070 b6 06 29 30 5a fc e2 2e 55 62 48 2f 8b 4b c2 2e
       6.149138e-10 1.0322117e-10 1.8224829e-10 8.835518e-11
000080 3d a2 f0 2e 5a 58 b6 ae d6 fe bf ae f3 eb 94 2e
       1.0942756e-10 -8.292096e-11 -8.7309424e-11 6.772174e-11
000090 7d b7 0d ae 8b 5b bb 2e 6d 0c af 2f b4 f3 99 af
       -3.222266e-11 8.520037e-11 3.1841144e-10 -2.80037e-10
0000a0 94 e0 30 2f 94 54 73 af 29 e4 42 2f 6c 6b 70 2f
       1.6086893e-10 -2.213077e-10 1.7725256e-10 2.1866037e-10
0000b0 ce bc a6 2d ed 6b 08 2e 5e 47 5e ac 83 53 5f 2e
       1.8955861e-11 3.1018677e-11 -3.1587714e-12 5.0778503e-11
0000c0 61 17 e0 ad 90 2d 91 ad 4f 0f 68 b1 9c d0 20 b1
       -2.5476234e-11 -1.6504825e-11 -3.3769145e-09 -2.3401645e-09
0000d0 40 56 2c b1 25 c2 90 b0 14 7e 82 b0 4a 00 fc b0
       -2.5078322e-09 -1.0532558e-09 -9.494578e-10 -1.8335495e-09
0000e0 11 98 8e b0 a0 f6 ab b0 45 d8 1e b0 07 be c4 2d
       -1.037508e-09 -1.2511983e-09 -5.77874e-10 2.236701e-11
0000f0 6c 2c a7 b0 a6 43 70 b0 5f ed d4 b0 9b 31 2f 30
       -1.2163475e-09 -8.7407626e-10 -1.5492495e-09 6.373512e-10
000100 01 dd a7 af fe 5d dc af 6c 43 a8 2f 4a c8 d6 af
       -3.0534156e-10 -4.0084552e-10 3.0606928e-10 -3.9068687e-10
000110 9d fb 24 b0 15 dd 96 b0 3c 88 21 b0 d7 48 31 b1
       -6.0020416e-10 -1.0976772e-09 -5.876506e-10 -2.5798295e-09
000120 f5 a4 27 b0 d2 96 50 2e c6 41 6d 30 be ea 2e b1
       -6.0988664e-10 4.742768e-11 8.631357e-10 -2.5453768e-09
000130 b6 b1 2d b1 92 1e d0 b0 c6 52 aa b0 59 e4 b5 b0
       -2.527583e-09 -1.514268e-09 -1.2392654e-09 -1.3234384e-09
000140 fe ea 0a b1 fb e2 e9 b0 c6 af 84 b0 fb fb 5f af
       -2.021522e-09 -1.7017493e-09 -9.654222e-10 -2.0371253e-10
000150 d8 ac 40 b0 67 23 38 b0 b2 fe 51 b0 74 00 b0 b0
       -7.009482e-10 -6.698912e-10 -7.63957e-10 -1.2805814e-09
000160 bc f4 22 30 88 c4 91 af c0 52 c0 2e 9c 83 bd 30
       5.9283045e-10 -2.651499e-10 8.7458485e-11 1.3788966e-09
000170 b8 4e e6 b0 f3 e1 c6 af e9 63 52 b0 0a 88 81 2d
       -1.6757076e-09 -3.6176537e-10 -7.6539536e-10 1.4726016e-11
000180 aa 9f c9 b1 5c ac a0 b0 b6 dd 05 b0 ee b9 7b 30
       -5.8680216e-09 -1.169052e-09 -4.870019e-10 9.157749e-10
000190 5a 3d 0a b1 7c e4 52 b0 5d 10 33 b0 aa 58 11 30
       -2.0116517e-09 -7.672225e-10 -6.5143074e-10 5.287669e-10
0001a0 c0 df 06 b0 df de e8 af 73 02 61 30 c8 8a a3 b0
       -4.9066884e-10 -4.2358914e-10 8.1858004e-10 -1.1899255e-09
0001b0 91 eb 76 30 33 be 6a 2d 04 cf 33 af 40 66 fc ae
       8.982904e-10 1.3343593e-11 -1.6353502e-10 -1.14777965e-10
0001c0 fc b4 87 b0 42 c8 cf 30 03 aa 8a ad 29 9e d4 af
       -9.873982e-10 1.5118149e-09 -1.5764284e-11 -3.8674955e-10
0001d0 b6 bc 5f 2f 62 93 2f b0 ba 05 27 ae cf a8 9a 2d
       2.0348775e-10 -6.387407e-10 -3.797649e-11 1.7582739e-11
0001e0 7b 06 5a b0 6f 7d 40 af ea fc 6b 30 19 02 0a af
       -7.931715e-10 -1.7506861e-10 8.5851914e-10 -1.2551772e-10
0001f0 56 c0 68 b0 0b ef f9 b0 c7 a7 12 b1 11 fb bc b0
       -8.4674434e-10 -1.8185075e-09 -2.1341167e-09 -1.3750158e-09
000200 24 08 61 b0 f7 4e 07 b0 f9 37 46 2e c8 44 85 30
       -8.186609e-10 -4.922493e-10 4.50697e-11 9.696572e-10
000210 ed e7 1e b1 df be 6a b0 90 2b f6 2e de 74 f3 af
       -2.312386e-09 -8.539995e-10 1.1194523e-10 -4.4284482e-10
000220 72 20 21 b0 f2 7f de 2f 6f e1 62 30 5e 9f 6e af
       -5.8617566e-10 4.0472475e-10 8.253868e-10 -2.1702593e-10
000230 9a cc 4d b0 fc 71 e1 2f 93 f3 c5 b0 c5 a8 af af
       -7.486932e-10 4.1008252e-10 -1.4402864e-09 -3.1952233e-10
000240 e4 ab 05 b0 0a ee ae b0 9f b9 20 b0 1d 16 d0 b0
       -4.862939e-10 -1.2727821e-09 -5.8471444e-10 -1.5140277e-09
000250 4e 04 98 b0 e0 d1 0a b0 80 af d6 2f fd 5b 9a 30
       -1.1060679e-09 -5.050236e-10 3.9051073e-10 1.1231119e-09
000260 41 d5 29 b0 bd 46 da b0 f9 6b 08 31 c1 78 c3 ae
       -6.1784894e-10 -1.5881693e-09 1.985198e-09 -8.8890235e-11
000270 68 54 6a b0 59 9d 7f af 62 80 3a b1 5f 8c b4 2f
       -8.524865e-10 -2.3248016e-10 -2.713954e-09 3.284155e-10
000280 16 0d 9d 30 55 ed 7b b0 e5 dd f7 ae dc c4 64 b0
       1.1426973e-09 -9.1650537e-10 -1.1271676e-10 -8.322567e-10
000290 23 33 98 2f 82 8b ee 2f ac 44 18 b1 ec 2f 18 b0
       2.7684974e-10 4.3391074e-10 -2.2157947e-09 -5.536538e-10
0002a0 2f f5 41 b1 cf d9 e1 ae 11 f9 9c ae 27 a3 85 30
       -2.8224567e-09 -1.0270506e-10 -7.138302e-11 9.723394e-10
0002b0 6f ff fd af 7f ff ef b0 c9 e0 04 b1 97 61 94 2e
       -4.6201928e-10 -1.7462155e-09 -1.9336304e-09 6.747596e-11
0002c0 f9 dd 39 30 5f 92 a4 af 76 3d a5 b0 49 79 f4 30
       6.761805e-10 -2.993543e-10 -1.2022798e-09 1.7787808e-09
0002d0 aa be 9e b0 51 66 91 b0 07 6c 6c af b0 4a 31 b1
       -1.1550203e-09 -1.0579219e-09 -2.1502454e-10 -2.5799345e-09
0002e0 47 a4 33 2f 26 48 3a b0 b0 39 6d b0 14 d8 41 30
       1.6338318e-10 -6.7768935e-10 -8.6302077e-10 7.0520056e-10
0002f0 d2 55 23 b0 1f 75 c2 2d 1d 5a 2d af 79 b3 41 b1
       -5.942101e-10 2.2107259e-11 -1.5766273e-10 -2.8187215e-09
000300 9b d0 6e b0 53 f5 2f b1 10 e0 81 af 17 fc b7 2f
       -8.688034e-10 -2.5605302e-09 -2.362417e-10 3.3466627e-10
000310 d0 b4 1a 30 d9 88 fa 2f 72 65 3b b0 eb 98 5f b0
       5.6281824e-10 4.557197e-10 -6.8174366e-10 -8.1344237e-10

exp_avg_sq f4 [4, 2, 5, 5]
000000 d8 21 9f 21 01 52 90 20 44 87 f0 1f c6 67 d4 22
       1.0783217e-18 2.4448815e-19 1.0186773e-19 5.757259e-18
000010 a7 65 f2 20 3b 20 1e 21 d2 5a e2 20 c7 83 1d 22
       4.1063663e-19 5.357514e-19 3.834599e-19 2.134723e-18
000020 d5 b2 43 21 c4 ea 78 21 20 23 07 22 41 3a fe 20
       6.630525e-19 8.433638e-19 1.8314507e-18 4.3067823e-19
000030 2d 6a 0e 20 06 65 83 22 00 dc de 20 68 8d 67 20
       1.2062998e-19 3.5614584e-18 3.7753847e-19 1.9613248e-19
000040 c5 8d 80 22 c7 b0 91 20 4c 92 93 21 c4 5d 10 20
       3.4844574e-18 2.4680937e-19 9.999832e-19 1.2228299e-19
000050 93 27 38 1f 3d ac fa 1f b1 be 21 20 ee 05 ad 20
       3.899625e-20 1.0616406e-19 1.3700325e-19 2.9311264e-19
000060 10 70 2d 20 de 11 46 23 28 ca 2a 21 90 a0 db 20
       1.4690748e-19 1.0737385e-17 5.786579e-19 3.7206294e-19
000070 05 74 b6 23 7a 14 09 21 80 7f 31 23 52 73 d1 21
       1.9781616e-17 4.6444506e-19 9.622188e-18 1.4192916e-18
000080 9b 90 8f 22 55 7f c8 21 ec 2a 9e 22 e3 d3 9d 22
       3.8913335e-18 1.3586232e-18 4.287143e-18 4.277928e-18
000090 5c 46 99 21 8a e5 a9 20 a4 7d 13 23 38 fa 87 21
       1.0386307e-18 2.878161e-19 7.995491e-18 9.214188e-19
0000a0 80 1a 80 22 2e 73 b7 23 24 6d 6e 20 94 dd c0 21
       3.4722527e-18 1.988968e-17 2.0195496e-19 1.3069077e-18
0000b0 a5 96 d5 1f e1 3d b1 21 05 df 01 20 09 2c 94 1f
       9.045823e-20 1.2010366e-18 1.1000516e-19 6.275329e-20
0000c0 d0 44 40 21 b8 c9 82 1f 2c 61 b2 24 a4 ce 14 25
       6.5143203e-19 5.539086e-20 7.735981e-17 1.2906966e-16
0000d0 a3 b9 39 24 db 7e ae 23 56 36 59 23 0c 19 bb 24
       4.027272e-17 1.8918843e-17 1.17751e-17 8.1140754e-17
0000e0 3d 87 99 24 98 eb 23 24 78 77 93 23 06 f4 8a 23
       6.6582276e-17 3.5544546e-17 1.5988369e-17 1.5065338e-17
0000f0 c8 56 b3 24 c3 9f 8b 24 9d 90 8e 23 32 cf f9 23
       7.777589e-17 6.055229e-17 1.5456917e-17 2.7084385e-17
000100 b5 10 0f 23 7d 30 d2 24 55 5b 28 25 99 3b bb 23
       7.755583e-18 9.1155125e-17 1.4602622e-16 2.0299821e-17
000110 56 67 e2 23 a6 67 8b 23 6a aa a2 24 09 95 26 25
       2.4546734e-17 1.5114307e-17 7.0544993e-17 1.44487e-16
000120 82 7a 24 24 74 da b2 23 fa ce 45 24 bc ce f2 24
       3.56656e-17 1.9391317e-17 4.289288e-17 1.0530099e-16
000130 18 d9 42 25 a3 ae 04 24 30 2e b7 23 67 72 62 23
       1.6900372e-16 2.877086e-17 1.9860461e-17 1.227571e-17
000140 e5 61 e2 24 49 11 b3 24 b0 45 60 24 62 46 8e 23
       9.8177716e-17 7.765816e-17 4.8631285e-17 1.5425479e-17
000150 84 85 ea 23 1e 61 cd 24 9b f6 bb 24 a9 93 2f 23
       2.5426877e-17 8.90691e-17 8.151609e-17 9.518037e-18
000160 f9 07 1d 24 2d e8 e9 22 16 dd 8c 24 f6 24 8f 25
       3.40507e-17 6.3400602e-18 6.1089856e-17 2.4831591e-16
000170 6e e4 77 23 6b 6b 57 23 29 f5 01 23 a1 81 a5 24
       1.3438269e-17 1.167792e-17 7.045019e-18 7.177694e-17
000180 44 64 8d 25 5f bb 35 24 2d 77 a2 23 86 3e 3e 24
       2.4527544e-16 3.9406828e-17 1.7614548e-17 4.1252642e-17
000190 6e 7e bf 23 d2 5c c4 24 ec 1c 54 23 af 80 66 23
       2.0761807e-17 8.5158694e-17 1.14986675e-17 1.2495575e-17
0001a0 54 3e 0e 23 b7 4c 1a 24 86 15 46 24 13 34 10 24
       7.711034e-18 3.3458407e-17 4.2952637e-17 3.126913e-17
0001b0 d5 31 af 24 d9 1b ed 22 4f 61 a6 23 2a c1 c4 24
       7.597857e-17 6.4268464e-18 1.8038968e-17 8.532868e-17
0001c0 e9 6f 03 24 ef a3 28 24 9f bc de 22 d4 8a 9a 23
       2.850089e-17 3.656805e-17 6.037293e-18 1.675551e-17
0001d0 57 08 1f 24 3a 14 04 24 d0 b1 39 23 ca 8e 3c 23
       3.4484693e-17 2.864007e-17 1.0066523e-17 1.0221737e-17
0001e0 9a 78 38 24 85 a9 9c 24 84 ef 38 24 94 21 79 23
       4.0000793e-17 6.794139e-17 4.0101518e-17 1.35054275e-17
0001f0 cd 94 a3 23 71 0a 34 24 6e d4 0e 25 af 34 b1 23
       1.7735515e-17 3.9040122e-17 1.238851e-16 1.921269e-17
000200 36 7d 82 23 f7 29 14 23 48 fa 85 24 47 be 3d 24
       1.4147657e-17 8.0319825e-18 5.810355e-17 4.1144013e-17
000210 9b 7b 8e 24 44 bc 5c 25 6b be f1 22 61 14 28 23
       6.179208e-17 1.9145745e-16 6.5524794e-18 9.111614e-18
000220 a2 d4 0b 25 56 df 24 24 70 67 e7 23 66 41 69 22
       1.2128371e-16 3.5751004e-17 2.5088878e-17 3.161201e-18
000230 06 ef 4c 23 02 ef ff 23 27 4d 5a 24 d6 58 52 23
       1.1109477e-17 2.7748379e-17 4.7336565e-17 1.14029346e-17
000240 6c 0b 03 23 51 8f 38 24 35 ae b1 24 9d 8f 84 24
       7.103943e-18 4.0020034e-17 7.705663e-17 5.7489165e-17
000250 83 3e 4a 23 37 25 5a 23 42 93 06 24 92 05 97 24
       1.0963679e-17 1.1825684e-17 2.918135e-17 6.549525e-17
000260 a7 83 42 24 a1 4f 67 24 39 8a 31 24 a5 38 1a 24
       4.2178558e-17 5.015759e-17 3.8497836e-17 3.3441407e-17
000270 dd 8e ed 24 ef e8 1b 24 26 7d 5f 24 dd 40 1f 24
       1.03024386e-16 3.380757e-17 4.8461422e-17 3.453257e-17
000280 4e db 1d 24 2f 80 c0 24 c8 8f 31 24 95 f9 81 24
       3.4229707e-17 8.348388e-17 3.8502544e-17 5.636764e-17
000290 a5 e0 0b 24 57 77 21 24 6f 10 91 24 6d 3c 1e 24
       3.0331102e-17 3.5012395e-17 6.2911566e-17 3.431197e-17
0002a0 18 64 a1 24 7c 97 36 24 9f 17 0a 24 a2 9e 92 24
       6.9992185e-17 3.959327e-17 2.9943988e-17 6.358614e-17
0002b0 5e 35 30 24 a1 b6 5a 24 93 d0 2d 24 5b 24 ea 23
       3.820912e-17 4.7425907e-17 3.7690064e-17 2.5385728e-17
0002c0 87 67 8c 24 5b 35 4a 24 9e c1 8e 24 60 e2 32 24
       6.0890704e-17 4.384696e-17 6.1910684e-17 3.8789344e-17
0002d0 b7 20 21 24 15 64 91 25 2a b0 0e 24 c9 25 76 24
       3.493902e-17 2.5221309e-16 3.094056e-17 5.3374752e-17
0002e0 4b 4c 44 24 f6 4f 27 24 81 d4 05 25 57 0d 66 24
       4.2565348e-17 3.6280082e-17 1.160791e-16 4.98846e-17
0002f0 95 92 a8 24 a7 30 bf 23 da 8b 26 24 f5 75 10 25
       7.3106706e-17 2.0728867e-17 3.611397e-17 1.2529974e-16
000300 47 b7 1f 24 f4 9a d5 24 23 d8 2d 24 d8 e9 7e 24
       3.463287e-17 9.2636526e-17 3.769647e-17 5.5275544e-17
000310 ad 9f 9e 24 fa 14 3c 24 7e 83 32 24 02 4e 38 24
       6.879208e-17 4.078377e-17 3.8708976e-17 3.9964715e-17

exp_avg f4 [4]
000000 b8 cb c1 2f 04 d1 19 b0 b0 a4 4f 32 c9 59 e6 b1
       3.5251246e-10 -5.5958105e-10 1.2086431e-08 -6.7040884e-09

exp_avg_sq f4 [4]
000000 33 9e 08 23 ab 4a 9c 28 ab ae c3 28 1d e1 3a 28
       7.406075e-18 1.7351861e-14 2.1725099e-14 1.0373888e-14
