software/logs/hyper_parameter_tuning/custom_model_hp/version_8/checkpoints/epoch=0-step=20.ckpt (torch, 195567 bytes, 54 tensors)

backbone.model.0.0.model.0.weight f4 [4, 2, 5, 5]
000000 7a 2b 0e 3e 51 cd a2 bd 98 ac 47 3d ef 55 ca 3d
       0.13883772 -0.07949317 0.048748583 0.09879672
000010 96 36 90 bd 63 75 0b 3e 64 68 73 3d 79 a5 b9 3d
       -0.070416614 0.13618998 0.059425727 0.090647645
000020 1f 8f f7 3c ee 11 9b 3c 30 27 de 3d 92 12 a1 3d
       0.030219613 0.018929448 0.10847318 0.0786487
000030 4f 05 e6 bd 0e ce e1 bc 14 c6 f7 3d 35 b2 90 3d
       -0.11231481 -0.027564075 0.12098327 0.0706524
000040 89 b5 4b 3d f8 2f 41 bd c6 8f d8 bd dd 0e 92 bd
       0.049733672 -0.047164887 -0.105742976 -0.07131741
000050 2e 82 4d 3d b8 54 bc 3d 90 a0 a9 bd e8 3a 9f 3d
       0.050172977 0.09195846 -0.08282578 0.07774907
000060 0d 96 9e 3d 5c f8 99 bc e0 64 af 3d 20 f3 b3 bd
       0.07743464 -0.018795185 0.08564162 -0.08786607
000070 0a f9 9b 3d 52 1a c4 bd b6 a2 68 bd 65 21 82 3c
       0.0761586 -0.09575333 -0.0567958 0.015885064
000080 4a 1e 45 3d 35 24 89 bc b0 70 ad bd b5 b2 94 3d
       0.04812459 -0.016740898 -0.08468759 0.07260648
000090 9c e5 20 3d 8e e2 30 3c 09 90 ba bd 12 58 c1 3d
       0.039281473 0.010796202 -0.09109504 0.09440626
0000a0 a1 dd a6 bc 2e 1a 3b bd de 76 35 bc 21 8b 91 3d
       -0.020369353 -0.045679264 -0.011075703 0.07106615
0000b0 75 c8 b8 3b 5e 5a bb 3d 17 67 08 be 87 7f 39 bc
       0.0056391307 0.091480955 -0.13320576 -0.011321909
0000c0 a2 c1 76 bd 24 a5 c9 3d 78 aa 96 3d 1b 71 75 3d
       -0.060243256 0.09845951 0.07356733 0.05992232
0000d0 e8 73 8b bd b8 48 e0 3c 97 1f cd 3c c8 82 0a be
       -0.06809217 0.027378425 0.025039477 -0.13526452
0000e0 db 7c e4 bd d4 a2 ce 3d 32 63 9d 3c 37 a7 df bd
       -0.11156627 0.10089651 0.01921234 -0.109205656
0000f0 b8 40 f6 bd c2 60 d8 3d ef fc 9f bd 53 3c 8e bc
       -0.12024063 0.1056533 -0.07811915 -0.01736275
000100 d8 fe be 3d 3d 59 8c 3d 3b c3 f2 3c b5 2c 2e bd
       0.09325951 0.06852958 0.029634109 -0.042523105
000110 66 57 0d 3e 36 9d d6 3c 2c 15 cb bd 7d 9d b0 3d
       0.13802871 0.02619801 -0.099161476 0.086237885
000120 35 35 1a 3d 34 e9 e4 bd 5f 64 46 3b f4 12 75 3d
       0.0376484 -0.111772925 0.0030272228 0.05983253
000130 b5 2a c6 bd ac b7 a1 bd b5 7d d8 3d 86 61 dd 3d
       -0.096761145 -0.07896361 0.10570852 0.10809617
000140 84 3e f0 bd 71 d1 85 3d 2b ab 08 be b0 63 5f bc
       -0.11730674 0.065340884 -0.13346545 -0.013634607
000150 4d f0 02 be 38 f5 0f be 80 04 64 bd 13 70 98 bd
       -0.1278698 -0.14058387 -0.055668354 -0.074432515
000160 69 4e 0e bd 79 f4 85 3d 67 28 45 3d 0f 7e a5 3c
       -0.034742747 0.0654077 0.048134234 0.020201711
000170 d5 30 06 be 8b e7 eb bd 5b dd a7 3c 7d 29 0d 3d
       -0.13104565 -0.11518773 0.020491293 0.034463394
000180 56 be ef bd bb 36 02 be d7 2c d7 3d 04 6b 8a bd
       -0.117062256 -0.1271619 0.105065994 -0.06758693
000190 13 cd f3 3d c2 58 0d 3d 52 6b a1 bd d1 79 25 bd
       0.11904349 0.034508474 -0.07881798 -0.040399376
0001a0 4c 64 62 3d 74 47 84 bc bf a0 a0 3d 91 d5 06 3e
       0.05527143 -0.016147353 0.0784316 0.13167407
0001b0 54 21 9d bd 42 7a 98 bd 9c e8 85 bc e6 ce e5 3d
       -0.076723725 -0.07445194 -0.016346268 0.11221103
0001c0 26 1d da 3c 45 04 8d 3d 15 f5 e6 3d 4f 8c 44 bd
       0.026625227 0.0688558 0.112772144 -0.04798537
0001d0 3b 88 73 3d 1a c2 c1 bd 82 48 20 bd 14 01 63 bc
       0.05945609 -0.0946085 -0.03913165 -0.0138552375
0001e0 f2 37 dc 3d 21 29 b4 bd 29 96 9d bd 88 ab 52 bd
       0.10752858 -0.08796907 -0.076946564 -0.051433116
0001f0 ea 79 b7 bd 32 48 02 be f8 6f e6 bd 77 e4 03 3e
       -0.089588 -0.12722853 -0.11251825 0.12880121
000200 50 ad 8d bd bd fe df 3d f4 e0 f5 bc 35 61 5c 3d
       -0.06917822 0.10937259 -0.030014493 0.05380364
000210 ff 63 15 bd 3f 2d d9 bd 38 12 f6 bd 79 9d cd bd
       -0.036472317 -0.10604333 -0.12015194 -0.10039801
000220 6e bf b1 bd 56 4d 0b 3e 1b 49 06 3e 08 c0 f9 ba
       -0.086790904 0.1360372 0.13113825 -0.0019054422
000230 90 4b ac 3d 5d 89 24 bc ea 73 d7 3d 4e 50 07 be
       0.0841285 -0.010042516 0.10520156 -0.13214228
000240 61 87 0f be db ed 33 3c 69 08 c6 3d fc b4 ac 3c
       -0.14016487 0.010982002 0.09669573 0.021082394
000250 e0 2b c6 3c 1e df 03 3d ee 7c e3 bc e7 c6 bf 3d
       0.024190843 0.032195203 -0.027769532 0.093641095
000260 27 46 05 bd 99 7c 3a 3d dd 89 0d be 23 ce 25 bd
       -0.032537606 0.04552898 -0.13822122 -0.04047979
000270 d2 68 b8 bd 17 3c fe bb e8 d1 a0 3d 5b 09 bf bd
       -0.09004368 -0.007758628 0.078525364 -0.09327956
000280 75 1b 91 bd 6f d9 1a bd 16 6c 33 3d b9 95 ea bd
       -0.07085315 -0.037805017 0.04380425 -0.114543386
000290 df 4f 3e 3c 39 f6 07 3e 8a 7d ad 3d 75 63 9f 3d
       0.011615722 0.1327752 0.0847121 0.07782642
0002a0 c6 b8 24 3d e3 fb 7d bd 77 fe a8 bd 27 dd 05 3e
       0.040215276 -0.062007796 -0.0825166 0.13072644
0002b0 de d7 d4 bd 6e 81 88 bc 3b ac 25 bd 2f 4f f3 3d
       -0.10392736 -0.01666328 -0.040447455 0.118803374
0002c0 84 26 dc 3d d9 12 e1 bc 17 c2 a4 3d 88 91 ee bd
       0.10749534 -0.027474808 0.08044832 -0.11648852
0002d0 93 62 dd 3c 4b b5 96 3d cd bb ea 3d ed a6 f4 bc
       0.027024543 0.07358798 0.114616014 -0.029864753
0002e0 43 db a4 bd 41 de 22 3d 61 04 95 3d 21 d6 85 3d
       -0.08049633 0.03976274 0.07276226 0.065349825
0002f0 03 f8 f5 3d 1a d2 d4 3d 8c f0 1b bd db e2 86 bd
       0.12010195 0.10391636 -0.0380712 -0.06586238
000300 87 35 ad 3d 39 e4 07 be e8 99 a8 3d 02 2e 0e 3e
       0.08457475 -0.13270654 0.0823248 0.13884738
000310 a8 c2 09 3e 43 13 aa bd 07 72 e8 3d 37 6a da 3d
       0.13453162 -0.08304455 0.11349874 0.1066479

backbone.model.0.0.model.0.bias f4 [4]
000000 33 77 ef 3d b6 be f2 3d c6 87 98 3d 47 6d 8a 3d
       0.11692657 0.118527815 0.07447772 0.06759124

backbone.model.0.1.model.0.weight f4 [4, 4, 5, 5]
000000 73 96 29 3c 6b ba bb bd 67 21 ac 3b 7f 6c 97 3d
       0.010350811 -0.09166416 0.0052530053 0.07393741
000010 4d b9 74 bd ed 2e 8b 3d 3a da 5d 3d 13 1e ae bd
       -0.05974703 0.0679606 0.054163195 -0.0850183
000020 87 3f cc 3c d3 27 af bd 5a f4 cf 3c 9a b2 fe bc
       0.024932636 -0.08552518 0.02538507 -0.031091023
000030 67 be 89 bd 4a 96 3a bd da 58 5e 3c 0b 30 c3 bd
       -0.067257695 -0.045553483 0.013570989 -0.09530648
000040 10 c9 11 bd fa 71 74 3d 7d 4d 91 bd c0 9c da bc
       -0.03559214 0.05967901 -0.07094858 -0.026686072
000050 0a ca be 3d 1f 7f ac bd 3f ce a7 3d 43 59 a6 bd
       0.0931588 -0.08422684 0.08193635 -0.08122494
000060 1a 67 3c 3d cd 4e aa bd 37 8d 6c bd 97 71 0d bd
       0.045996763 -0.08315811 -0.05775186 -0.034532156
000070 60 b9 c5 3c 2a 78 00 bd a7 7c 9e bd c0 b2 c8 bc
       0.024136245 -0.031364597 -0.07738619 -0.024499297
000080 fd e3 62 3d 6a e7 12 bd fa d7 87 bc eb f0 83 bd
       0.055393208 -0.035865225 -0.016582478 -0.06442436
000090 f3 8a c3 3c 7a 1b ef bc 77 50 98 bd a2 b4 95 3d
       0.023869967 -0.029187907 -0.074372225 0.073098436
0000a0 ca 91 3d 3d 17 5d b7 3d cb d6 9a 3d ba 43 19 3d
       0.046281613 0.08953302 0.075605 0.037418105
0000b0 f5 db 9d bd 00 0e 34 bd 4d 11 bd bb 70 83 3f 3d
       -0.07707969 -0.043958664 -0.0057698847 0.046756208
0000c0 67 5c 13 bc a7 39 ca 3d 2d 2e ba bd cd 5d c9 bd
       -0.008994198 0.098742776 -0.090908386 -0.09832344
0000d0 25 33 8b 3d fa ba 84 bd f3 6e 60 bd 00 6f 53 3c
       0.067968644 -0.064809754 -0.05479331 0.012904882
0000e0 2d dc f0 3c cd e9 30 bd 9b 5f ac bd 25 c5 b4 bd
       0.029401863 -0.04319172 -0.08416673 -0.08826665
0000f0 aa 7f 8a 3d f0 3f 67 bd 3a 6e 40 bd d7 0d 9b bd
       0.06762631 -0.05645746 -0.04698012 -0.07570999
000100 4a da 3d bd 67 f4 ce 3b b3 05 38 bd 0a 5e 0b bd
       -0.046350755 0.006315756 -0.04492731 -0.03402523
000110 c0 e9 0c bc 0a ee 90 bd 5d c0 73 3d 48 66 98 36
       -0.008600652 -0.07076652 0.059509624 4.54186e-06
000120 b8 80 9f 3d 80 cb ec 3b fa 5a ef bc 33 da 3e bc
       0.07788223 0.0072264075 -0.029218186 -0.011648702
000130 a3 af ca bd 00 74 75 3b 5d 90 95 bd cf 57 97 3d
       -0.09896781 0.0037453175 -0.07302926 0.07389795
000140 33 22 d1 bc 8f dc a8 3d cd a4 32 ba 7a a5 01 3d
       -0.025529003 0.08245193 -0.00068147184 0.03165195
000150 bb 6c a2 3d 48 10 b0 bd 25 f9 ac bd 20 e2 ff 3c
       0.07930895 -0.085968554 -0.08445958 0.031235754
000160 00 5c 1c bc c0 ca 30 3d df 34 82 3d 33 7c 70 bd
       -0.009543419 0.043162107 0.063577406 -0.058712196
000170 c7 b6 02 bd b3 f8 77 bd ad 05 cf 3c 48 51 cc 3d
       -0.03191259 -0.060539912 0.025271261 0.09976441
000180 cb 9c 9c bd 00 3e 3a 3b 90 90 75 bd e3 67 a8 bd
       -0.076470934 0.0028418303 -0.05995232 -0.0822294
000190 80 41 fa 3b 0b aa bf bd 9a cf ca 3d 6a ba 7e bd
       0.0076372027 -0.09358605 0.09902878 -0.062189497
0001a0 60 65 c0 bc d0 af 64 3d e2 f7 c9 3d 9b 77 14 3b
       -0.02348584 0.05583173 0.09861733 0.0022654298
0001b0 6a 61 85 3d be f4 9c ba 9a ea 16 bd c2 27 a4 bd
       0.06512721 -0.0011974794 -0.036844827 -0.08015396
0001c0 9a eb 51 bc 63 a5 8b bd 33 4a f6 3b 00 65 50 bd
       -0.012812519 -0.068186544 0.0075161695 -0.05087757
0001d0 1a b9 7c 3c 50 94 91 3d d7 28 2f 3d 6b c0 8f 3d
       0.015424991 0.071083665 0.042763557 0.07019123
0001e0 9a ec 30 bd 40 d1 25 bd 67 07 0f 3d a0 44 02 3d
       -0.04319439 -0.04048276 0.03491917 0.031803727
0001f0 da 45 98 bc c0 2c d8 3c ca c0 7f bd 27 c1 c9 3d
       -0.018587995 0.026388526 -0.062439717 0.09851294
000200 c0 a5 d7 3c 07 a9 f9 bc d0 09 75 bd a0 d9 11 3d
       0.026324153 -0.030476106 -0.05982381 0.035607934
000210 e7 b9 b7 3b bb 05 a8 3d ff 11 9c 3d 6d 36 f3 3c
       0.005606878 0.08204218 0.0762062 0.029689038
000220 1a 1e 03 bd 33 59 32 bc 90 71 93 3d 80 ba 0b bc
       -0.03201113 -0.010885525 0.07199395 -0.008528352
000230 8d 08 16 bd ad 2e 5b bd 68 5c b8 3d 9a 75 67 3a
       -0.03662925 -0.05351131 0.09002 0.00088294747
000240 47 6c 81 bd 43 29 78 bd 9d 04 b7 3d dd 85 c1 bd
       -0.063194804 -0.060586225 0.08936427 -0.094493605
000250 cd 1f 67 3c 73 41 2f 3d b5 5c 8f 3d d0 cb ca 3d
       0.014106703 0.042787027 0.07000104 0.099021554
000260 00 b5 9b bc f3 ea 24 bc 1d 8f b7 3d cd 46 14 bc
       -0.019007206 -0.010065782 0.089628436 -0.009050083
000270 67 cf 04 3c d2 42 bc 3d a5 c4 85 bd 8d ed 0e bc
       0.008106089 0.091924325 -0.065316476 -0.008723629
000280 05 9c 84 bd 7b 06 9e bd a3 9a 14 3d 9a 33 b9 3a
       -0.06475071 -0.0771608 0.036280286 0.0014129758
000290 d3 46 f8 3c 73 3f 04 3d 5d fc 2f 3d b8 5a b0 bd
       0.03030721 0.032287072 0.04296528 -0.08611053
0002a0 b2 4d b7 bd e2 1a ba bd 17 75 12 3d f0 31 5a 3d
       -0.08950366 -0.09087159 0.035756197 0.05327028
0002b0 97 7a 48 3d e3 51 9d bd d5 25 96 bd 73 bf 71 3d
       0.048945036 -0.07681634 -0.07331435 0.05902047
0002c0 80 66 87 bb 15 4f 8f bd a0 d0 89 3c c0 df 3b 3c
       -0.004132092 -0.069975056 0.016823113 0.01146692
0002d0 f2 e4 98 3d c5 cb b0 bd fb 52 8e bd 1d 24 2e 3d
       0.07465543 -0.08632616 -0.06949421 0.04251491
0002e0 3a 8c 69 3b f3 0e 78 bd 7a b2 42 bd 87 d5 82 bc
       0.003563656 -0.06056113 -0.04753349 -0.015970958
0002f0 b7 ae 95 3d ad 4d 9c bc b7 a2 4e bd 7b 29 ad bd
       0.07308715 -0.019080007 -0.050448146 -0.084551774
000300 cd 23 6a 3c 8a ba 2b 3d b3 3c 64 3c 4a 41 51 3d
       0.014290762 0.041925944 0.013930487 0.051087655
000310 ef b9 b9 3d e0 fc 8f bc 53 f8 ed bc 1a e8 c5 3c
       0.09068667 -0.017576635 -0.029049074 0.024158526
000320 12 a6 ac bd cd 14 6a 3d fd 85 b7 bd a3 8d 8f 3d
       -0.08430113 0.057148743 -0.08961103 0.07009437
000330 27 fa 26 3c 13 06 61 bd 58 d6 b4 bd 9a 60 c4 bb
       0.010191477 -0.054937433 -0.08829945 -0.005992961
000340 f0 bb 7c bd 5a 69 70 3d 80 4c c1 bd c3 71 05 bd
       -0.06170267 0.05869422 -0.09438419 -0.032579195
000350 1a af 0b 3d 00 a6 ce 3c da 11 aa bc a0 8a 9a 3d
       0.034102537 0.02522564 -0.020760465 0.07545972
000360 e0 a6 68 bd 17 87 c2 bd 9f b1 ae 3d 67 f6 cb 3d
       -0.05679977 -0.094984226 0.08529972 0.09959107
000370 d0 ab ba 3d 11 50 94 3a 0d 2c da bc 33 a7 c2 3c
       0.09114802 0.0011315366 -0.026632333 0.023761367
000380 35 7b 53 3b f3 84 36 bc c0 39 ac bd fd e0 3a bd
       0.0032269482 -0.011140096 -0.084094524 -0.04562472
000390 23 3f b6 bd 27 28 9a 3d 73 6d 60 3c fa 37 82 3c
       -0.08898761 0.0752719 0.01369797 0.015895832
0003a0 c7 8b 8a 3c f3 a6 68 3d 20 08 c5 3d 33 f9 7a bd
       0.016912354 0.05679984 0.0962069 -0.06127281
0003b0 bd ed 26 3d b0 58 82 bd 80 67 81 3b fd 1c 96 bd
       0.04075407 -0.06364572 0.0039491057 -0.07329748
0003c0 8f c7 b5 bd 9a b5 3a bc 47 da a2 3c eb 18 a9 3d
       -0.088759534 -0.011395836 0.019879473 0.08256706
0003d0 ab fd ab 3d 60 28 36 3d ed f0 f5 3c 70 f3 57 bd
       0.08397993 0.0444721 0.030022109 -0.052722394
0003e0 90 69 02 bd 6b 2e 90 bd 2f a1 a8 3d ad 5c 93 3d
       -0.031838953 -0.070401035 0.08233868 0.07195411
0003f0 bd eb 2d bd d0 4e 72 3d dd 97 22 3d f3 f1 8c 3d
       -0.042461146 0.059157193 0.03969561 0.06882086

backbone.model.0.1.model.0.bias f4 [4]
000000 eb 20 b8 bd bb 47 89 bd 9a 2f 15 3c e7 d6 ba 3b
       -0.089906536 -0.067031346 0.009105587 0.005701888

backbone.model.1.0.model.0.weight f4 [8, 4, 5, 5]
000000 a7 f8 4b bd 67 a0 b8 bc b0 42 c3 3d 1d b7 30 3d
       -0.04979768 -0.022537423 0.09534204 0.04314338
000010 aa e6 44 3d 2d d0 96 3c 8b 81 b6 3d a3 83 65 3d
       0.04807154 0.018409813 0.08911427 0.05603374
000020 57 41 99 3d 2a 94 1f 3d 63 45 24 3d 80 05 51 bd
       0.07483166 0.03895966 0.040105235 -0.051030636
000030 60 f3 2c 3d 27 39 79 3c 9d 01 8e 3d 17 12 82 bd
       0.042224288 0.01521138 0.069339015 -0.063511066
000040 cd ac b0 3c 5a a2 0f bc 4b b9 98 bd 8a dd 07 3d
       0.021566773 -0.008766735 -0.07457217 0.03317026
000050 68 b2 c5 3d 9a 27 44 3d 9a c1 95 bb 23 c0 92 3d
       0.09653169 0.04788933 -0.0045701982 0.071655534
000060 65 77 a7 3d 38 ca 95 3d 8d 87 a7 3d ba d0 b7 bc
       0.081770696 0.07313961 0.08180151 -0.022438396
000070 d3 f3 01 bd f0 7c 3c bd 00 32 7d 3c 80 37 21 bc
       -0.03172667 -0.046017587 0.015453815 -0.009839892
000080 ba e9 a8 bc 40 e8 a0 3d 07 fb 22 bd 92 d9 8a bd
       -0.020619262 0.07856798 -0.03979018 -0.067797795
000090 a8 8b 9c bd da 02 d6 bc 9a f3 35 3d 7a 83 40 bd
       -0.07643825 -0.026124407 0.04442177 -0.047000386
0000a0 33 6e d5 bc ba 3f 14 3d 73 01 ab 3d 87 db b9 3d
       -0.026053524 0.036193587 0.08349886 0.09075075
0000b0 67 be d7 bb dd cf 3d 3d 9a 80 d4 3b 80 23 cc bc
       -0.006583977 0.046340812 0.006485057 -0.024919271
0000c0 58 7a c3 bd 40 bf 62 3c a7 56 bc bd 0d 5d 2a bc
       -0.095448196 0.013839543 -0.09196215 -0.010398162
0000d0 37 d2 c4 3d ba 59 be 3d f3 e2 8e bc cd de e9 3b
       0.09610408 0.09294458 -0.017442202 0.0071371556
0000e0 c0 b3 12 3d 07 37 47 bd 07 1a 5e 3d e7 18 53 3d
       0.035815954 -0.048636463 0.05422404 0.05153742
0000f0 88 cd 97 bd 20 c2 21 3d ea e2 5f bd 93 64 36 3d
       -0.07412249 0.039491773 -0.05465976 0.04452951
000100 47 05 df bc e2 ef a7 bd 44 71 9f 3a bd 11 45 bd
       -0.027224196 -0.08200051 0.0012164493 -0.04811262
000110 33 8c 81 bb 83 49 2a bd 40 9d 30 bc 9d dc 88 bd
       -0.0039534806 -0.041574012 -0.010779679 -0.06682704
000120 0d a9 94 3d aa 92 07 bd 4d e2 f4 3c 7a 5d f0 bc
       0.072588064 -0.033098854 0.029893065 -0.029341448
000130 67 bd a3 3b 25 b5 8f 3d 5a c7 50 3d ad c7 3c bd
       0.0049969438 0.070169725 0.050971366 -0.046088863
000140 83 5a 6b 3d 97 4d c1 3d 87 a6 df bc 4a 5c 69 bd
       0.057459366 0.09438627 -0.027301086 -0.05697278
000150 9a 2a 6b 3c 0d 4b a1 bd 67 f1 03 3b 2b 87 85 3d
       0.014353419 -0.07875643 0.00201329 0.06519922
000160 07 37 c7 3d e0 b1 5d bd a5 a4 93 3d b3 66 0e bc
       0.097272925 -0.054124713 0.07209138 -0.008691478
000170 c5 88 aa 3d 87 e3 0b 3d 30 4d c8 bd 53 8c c5 3c
       0.08326868 0.034152534 -0.09780347 0.024114763
000180 20 f2 0b bd 00 03 4b 3d 9a c9 29 3c 8f 8e a5 3d
       -0.034166455 0.049563408 0.010363007 0.080838315
000190 3a dd dc 3c 98 93 92 bd c2 1e b8 3d 33 6a 3b 3c
       0.026960958 -0.071570575 0.089902416 0.011438894
0001a0 1a 76 9d 3b b7 0f 73 bd 5f df a7 3d 57 c5 83 bd
       0.0048053386 -0.05934116 0.081969015 -0.06434124
0001b0 d7 e6 c1 bd 33 1d c8 3a 80 a1 b3 bc 7a 68 80 bc
       -0.09467857 0.0015267491 -0.021927595 -0.015674818
0001c0 0a 88 07 bd cd 94 fd 3c b3 4f 9f bd cd a3 1c 3c
       -0.03308872 0.030954743 -0.07778873 0.0095605375
0001d0 80 d5 27 bc 08 bd ac bd 9a 40 c0 3b f7 01 c0 3d
       -0.010243773 -0.08434492 0.005867076 0.09375375
0001e0 c3 d7 a0 3d 23 1a c0 bd 00 ec 19 3d 30 83 4a bd
       0.07853653 -0.09379985 0.037578583 -0.049441516
0001f0 1a c0 a0 bb 37 91 99 bd d3 1c a8 3c 33 5f 87 bd
       -0.004905713 -0.07498401 0.020521557 -0.06609955
000200 ab e6 c7 3d 9d 50 18 bd 53 5d 80 bd a0 8d aa 3c
       0.09760793 -0.037186254 -0.062678 0.020819485
000210 6a 4d a3 bd fd 6f 59 bd 85 cb c7 3d 33 f3 1d bc
       -0.0797375 -0.053085316 0.09755615 -0.009640503
000220 87 f0 ad bc 07 a8 26 bd bd 49 bf 3d 7f f9 92 3d
       -0.021232856 -0.040687587 0.09340236 0.07176494
000230 ff b3 e0 ba 60 ae 1e bd 8d 71 01 3d 33 15 19 3d
       -0.0017143487 -0.038740516 0.03160243 0.037373733
000240 00 fb 98 bd 1a 8e 21 3d 8d cb 66 3c 8a 0a 55 bd
       -0.074697495 0.03944216 0.014086616 -0.052012004
000250 cd 40 6d bc 2d 77 a6 bc 35 ce c4 3d a3 83 0c bd
       -0.014480782 -0.0203205 0.09609643 -0.034305226
000260 b3 c5 ee bb f5 c6 bb 3d 18 18 89 bd 3d d2 15 3d
       -0.007286751 0.091688074 -0.06694049 0.036577452
000270 65 4a be bd a7 a3 e3 bc ed 1c 9e 3d 1a 8d 4e 3d
       -0.092915334 -0.027787996 0.07720361 0.050427534
000280 ff f7 9a bd 4d a5 22 bd f0 22 63 3d 1b 27 89 bd
       -0.07566833 -0.039708424 0.05545324 -0.06696912
000290 50 7d b8 3d 81 59 90 bb dd 78 1e bd a0 40 b8 bc
       0.090082765 -0.004405201 -0.038689483 -0.022491753
0002a0 d5 93 9f bd db 8e c7 3d 67 54 ea 3c bd c6 be bd
       -0.077918686 0.097440444 0.0286047 -0.0931525
0002b0 f0 bf 3d bd 20 d5 5a 3d 17 e7 28 bd 10 0f 86 3d
       -0.046325624 0.053425908 -0.04123601 0.06545842
0002c0 02 42 85 3d 40 9c dc bc 52 b1 c7 bd 87 db 33 3d
       0.065067306 -0.026929975 -0.09750618 0.04391053
0002d0 c7 85 8f 3c 78 c1 81 bd 4d 58 47 bd 20 14 e6 3c
       0.017519845 -0.06335729 -0.048668195 0.028085768
0002e0 90 99 c0 bd a7 39 95 bc 73 06 1f bc 03 2b b2 bd
       -0.0940429 -0.018215967 -0.009706127 -0.0869961
0002f0 33 47 1c 3c 20 27 b8 bd da a4 5a bd 60 e9 59 bd
       0.00953846 -0.089918375 -0.05337987 -0.05320108
000300 cd bd d6 bc 73 04 91 3c 52 33 b8 3d a7 ad a1 bd
       -0.026213551 0.017702317 0.089941636 -0.0789445
000310 20 8f 5b bd a8 01 ba bd ad 19 05 3d 2d fc bd 3d
       -0.05360329 -0.09082347 0.03249519 0.09276614
000320 67 f7 a8 3b f7 e3 04 3d 6d 7c 8c bc b2 32 c3 3d
       0.005156446 0.032443967 -0.017149175 0.09531154
000330 1a b1 8b bd 22 35 86 3d d3 52 94 bd 6a ea 4e bd
       -0.06820889 0.06553103 -0.0724236 -0.050516523
000340 4d a6 96 bc 0d cf 68 bc c3 ad 9e 3d 85 4b 8f 3d
       -0.018389845 -0.014209521 0.07747986 0.06996826
000350 9f 79 cc 3d 9d 39 ba bd 28 c3 b0 bd 13 b3 cd bc
       0.09984135 -0.0909302 -0.08630973 -0.025109803
000360 da 97 89 3c 33 cc 0d 3c 2d 90 ca bc 23 f6 27 3d
       0.016796041 0.008654642 -0.024726951 0.04100622
000370 53 04 b9 3c f3 18 53 bc e2 2a b2 3d 27 26 a7 bd
       0.02258507 -0.012884366 0.086995855 -0.08161574
000380 c7 6b c3 bc 8d 39 77 3c 3a fd 90 bd 8d 58 8c bc
       -0.023855103 0.015089405 -0.07079549 -0.017132068
000390 ba 61 e9 bc 9d 97 6a 3d 42 2a aa 3d 60 91 f6 bc
       -0.028488982 0.057273496 0.08308841 -0.030098617
0003a0 fa f3 8a bd ed 64 af bd 83 98 88 3d d0 d9 8f bd
       -0.06784816 -0.08564172 0.06669714 -0.07023966
0003b0 4a 67 a1 3d 03 74 3a bd e7 c3 40 3c 4d e2 47 3d
       0.07881029 -0.045520794 0.011765457 0.0487998
0003c0 fd b6 50 bd 1a 9d 13 3d bd ab 81 bd d3 64 81 3c
       -0.05095576 0.036038496 -0.063315846 0.015795147
0003d0 1f e5 be 3d ed ef 8b bc a7 83 f6 3c 0f d4 8d bd
       0.09321045 -0.017082179 0.030092074 -0.069252126
0003e0 8a f1 44 bd b3 ed ab 3b 8f 45 bd bd 63 4e b4 3d
       -0.048081912 0.005246842 -0.09241783 0.088040136
0003f0 6a ef 54 bd 4f ee 92 bd d7 a1 75 bd 73 6f 3e 3d
       -0.051986136 -0.0717436 -0.059968796 0.046493005

backbone.model.1.0.model.0.bias f4 [8]
000000 2b f6 d1 3c 7f 28 e0 3c 87 c4 2c bd fa 67 42 bd
       0.025630077 0.02736306 -0.04217961 -0.04746244
000010 eb 75 c5 bd 6b dc 81 3d 60 84 67 bd a3 0f b5 bd
       -0.09641632 0.063408695 -0.056522727 -0.08840873

backbone.model.1.1.model.0.weight f4 [8, 8, 5, 5]
000000 b7 4b 2b bd 44 06 39 3d f9 05 27 bc b9 97 81 bd
       -0.041820254 0.04517199 -0.010194295 -0.06327767
000010 3c 7c 34 3d 50 d1 80 bd 5c 02 07 3c 61 9e 2d 3c
       0.04406379 -0.06289923 0.008240309 0.0105968425
000020 27 20 3a bd bb 78 76 bc a2 8d 37 3d a3 8c 8a 3c
       -0.04544082 -0.015043433 0.044812806 0.016912764
000030 f7 61 88 bd ef 90 ec 3b a8 ad ed bc e0 c7 8b bd
       -0.0665931 0.007219426 -0.02901347 -0.068252325
000040 ee 20 7d 3d 8b 90 f8 3c 4a 10 6d 3d 39 5c 0f 3d
       0.061798982 0.030342361 0.057876863 0.03500006
000050 fe 7f 53 3d 28 65 d2 bc 96 24 54 3d 21 50 a5 bc
       0.051635735 -0.025683 0.051792704 -0.02017981
000060 ab 22 ec bc 1b 4d 34 bd c3 f0 f6 bc f2 b6 88 bd
       -0.028825125 -0.044018846 -0.030144101 -0.06675519
000070 69 63 84 3d 29 bb 18 bd f6 c2 62 3d b2 57 0f 3d
       0.064642735 -0.037287865 0.05536171 0.034995742
000080 50 ef 8a bd 26 20 fa bb 3f bf 18 3d c3 38 44 bd
       -0.067839265 -0.007633227 0.03729176 -0.047905695
000090 b9 90 7d bd 67 1e ec 3b 11 54 0d 3d 96 ea 48 bd
       -0.061905596 0.0072057727 0.034504 -0.049051844
0000a0 3a 81 80 3d fd f8 89 3d fa 2d 7d bd 5f a7 42 3d
       0.06274648 0.06736944 -0.061811425 0.0475229
0000b0 e6 31 db 3c 26 7c 25 3d a3 da 21 bd 35 71 c4 bc
       0.026757192 0.0404016 -0.03951515 -0.023979763
0000c0 14 c1 74 bd 56 92 15 bd fb 14 32 3d ae d9 69 bd
       -0.059754446 -0.03651651 0.04347704 -0.05709236
0000d0 cd b9 8e 3d ac e6 75 3d 33 09 72 bd 22 b6 82 bd
       0.069690324 0.06003444 -0.059090804 -0.06382395
0000e0 8b 31 cc 3c fb 54 7f 3d e5 d4 55 bd 73 80 9f bc
       0.024925968 0.062336903 -0.052204985 -0.019470429
0000f0 a8 88 97 3b d1 86 59 bd 25 d1 0b 3c e4 2c 43 bd
       0.004624445 -0.053107087 0.008533751 -0.047650233
000100 ed a3 4f bd 68 6b 28 bd b2 34 b0 bc 25 ab 5a bd
       -0.05069344 -0.041118056 -0.021509502 -0.053385872
000110 1a 6b 3f 3c d0 7a 8c bd 62 25 55 3d d1 95 82 3d
       0.01168325 -0.06859362 0.052037604 0.063762315
000120 60 00 3f 3d d1 4b 67 bd e5 dd 47 bc 5c 0a 82 3d
       0.046631217 -0.05646879 -0.0121989 0.06349632
000130 41 d6 0c 3d bd 9f 2c bc 89 38 2c bb 14 7b dd bb
       0.034384016 -0.010536131 -0.0026278815 -0.006759057
000140 b4 d3 dc 3c ac bb 53 3d ba 32 2c bd 3a d0 18 3c
       0.026956417 0.05169265 -0.042040564 0.009326989
000150 29 6d 22 bd 87 7f 16 3c 2b b9 d5 bc 05 ee f1 bc
       -0.039654884 0.009185678 -0.026089272 -0.029532442
000160 b6 7b 4a bd 58 9c b7 3c ab 79 cc 3c 8c 1a 56 3d
       -0.049434386 0.022413418 0.02496036 0.05227141
000170 d8 9c c3 3c c3 ac 1b 3d c8 54 02 3d cf 98 09 bd
       0.0238785 0.038006555 0.031819135 -0.033592995
000180 95 ae b0 bc 9a 74 80 bd b3 2f 85 bd 1e 83 21 bd
       -0.021567622 -0.0627224 -0.065032385 -0.039431684
000190 26 cc 5b bd e4 1c c7 3c 5c 7e 66 bd 8d 27 d2 bc
       -0.053661488 0.024305768 -0.05627285 -0.025653625
0001a0 b1 44 5e bd a5 1f 0d 3d 0b e3 6e bd 2c 35 89 bd
       -0.054264728 0.034454007 -0.058321994 -0.06699595
0001b0 1d c2 5e 3d 9f 48 8a 3d f8 25 1c bd 3c 45 01 3d
       0.05438434 0.067521326 -0.038122147 0.031560168
0001c0 4e 81 82 bd 48 36 d5 3b 00 e6 05 3d 58 66 83 3b
       -0.06372319 0.006506715 0.03269005 0.004010003
0001d0 17 97 8f 3a d5 60 d7 bc e8 3b de 3b 3c 95 03 bd
       0.0010955062 -0.02629129 0.0067820437 -0.032124743
0001e0 98 eb 5f bd 7b 1b 8c bc da 87 46 bd 60 ac ee 3c
       -0.05466804 -0.017102947 -0.048469402 0.02913493
0001f0 30 a8 ec bc 75 c7 c3 bc 5e c0 4a bc 68 2e 51 bd
       -0.028888792 -0.02389882 -0.0123749655 -0.051069647
000200 14 c7 34 3d 2a da 1f bd bc 96 1b 3d e7 97 11 3d
       0.04413517 -0.039026417 0.03798555 0.035545256
000210 cb 74 8f 3c 07 7f 7d 3d 17 a6 ea 3c 6f 62 e7 bc
       0.017511746 0.06188872 0.028643651 -0.028245179
000220 22 9d d4 3b e0 8d eb 3b 38 24 17 bc ff a2 9a 3b
       0.0064884583 0.0071885437 -0.009224944 0.0047191377
000230 67 52 f1 bc 67 b1 8f bd 68 f6 44 bd 0f 71 14 3d
       -0.029458238 -0.07016259 -0.048086554 0.036240634
000240 8a a4 31 3d 0d b2 50 bd 39 85 2e 3d d0 2c 01 3d
       0.043369807 -0.050951052 0.04260752 0.031536877
000250 14 36 1e bc 17 bf 00 bd 36 f8 50 3d 61 26 35 bd
       -0.009656448 -0.031432237 0.051017962 -0.044226054
000260 33 15 48 bd d8 86 ae 3c 4e 4d 79 bc 6a 13 7d bd
       -0.048848342 0.021304533 -0.015216185 -0.061786093
000270 5d 27 12 bd 7e 9e 49 bd 38 75 04 bd 29 d9 02 3d
       -0.03568207 -0.049223416 -0.03233835 0.03194538
000280 75 11 62 3d 4c 0a 59 bc 7c 8b 44 bd 29 10 fe bc
       0.05519243 -0.013247084 -0.047984585 -0.031013565
000290 8a 7d 57 3d 23 fd 22 3d 18 f6 48 bd 8f 07 e2 bc
       0.052609958 0.03979219 -0.04906282 -0.027591495
0002a0 47 fa ff 3b 28 fe 90 3b 47 ef e4 3b 99 e9 74 bd
       0.007811818 0.004424829 0.006986532 -0.05979309
0002b0 c2 60 6d bd 07 0d 5c 3d 98 5e 6c bd f3 68 b2 3b
       -0.057953604 0.05372336 -0.0577074 0.00544464
0002c0 6a 8e 16 3b 01 7c 7f 3d 42 ef 8d bd 38 3f 27 bd
       0.002297307 0.06237412 -0.069304004 -0.040831774
0002d0 ce b0 a2 bc db f3 8b 3d 9c 4d 08 bd f5 b2 71 3b
       -0.019859698 0.06833621 -0.03327714 0.0036880348
0002e0 7e 84 5a 3d 90 3a d1 bb db b9 18 3d 26 bc 27 bd
       0.05334901 -0.006385155 0.03728662 -0.040950917
0002f0 21 cc 81 bd d4 cc 5e bd ac 0f 87 3d fe c2 87 3d
       -0.063377626 -0.054394558 0.06594786 0.06628989
000300 2c fb 50 bd 68 7e 74 bd eb 55 7c 3d e5 36 5e bd
       -0.051020786 -0.059690863 0.061605375 -0.05425157
000310 54 47 8f bb 79 15 8a bb 21 0c 00 3c e1 2f 99 3c
       -0.0043725166 -0.0042139855 0.007815392 0.018699588
000320 6f db ee bc e5 5e 77 3d 2f 87 57 bd e5 7a 6f bd
       -0.029157368 0.060393233 -0.052619155 -0.05846681
000330 8f 3a 2c 3d 73 b2 3f bd 61 7f 2a bd 52 d0 d0 3c
       0.042048033 -0.04680104 -0.041625384 0.02548996
000340 ca 07 63 bd 71 32 c3 3b 32 99 8c 3d 66 57 cd 3c
       -0.05542735 0.005956941 0.06865157 0.025066089
000350 49 d3 be 3a 91 f4 55 3c 37 3d 12 bd 51 71 57 3d
       0.0014558817 0.013058797 -0.03570291 0.0525983
000360 0e 6a 18 bb ce d3 67 bb 6f cf fe bc 70 e1 1d 3d
       -0.0023256573 -0.0035374048 -0.031104771 0.038545072
000370 6a d1 11 3d 93 d4 9a 3b c9 5e d0 3b 21 67 d1 3c
       0.035600103 0.004725048 0.0063589555 0.025561871
000380 c0 dc 8e 3d bc 25 4c bd a4 37 cc bc 47 33 7f 3d
       0.069756985 -0.049840674 -0.024928875 0.06230476
000390 35 88 79 3d 97 f7 8f 3c c3 39 72 3c 68 08 8a bd
       0.060920913 0.017574115 0.014784279 -0.067398846
0003a0 6b 22 55 bc f5 1e 88 bd 31 3d ba 3c f0 4d a7 bc
       -0.013008694 -0.066465296 0.022734256 -0.020422906
0003b0 1e 62 65 3d 0d 55 2b bd bc 09 eb bc a5 7f 1e 3d
       0.056001775 -0.041829158 -0.028691165 0.03869595
0003c0 ee 65 8e bd 43 42 66 3d 6e 27 45 bd cf f8 f6 bc
       -0.06953035 0.056215536 -0.048133306 -0.030147938
0003d0 74 f7 a1 3c ae 1e 02 3d 63 19 43 3b 3b 3b a2 bc
       0.019771315 0.03176754 0.002976977 -0.019803634
0003e0 8d 94 13 3d b5 d0 c1 bb 5c e9 51 bd b7 f8 8a 3d
       0.03603034 -0.0059147724 -0.05124794 0.0678572
0003f0 d4 2e 4d bc b8 e9 8f 3d ba 32 ef bc b2 f5 8a 39
       -0.012523372 0.07027 -0.029198993 0.00026504468

backbone.model.1.1.model.0.bias f4 [8]
000000 3a cd 53 bc 88 90 d2 3a e1 c5 2b bd 33 6d ab 3c
       -0.012927348 0.0016064802 -0.04193676 0.020926094
000010 dd d0 d2 ba 2d 7a 0f 3d bb 9e 3d bd 84 60 0b 3d
       -0.0016083975 0.035028625 -0.046293955 0.03402759

backbone.model.2.0.model.0.weight f4 [8, 8, 3, 3]
000000 1f fc 7e bd 77 81 da bd fc b8 e6 3c 4e 71 e8 bd
       -0.06225216 -0.10669225 0.02816438 -0.11349736
000010 6f 1f e4 bd 74 ff 10 bc ab 80 ba 3d 89 c0 a5 3c
       -0.11138808 -0.008849967 0.09106573 0.02023341
000020 09 e5 bf 3d f5 38 9c 3d fb f3 b4 bc 76 a4 91 bd
       0.09369857 0.07628051 -0.022088995 -0.071114466
000030 55 4f 97 bd 41 6d 84 3d ca e4 cc 3d 62 b1 06 bd
       -0.07388178 0.06466151 0.100045756 -0.03288401
000040 af 3e 44 bd ea 29 dc bd fc 77 be bd 33 54 7e bd
       -0.047911342 -0.10750182 -0.09300229 -0.062092017
000050 64 d5 e5 bd f6 9f 1d 3d ff e8 e1 3d c1 21 f1 3d
       -0.11222342 0.03848263 0.110307686 0.11774016
000060 00 0c d5 3d f3 32 71 3d dd e8 b4 3d e7 a2 a9 bc
       0.104026794 0.05888648 0.08833478 -0.02070756
000070 83 f0 b1 3d 73 38 8d bd 89 f9 b2 3d 1b 32 14 3d
       0.08688452 -0.068955325 0.08739001 0.036180597
000080 56 89 4f bd 3d d3 d7 bd 77 09 54 bd c3 f8 8e bc
       -0.050668083 -0.105383374 -0.05176684 -0.017452603
000090 fa b9 c7 3d 04 43 28 3d f9 28 c2 bd 7b 6f 23 bd
       0.09752269 0.041079536 -0.09480471 -0.039901238
0000a0 65 9c cd bd de a4 f7 3c 66 c6 9e 3d e0 89 ea 3d
       -0.100395955 0.030229982 0.07752685 0.11452079
0000b0 f0 24 94 bc 03 e4 e8 3d 00 08 58 3d 0f da d3 bc
       -0.01808402 0.11371615 0.052742004 -0.025860814
0000c0 e9 a3 e9 bd ec 60 91 3d d1 24 ab 3d ae 97 37 3d
       -0.114082165 0.070985645 0.083566315 0.044822387
0000d0 f0 21 17 bc b6 ee 1b 3c ef 97 e3 3d 65 83 be bb
       -0.0092244 0.009517362 0.111129634 -0.0058140033
0000e0 14 82 bc bd 16 a4 70 3a 11 0f 91 3c c2 e3 2b 3d
       -0.09204498 0.0009179724 0.01770738 0.041965254
0000f0 d3 29 35 3d 30 ad 8a bd b6 d4 7c bd b3 c9 c9 bd
       0.04422934 -0.06771314 -0.061726294 -0.09852924
000100 b6 58 db 3d e0 af d6 bc 81 76 e1 3d 1e 07 20 3d
       0.1071028 -0.02620691 0.11008931 0.039069287
000110 6f 41 cc bd 09 f3 48 3d 2c 98 f9 bc cf 37 62 bd
       -0.09973418 0.0490599 -0.030468069 -0.055229004
000120 e1 a7 58 3d d9 18 b3 bd 57 8a 95 bd 21 8b 8d bd
       0.052894477 -0.08744974 -0.07301777 -0.06911302
000130 5e be 8e bc 9e c0 cb bc 5e 10 a0 bc 58 36 ab bd
       -0.017424759 -0.02487212 -0.019539054 -0.083599746
000140 7a 3d f1 3d b2 3c 67 bd 51 d7 e7 bd a4 2f ae 3d
       0.11779304 -0.056454368 -0.11320365 0.085051805
000150 dd b1 1e 3d 60 0a 14 bd 0e b6 a6 3d bc 17 a4 bd
       0.038743842 -0.036142707 0.08140193 -0.080123395
000160 91 ff a6 bd 1c ce 94 3c e7 fb e0 bd e2 c4 b8 bd
       -0.08154214 0.018164687 -0.109855466 -0.090219274
000170 33 d9 5e 3c a0 5a f9 3c ef 06 2c bd 93 78 d6 3d
       0.013601589 0.030438721 -0.0419988 0.104722165
000180 10 99 0d bc 42 4d 08 bd 06 17 2d 3c 7c f2 e1 bc
       -0.00864245 -0.033276804 0.010564571 -0.027581446
000190 61 6f 97 3d 67 10 eb bd a7 87 8e 3d b6 2e c2 bd
       0.07394291 -0.11477738 0.069594674 -0.09481566
0001a0 35 ff 74 bd 13 7c e2 bc 3c c2 a1 3d 59 23 db bd
       -0.059813697 -0.027647054 0.078983754 -0.107001014
0001b0 d2 5d 72 bd aa f9 a5 3d a7 73 d6 bd 7e 33 07 3d
       -0.059171505 0.0810426 -0.10471278 0.03300809
0001c0 ae f4 80 bd 4c 2d 41 bd eb cf 20 bd 11 9f a5 bc
       -0.06296669 -0.04716234 -0.039260786 -0.02021745
0001d0 eb 2b 14 bc 4d e6 a3 bd 37 bd d7 bd 7b c0 ec 3a
       -0.009043674 -0.08002911 -0.10534137 0.0018062735
0001e0 c9 22 b0 b9 68 de ca bd 4f e0 38 3d b1 d3 c6 3d
       -0.00033595253 -0.09905702 0.045135792 0.09708346
0001f0 68 ca 26 bb b8 7e 6d bd 14 ec e2 bd d6 4c 89 3c
       -0.0025450233 -0.057982177 -0.110801846 0.016760271
000200 b1 bd a2 bd cd 0e ee bd d6 12 a4 3d 82 41 02 bd
       -0.07946337 -0.11623917 0.08011405 -0.031800754
000210 b3 9a a2 3d 5b 6d cf 3d 0d b2 40 bd 4e 6f 93 bd
       0.07939663 0.1012828 -0.047044802 -0.07198964
000220 05 e0 88 bd 11 26 f1 3d 27 54 6f bc 46 57 8d 3c
       -0.06683353 0.11774839 -0.014607466 0.01725353
000230 4b c4 98 bd 79 93 ad 3c 31 10 84 3d e1 bd 5b 3d
       -0.07459315 0.021188485 0.06448401 0.05364788
000240 99 e8 a1 bc 1c 58 c4 3d ea cb c7 bd 25 45 86 3d
       -0.019764232 0.09587118 -0.097556904 0.06556157
000250 96 c2 d7 bd 35 24 b3 bd ae b9 fd bc ac 05 85 bb
       -0.10535161 -0.0874714 -0.030972328 -0.004059514
000260 ca 5d 7f 3c 81 c8 e3 3b 0c e1 b2 bd 1f f1 a5 3c
       0.015586326 0.006951392 -0.087343305 0.020256577
000270 3d be e4 3d b7 c7 df 3d db 28 3f bd 3b e2 19 3d
       0.111690976 0.109267645 -0.046669822 0.037569266
000280 2a 44 2f bd 45 e1 e1 bd e4 de 7d bc 1e fa e2 3d
       -0.042789616 -0.11029295 -0.015495036 0.11082862
000290 60 99 d4 3d a1 b2 1e 3d 30 b4 f0 3d 25 ee 0a 3d
       0.103808165 0.038744573 0.11753118 0.03391852
0002a0 84 2e c0 3d 0d ff e8 bc 76 86 96 3c 22 b2 a3 bd
       0.09383872 -0.02844193 0.018374663 -0.079929605
0002b0 95 41 a9 bd ab 0c d1 bd 3f a5 75 3d 7c 3e a1 3d
       -0.08264462 -0.10207494 0.059972044 0.07873246
0002c0 32 17 c6 3c 2e 54 14 bd 5b bf 55 3d 61 a2 56 3d
       0.024180982 -0.036213093 0.052184444 0.05240095
0002d0 cc 0e 0e 3c 30 01 84 3d aa 5d ee 3c 0c d6 1f bd
       0.00867052 0.06445539 0.029097397 -0.03902249
0002e0 b3 48 6d 3d 52 9e af 3c ef 50 c3 3d d3 ef 97 bd
       0.05793066 0.021437798 0.09536921 -0.0741879
0002f0 97 aa ec 3d f3 2c 67 3d 46 43 97 3d 7f 10 89 3d
       0.11555975 0.05643935 0.07385878 0.066925995
000300 99 24 d9 3d 20 28 c9 3d 22 dd b9 bd 1c 7e 78 bd
       0.106026836 0.09822106 -0.09075381 -0.060667142
000310 52 92 d4 bc 5e 16 ee 3c 09 7c 0a 3d d6 e0 37 3d
       -0.025948677 0.0290634 0.033809695 0.044892155
000320 3a e8 0b bd b9 18 29 3c a2 66 2e bd 65 5e be 3d
       -0.034157015 0.010320836 -0.042578347 0.09295348
000330 e8 43 e2 3d 79 7b 2b 3d 12 07 e8 3d 0c d1 c3 bd
       0.11048108 0.0418658 0.113294736 -0.09561357
000340 89 56 29 3d 64 5a b8 bd bf 17 92 bd b6 42 81 ba
       0.041342292 -0.09001616 -0.071334355 -0.00098618
000350 e1 3e 8e bd b0 40 20 3c 59 4a 8e bd cf 26 69 bd
       -0.06945587 0.009781048 -0.069477744 -0.056921776
000360 5f 97 e4 bd 3f 42 57 bb 00 22 8b bd 9e 3f d4 3b
       -0.11161684 -0.0032845882 -0.06793594 0.0064773103
000370 e2 06 83 bd 99 b0 ec 3d 54 b1 be bd ad 95 a3 bd
       -0.06397797 0.11557121 -0.093111664 -0.07987533
000380 2d 13 cf bc 03 19 cd 3d ec 96 a0 3c be 6a 26 bd
       -0.025277698 0.10014536 0.019603215 -0.04062914
000390 90 a5 ba 38 2a bf 78 bd 8f 1a 84 39 27 51 c9 bc
       8.9000096e-05 -0.060729183 0.0002519679 -0.02457483
0003a0 8e d1 81 3d 20 f7 69 3d ee 45 c9 bc fe 61 de 3c
       0.063387975 0.057120442 -0.024569478 0.027146336
0003b0 37 52 b1 bd 56 bd a3 bd 83 ce 31 bd 8f 9f 29 3d
       -0.08658259 -0.07995097 -0.043409836 0.041411933
0003c0 4c 02 34 bd 7c c1 cb 3d ee 5c a1 bd 8f dd d6 3d
       -0.043947503 0.099490136 -0.07879053 0.10491478
0003d0 3e f1 b9 bd 33 60 b7 bc 8a c3 09 bc 09 9a 97 bd
       -0.090792164 -0.022384739 -0.008408437 -0.07402427
0003e0 63 a3 66 bd f0 a0 c4 3d 0a 67 f0 bc 61 4f 22 3d
       -0.05630816 0.09601009 -0.029346008 0.039626483
0003f0 50 25 ee bd 62 47 ea 3b 57 a7 4c bd 57 6b 54 3c
       -0.116282105 0.007149623 -0.049964275 0.012965045

backbone.model.2.0.model.0.bias f4 [8]
000000 da 2f c3 3d 28 62 80 bd 88 7b c6 3c dc ed 62 3c
       0.09530611 -0.06268722 0.024228826 0.013850655
000010 05 34 af bd 8c 90 a4 bd 90 cf da bc 51 af a4 bd
       -0.08554844 -0.08035383 -0.026710302 -0.080412515

backbone.model.2.1.model.0.weight f4 [8, 8, 3, 3]
000000 e3 1b f0 bd b3 20 6b 3a 65 e7 89 3d 57 53 3e 3d
       -0.11724069 0.0008969411 0.06733588 0.046466198
000010 90 52 3f 3d b8 66 d2 3d ab fe e9 bd b7 67 83 bd
       0.046709597 0.10273498 -0.11425527 -0.064162664
000020 1c d7 c0 3d ed fd a8 3d bc b0 ea 3d 23 c1 9d 3d
       0.09416029 0.082515575 0.11459491 0.077028535
000030 aa 12 42 bd ac e3 d6 bd 99 10 e7 bd 1d c9 e2 3d
       -0.04738108 -0.10492644 -0.112824626 0.110735156
000040 de 06 df 3c f0 83 cc 3d d8 0e df 3d e6 bf 96 3d
       0.027224954 0.099861026 0.10891503 0.073608205
000050 46 d0 6c bc 96 73 af bd 8a cb d1 bd 08 6e d8 bd
       -0.014453953 -0.08566968 -0.102439 -0.10567862
000060 e5 96 b8 bd c3 20 03 bd 15 dd 88 bc ae c3 89 3d
       -0.09013156 -0.032013666 -0.016706983 0.06726776
000070 45 95 55 ba 02 23 aa 3c 39 66 85 bc 67 96 7f 3d
       -0.0008147548 0.020768646 -0.016284095 0.062399294
000080 81 e1 32 bd 1f 69 5e bc 5d f7 dc 3b 5e 1a 11 3d
       -0.04367209 -0.0135748675 0.006743355 0.035425536
000090 32 f4 d7 bd 63 b8 cd 3d c8 ea d4 bd 8d 3a 32 bd
       -0.105446234 0.100449346 -0.103963435 -0.04351287
0000a0 7f 3c a1 3d 46 fc 98 bd ca c9 8d 3d ec be b6 3c
       0.07872867 -0.07469992 0.06923254 0.022307836
0000b0 0e 3e dd bd 28 9f ec bc 61 3b c4 3d 2b ac 8d 3d
       -0.108028516 -0.028884485 0.09581638 0.06917604
0000c0 85 64 cd 3d 52 80 ea 3d 0f 8d d6 3d 89 e0 d3 bd
       0.10028938 0.114502564 0.104761235 -0.10345561
0000d0 41 94 26 3c 85 1f b6 bd f3 ef b0 bd e7 66 d9 bc
       0.010167182 -0.088927306 -0.08639517 -0.026538325
0000e0 14 4f c3 bc ba 7b f2 bb 02 6e 81 bd 03 8d 6e 3d
       -0.023841418 -0.0074000033 -0.063198105 0.058239948
0000f0 ba e3 90 bd 5f 6e da 3d c6 0a a3 bc c3 fc 74 bd
       -0.070746854 0.10665583 -0.019902598 -0.059811365
000100 e6 60 ed bd 24 f7 6f bc 09 58 87 bd c9 3d f1 bd
       -0.115907475 -0.014646325 -0.06608588 -0.11779363
000110 d7 80 98 bd 19 90 86 bd 36 21 f0 bd 6c 8a 6f bd
       -0.07446449 -0.06570453 -0.117250845 -0.05848162
000120 a7 f5 88 bc c3 ad a6 3d 14 23 90 3d 4c 32 98 bd
       -0.016718699 0.08138611 0.070379406 -0.07431468
000130 5e 2f 86 3c 0a 95 ac 3d e1 b6 be bd 48 53 e7 bd
       0.016380008 0.084268644 -0.09312225 -0.112951815
000140 04 78 43 3d 89 15 de 3d ac a6 8b 3c 64 64 d9 bd
       0.047721878 0.10843951 0.017047249 -0.10614851
000150 e4 63 41 bd a7 c4 29 bd c6 6a 73 bd bf 41 58 3d
       -0.047214404 -0.041447308 -0.059428 0.052797075
000160 e8 04 57 bd ec 38 8f 3d 32 55 b0 3d c0 38 b7 bb
       -0.052494913 0.06993279 0.0861 -0.005591482
000170 ed 61 b1 3a 1a c8 4c bd a4 3e fc bb a1 1b d0 bd
       0.0013533212 -0.04999552 -0.007697897 -0.1016152
000180 1a f3 97 3d 5e 2c 5c bc a3 4e 28 3d 98 2e d3 3d
       0.07419415 -0.013438312 0.04109062 0.103116214
000190 5a 04 31 bd e8 2f 12 3d f9 17 87 3c 55 72 2e bd
       -0.04321704 0.03569022 0.016490923 -0.042589504
0001a0 5e fc 82 bd 2e c6 eb 3d 48 50 6b bd 72 a1 3e 3c
       -0.063957915 0.11512409 -0.05744961 0.011635171
0001b0 df 50 9b 3d ad bd d8 bd 82 06 d9 bd 4e dc 7f 3c
       0.07583784 -0.10583053 -0.105969444 0.01561649
0001c0 2a 20 86 bb f7 a5 1a bc f6 4c 29 bd cc 39 94 bd
       -0.0040931897 -0.009438983 -0.04133316 -0.072375864
0001d0 fa 56 dc 3d 37 90 b2 3d 86 3f 0b bd 49 f7 8d 3b
       0.10758777 0.08718913 -0.033996128 0.004332457
0001e0 ab 32 aa 3d 02 d3 f8 bc 84 7d 45 3d 74 c4 8f 3d
       0.083104454 -0.030374054 0.048215404 0.07019892
0001f0 65 7b 6f bc a8 bc 29 bb 34 02 d1 bd 18 b8 ac 3b
       -0.014616822 -0.0025899801 -0.10205498 0.005270969
000200 5d 14 c4 bc 37 4d c7 bd 1e fd 59 bd 3f e4 98 3a
       -0.023935491 -0.097315244 -0.053219907 0.0011664702
000210 01 48 02 bd 7f 3f 3d 3d c2 b7 9b bd 5e 5b 82 3d
       -0.03180695 0.046203133 -0.076034084 0.06365083
000220 97 7e be 3d 2b 0e 6a 3c 25 20 d0 bb 59 8a 75 bd
       0.09301489 0.0142856045 -0.006351488 -0.05994639
000230 f7 c2 ab bc dc 9e 6b bc d8 0f 5b 3d fe a3 8c b9
       -0.02096699 -0.014381137 0.053481907 -0.00026825065
000240 f0 9d 51 bd 1f f6 13 3d e1 f4 de 3d b1 ee 65 bd
       -0.05117601 0.03612339 0.10886551 -0.056135837
000250 13 8f be 3d 09 d3 6a bd 55 d7 14 bd e1 63 ab 3d
       0.09304633 -0.057330165 -0.03633817 0.0836866
000260 a0 36 a3 3d 94 d7 9c 3d 17 50 c4 3d 60 13 30 3d
       0.07969403 0.07658306 0.095855884 0.042987227
000270 50 77 30 bd 28 96 c9 bc b2 bf d9 bd 0e 53 e9 bd
       -0.043082535 -0.024607733 -0.10632266 -0.113927945
000280 ae 46 d4 bd c3 0c a2 bd ca 48 a0 bd ec cd e1 bc
       -0.103650436 -0.0791259 -0.078263834 -0.027564012
000290 5d cb ff 3c 52 79 95 3a 87 30 28 3d 21 61 e5 3d
       0.0312249 0.0011403954 0.041061904 0.112001665
0002a0 2b 87 47 bd 0b 83 d1 3d ff 95 8c bd ac a5 52 3c
       -0.04871289 0.102300726 -0.06864547 0.012856882
0002b0 fc b7 21 3c 29 3c 97 bd c6 1d d8 3d b7 a5 0c 3d
       0.009870525 -0.073845215 0.10552554 0.034337725
0002c0 b5 b9 d5 bd 48 c6 da 3d 1e b3 e8 3d 00 5a 8a 3d
       -0.104358114 0.106823504 0.11362289 0.067554474
0002d0 c5 18 15 bd e6 db 6d bd c0 28 5f 3d 1c 05 dd 3d
       -0.036400575 -0.05807104 0.05448222 0.1079199
0002e0 11 47 e7 bd 22 be ac bc 05 cb 92 3d 4b 2d 63 3c
       -0.11292852 -0.021086756 0.07167629 0.013865779
0002f0 85 8b ae 3d 96 b9 8e 3d 84 d3 14 bd 64 8b e0 bc
       0.08522705 0.069689915 -0.03633453 -0.027410217
000300 72 bf f8 3b f9 41 23 bd 95 30 dd bc b0 b9 bf bd
       0.0075911814 -0.03985784 -0.027000705 -0.09361589
000310 93 9d 2a bd 46 1a ae bd 4c 09 97 bd e0 6b a2 3d
       -0.04165418 -0.08501105 -0.0737482 0.07930732
000320 0a cd c9 3d 1f d3 37 bd 3f 21 3b bc 1d 75 18 bc
       0.09853561 -0.044879075 -0.011421501 -0.009305266
000330 69 86 51 3d 6a ea b2 3d 34 1e b7 bd 61 2a bb bb
       0.051153574 0.08736117 -0.08941308 -0.005711839
000340 ab fb 57 3d a8 3d 8a bd 56 b1 5e 3d fb 96 8e bd
       0.052730244 -0.06750041 0.05436834 -0.06962391
000350 b3 f9 27 3d e7 9e ab 39 5a cc fa 3c 12 07 18 3d
       0.041009616 0.00032734053 0.03061502 0.037116118
000360 60 c2 02 3d 6e cd 96 3d e4 ce 94 bd 44 12 35 bd
       0.03192365 0.07363401 -0.07266024 -0.044206873
000370 8e 4b eb bd 22 ec ba bd 22 e3 0d bb f2 98 a9 bb
       -0.1148902 -0.0912707 -0.0021650274 -0.005175703
000380 e4 6b b1 3d cf 5c 0c 3d 74 ff 9b 3d 0f 5f 2c 3d
       0.08663157 0.034268197 0.07617083 0.042082842
000390 0c c9 bf 3c f1 37 da bc d0 9f be bd e7 a8 a3 3b
       0.023411296 -0.026638003 -0.093078256 0.0049945
0003a0 d2 8c c5 bd 89 6b 9a bd 4b 5f c7 bd 70 15 93 ba
       -0.09646 -0.07540042 -0.097349726 -0.0011221599
0003b0 23 23 35 bd 1a 59 3f 3d ff 7c 99 3d ab 35 d5 3d
       -0.044222962 0.046715833 0.07494544 0.10410627
0003c0 ed 94 62 bd 4c 52 ad 3d d5 23 de bd e9 c6 db bd
       -0.055317808 0.084629625 -0.10846678 -0.107312985
0003d0 a0 bc ee bd 78 4f 84 3d 90 d1 ed 3d 38 e6 82 3d
       -0.11657071 0.0646047 0.116122365 0.06391567
0003e0 80 57 cf 3d 8d 30 dd 3d 50 c9 95 bc 2b 7f 0e 3c
       0.10124111 0.10800276 -0.01828447 0.008697311
0003f0 09 03 0c bd dd 76 85 bd 42 6d 56 bd e9 b9 35 3c
       -0.034182582 -0.06516812 -0.05235029 0.011091688

backbone.model.2.1.model.0.bias f4 [8]
000000 1b bc 96 bd 63 e1 e7 bd b1 82 d0 3d d6 bc 39 bb
       -0.07360097 -0.11322286 0.101811774 -0.0028341315
000010 81 34 70 3d 0e 59 d8 3c 19 6e 8e 3c 9e b9 a3 bd
       0.05864382 0.026409652 0.017386483 -0.07994388

backbone.model.3.0.model.0.weight f4 [16, 8, 3, 3]
000000 1d 0e 5e bd ed ce e6 3d 02 5d 6a 3d 5e fa cd ba
       -0.05421268 0.11269937 0.057217605 -0.0015714874
000010 6d 8e 8d bd e8 26 a4 3d c6 62 bb 3d 92 cf 7d bb
       -0.06911931 0.08015233 0.09149699 -0.0038728458
000020 34 45 32 3d 5b f6 9e bd 5f 0a 34 3d ff 7c f4 bc
       0.04352303 -0.07761832 0.043955203 -0.029844759
000030 12 4b de bc 2d 8d 3e 3d 93 bb d7 3c 2d 33 99 3c
       -0.027135406 0.046521354 0.02633456 0.01870116
000040 7b f1 9b 3c ec db 02 bd 46 8b 89 3d 98 a7 a8 3d
       0.019036045 -0.031948015 0.067160174 0.08235091
000050 af 28 47 bd f5 73 b1 3d 41 33 c7 bd 51 6c 79 bd
       -0.048622783 0.08664695 -0.09726573 -0.060894314
000060 7e 0f e6 bd 38 fe 42 3d 65 f0 00 bd 43 28 c7 bd
       -0.11233424 0.047605723 -0.031479258 -0.09724476
000070 74 c6 31 3c 2c 98 18 bd 82 fe df 3d 9d 3e 52 3d
       0.010850538 -0.037254497 0.109372154 0.051329244
000080 60 2a 1d 3c b9 5c 8a bd 5c c9 9a 3d 36 3f a3 bd
       0.0095926225 -0.06755967 0.075579375 -0.07971041
000090 94 eb a7 bd ec 9f dd bd 5b 69 6b bc b3 82 b5 3b
       -0.0819923 -0.10821518 -0.01436838 0.005539262
0000a0 e6 5f d0 bc 6d 66 e9 bd bb 00 ab 3d 99 77 cd bd
       -0.025436353 -0.11396489 0.08349749 -0.10032577
0000b0 78 69 76 39 58 46 a0 bb 08 9e 5c bc 0b cd 2d 3a
       0.00023499678 -0.004891198 -0.013465412 0.000662998
0000c0 71 96 bb 3d f8 bf bb 3d 70 e9 ef 3c 09 37 ef bd
       0.09159554 0.091674745 0.029286116 -0.11680419
0000d0 e3 03 90 3d 83 f6 78 bd e1 0e c3 3c ae 5f 58 3d
       0.07031991 -0.060781967 0.023810806 0.052825622
0000e0 d1 55 a2 3c 5c f6 87 3d ec 47 a2 3d 6c 54 c8 3d
       0.019816311 0.06638786 0.07923874 0.09781727
0000f0 42 fc 65 3d 52 06 99 3d c6 f6 e5 3d 7c 5b 36 3d
       0.056148775 0.07471909 0.11228709 0.04452084
000100 56 50 d6 3d f2 5a df bd bf d5 93 bd 82 ba c0 bd
       0.104645416 -0.10906018 -0.07218503 -0.094105735
000110 01 9d e1 3d dc 3d bc 3d 73 79 b0 3d 69 ed d0 bc
       0.11016274 0.09191486 0.086169146 -0.025503831
000120 7e c9 d6 3d 36 f5 46 3d db 71 c5 bd 8c b4 ec bc
       0.1048765 0.048573695 -0.09640857 -0.028894685
000130 01 e9 eb 3d 47 21 81 bd 82 7b c2 bc 22 de 98 3d
       0.11519051 -0.06305175 -0.023740534 0.074642435
000140 f3 95 8a bd 99 7f 70 3d 1a 0e 28 bd b8 bf b6 bb
       -0.06766882 0.058715437 -0.041029073 -0.005577054
000150 47 e3 74 3d 8c aa 9d 3d 70 cd 96 bb ed 82 c0 bc
       0.05978706 0.07698545 -0.004602127 -0.02349993
000160 b2 58 83 3d 4e 49 b1 bd 0d f4 b3 bd 37 9d a7 bc
       0.06413402 -0.0865656 -0.08786783 -0.020460708
000170 95 f7 22 bd 9e a4 8f 3b 18 d9 90 3c ac 72 a4 bd
       -0.039786894 0.0043836376 0.017681643 -0.080296844
000180 b6 fc d2 bd 29 29 ec 3a 7c 81 df bd 73 32 dc 3d
       -0.10302107 0.0018017638 -0.10913369 0.1075181
000190 17 ab 27 3d 10 6f cb bd 37 77 4d bd 7c a0 05 bd
       0.04093465 -0.09933293 -0.05016252 -0.032623753
0001a0 ad 0c b8 bc 6c df 9b bc cf 4d ec 3c e0 a0 9c 3c
       -0.022466982 -0.019027434 0.028845696 0.01911968
0001b0 7c 59 be bd d3 86 60 bd 6a 6b ad 3d 7d 91 b6 bd
       -0.092944115 -0.05481608 0.08467753 -0.089144684
0001c0 a8 8c 4b 3d 8b 3d eb 3d 2e 5a 02 bd 5b b6 6a 3d
       0.049694687 0.11486348 -0.031824283 0.057302814
0001d0 0c c6 57 3d bc e1 31 3d 53 0b 6b 3d 76 a3 81 3d
       0.052679107 0.043428168 0.057383846 0.06330006
0001e0 af 40 c5 3d 1e 26 db 3d ba 4d 44 bd b6 b4 aa bd
       0.09631478 0.1070063 -0.04792569 -0.08335249
0001f0 3e 64 b3 3d 68 fa d2 bc fe a1 9b bd d2 c8 fb 3c
       0.08759354 -0.025754169 -0.07599257 0.030735407
000200 2c 3d 0e 3b 75 3a 66 3d f9 4e bf 3d b0 5f 0e bd
       0.0021703942 0.056208093 0.09341235 -0.034759223
000210 29 40 91 bd 89 19 45 3d df f4 e1 bc a5 29 bb bd
       -0.07092316 0.048120055 -0.027582584 -0.091388024
000220 25 e8 84 bd 74 5b 43 3d 31 82 16 3d f3 2a d8 bd
       -0.064895906 0.04769464 0.036745254 -0.10555067
000230 b6 f1 42 3a 49 b5 b8 bd 9f 7f 06 bb 3b 43 cb bd
       0.00074365304 -0.090189524 -0.0020522845 -0.099249326
000240 2f a0 78 bd 43 1f 0b 3c cd f9 a1 3c 5b 14 b7 bd
       -0.060699638 0.00849134 0.019772435 -0.089394294
000250 84 4f 32 bc 35 b7 a6 bd 3e 12 b7 bc 8b 6a 62 bc
       -0.010883216 -0.08140413 -0.022347566 -0.013819347
000260 c1 79 3c bd 50 94 97 bc 3d cf 72 bd d8 5c 9c 3a
       -0.04601455 -0.018503338 -0.05927967 0.0011929525
000270 75 90 ca 3d f4 e3 50 bc 89 98 bc 3d b5 d0 df bd
       0.09890834 -0.012749661 0.09208781 -0.109284796
000280 40 66 4a bc e9 ab 0f bd 3f 35 7d bc b5 39 d6 bd
       -0.01235348 -0.035076056 -0.015454589 -0.104602255
000290 39 25 9a bd 79 80 9c bd 9e da 60 bd e8 8d a0 3d
       -0.07526631 -0.07641692 -0.05489599 0.078395665
0002a0 12 18 5f 3d 5d 0e c0 3d fd f1 9e 3b 37 fa 4a bd
       0.054466315 0.093777396 0.0048506246 -0.04955503
0002b0 1e c5 dd 3d de 45 ba ba f2 b2 4b bc 6a b6 6b bd
       0.10828613 -0.0014211496 -0.012432801 -0.05754701
0002c0 eb b2 b0 3b 8f c8 ba bd 1c 93 a7 3d 03 18 2e 3d
       0.0053924224 -0.09120285 0.08182356 0.042503368
0002d0 d2 7d 7b bd 6e a2 1a bc f6 7c 89 bd 6f e8 e0 bd
       -0.06139929 -0.00943814 -0.067132875 -0.10981833
0002e0 ff 54 3a 3d 8b e0 ae bd 4d 98 c6 bc 16 6d a3 bd
       0.045491215 -0.08538922 -0.024242545 -0.07979791
0002f0 7d 74 de 3d ea 9d 88 3c a7 7b ac bd 1c 19 61 bd
       0.10862062 0.016676862 -0.08422022 -0.054955587
000300 b5 90 e6 3c 45 fa f3 3c 4a ed 02 bd f9 8a b4 bc
       0.028145174 0.029782424 -0.031964578 -0.022038924
000310 ab 30 5c bb 37 d7 e8 bd d3 6a 1c bd d3 b4 9e 3c
       -0.0033598344 -0.11369174 -0.038187813 0.019373333
000320 ab 59 b0 3d 3c a0 73 3d 11 8e a8 bd 47 03 7d bd
       0.08610853 0.059478983 -0.08230222 -0.061770704
000330 bc e9 bf 3d 4e d6 61 3d 98 e1 bd bd 83 c7 4b ba
       0.09370753 0.055136018 -0.09271544 -0.0007773565
000340 38 92 ce 3c 58 e4 b9 bd 3e 6d 39 3d 1f f7 c1 bd
       0.025216207 -0.09076756 0.045270197 -0.09470963
000350 0e f8 f0 3c 3a da 90 bd bb 13 e1 3d 73 22 a7 bd
       0.029415157 -0.070728734 0.109900914 -0.081608675
000360 bb c4 c2 3d d5 14 20 bd 6d 94 a7 bd 74 44 56 3c
       0.095101796 -0.039082367 -0.08182607 0.013077844
000370 c4 f8 b0 bd ef 00 d7 3d ec ee 84 3d 65 89 8c bd
       -0.08641198 0.10498225 0.06490883 -0.068621434
000380 45 8e 47 3d 33 18 9a bd bd fa 8c 3d c7 1d e4 3d
       0.048719663 -0.07524147 0.06883762 0.11138492
000390 e2 04 3e 3d 20 3c 77 3c 13 df ff bc 4b 52 29 bd
       0.046391375 0.0150900185 -0.0312343 -0.041338246
0003a0 e9 0f 27 3d ff f4 95 bd 2f 99 bf bd cb b4 62 3d
       0.040786657 -0.0732212 -0.09355389 0.0553482
0003b0 19 59 c3 3d 68 e8 b0 3d ba 2b 21 bd d4 76 0d 3d
       0.095384784 0.08638078 -0.03934834 0.03453715
0003c0 3b 9f 1f bc d9 f1 bc 3c 45 d2 4e bb 85 46 e5 bc
       -0.009742553 0.02306454 -0.0031558436 -0.027987728
0003d0 ee 03 ad bd 44 cf 96 3c a7 7f d0 bd 29 ea 30 3d
       -0.08448015 0.018409379 -0.10180598 0.043192063
0003e0 75 0c d5 3d 43 e7 cd 3d e4 ae e9 3d 7c 82 8c bd
       0.104027666 0.10053875 0.11410311 -0.068608254
0003f0 23 55 98 3d 5f 86 3e 3d c8 cd a2 3d 4f 9f b9 3d
       0.074381135 0.046514865 0.07949406 0.09063589

backbone.model.3.0.model.0.bias f4 [16]
000000 a6 8e 9d 3d d2 eb 79 bd 5e de ad bd 71 dc 3b 3d
       0.07693224 -0.06101591 -0.08489679 0.045864526
000010 a4 c2 88 bc 7a 66 e6 bd 25 a4 a0 bd b7 6d a6 3d
       -0.016694374 -0.112500146 -0.07843808 0.08126395
000020 be 06 17 3d 0b 6a 04 bd 16 5b ff bc 54 3a 8b 3d
       0.036871664 -0.032327693 -0.031171363 0.067982346
000030 54 29 bb bc e1 b1 bb 3d 26 1f aa bc ba b7 6a 3d
       -0.022846855 0.09164787 -0.020766806 0.05730412
