software/logs/hyper_parameter_tuning/custom_model_hp/version_2/checkpoints/epoch=3-step=83.ckpt (torch, 195567 bytes, 54 tensors)

backbone.model.0.0.model.0.weight f4 [4, 2, 5, 5]
000000 f0 6c 43 3b 30 3c fd 3c f7 6a 5c 3d 02 74 31 3d
       0.002981957 0.030912489 0.053812947 0.043323524
000010 cc 36 c6 bc 89 32 f4 bc 04 4a a5 3c 7b 67 0b be
       -0.024196051 -0.029809253 0.020176895 -0.13613693
000020 31 ea 98 3d 2a d0 06 be 87 b6 fc 3d ab 9f ff bd
       0.074665435 -0.13165346 0.12339502 -0.12481626
000030 48 af b0 bd 21 85 c5 3d 5e 9b 70 3c 74 58 9d 3d
       -0.08627182 0.09644533 0.01468548 0.07682887
000040 11 58 b4 3d 2e df 18 3c 94 89 e2 bc c8 5f ca 3d
       0.0880586 0.009330554 -0.027653493 0.0988155
000050 90 ab cb 3d 37 cc 77 3d 4c 35 9a bd 57 1a ac bd
       0.09944832 0.06049749 -0.07529697 -0.084034614
000060 13 f5 17 3d 4e 45 78 3b 55 dc a7 bd 6b f2 fe 3d
       0.037098955 0.0037883106 -0.08196322 0.12448581
000070 18 7a c9 bd c6 a3 c3 3c 5b 50 22 bd 42 bd a3 bd
       -0.09837741 0.023881804 -0.039627414 -0.079950824
000080 c6 4e 42 3d 44 27 35 bd 78 16 b7 bc 79 a6 89 bd
       0.047438405 -0.0442269 -0.022349581 -0.06721205
000090 7f 24 6f 3d fc 52 50 3c f4 46 de 3d cf d9 cd bc
       0.058384415 0.0127150975 0.10853377 -0.025128273
0000a0 4c ed 95 3d 97 c0 8d 3d c4 fb d9 bd 2c 3d 03 be
       0.073206514 0.06921499 -0.106437236 -0.12816304
0000b0 ea 54 a2 bd 5a 04 e1 3c ff 9d 8c bd 05 18 6b bd
       -0.07926352 0.027467895 -0.06866073 -0.057395954
0000c0 ea df fa bd 1e e1 eb 3d d0 fa ac bc 77 0f 92 3d
       -0.122497395 0.11517547 -0.02111569 0.07131856
0000d0 90 46 0c bc 38 da 86 bd 7e cf 0c be b2 93 67 3c
       -0.008561745 -0.06584591 -0.13751027 0.014134334
0000e0 cf 00 0e 3e 26 98 05 3e 43 55 33 3d b8 44 06 be
       0.13867496 0.13046321 0.043782484 -0.13112152
0000f0 c9 dd c2 3d 41 02 e3 bd 26 7b fc bc 0b 65 30 bc
       0.095149584 -0.11084414 -0.03082044 -0.010766278
000100 8e e6 ea 3d 74 ea cc bd 04 50 6f 3d 61 6a 9c 3d
       0.11469756 -0.10005656 0.05842592 0.07637478
000110 98 ac 8f bd f5 f9 a9 3d 77 d8 aa bd d9 fc 3e bd
       -0.070153415 0.08299629 -0.08342069 -0.046627853
000120 af 6f 72 bc fb bc 03 3d da 24 d3 bd a3 85 0c 3b
       -0.014797135 0.032162648 -0.10309763 0.0021441958
000130 70 1d 07 bd fe 92 0c be 32 62 bb 3d 25 cc 05 3e
       -0.03298706 -0.13727948 0.09149589 0.13066156
000140 c7 1e 98 3b e2 bf 59 3d ae 55 b2 3c 72 28 b9 bc
       0.004642341 0.05316151 0.02176937 -0.022602294
000150 2b c2 d3 3c a9 93 10 3e f0 17 ad bd ef 41 69 bd
       0.025849422 0.14118828 -0.08451831 -0.056947645
000160 96 81 01 3d f2 8b d6 bd 9c ab 80 bd b1 ee 19 3d
       0.031617723 -0.10475911 -0.06282732 0.03758115
000170 f4 de f5 bd c1 c3 3a 3d a3 33 cd bd 85 27 ad bd
       -0.120054156 0.04559684 -0.100196145 -0.084548034
000180 3a c0 c4 3d 9d dc f2 3d f9 03 11 3d 72 a4 f0 bd
       0.09606977 0.11858485 0.03540418 -0.117501155
000190 77 2c e6 3d eb 1f 22 3d aa 5a b5 3d d2 23 d0 3c
       0.1123895 0.03958122 0.088551834 0.025407705
0001a0 6c a1 0a 3e 70 c3 08 3e db 99 e4 3c ce b2 11 bd
       0.1353814 0.13355803 0.027905395 -0.035570912
0001b0 af ba 26 bd 14 c1 ea 3d 29 ca 82 3d af cd d3 bd
       -0.04070538 0.11462608 0.06386215 -0.103419654
0001c0 b5 98 e6 3c 38 db da bd 10 ea e0 bd c2 6f ee 3c
       0.028148988 -0.10686344 -0.10982144 0.029106025
0001d0 6b 56 b8 3d d1 9b 47 3d 2c c6 3e bb 95 21 df 3d
       0.09000858 0.048732582 -0.002910982 0.10895077
0001e0 a0 75 b1 3d ca ef 97 bc ed d7 d5 bb e9 b3 a7 bd
       0.08665013 -0.018546958 -0.0065259845 -0.08188612
0001f0 cc 6f eb bd 31 a0 c8 bd ce e5 01 be 26 32 d1 3d
       -0.11495933 -0.09796179 -0.1268532 0.10214643
000200 73 7d 66 3d 6b 9b f4 bd 46 71 a9 bd 15 7c be 3d
       0.05627198 -0.11943706 -0.08273558 0.093010105
000210 56 1a 3d bd c2 0f 82 bd 0d 0f 3a 3d 1e 54 8e bc
       -0.046167694 -0.06350662 0.04542451 -0.017374095
000220 1a 3e 70 3c 86 12 f0 bd e8 c5 5f bd 49 19 dd 3c
       0.014663244 -0.11722283 -0.054632097 0.026989596
000230 df 2e 26 3d d0 c6 e2 bc c3 75 1e bd 3a 88 3e bb
       0.040572044 -0.027682692 -0.038686525 -0.0029072897
000240 0a b7 f5 3d c9 4c b4 3d 26 4c 9e bc 03 49 5f 3d
       0.119978026 0.08803708 -0.01932342 0.05451299
000250 cd 25 dd 3c c8 3a b3 bc d9 9d 12 3d 7a 58 8b bc
       0.026995564 -0.021878615 0.035795067 -0.017009962
000260 ba 9b 07 3e b6 a4 66 bd e4 57 dc 3b 7f 6e 03 be
       0.13242999 -0.056309424 0.0067243446 -0.1283512
000270 8c a4 f4 3d 0a cd 55 3d f1 38 b7 3b db 97 04 be
       0.11945447 0.052197494 0.0055915047 -0.12948553
000280 2c d6 f1 bd a6 64 02 be 80 a6 e2 3c 36 53 05 3e
       -0.11808428 -0.12733707 0.027667284 0.13020024
000290 a6 e2 df bd 16 12 e0 bd b2 e4 e3 3b 1e 7f 0a be
       -0.10931902 -0.109409496 0.006954753 -0.13525054
0002a0 de b8 32 3d 36 4c 04 be d2 82 9d 3d 91 37 d4 3d
       0.043633334 -0.12919697 0.076909676 0.10362161
0002b0 6b 80 e4 bd 9f c3 e1 bc 59 25 c0 bd d5 21 7b 3d
       -0.11157306 -0.0275591 -0.093821235 0.06131156
0002c0 dc d7 bd bd 5a af fd bd d2 b4 4a bd 1e 87 ef bd
       -0.092696875 -0.12386961 -0.04948885 -0.116956934
0002d0 fa e1 c9 3d 84 9a bd bd f6 07 c8 bd b7 a3 c0 3d
       0.09857555 -0.09257987 -0.097671434 0.09406226
0002e0 85 35 2b 3c d7 2f b5 3c 50 a9 9c bd bd 11 0c bd
       0.010449772 0.022117538 -0.07649481 -0.034196604
0002f0 e1 88 82 3b 64 b1 eb 3c 23 e4 5b bc 33 85 39 bd
       0.0039836024 0.02877111 -0.013421091 -0.045293044
000300 93 61 c9 bd 05 0f eb bd da d7 dc bd b4 36 08 be
       -0.09833064 -0.11477474 -0.10783358 -0.13302118
000310 fd 79 a0 3d 47 87 5b bd bd 30 8b bd 69 30 6f 3c
       0.078357674 -0.053595807 -0.067964055 0.014598944

backbone.model.0.0.model.0.bias f4 [4]
000000 c2 78 e1 3d 61 4e e8 bd ac 94 6a 3d ca 96 30 bd
       0.11009361 -0.113430746 0.05727069 -0.043112554

backbone.model.0.1.model.0.weight f4 [4, 4, 5, 5]
000000 73 b1 b0 bd d7 98 b4 3d 3a bc e5 3c ed e9 99 3d
       -0.08627596 0.088182144 0.028043855 0.07515321
000010 ea 28 c4 3d 27 a3 1d 3d 80 56 f6 3b cd 1f cb 3d
       0.09578116 0.038485672 0.007517636 0.09918175
000020 20 3f 51 3d ef dc b7 3d 67 16 1b 3d c0 a2 42 bd
       0.05108559 0.089776866 0.03786316 -0.04751849
000030 97 15 0e 3d 50 30 b1 bd 12 90 95 bd 5a 32 59 3d
       0.03468856 -0.08651793 -0.0730287 0.053026535
000040 c3 2c 3e bd da b6 64 bd f3 23 6f bc aa e7 3c bd
       -0.046429407 -0.055838443 -0.014595973 -0.04611937
000050 30 9f 05 bd af 04 8e bd 77 ba ab bd 73 07 2e 3d
       -0.032622516 -0.06934487 -0.08385175 0.042487573
000060 1a 46 a0 bd ed 06 df bc d7 6a 78 bd 5d 09 b4 bd
       -0.07825871 -0.027224982 -0.060648765 -0.087908484
000070 08 b1 90 3d 27 cf b0 3c 20 08 9a bd b3 74 41 bd
       0.07065016 0.021583153 -0.07521081 -0.047230434
000080 23 35 b8 3d 00 ce ca 3a 73 c1 33 bc 83 33 6f 3d
       0.0899451 0.001547277 -0.010971415 0.058398735
000090 6b b6 b2 bd 87 26 5a bd d2 3f ba bd c0 7d b3 bd
       -0.087262 -0.0532594 -0.09094204 -0.08764219
0000a0 e2 61 bb bd 8d 51 5e bc ed e0 f4 bc 4b 97 bf 3d
       -0.09149529 -0.013569248 -0.02989241 0.09355029
0000b0 f0 b6 1b 3d 33 e0 ad 3c 9a d9 54 bb 0a 5c cb bd
       0.03801626 0.02122507 -0.0032478333 -0.099296644
0000c0 1b 0b cb 3d 47 48 9f 3c 0d f6 0d 3d 13 6e fa 3c
       0.099142276 0.019443644 0.03465848 0.030570066
0000d0 6a 2b 35 3d 63 33 7a 3d da bd 2d bd 67 6c 27 bc
       0.044230856 0.061084162 -0.042417385 -0.010218716
0000e0 2d 12 9f 3d 7a cc f8 bc 4d fc 34 bd e7 5b cd bc
       0.07767139 -0.03037094 -0.044185925 -0.025068237
0000f0 c7 f1 82 bd ef df a0 bd cd 1e d7 3b 07 e4 3a bd
       -0.063937716 -0.07855212 0.006564951 -0.04562762
000100 47 89 17 bd ab 37 cb 3d 43 1b b6 3d b3 84 68 3c
       -0.036996152 0.09922727 0.088919185 0.014191794
000110 1d 67 62 3d 4d 45 cb 3d b0 87 09 bd a7 81 26 bd
       0.055274118 0.099253275 -0.033576667 -0.04065099
000120 da d5 c2 bd 4d a9 b5 bd 9f ac c8 bd 7d f9 7b 3d
       -0.09513445 -0.08870182 -0.0979855 0.061517227
000130 a7 55 4d 3c cb 35 b4 bd b3 2d 81 3d 8a 82 50 3d
       0.012532628 -0.08799323 0.063075446 0.05090574
000140 00 6a c7 3d 08 60 90 3d 67 81 95 3c 40 40 c7 bd
       0.09737015 0.070495665 0.01825018 -0.097290516
000150 5d 64 0e bd ed 7c fa 3c b8 ba ac 3d fb e4 89 bd
       -0.034763683 0.030577147 0.08434051 -0.06733128
000160 9a f9 8d bd 33 71 ae 3a b0 6c 46 bd 80 6d b4 bc
       -0.06932373 0.0013308882 -0.048443496 -0.02202487
000170 70 d1 cb bd ba 5e 4f 3d 47 d8 38 bd cd c8 2a 3c
       -0.099520564 0.050627448 -0.045128133 0.010423851
000180 f7 e1 a4 3d ff 42 93 bd bf e2 b0 3d a5 d5 a4 3d
       0.08050912 -0.07190513 0.086369984 0.08048562
000190 e7 b8 06 3c c7 b2 91 3c 67 0f fb 3c 9a 56 0a bb
       0.008222795 0.017785443 0.030646993 -0.0021108747
0001a0 8d 53 a8 bd a5 e1 ba 3d b0 af 1a bd a0 6e 8a bc
       -0.08219061 0.091250695 -0.037765205 -0.016898453
0001b0 62 82 a6 3d ea 5f 3b bd fa 36 02 3d cd 51 aa 3d
       0.08130337 -0.045745768 0.03179071 0.083163835
0001c0 8d 2b a4 3d e7 fc 46 3c 4a 0f 1d bd 70 06 96 3d
       0.08016119 0.012145258 -0.03834466 0.073254466
0001d0 c2 f5 b1 bd 4d b0 72 3c cd 5c af 3a f3 dd 39 3d
       -0.08689453 0.014812541 0.0013379097 0.045377683
0001e0 f7 e8 ab bd 9a 29 39 3d 0d 60 2a 3c 78 67 bb 3d
       -0.08394044 0.04520569 0.010398877 0.091505945
0001f0 c0 f5 ba 3d 3a 2e 12 bd 9b c6 86 bd 0b 95 ac bd
       0.09128904 -0.035688616 -0.0658085 -0.08426865
000200 aa c0 1b bd f3 37 42 3c ab 09 a3 bd a0 b1 55 3d
       -0.038025536 0.01185416 -0.079608284 0.05217135
000210 0d c1 0f bc d7 06 4b 3d 00 8a 51 bb ea be 16 3d
       -0.008774054 0.04956707 -0.0031973124 0.036803164
000220 0b fc ca 3d da f0 e2 bc da 5c 1c bc 62 f2 c6 3d
       0.09911355 -0.027702738 -0.009543622 0.097141996
000230 1a 5d 3f bd 5a fb c9 3d c0 77 5c bc 5a 63 a0 3c
       -0.046719648 0.09862395 -0.013456285 0.019578625
000240 13 f3 9b bc da 7d a7 bd e8 43 9d 3d 4d 47 83 bc
       -0.019036805 -0.08178301 0.07678968 -0.01602521
000250 13 6e ad bd 6a 0b 44 3d 10 95 a4 bd 73 bb 17 bc
       -0.084682606 0.047862448 -0.08036244 -0.009261
000260 33 f9 59 bc 60 7a d1 3c 5b 76 a6 bd 10 b1 a6 bd
       -0.013304043 0.025571048 -0.08128043 -0.08139241
000270 b3 fb fc 3c 1b c9 84 3d 15 a8 b2 3d 3d 3a 45 3d
       0.030881738 0.0648367 0.08723465 0.048151243
000280 8d c6 47 3c 07 1f b5 3c 4d cd 01 3c 1d 09 36 bd
       0.012193334 0.022109522 0.007922483 -0.044442285
000290 1d 6e 18 bd 7d 1f 89 bd 33 01 a0 3a 4b 8c cc bd
       -0.037214387 -0.06695459 0.0012207389 -0.09987696
0002a0 37 e7 31 bd 80 0c 3d bd 45 a7 9e 3d 97 71 81 bd
       -0.043433394 -0.0461545 0.07746748 -0.06320494
0002b0 7b 57 c8 3d e7 a2 76 bc e3 6f 6e bd 5a 4e e1 bc
       0.097823106 -0.015053487 -0.058212172 -0.027503181
0002c0 f3 86 90 3c 03 4e c1 bd c7 a2 4e bd 4a fa 58 bd
       0.017642474 -0.09438708 -0.050448205 -0.05297307
0002d0 fa 37 00 3d c7 cf a0 bc 9a e4 db bc 63 3d 16 3d
       0.031303383 -0.019630326 -0.026842404 0.036679637
0002e0 8d 28 d5 bc 2d 1b 87 bd b3 c0 99 bd 2d bb 6f bd
       -0.026020313 -0.0659698 -0.075074576 -0.058528114
0002f0 cf 07 a6 3d 0b ef a1 bd 0d 42 b0 bd 87 cc b4 bd
       0.08106958 -0.07906922 -0.08606348 -0.08828073
000300 a7 ae cc bc b8 f1 ad bd 67 05 21 bd 75 c0 ad 3d
       -0.024985624 -0.0849337 -0.039311793 0.08483974
000310 2a b1 9e 3d 00 21 22 3b 8d a1 ad bd fa c4 8d bc
       0.07748635 0.0024738908 -0.08478079 -0.01730584
000320 70 29 30 3d b3 f0 89 bd 87 61 22 bd d0 3c 70 3d
       0.043008268 -0.06735363 -0.03964379 0.058651745
000330 a0 d3 19 bd 2a f9 a1 3d f3 35 22 bd cd 44 4a 3c
       -0.037555337 0.079088524 -0.03960223 0.012345505
000340 cd 00 bb ba d7 b6 4b 3d f7 60 cb bd 0d 47 e5 3c
       -0.0014267206 0.049734917 -0.09930604 0.027987981
000350 33 13 c5 bd b3 f6 4e bc bd 53 41 bd 7d 9a 06 bd
       -0.096228026 -0.01263206 -0.047199 -0.032862175
000360 33 3b 85 3b da dd aa 3c 10 96 ba bd e0 34 16 bd
       0.004065895 0.02085774 -0.091106534 -0.03667152
000370 b3 b9 ab 3d 97 eb 63 3d 57 38 cc 3d d3 39 94 3d
       0.08385029 0.055644598 0.099716835 0.072375916
000380 9a 32 07 bc 80 c3 a0 3c 40 63 08 bd 73 36 bd 3c
       -0.00825181 0.019624472 -0.033297777 0.023097252
000390 f5 9e a5 bd d2 2d c4 3d 2d 4a ba bc 18 d9 c3 3d
       -0.08086959 0.09579052 -0.022740448 0.09562892
0003a0 40 6b 23 3c af 75 88 bd 08 a5 aa 3d f0 56 74 bd
       0.009974301 -0.06663071 0.083322585 -0.059653223
0003b0 8f 75 c5 bd 07 4c 48 3d 13 c2 9d bc 67 16 44 ba
       -0.09641563 0.04890063 -0.01925758 -0.0007480145
0003c0 63 c6 17 bd fd 27 74 3d 27 f6 0c bd b3 b5 2e bc
       -0.03705443 0.05960845 -0.034414437 -0.010663438
0003d0 cf bb 8f 3d 1a 99 98 bd 3a 77 81 bc 7b 96 84 bd
       0.070182435 -0.07451077 -0.015803922 -0.06474014
0003e0 18 29 c2 3d 8d 14 4c bd 13 76 ab 3d da 10 29 bd
       0.09480494 -0.049824286 0.0837213 -0.041275837
0003f0 e0 0a 15 bd fa b5 89 3d ed f2 00 3d 1b 5f ac bd
       -0.036387324 0.067241624 0.031481672 -0.084165774

backbone.model.0.1.model.0.bias f4 [4]
000000 c3 e7 65 3d e5 cb ae 3d 00 bf 91 3d 6a 95 6f bd
       0.05612923 0.085349835 0.071165085 -0.0584921

backbone.model.1.0.model.0.weight f4 [8, 4, 5, 5]
000000 fd c0 ae 3d f8 cc 94 bd 07 de 5f bd 87 e6 5b 3d
       0.08532903 -0.07265657 -0.0546551 0.053686645
000010 ba 69 85 3c a8 8f 8d 3d d2 54 a4 bd 9a ce 62 bc
       0.016285766 0.06912166 -0.08023991 -0.013843203
000020 80 d1 25 bc 30 ae 16 3d ea f1 23 bd 63 0f b1 3d
       -0.0101207495 0.036787212 -0.04002563 0.08645513
000030 cd 2c 90 39 67 54 bb 3d b3 cf cb 3d 2a 9e 19 bd
       0.000274992 0.09146958 0.09951725 -0.037504353
000040 3b c8 c9 3d 5a c6 c9 3d 85 74 c6 bd 43 f4 33 3d
       0.09852644 0.09852286 -0.09690193 0.043934118
000050 50 25 42 bd 8d 29 1a bc 20 83 ef bc 63 68 a2 bd
       -0.047398865 -0.009409321 -0.02923733 -0.079300664
000060 f3 e7 0f bd 63 7a 1e 3d eb 92 b7 3d 9d d8 b9 3d
       -0.035133313 0.038690936 0.08963569 0.09074519
000070 0f cd b0 3d 9a 2c 90 3b 40 d9 85 3d cd 34 0d bd
       0.08632862 0.004399848 0.06535578 -0.034474183
000080 4d 30 d0 bc da eb 56 3d ba 55 c5 3c 93 b0 32 bd
       -0.025413657 0.05247102 0.02408873 -0.043625426
000090 27 2e 3a bc 1b 90 9d 3d f7 73 7d 3d 63 23 b3 3d
       -0.011363543 0.076935016 0.06187817 0.08746984
0000a0 67 25 d1 bb 52 ee 95 bd 47 67 1d 3d af 85 be 3d
       -0.0063826325 -0.073208466 0.03842857 0.09302842
0000b0 ba 2e 46 bd a3 92 06 3d 77 ba bb 3d 0b 8f a5 3d
       -0.048384406 0.032854687 0.09166425 0.08083924
0000c0 a7 dd bf 3d 47 66 e4 bc 60 32 0a bd c7 c1 ed 3c
       0.09368449 -0.0278808 -0.033739448 0.029023064
0000d0 cd 8a 42 3b 98 be c3 3d e7 0e 08 3c 7d 9c b1 3d
       0.0029684782 0.09557837 0.008304334 0.08672426
0000e0 6d 4b 31 3d 87 0f 9f bd 5d f8 48 bd b3 06 89 bb
       0.043284822 -0.077666335 -0.049064983 -0.004181707
0000f0 b3 07 d4 3b cd d3 2c bb 57 32 07 bd 33 09 90 3b
       0.0064706444 -0.002637136 -0.033006992 0.004395628
000100 c2 fd b0 3d 12 29 b4 bd 9a 30 2d 3c 37 f7 07 3d
       0.086421505 -0.08796896 0.01057067 0.033194747
000110 33 2a 58 3c 00 5b c0 bc e0 83 82 bc 67 4c 18 bc
       0.013193655 -0.023480892 -0.015932024 -0.0092955595
000120 f8 7c 9d 3d 4f b7 b3 bd 17 31 71 3d 5a e0 4b 3d
       0.076898515 -0.08775198 0.058884706 0.049774505
000130 15 45 91 3d b7 98 92 3d 0b cf a0 3d dd cc 46 3d
       0.070932545 0.07158034 0.0785199 0.048535217
000140 1b e7 b8 bd 7a dd b1 bc 4d c8 58 bc 90 62 19 bd
       -0.09028455 -0.021712054 -0.013231349 -0.037447512
000150 ef 77 88 bd 8a 52 5a 3d 13 b3 e3 3c e8 92 8d bd
       -0.066635005 0.05330137 0.02779535 -0.06912786
000160 93 e7 c7 3c ed 9f 74 bd 73 19 7f bd e5 10 89 3d
       0.024402415 -0.05972283 -0.06228013 0.066926755
000170 c5 c6 ac 3d f3 17 60 bc da 6a 76 bd 1d 3d c9 3d
       0.0843635 -0.013677585 -0.060160495 0.098261096
000180 1a 91 42 bc 28 2a af 3d 9b 83 9e bd 87 74 70 bd
       -0.011875415 0.085529625 -0.077399455 -0.05870488
000190 7a 9d b3 bd 83 c7 6a bd 45 5e c2 bd 80 1d a1 bc
       -0.08770271 -0.057319175 -0.09490637 -0.019667387
0001a0 17 d6 49 bd f3 14 79 bc 42 55 b6 bd 57 0a 40 bd
       -0.049276438 -0.015202749 -0.089029804 -0.04688486
0001b0 1d 67 5c 3d 1a 0d 8b 3c 5a 60 80 bc 4d 90 cc bd
       0.053809274 0.01697402 -0.015670944 -0.09988461
0001c0 e3 2c 78 3d 8d f6 b7 3c ea ea 9b bd 73 93 94 bd
       0.060589682 0.022456432 -0.07613166 -0.07254686
0001d0 1b b9 81 bd b3 3a ec 3b 3d 5a b5 3d 27 2a 94 bc
       -0.06334134 0.007209146 0.08855102 -0.018086506
0001e0 27 d0 0c 3d 1a 76 62 3c f2 77 b7 3d c7 9e 55 bd
       0.034378197 0.013822103 0.08958425 -0.052153375
0001f0 1a 1f 2e 3c 00 9d e6 3b 1d e9 51 3d 8d 9e b1 3d
       0.010627532 0.007037759 0.051247705 0.08672819
000200 88 4e bd 3d bd 92 5b 3d 8d a2 5d 3d 4f 12 b4 bd
       0.09243494 0.053606737 0.0541101 -0.087925546
000210 5f b5 83 3d 02 a6 b1 bd f3 98 82 bd 40 39 58 bc
       0.06431078 -0.086742416 -0.06376829 -0.013197243
000220 87 44 f0 3c cd d2 4c 3b af c0 bc 3d 33 eb 0f 3a
       0.029329551 0.0031253577 0.09216439 0.00054900645
000230 0d 72 05 3d 2d 6a 80 3d 90 f6 86 bd 73 ee da 3c
       0.03257947 0.062702514 -0.06589997 0.02672503
000240 13 2e c4 bd e7 43 91 3d a7 00 c7 3c f0 2e 27 3d
       -0.095791005 0.070930295 0.024292303 0.040816247
000250 e0 53 59 3d 9a fd 9c bb fa e7 b0 bc 42 1a 98 bd
       0.053058505 -0.004790974 -0.02159499 -0.07426883
000260 ed 40 92 bc b3 ba 61 3c 65 07 b6 3d 1d 86 8c bd
       -0.017853225 0.013777423 0.08888129 -0.068615176
000270 bd aa 1e 3d 23 b3 46 3d fa 14 e7 3c a8 cb bb 3d
       0.038737047 0.04851068 0.028208245 0.09169704
000280 0d 77 b9 3d 70 4c 46 bd 77 62 55 bd 60 24 b3 bc
       0.0905591 -0.04841274 -0.052095857 -0.02186793
000290 0a 93 be bd 7d 5f b3 bd c0 0f 58 bd 7f 1c b1 bd
       -0.09305389 -0.08758447 -0.052749395 -0.08648013
0002a0 9a b8 2d 3d 2d e8 09 3d 1d 8f 00 3d 43 52 ba bd
       0.042412378 0.033668686 0.031386483 -0.090977214
0002b0 c0 f0 a2 bc 30 0f 10 bd cd 3c 92 3a 63 04 aa bd
       -0.01989019 -0.035170734 0.0011157036 -0.08301618
0002c0 13 a6 e8 bc c2 c9 a2 bd f0 d1 75 bd a5 76 ad bd
       -0.028399503 -0.079486385 -0.060014665 -0.08469895
0002d0 e8 65 9f bd f3 02 1d 3c f3 a7 5b bd 6d 88 45 bd
       -0.07783109 0.009583223 -0.053626966 -0.04822581
0002e0 9b af 9e bd 53 4e 6e 3d f3 22 d1 bc 2d cb 20 bd
       -0.07748338 0.058180165 -0.02552936 -0.039256264
0002f0 67 e3 51 bb 50 25 23 bd b2 f0 a1 3d 93 a2 58 bd
       -0.0032026411 -0.039830506 0.07907237 -0.052889418
000300 da af f2 bc b5 63 93 bd 6a 5e 49 bd 02 47 ab bd
       -0.029624868 -0.07196752 -0.049162306 -0.08363153
000310 fd e0 05 bd 27 27 54 bd 40 41 94 bc e7 5e e5 bb
       -0.03268527 -0.05179515 -0.01809752 -0.0069998386
000320 23 62 00 3d cd 70 22 bc fa f6 12 3d f0 26 6b 3d
       0.03134359 -0.009914589 0.035880066 0.05741018
000330 6d 22 50 3d 0a 53 4e 3d dd c3 46 3d 27 c4 51 3c
       0.05081408 0.05037216 0.048526634 0.012803114
000340 37 82 b4 bd fa e7 fc 3c 13 0e c4 3c 4a b0 ba 3d
       -0.08813899 0.030872334 0.023932492 0.09115656
000350 00 a5 b1 3d ca 73 2c 3d a3 0a 9a 3d 27 01 4f bd
       0.086740494 0.042102613 0.0752156 -0.05053821
000360 5f 61 a2 3d 87 16 cb bd b0 1d 7c 3d d7 3c 83 bd
       0.07928728 -0.09916406 0.06155175 -0.06408089
000370 53 16 c1 bc 13 6f 67 bd 93 7e 97 3d 00 ac 0c 3d
       -0.023570215 -0.056502413 0.07397189 0.03434372
000380 67 98 a3 3b 6a 7a 8c 3d 80 44 22 3d c2 f1 a2 3d
       0.004992533 0.06859286 0.039616108 0.07956268
000390 e3 cf 46 bd 8d 3c c5 3d b0 2f 3b bd e8 c6 af 3d
       -0.0485381 0.0963069 -0.045699775 0.0858286
0003a0 73 99 81 bd c7 57 c4 bd a0 ca 56 bd 00 5f 9e 3c
       -0.06328096 -0.09587055 -0.052439332 0.019332409
0003b0 ed 28 2a bd 88 28 8c bd cb 2f 94 bd da 3f 17 3c
       -0.041542936 -0.06843668 -0.07235678 0.009231532
0003c0 77 58 a5 bd e0 d9 84 bd b3 91 6e bd cd 71 97 bd
       -0.08073514 -0.06486869 -0.05824442 -0.07394753
0003d0 67 3b c0 bb 67 f1 e9 3b c0 39 c2 bd cd 91 fd bc
       -0.0058664563 0.007139373 -0.09483671 -0.030953312
0003e0 bf 52 99 bd 83 53 5d bd 1b 16 9d bd 9f 98 91 3d
       -0.07486486 -0.05403472 -0.07670232 0.07109188
0003f0 57 47 97 bd cd f4 ce 39 8a b3 8a 3d ad bc 63 3d
       -0.07386654 0.00039473773 0.067725256 0.055599857

backbone.model.1.0.model.0.bias f4 [8]
000000 4d 5b f3 3b 10 58 56 bd 07 9a 90 3c 70 a3 0f bd
       0.0074266554 -0.052330077 0.017651571 -0.035067976
000010 60 79 90 bd aa 4e 8f 3d 03 22 a0 3d 93 75 ad bd
       -0.070544004 0.06997426 0.07818987 -0.08469691

backbone.model.1.1.model.0.weight f4 [8, 8, 5, 5]
000000 bf 9f 17 bc 70 ba 62 3c 4f 87 12 3c ed 5f 50 bc
       -0.009254395 0.0138383955 0.008943393 -0.012718183
000010 97 bb 9e 3b c9 f6 52 bd 74 6c da bc ba f8 42 3d
       0.00484414 -0.051504884 -0.026663043 0.047600485
000020 9c 55 1e bd c1 5d 64 bd fb ed 34 3d c6 25 11 bd
       -0.038655862 -0.055753473 0.04417227 -0.035436414
000030 d2 62 9f bc bb 06 8b bd 2b b1 13 bd 86 a8 37 bc
       -0.0194563 -0.06788393 -0.036057632 -0.011209613
000040 61 22 8d bd f8 da 26 3d bf 93 54 bd 03 79 ed 3c
       -0.06891323 0.04073617 -0.051898714 0.028988367
000050 b3 54 08 bd 69 7a 89 3d e4 66 8e 3c ae 1a ea bc
       -0.0332839 0.06712801 0.017383046 -0.028577175
000060 e0 c8 2b 3d 71 99 58 bc de 8d 15 bd 2c eb 66 bd
       0.041939616 -0.013220177 -0.03651225 -0.05637662
000070 b3 b6 cd bb a2 f1 50 3d b9 e7 12 bd 2c 6b 55 bb
       -0.006277883 0.05101169 -0.03586552 -0.00325651
000080 22 d3 d0 bc d8 e0 2b 3d 01 fa 67 3d 03 e0 96 bb
       -0.025491301 0.041962475 0.056634907 -0.004604341
000090 5d f5 70 3d d8 c0 8a bd 66 73 22 3d 9c b9 a9 3c
       0.058827747 -0.06775063 0.039660834 0.020718388
0000a0 29 d9 66 bd c4 6f 99 3c bc 9e 04 bd 81 2e ab 3c
       -0.056359444 0.018730052 -0.032377943 0.020896198
0000b0 40 df 72 3d 46 b2 6b 3b f8 85 ef 3c 01 e8 96 3b
       0.05929494 0.0035964414 0.029238686 0.0046052937
0000c0 5a dc c4 3b f8 43 4f bd 8b e6 ce 3b e7 ce 56 bd
       0.0060077133 -0.05060193 0.006314104 -0.05244341
0000d0 63 2b 25 3d ba 18 8c bd 43 de c4 3c 93 14 7b 3d
       0.04032458 -0.06840654 0.024031764 0.061298918
0000e0 ce 9e 72 3d c6 f2 5b bc 4b 9c 27 3d 3d e4 14 3c
       0.05923348 -0.013424581 0.040920537 0.009087619
0000f0 57 4a 49 bd d5 1a 68 3d e0 34 e3 3c 09 bb a8 bb
       -0.04914316 0.056666214 0.027735174 -0.0051492495
000100 42 e6 bc bb dd 6d 27 3d 9b 48 84 bd 67 28 0e 3d
       -0.0057647536 0.04087626 -0.06459161 0.0347065
000110 fa f4 4d 3d d2 dd 55 3d 98 e8 88 bd 6a 7a 26 bd
       0.050282456 0.052213497 -0.06684989 -0.040644087
000120 69 e6 30 bd 06 a7 9d bc e4 b5 88 bd 81 3a 04 bd
       -0.043188486 -0.019244682 -0.06675318 -0.032282356
000130 21 42 93 3b 96 47 42 3d c9 be 10 bd 38 a7 25 3d
       0.004493967 0.04743155 -0.035338197 0.040442675
000140 d4 c1 ad bc 98 d2 02 bc ad f8 8d 3d bd d9 8e 3d
       -0.021210589 -0.00798478 0.06932197 0.06975124
000150 35 1c 78 bd 1e 23 4d bd 43 00 05 3d 94 25 08 ba
       -0.060573775 -0.05008232 0.032470953 -0.0005193588
000160 94 c5 6b bd 63 8b 72 bd b3 ff 78 bc b9 7a 8f 3d
       -0.057561472 -0.05921496 -0.015197682 0.07005829
000170 90 2e 89 3d 94 dc e7 bc 51 69 e0 3b fe d8 4f 3d
       0.06698334 -0.028303422 0.006848492 0.05074405
000180 8e a3 4b bc 9e 5a 58 3c e3 0c ee bc 2a 3f 37 b9
       -0.012429131 0.013205199 -0.02905888 -0.0001747577
000190 d4 2f 15 3b 64 fa 7f bd 93 72 47 bd 09 03 ab 3c
       0.0022764103 -0.06249465 -0.04869325 0.02087547
0001a0 75 e8 f2 3c b3 6e 94 bc 1b 18 1e bb 8a 38 70 3d
       0.02965186 -0.018119192 -0.0024123255 0.05864767
0001b0 26 0c 53 bd 5d 0d 84 b9 8d 18 7f bd 63 9a 10 3d
       -0.051525258 -0.00025186958 -0.062279273 0.035303485
0001c0 0a 24 87 3d 8f 24 1f bd 51 05 d1 b7 eb 8d 8a bd
       0.06598671 -0.038853224 -2.4917217e-05 -0.0676535
0001d0 6c 2e 78 3d 67 35 86 bc c0 35 79 3d 56 0c 9c bc
       0.060591146 -0.016382886 0.060842276 -0.019048851
0001e0 0a 48 86 3d 15 3e a5 3c 87 42 67 bd 69 cb a9 bb
       0.06556709 0.020171205 -0.05645993 -0.005181719
0001f0 fb 54 81 bd cd 21 00 bc b7 9c ea bc 4c 02 8d bc
       -0.06315037 -0.007820559 -0.02863918 -0.01721301
000200 f1 f0 5d bd 3e d7 a3 bb 5c 80 57 bd a8 97 37 bc
       -0.054184858 -0.005000024 -0.052612647 -0.011205591
000210 b1 70 13 3c 1a 89 ca 3b 6d 04 24 3c 0a c0 af bc
       0.008999036 0.0061808946 0.010010821 -0.021453876
000220 1d d7 f6 bc 72 b8 86 3d 48 d8 06 3c 8c a9 02 ba
       -0.03013187 0.06578149 0.008230276 -0.0004984371
000230 19 a8 2b 3d 3c 0b 56 3d bc 1e 78 3c 18 47 2b 3d
       0.041908357 0.052256808 0.015144046 0.041815847
000240 e6 f3 8b bb 2c df 78 bb 53 ed 94 3c fd 39 7f bd
       -0.0042710183 -0.0037974818 0.018179571 -0.06231116
000250 ef c7 02 bd 75 8e 56 bd 47 8c 5f bb 3c cf ac 3c
       -0.031928953 -0.05238195 -0.0034110711 0.02109491
000260 74 f8 8f 3d 90 71 82 bc 88 50 ef 3c 98 c5 6b bd
       0.070298105 -0.015923291 0.029213205 -0.057561487
000270 46 24 b0 3b 0f 6c 48 bd e6 77 c1 3c d4 77 af 3c
       0.005375418 -0.048931178 0.023616742 0.021419443
000280 16 84 dc bc 50 5d 88 bd 4c 0d 09 3d c1 52 49 3b
       -0.026918452 -0.06658423 0.033459947 0.0030719491
000290 a3 ff 04 3d ff 09 59 bd d6 0e 2a 3d 4c cd 71 bc
       0.032470357 -0.05298805 0.041518055 -0.014758419
0002a0 89 c9 63 3d 0d c3 3c 3d b1 ce 09 bc ba 4b 31 3d
       0.05561212 0.046084452 -0.0084110955 0.04328511
0002b0 8c 53 85 bd 73 01 2c bc 98 be d7 3c 60 79 4c bd
       -0.06510076 -0.010498392 0.026336 -0.04992044
0002c0 69 9d 58 3d 50 df 2f bd 55 af 47 3c 6f 9d 81 bd
       0.052884493 -0.042937577 0.0121877985 -0.06328856
0002d0 bb c1 41 bd b0 bf 16 3d c6 1c 57 3b ac be 2c 3c
       -0.047303896 0.0368039 0.0032823547 0.010543507
0002e0 90 88 41 3d 18 7b 35 3d b7 c1 7e 3d 29 4c e8 3c
       0.047249377 0.044306844 0.06219646 0.028356628
0002f0 e8 bc 12 bd 19 ca 6f bc 9e 12 df 3c cd 69 8f 3c
       -0.035824686 -0.014635586 0.027230557 0.017506504
000300 5d f9 2a bd 26 19 17 3c 8e 32 dc ba 77 e1 c0 3c
       -0.041741718 0.009222304 -0.0016799734 0.02354501
000310 55 4c 86 3d 04 ac 8a bb 3f 07 cf bc d8 89 85 3d
       0.06557528 -0.0042319316 -0.02527201 0.06520432
000320 b1 ae 87 3d 88 38 30 3d 52 5f 78 bd 3b 51 4e bd
       0.066251166 0.043022662 -0.06063778 -0.050370436
000330 a5 f2 2c bc 74 0b 27 3c 8d 42 4a 3d 7e c9 e1 bc
       -0.010555898 0.010195602 0.049379874 -0.0275619
000340 1b 8c f6 3c de ab dd 3b 94 d7 98 3c f5 7d 7e 3c
       0.030096104 0.006764873 0.018657483 0.01553296
000350 3c d6 03 3d d7 8f 49 3d d5 11 c8 3c 42 4e 8d bd
       0.03218673 0.049209442 0.024422565 -0.06899692
000360 e7 c3 a5 bc d0 66 8a bd b2 61 82 3d 52 d3 84 3d
       -0.020235015 -0.06757891 0.0636629 0.06485619
000370 65 ca 6c bd a9 01 02 3d 8c b9 aa bc dd 14 14 3d
       -0.057810206 0.031739864 -0.020840429 0.03615271
000380 96 4d 44 bd 77 e1 12 bd 1a cf 0f 3d 56 be ec 3c
       -0.047925554 -0.03585955 0.035109617 0.028899353
000390 06 1a 35 3d 81 d4 d6 bc 33 84 2f 3d e3 5c 5a 3d
       0.04421427 -0.026224377 0.042850684 0.05331124
0003a0 3f 1e ee 3c 69 a7 12 3c 4f 7b 99 bc 5f 0c 28 3d
       0.029067157 0.0089510465 -0.018735556 0.041027423
0003b0 af 29 f0 3c 3c 2b ff bb 75 42 5a 3d e4 1a df 3c
       0.029316751 -0.0077871364 0.053286035 0.027234502
0003c0 83 08 af 3b aa fb 8e 3d 94 4e 21 bd 99 66 88 bd
       0.005341591 0.06981595 -0.03938158 -0.06660194
0003d0 d7 a1 63 bc 34 20 93 3c da e3 6a bd 75 fc 0b bb
       -0.013893566 0.017959692 -0.057346202 -0.0021360193
0003e0 e9 c1 b3 bc 09 73 fe 3b ea 8e 8a 3d 93 e7 27 bd
       -0.02194305 0.007765178 0.0676554 -0.04099233
0003f0 20 f3 5e bd 05 6f d4 bb 53 26 85 3d dd 32 90 3d
       -0.05443108 -0.006482961 0.065014504 0.070409514

backbone.model.1.1.model.0.bias f4 [8]
000000 c1 3a 6a bd 6c 80 81 3d db 2d 9a 3c 2b 89 2f 3c
       -0.05718494 0.06323323 0.018820694 0.010713856
000010 d6 7a 55 bc 83 2b 90 3d 39 b0 a9 3c 47 c2 f9 3c
       -0.013029775 0.07039549 0.020713912 0.030488146

backbone.model.2.0.model.0.weight f4 [8, 8, 3, 3]
000000 07 85 6e 3c 73 e1 d0 3d cb 4c c8 3c cd 33 c2 bd
       0.014558083 0.10199251 0.02445068 -0.094825365
000010 83 6f dd bd 5b dd c7 bd 5e df b6 3d d7 16 46 bd
       -0.10812285 -0.09759017 0.08929323 -0.048361626
000020 64 b6 ae bd 9c c6 92 3d 96 ed 6b bc 7a 8d 5d 3d
       -0.08530882 0.07166788 -0.014399907 0.05409
000030 7e 4e e0 3c 97 6b b8 3d 61 5c 2d 3d b9 58 d8 bd
       0.027381178 0.09004896 0.042324428 -0.105637975
000040 c6 4f a1 3d ea af 5b bc b3 67 be 3d d7 e9 85 bd
       0.07876544 -0.01340864 0.09297123 -0.06538742
000050 70 4d f0 bc 91 9d 19 bc c2 51 56 3d 29 ef 64 bd
       -0.0293338 -0.009375946 0.052324064 -0.055892143
000060 73 31 a1 bd 82 9f 97 bc 95 16 26 bd c0 1b 83 3d
       -0.0787076 -0.018508676 -0.04054888 0.06401777
000070 ce 64 18 3d a1 64 8a bd 5d 42 56 3d 53 2d 93 3d
       0.03720551 -0.06757475 0.052309383 0.07186379
000080 5d d0 86 3d 52 2e 60 3d d0 0b 98 3d ca 23 23 3c
       0.06582711 0.054731674 0.07424128 0.009957263
000090 43 30 89 bd a6 1e 9c bc 81 c8 63 bb 96 e5 41 bd
       -0.06698658 -0.019057583 -0.003475696 -0.04733809
0000a0 39 76 6e 3d 3d 18 b0 3d 3b a7 df 3d 7a b9 d1 bd
       0.058218215 0.08598373 0.109205686 -0.10240455
0000b0 77 3a 4e bd 0d 69 60 3d d6 58 23 bd e8 f1 b5 3d
       -0.050348725 0.054787684 -0.039879642 0.088840306
0000c0 e3 58 1e bd 20 78 23 bd 4b 9b f7 3b f3 59 88 3d
       -0.038658988 -0.039909482 0.007556354 0.066577815
0000d0 44 f8 90 3d ae 9c 9f bd bf a0 6b bc f4 8b 60 bd
       0.07078603 -0.07793556 -0.014381587 -0.05482097
0000e0 72 ff c5 bc 81 3a da 3b 4d ed aa 3b 5d d8 b9 3d
       -0.024169657 0.0066598062 0.0052162767 0.09074471
0000f0 f0 1f 0b 3d b0 e6 b1 bc 4c 70 b8 bd 87 85 1a bd
       0.033966005 -0.021716446 -0.09005794 -0.037724998
000100 50 fb c0 bb ea fc d6 bd 74 4d df 3d 70 df b4 3d
       -0.005889334 -0.10497458 0.10903445 0.0883168
000110 9b 81 8b bc b0 60 e4 3d d7 83 0f 3d 82 8d 8b bb
       -0.017029574 0.11151254 0.03503784 -0.0042588124
000120 0e 06 3b bd 7b 47 ba 3d a9 11 be 3d c1 5c 8a bd
       -0.04566007 0.09095665 0.09280712 -0.06755973
000130 24 c4 2b 3b e0 ad 85 bc b9 d5 7b 3d cf 06 fb 3a
       0.0026209438 -0.016318262 0.06148312 0.0019151809
000140 1b 8d 1d 3d 68 30 8b 3c 4c da 8e 3c b4 6c e5 bd
       0.038464647 0.016990855 0.017438076 -0.11202374
000150 9a 8e 3c bd 02 06 d0 bc 69 c5 78 bd 56 14 b7 bd
       -0.046034433 -0.02539349 -0.06073514 -0.08939426
000160 1a ae c5 3d 02 c8 ef 3d fb 38 98 3c 60 82 c1 3d
       0.09652348 0.1170807 0.018581858 0.09448695
000170 df b3 a0 3d 8f 01 25 3d 05 da 96 3c 52 1f 74 3d
       0.07846808 0.04028469 0.018414507 0.059600182
000180 cc e2 96 3c ee 87 89 3d 12 69 bb 3d 4c 24 b8 bd
       0.018418692 0.0671538 0.091509 -0.08991298
000190 de ed d1 3d 3a 54 77 ba d7 5d a7 bd b2 59 c7 3d
       0.10250448 -0.0009434853 -0.081721954 0.09733905
0001a0 99 ab 3f 3d 81 f5 4d bd 2a a1 b3 3d 3b bc a0 3d
       0.046794508 -0.05028296 0.08770974 0.07848402
0001b0 38 f2 cd 3d 48 b9 1b bd 45 9a 6d 3a 5f ef 96 3d
       0.10055965 -0.038018495 0.00090638205 0.07369875
0001c0 23 f0 aa 3d 99 fc 94 3d a7 d8 ad bc 14 e6 fb bc
       0.08346584 0.07274742 -0.021221472 -0.030749358
0001d0 8c c6 ac 3d 2e 08 af 3b bf f5 0a 3d 6a 04 c1 3d
       0.08436307 0.0053415513 0.033925768 0.0942467
0001e0 60 c6 ee bc a7 cf 5e bc 8d cb 76 bd e6 ee ca 3d
       -0.029147327 -0.013599313 -0.060252715 0.099088475
0001f0 e1 7f a1 3d 44 50 a0 bd 9d 4c a1 3d fc 7c d6 bd
       0.07885719 -0.078278095 0.07875941 -0.10473058
000200 96 61 94 3d c5 13 d1 bd b3 4a 9b bd a8 0f 9f 3c
       0.072451755 -0.10208849 -0.07582607 0.019416645
000210 4f af 80 3c 35 4a a3 3c b4 9d a1 3c c5 e1 a1 bd
       0.015708594 0.019932846 0.019728519 -0.0790439
000220 91 4c bf bd 08 86 7d bb 8b 02 08 3d ab 25 1f 3c
       -0.09340776 -0.0038684625 0.03320555 0.009713571
000230 d6 5e 5d bd 4b f3 3d bd 78 27 3d bd 94 92 12 3d
       -0.05404552 -0.0463746 -0.04618022 0.03578432
000240 a1 9b 8f bc e1 2d a6 3d 30 65 48 3c 98 98 f0 bc
       -0.017530264 0.081142195 0.012231156 -0.029369637
000250 1e 6f ad bd ef ee 5a 3b ba a8 db 3d d6 31 65 ba
       -0.084684595 0.0033406576 0.107255414 -0.0008743083
000260 06 df 94 3c 90 31 61 3d db 68 34 bc 34 96 9d 3d
       0.018172752 0.054978907 -0.011011328 0.076946646
000270 5d 84 20 3d b2 b6 c2 3d fa e4 a3 bc 0f d3 bd 3d
       0.03918873 0.095075026 -0.020006645 0.09268772
000280 d2 bb c8 3d 00 00 99 3d 78 64 99 3d 9c 4d 61 3d
       0.09801449 0.07470703 0.07489866 0.055005655
000290 a2 2c b0 bd d8 4c 1b bd 30 33 25 3d 01 9c 49 3d
       -0.08602263 -0.03791508 0.04033202 0.049221043
0002a0 ab c8 79 bd 9c 04 65 bd fd fe 14 3c 70 c6 e9 bd
       -0.060982388 -0.0559126 0.009093997 -0.11414802
0002b0 73 d3 d9 3d 78 9f 2e 3d e8 1c fb 3c 2d 59 bc bd
       0.10636034 0.04263255 0.030653432 -0.091966964
0002c0 e2 2c 71 3d d2 ed 34 3d 77 1f a7 bc f8 95 d2 3d
       0.058880694 0.044172116 -0.020400746 0.102825105
0002d0 e0 69 a1 3d ba bf a9 3d a2 55 ae 3d a2 92 86 bd
       0.07881522 0.08288522 0.08512427 -0.06570937
0002e0 30 41 4b bd 4d 31 56 bb 64 6e 16 bd 1b f3 a7 bd
       -0.049622715 -0.0032683194 -0.03672637 -0.082006656
0002f0 71 ca 67 3d d9 0d d8 3d 30 56 ee 3d b2 1a d2 3d
       0.056589548 0.10549516 0.11637533 0.10258998
000300 4a ce e1 bd 2c 7f 89 bd bf 20 83 bc dc 22 aa 3c
       -0.11025675 -0.06713709 -0.016006825 0.020768575
000310 85 4d c0 3d af 02 d2 bd 2c eb c3 3d e2 02 b3 3b
       0.09389786 -0.10254418 0.0956634 0.00546299
000320 9b 1a d0 3d 7e de dc bd c6 33 16 3d 00 e4 ee bd
       0.101613246 -0.107846245 0.03667047 -0.11664581
000330 20 0e 18 bd 88 45 d8 3d e6 76 b2 bd c8 28 14 3d
       -0.037122846 0.10560137 -0.08714084 0.036171705
000340 eb ed a9 bb d2 b4 38 3c 4f 16 37 3d e9 08 ba 3d
       -0.0051858327 0.01127358 0.04469901 0.09083731
000350 81 17 e5 3d 3d 3d f4 3c 3b d0 d5 bd b8 0c c5 3d
       0.11186124 0.029814357 -0.104401074 0.096215665
000360 bb 74 19 bc 22 a2 b4 bc 34 64 c6 3d f4 71 95 3c
       -0.00936621 -0.022049967 0.09687081 0.018242814
000370 82 50 a4 bd 2e 2d 26 bd ce 54 eb bd 5e 02 9d 3c
       -0.08023168 -0.04057043 -0.114907846 0.019166168
000380 dc d8 65 3d 7d c2 c5 3d 7e 29 9a bd e9 14 b4 bd
       0.056115016 0.09656236 -0.07527445 -0.08793051
000390 34 43 ef 3d 82 a9 82 bd 06 e6 ec bd 34 99 26 3d
       0.1168274 -0.06379987 -0.11567311 0.04067345
0003a0 4d ee e9 bd 31 b4 e1 3d 4a 02 a3 3c 4a d0 b2 bd
       -0.114224054 0.11020697 0.019898552 -0.08731134
0003b0 45 54 d4 3c 50 5a 81 bd c7 e6 a9 bd 8c 4f 89 3c
       0.02591909 -0.06316054 -0.082959704 0.016761564
0003c0 76 36 ef bd 88 ae b1 3d f5 a4 9d bd 7a 74 64 bd
       -0.116803095 0.08675867 -0.07697479 -0.055775143
0003d0 c6 75 8c bd 25 1b ee bd ce bf fb bc 7b 78 bc bd
       -0.06858401 -0.11626271 -0.030731108 -0.09202667
0003e0 10 08 82 3d ed f1 83 3d 8b aa 48 bd eb e1 42 bb
       0.06349194 0.06442628 -0.048990767 -0.0029736708
0003f0 c7 4a c0 3d cd b8 be bd 6f 7d 9e 3d 8b 88 3b 3b
       0.09389263 -0.09312592 0.07738768 0.0028615321

backbone.model.2.0.model.0.bias f4 [8]
000000 29 94 5a bd 81 73 e4 bb 21 b7 9d 3d 6b 30 cf 3d
       -0.053363953 -0.006971777 0.07700945 0.10116657
000010 25 ae 7c 3d fe 8a 8c bd 24 43 89 3d 97 0b 9e bc
       0.061689515 -0.06862448 0.06702259 -0.019292636

backbone.model.2.1.model.0.weight f4 [8, 8, 3, 3]
000000 e1 7b 06 bd 55 fa 97 3d e8 e4 1d bd b7 26 b5 bd
       -0.032832984 0.07420794 -0.03854838 -0.08845275
000010 e6 f7 1f 3d e4 66 84 3d 22 fe 36 3d 13 8d 01 3c
       0.039054774 0.06464937 0.044675954 0.00790717
000020 78 bd c7 bd 9f ad be bd de d7 39 bd 85 27 b9 bc
       -0.09752935 -0.09310459 -0.045371883 -0.022601852
000030 49 c8 4f 3d 07 af 37 bd 98 2b 22 bd b2 39 a0 bd
       0.050728116 -0.044844653 -0.039592355 -0.078235045
000040 57 52 ad bd 6b 08 1c bd 6a 6f b9 3d 93 f6 fa 3c
       -0.08462971 -0.038093966 0.09054454 0.030635154
000050 2c cf 94 bc 89 c9 e3 3d 0d 8c e6 3c 99 bc 3e bd
       -0.018165193 0.11122424 0.028142953 -0.04656658
000060 42 3c ef bc 52 50 b7 3d 88 ca a9 3c f9 56 42 bd
       -0.029203538 0.08950867 0.020726457 -0.047446225
000070 64 27 a3 bd 9f 88 d5 bd 22 95 07 bd 93 0d 3e 3d
       -0.079664975 -0.10426449 -0.03310121 0.046399664
000080 75 e1 80 3d c1 29 7d 3d 54 2a 15 3d 2e 47 ba bd
       0.062930025 0.061807398 0.03641732 -0.09095608
000090 b4 3a 92 3d 71 92 ef bd 73 ed c7 bc e9 33 c2 3c
       0.07140103 -0.11697853 -0.024405217 0.023706393
0000a0 93 6f 6b bd 8a a2 ed 3d 32 86 39 3d b7 f0 7d bd
       -0.057479452 0.116032675 0.045293994 -0.06199714
0000b0 d7 04 d1 bd c6 18 1d 3d 44 be 5c bd be 3e 43 bd
       -0.10206001 0.038353704 -0.05389239 -0.047667257
0000c0 88 cd 79 3d 8e 61 d3 3c 5b 21 44 3d c1 38 55 3c
       0.060987025 0.025803354 0.047883373 0.0130140195
0000d0 a4 84 b5 3c 80 82 09 3d 61 a8 4a bd d8 a6 a1 3d
       0.022157975 0.03357172 -0.049476985 0.07893151
0000e0 0e aa 9d 3d 49 40 98 bc a5 7a 45 bd 1b 53 e2 3d
       0.07698451 -0.018585341 -0.048212666 0.11051007
0000f0 bf fd aa 3d 4a fe 41 3c a1 f9 54 3d b4 85 3d 3d
       0.083491795 0.011840412 0.051995877 0.046270087
000100 c2 3e 60 bc 7f 37 c1 bd 56 ab eb bd 21 aa d2 bd
       -0.013686838 -0.09434413 -0.11507289 -0.10286356
000110 be 29 a7 bd aa 62 8b bd 9a 78 d6 3d f3 9a c1 bd
       -0.081622586 -0.06805928 0.10472222 -0.09453382
000120 a3 fd db bd 33 30 8e bd 31 42 ea 3d f0 dc 85 bd
       -0.10741737 -0.06942787 0.11438406 -0.06536281
000130 0e dc c5 bd e8 21 b2 bb e1 c3 48 3c 26 0b f1 bc
       -0.09661113 -0.005436171 0.012253732 -0.029424261
000140 39 b6 cb bd ea 26 77 3c 95 b2 cd 3d 9d 58 98 3d
       -0.099468656 0.015084961 0.100438274 0.07438777
000150 21 5e 02 bd a9 fc ca 3d 54 ae f9 3b 58 38 b6 bd
       -0.03182805 0.09911472 0.0076196585 -0.088974655
000160 b1 bc b0 3d 7c fc e6 3c 07 45 4f 3d 43 08 ad bc
       0.0862974 0.028196566 0.05060294 -0.021122104
000170 95 10 78 bd 2a ef c3 3d 03 30 b3 3d 00 ca 29 3d
       -0.06056269 0.09567101 0.08749392 0.041452408
000180 f1 cb 51 bd 02 a9 dc bd e6 4c af bd a1 bc aa ba
       -0.051219884 -0.10774423 -0.08559589 -0.0013026186
000190 38 af e1 bc d0 73 1d bd 38 32 57 3c 17 24 d4 bd
       -0.027549371 -0.038440526 0.013134532 -0.10358446
0001a0 49 44 c2 3d 6b f5 88 3b 4e d9 a1 bc 3d 4a 5b 3d
       0.094856806 0.0041796467 -0.01975694 0.053537596
0001b0 d0 dc 60 3d ab a2 ba bd 31 e7 83 bd 31 c0 2a bd
       0.054898083 -0.09113058 -0.06440581 -0.041687194
0001c0 3e ac d9 bd 9b 9e 2b bc cf 2f 4d bd f3 ae 58 bd
       -0.10628556 -0.010474826 -0.050094422 -0.05290122
0001d0 63 f2 c1 bd 85 01 8c 3d da 59 90 3d 4e 4c 02 bd
       -0.0947006 0.06836227 0.07048388 -0.03181105
0001e0 5c b9 e3 3c f9 86 da 3d 85 76 be bc 5e c1 52 3d
       0.027798347 0.10670275 -0.023249874 0.05145394
0001f0 57 4f 94 bd db 03 c0 bd 73 15 99 bd d0 f4 f0 3d
       -0.072416954 -0.09375735 -0.07474794 0.11765444
000200 81 cc 9e 3d 36 ee 3e bd 0a 32 a6 3d 6f aa a3 3a
       0.0775385 -0.046613894 0.08115013 0.0012486706
000210 fe 76 2a 3d e1 dc 83 bd a4 92 8a bd 7a f1 b4 bd
       0.041617386 -0.06438614 -0.06766251 -0.088351205
000220 13 74 38 bd ee 2e 0f 3d 85 cd 27 bd b3 0d ef bd
       -0.045032572 0.034956865 -0.040967483 -0.11672535
000230 e4 a9 69 3d 50 89 ae bc a7 d6 b6 bd 3c a3 b6 bd
       0.057046786 -0.02130571 -0.089276604 -0.08917853
000240 75 eb 98 3d b0 8b 8d bb b6 17 38 bd b8 f7 bd bd
       0.07466785 -0.0043196306 -0.044944488 -0.09275764
000250 1c 74 dc 3d cc b3 9a 3d 7a 54 84 bd 47 10 e9 3d
       0.107643336 0.07553825 -0.06461425 0.11380058
000260 69 37 cc 3c d8 d0 ba bd 89 d2 24 3d be 3d 2f 3c
       0.024928765 -0.09121865 0.040239844 0.010695873
000270 b0 29 b4 3c 56 01 a8 bd 8b 6b cc bd 42 fc cf 3c
       0.021992534 -0.0820338 -0.0998145 0.02538884
000280 05 f6 b0 bd 6e e3 80 3c 08 3e ee 3d 46 68 8e 3c
       -0.086406745 0.015733447 0.11632925 0.017383706
000290 c0 ba a3 3d 78 bc ed bd f8 54 a6 bd 38 e5 9c 3d
       0.07994604 -0.11608213 -0.08121675 0.076609075
0002a0 58 cf cc bd 06 d4 f1 bb 85 56 e0 bd 85 b2 9b bd
       -0.10000485 -0.0073800115 -0.10954002 -0.07602409
0002b0 21 6d 84 bd c5 ea 5d bd 49 2b bb bd dc 25 df bd
       -0.06466127 -0.05417897 -0.09139115 -0.10895893
0002c0 e1 da 7b bd 20 4f df 3d d6 c0 d1 bc fe 2c 97 bd
       -0.061488036 0.10903764 -0.025604647 -0.073816285
0002d0 86 64 86 bd ea 40 d4 bd b7 8b 13 3d ca fe ab bd
       -0.06562142 -0.10363944 0.036021914 -0.083982065
0002e0 1e fb 9b bd 3c db 60 bd 62 be 55 bd ea 3f 85 bd
       -0.07616256 -0.05489658 -0.052183516 -0.06506331
0002f0 f4 35 fe bc 2c 91 e7 bd 97 b2 21 3d d4 80 e6 3d
       -0.031031586 -0.11306986 0.039476957 0.11255041
000300 32 e6 60 3d 7d ba 67 3b 13 54 b9 bd 15 8e 3b bc
       0.05490703 0.0035358958 -0.09049239 -0.011447449
000310 21 73 b9 3d e6 be 08 bd d9 10 af bd fd 77 43 bd
       0.09055162 -0.03338518 -0.08548135 -0.04772185
000320 c1 77 97 3d 52 ae da 3d e8 1b 61 3c 3f a7 b2 3d
       0.07395888 0.1067778 0.0137395635 0.08723306
000330 42 87 e0 bd 09 d8 0b 3d fd fb 77 3c 78 f9 c2 3d
       -0.109632984 0.034141574 0.015135762 0.09520239
000340 dc 66 c8 3d ab 0d b4 bd 4b ef 3a 3d 48 03 ac 3c
       0.09785244 -0.087916695 0.045638364 0.020997658
000350 e4 9b 6e 3b 69 f4 d8 3d 7a 8c 80 bd 65 d7 8b 3d
       0.0036408836 0.105934925 -0.06276794 0.068281926
000360 61 29 4f bd f8 fe 9b 3d 8f e4 84 bc 80 6d a8 bd
       -0.05057657 0.07616991 -0.016222266 -0.082240105
000370 49 c2 01 bd 07 db ea 3d 4f 5b e1 bb aa fe 66 bd
       -0.031679425 0.114675574 -0.00687734 -0.05639521
000380 28 df fc 3c 4b 08 51 3d b1 6e 12 3d 8f ca 9a bd
       0.030868128 0.0510333 0.035750095 -0.07558166
000390 d8 05 ce 3d bf 7c 9a bc da b3 e4 bd c7 5b 04 3d
       0.10059708 -0.018858312 -0.111671165 0.03231409
0003a0 2e 15 56 3d 67 2a 94 bd bc 02 70 bd 4a 6c e4 bc
       0.052266292 -0.0723465 -0.058596358 -0.027883667
0003b0 c0 56 a9 bd f2 fc 87 bd f2 a2 d9 bb e8 31 da bd
       -0.082684994 -0.06640042 -0.006641739 -0.1065405
0003c0 86 1f 84 bd f7 c8 a7 3a 83 ab c0 3d 24 d9 58 bd
       -0.06451325 0.0012800981 0.09407713 -0.052941456
0003d0 c0 f1 47 bc e8 ef 95 3d 81 b7 7e 3c ca 70 e2 3d
       -0.012203634 0.07321149 0.01554668 0.11056669
0003e0 64 65 b3 bd 84 53 6e 3d 44 9c b2 bd 25 4a 12 bc
       -0.08759573 0.058185115 -0.087212116 -0.00892881
0003f0 ee f9 ba bd ec 89 b4 bd d2 f7 8b bd 38 c3 d7 bd
       -0.091297016 -0.08815369 -0.06834377 -0.10535282

backbone.model.2.1.model.0.bias f4 [8]
000000 88 2f 80 bc 1a f4 ac 3d 8d 8a cf bd bc e6 a5 bd
       -0.015647665 0.08444996 -0.10133848 -0.0810065
000010 d1 9d e5 bc 53 41 7d 3d 95 a0 40 3d 8f f8 2b 3d
       -0.028029354 0.061829876 0.047028143 0.04198509

backbone.model.3.0.model.0.weight f4 [16, 8, 3, 3]
000000 f9 1c 03 bd 49 2e 0b bd 71 e1 c6 bd 99 37 67 3d
       -0.032010052 -0.033979688 -0.09710968 0.056449506
000010 f1 09 80 bd 91 de 53 3d 03 60 b5 bd 9b 21 30 bd
       -0.06251896 0.051725928 -0.088562034 -0.0430008
000020 0d 87 ab bd cb 0f b9 bd 71 e7 56 bc 16 22 9c bd
       -0.08375368 -0.090362154 -0.013116703 -0.07623689
000030 04 e1 f0 bd 96 d1 74 3c 6d 01 72 3d 00 af de 3d
       -0.11761668 0.014942547 0.05908339 0.10873222
000040 e0 79 e3 3d a1 8e 8b 3d c8 d6 98 bd a1 7c d2 3d
       0.1110723 0.06814314 -0.07462841 0.10277677
000050 77 24 da 3d 87 a0 a3 3d 5a dc 34 3c 8d fe 9f bd
       0.10651486 0.079896025 0.011038864 -0.078122236
000060 80 4e b6 3d 48 78 ec bd 36 42 70 3c 1e a8 af bd
       0.089016914 -0.11546379 0.014664223 -0.08576988
000070 bc 8a a7 bd 32 c6 8b 3b c4 22 c3 3d bc 25 88 3d
       -0.08180758 0.00426557 0.095281154 0.06647822
000080 1d bb 25 3c 2a 59 10 bd 4c 5f d7 3c 78 f7 ac 3d
       0.010115412 -0.035241283 0.026290558 0.084456384
000090 11 b2 70 3d ce 11 01 3c 5d 48 e6 bd f8 71 7e bc
       0.058763567 0.00787778 -0.11244271 -0.015530102
0000a0 8e d1 92 3c d2 10 a2 3d 7f a5 d9 bd 65 29 e2 bd
       0.01792219 0.079133645 -0.10627269 -0.11043052
0000b0 87 8b 22 bc 8c b5 98 3c c7 fb 3e 3c d6 eb 52 3d
       -0.009920961 0.018641256 0.011656708 0.051494442
0000c0 ca e3 aa 3d 31 17 ac 3d 00 f4 52 3d 02 de 70 3d
       0.083442286 0.08402861 0.051502228 0.058805473
0000d0 d5 06 d2 bd 12 2e c1 bd a6 00 19 bd ba a5 c8 bd
       -0.10255209 -0.09432615 -0.037354134 -0.09797235
0000e0 61 a0 8e bd 76 00 b7 3d b1 b7 07 bb 42 1f 65 bd
       -0.069641836 0.08935635 -0.0020708854 -0.055938013
0000f0 d6 f8 b1 3d b4 ec 83 bd 50 47 ad bd a3 43 67 3d
       0.0869004 -0.06441632 -0.084608674 0.056460988
000100 b5 f0 cc 3d 8f d9 cc bd f6 bf 89 bd b9 13 1e bd
       0.10006849 -0.100024335 -0.06726067 -0.038593028
000110 d7 4c 20 3d 08 d2 00 bd f4 92 f0 bd 14 54 31 bc
       0.03913578 -0.0314503 -0.11746779 -0.010823268
000120 fd 6f 04 3d fb 0e b5 bd 2f 3f e2 3d af 8a c3 bc
       0.032333363 -0.08840748 0.110472076 -0.02386984
000130 32 ab 74 bd a9 7c a1 bd 66 0f d9 3d d0 29 a6 3d
       -0.059733577 -0.07885105 0.1059864 0.08113444
000140 d6 df b9 3c dd f6 b5 bd 7f 91 bd bd 8a ba 85 3d
       0.022689741 -0.08884976 -0.09256267 0.0652972
000150 52 73 82 3d 02 7c da bd 6d 57 a8 bd af e3 56 3d
       0.06369652 -0.10668184 -0.082198 0.05246323
000160 e0 96 82 3d 70 f3 7b bd 39 27 80 3d 4c c4 36 bd
       0.06376433 -0.061511457 0.06257481 -0.044620797
000170 01 e4 f7 3c b9 0a f9 bc 23 af e4 bc 69 5c d7 3c
       0.030260088 -0.03040062 -0.027915543 0.026289182
000180 1a fb ad 3d d9 2f 99 bd 67 05 17 bd 0c ed f5 3c
       0.084951594 -0.07479829 -0.036870386 0.03002026
000190 56 a3 77 bd 5a 71 93 3d dd e4 78 3c 2e 56 27 3d
       -0.060458504 0.071993545 0.015191284 0.04085367
0001a0 fe 78 a9 bd c3 b9 99 bd 77 cf d6 3d 3b e7 45 bd
       -0.082750306 -0.07506134 0.104887895 -0.04831622
0001b0 1d a2 55 bc f6 f3 a7 bd fb af de 3c 6b 71 ea bd
       -0.013039139 -0.08200829 0.027183523 -0.11447414
0001c0 4d 00 aa bd 3b 67 7e bd 9a 75 8c 3d dd 4e 30 3d
       -0.083008386 -0.062110167 0.06858368 0.04304396
0001d0 d7 6f 7a 3d cb 4f 8e bd 29 7e ed 3c ef 69 bb bc
       0.061141815 -0.06948813 0.028990822 -0.022877662
0001e0 2b 0a 05 bd be ea 82 3d 6a 2e f2 3b 09 55 62 3c
       -0.0324804 0.0639243 0.007390787 0.013814219
0001f0 9e e2 be bd e2 96 98 3d fa 9f e3 3d 78 79 7e bd
       -0.093205675 0.074506536 0.111144975 -0.06212756
000200 ca b0 17 3d af d0 8e 3d 66 9d ff bc ae 8a 6c 3c
       0.037033834 0.06973397 -0.031202983 0.014437361
000210 d0 7d e1 3c c1 39 2a bd 6a 7b cb bd 01 b9 81 bc
       0.027525812 -0.041558985 -0.09935649 -0.015835287
000220 0c 23 a8 3d ec df 9b 3b a6 36 9e 3d 47 ad e5 3d
       0.0820981 0.004756918 0.07725267 0.11214691
000230 6f 6a a3 bd 56 ac a3 3d df b1 60 3d ee c0 ef bd
       -0.07979285 0.07991855 0.05485713 -0.1170672
000240 e9 52 b9 3d 8a e2 d7 3d c4 82 c7 3d 03 e4 92 bd
       0.09049017 0.10541256 0.097417384 -0.07172396
000250 a9 e5 dd bd 9a 5c 0b 3c 6e 22 93 bc 98 79 de 3c
       -0.1083482 0.008505965 -0.017960753 0.02715759
000260 99 37 ca bd df a1 e4 bd d8 1c 66 3d e6 53 b0 3c
       -0.09873886 -0.11163687 0.05617985 0.02152438
000270 2e 3a 95 3c 9d 6b 21 bc 5a 2b 82 3b f6 2b c0 3d
       0.018216219 -0.009852317 0.003972453 0.09383385
000280 0c ec 4d bc 1b 22 75 bd 4a 9c 14 bd d4 d6 c6 bd
       -0.012568485 -0.05984698 -0.03628186 -0.09708944
000290 f4 3e b7 3d c7 f0 87 bd c9 d8 e8 3d 77 f9 37 bd
       0.08947554 -0.066377215 0.113694735 -0.044915643
0002a0 45 86 9c 3c 4e c8 af bd c4 05 da bd 94 33 b7 3d
       0.019106993 -0.08583127 -0.10645631 0.089453846
0002b0 ac 6b a7 3d 4c 42 07 3d 5e 67 90 3c 35 00 c6 3d
       0.08174834 0.03302221 0.017627414 0.09668008
0002c0 84 d0 b1 3d a2 70 dd bc f1 72 bf 3d ec 3e e7 bc
       0.08682349 -0.027031247 0.09348095 -0.028228246
0002d0 b2 fa 71 3d 90 03 5d 3c 87 af 7b bd bd d3 e8 bc
       0.059076972 0.013489619 -0.061446693 -0.028421277
0002e0 26 63 83 bd d7 f6 81 bd fe 57 bd bc ac 4f 4c 3d
       -0.064153954 -0.06345909 -0.023113247 0.04988067
0002f0 23 f3 ac 3b 6c 22 c7 bd cc 50 96 bd 90 21 be bd
       0.0052780076 -0.09723362 -0.073396295 -0.09283745
000300 c2 cb b1 3d 0e 9d 8d bd 51 99 da 3c df a4 10 bd
       0.08681442 -0.069147214 0.026684435 -0.035313483
000310 8a 61 ac bd b0 4d db bc bd 83 d6 3c 15 e7 8e 3c
       -0.084170416 -0.026770443 0.026185865 0.017444173
000320 3a e9 ca 3d 7c 67 82 3d 6b 26 da bd 0e d8 fd bc
       0.09907766 0.06367394 -0.10651859 -0.030986812
000330 9e 17 b0 3d 54 93 b8 bd a3 29 86 bd 2f 31 02 bd
       0.085982546 -0.090124756 -0.0655091 -0.031785186
000340 01 3f 98 bd 90 3d 49 bc 3c 30 d3 3c ae 07 d0 bd
       -0.07433892 -0.012282744 0.025779836 -0.10157715
000350 31 51 b1 bc 31 c2 75 3d 53 54 dc bd 27 28 89 bd
       -0.02164516 0.05999965 -0.10758271 -0.066971116
000360 7b da a0 3c 07 52 5f 3d 03 7f d3 bd 50 61 ba 3d
       0.01963543 0.054521587 -0.1032696 0.09100592
000370 7a 46 59 3d 79 7e b0 bc 41 48 9e bc 48 17 54 3d
       0.053045727 -0.021544682 -0.019321563 0.051780015
000380 d8 0b d4 bd 42 40 ab bd e9 d1 bd bc eb 78 59 3d
       -0.103538215 -0.083618656 -0.023171382 0.053093832
000390 12 1e 9a 3d 89 f8 6d bd c9 b9 e3 bd 37 fc 03 bd
       0.07525267 -0.05809835 -0.1111942 -0.032222953
0003a0 c5 50 89 3d 11 ba cb bd 08 13 c5 bd b1 c4 50 bd
       0.06704859 -0.09947599 -0.096227705 -0.05096883
0003b0 92 ef 0f bd 87 9d 30 3d f0 db 98 bc c6 63 be bd
       -0.03514058 0.04311898 -0.018659562 -0.09296374
0003c0 88 1a ad 3d a9 a7 bd bd 07 d7 b8 3c 74 75 35 3d
       0.08452326 -0.09260494 0.02256347 0.044301465
0003d0 2c 5b 03 ba b5 e1 38 3d 18 da e3 bd e4 15 8e bd
       -0.0005010839 0.045137126 -0.111255825 -0.06937769
0003e0 40 a3 a1 3d 08 01 43 bb 8e 49 c3 bd 71 8d a2 bd
       0.078924656 -0.0029755253 -0.09535514 -0.07937134
0003f0 3d 39 84 3d 72 0c 18 bd 85 bd b2 3d 7d e7 9c bd
       0.0645623 -0.037121244 0.08727554 -0.076613404

backbone.model.3.0.model.0.bias f4 [16]
000000 96 ae b4 3d b3 f3 65 bd 39 d2 d0 bc 58 f1 d1 3c
       0.08822362 -0.056140613 -0.025490867 0.025627777
000010 72 3a ce 3d 5e 7a 8d bd fc 63 b4 bd 72 ae 16 bd
       0.10069741 -0.06908105 -0.08808133 -0.036787458
000020 f0 40 0c bd 39 4b b7 3a d8 90 a9 bc 52 8e de 3d
       -0.034241617 0.001398421 -0.02069895 0.10866989
000030 f4 57 31 bd c9 d4 3b bd 7d 90 71 3d b3 c9 71 3d
       -0.04329677 -0.045857225 0.058975685 0.059030246
