software/logs/hyper_parameter_tuning/custom_model/version_0/checkpoints/epoch=199-step=4199.ckpt (torch, 195567 bytes, 54 tensors)

backbone.model.0.0.model.0.weight f4 [4, 2, 5, 5]
000000 45 16 db bd 55 44 89 3d f8 c4 92 bd 88 17 c4 bd
       -0.10697607 0.067024864 -0.07166475 -0.09574801
000010 95 a0 06 be 4f dc 06 be 17 ef 08 bd e3 fe ee 3d
       -0.13147195 -0.13169979 -0.03343114 0.116697095
000020 46 fc c3 3b 0b 68 c0 bd 82 9f 3f bd 3b 9f a2 3c
       0.005981001 -0.093948446 -0.046782978 0.019851318
000030 5c ae 66 3d b8 a7 3e bd 9e af 13 3c e8 66 34 3d
       0.056318626 -0.046546668 0.009014038 0.04404345
000040 95 8a 58 3d c3 4a 0c be 7c 8c af 3c bf e3 07 3c
       0.052866537 -0.13700394 0.021429293 0.008294045
000050 42 24 4f 3d b5 32 bf 3d 48 07 af bd 8d bc a3 3d
       0.050571688 0.093358435 -0.08546311 0.079949476
000060 57 ff af 3d 21 49 21 be 2f 4a 26 bd b8 3a c1 bd
       0.08593624 -0.15750553 -0.04059809 -0.09435028
000070 03 98 a0 3d 80 ca 9c 3d cb 9e cb bd 5f 22 fa 3d
       0.07841494 0.07655811 -0.09942397 0.12213587
000080 20 8f 17 be 9a b2 83 3d 2b 7a ce 3d c2 4c f4 bd
       -0.14800692 0.0643055 0.100818954 -0.11928703
000090 f4 a8 48 3d 2b f4 0c be cf 1a 24 bd 20 30 e3 3d
       0.04898925 -0.13765018 -0.04006463 0.110931635
0000a0 93 e0 c2 3d a0 13 a5 bd 87 17 f5 3d 17 a1 ca bd
       0.095154904 -0.08060384 0.11967378 -0.09894007
0000b0 62 3f 74 3d 69 9f ea 3b 8c 4c 84 3d ae 8f 22 3b
       0.05963076 0.0071601165 0.06459913 0.0024804878
0000c0 54 5a 32 3d 5b 61 ea bd 9f ca 0b 3e c9 5d a5 3c
       0.043543175 -0.1144435 0.13651513 0.020186322
0000d0 72 f5 5c 3d 5f b5 df 3c 60 05 09 3e 7d cd ad 3d
       0.053945012 0.027308164 0.13380957 0.084864594
0000e0 fc b1 76 bd 5a f3 be 3d 9f db e8 bd 49 3a da 3d
       -0.060228333 0.093237594 -0.113700144 0.10655648
0000f0 0c 5c 36 bb d0 76 b2 bd 1e 9c 80 3d dc c4 22 3d
       -0.002782586 -0.08714068 0.06279777 0.03973852
000100 89 33 b3 3d cc 97 4e bc 1e 6a bd 3c e1 1a 9d bd
       0.08750064 -0.012609433 0.02312189 -0.07671142
000110 01 3a 9a 3d 1c f6 4b 3d 5c 73 93 bc d7 da 13 3e
       0.075305946 0.049795255 -0.017999344 0.1443895
000120 30 7e 27 3e a5 5e 90 bc a9 ba 2a 3e ea 49 f6 bd
       0.1635673 -0.017623255 0.16672768 -0.12025817
000130 d9 20 a2 3d 20 7f 7c 3c 58 ee 1d be 02 54 5a bd
       0.079164214 0.015411168 -0.15422952 -0.053302772
000140 da 79 ab bd ce 99 49 3c 60 68 6a bd 64 36 93 3d
       -0.08372851 0.012304736 -0.057228446 0.071881086
000150 88 4a 75 3d 5d fb c8 bd 19 cc 62 39 35 33 0d bd
       0.05988553 -0.09813569 0.00021629072 -0.034472663
000160 32 17 f5 bd a0 4f b9 bd 16 81 63 bd 10 1e 70 bd
       -0.11967315 -0.090483904 -0.055543028 -0.05862242
000170 cd ca b7 bd 3e 2e f9 3d 65 77 be bd e0 4d 18 3e
       -0.08974228 0.12167023 -0.093001164 0.14873457
000180 39 9f 92 3c 39 50 17 3e 13 f5 f8 3d f1 99 13 3e
       0.017898189 0.14776696 0.12156119 0.14414193
000190 92 a6 90 3a f9 68 04 3d cb c1 ae bd 8d ca 2e 3d
       0.001103597 0.032326672 -0.08533057 0.042673636
0001a0 84 58 81 bd 8c 82 09 3e a0 1b 87 bd a2 3d 83 3c
       -0.06315711 0.13428706 -0.06597066 0.0160206
0001b0 ee 56 8b bd aa 6d 06 be fa 5a fa 3d b1 6f eb bd
       -0.0680369 -0.13127771 0.12224384 -0.11495913
0001c0 1a fd 91 3d 0d a1 c5 3d 5a db 16 be b9 36 14 3e
       0.071283534 0.096498586 -0.14732113 0.14474
0001d0 fe 78 ee bd d9 69 45 bd 3c 0b cf 3d 21 09 ba 3d
       -0.11644171 -0.048196647 0.10109565 0.090837725
0001e0 32 cb 1c 3e 2b d1 10 be 0e 9b ce bd 5d 98 b1 bc
       0.15311888 -0.14142291 -0.10088168 -0.021679098
0001f0 6f 5b 4e bc 3b f6 00 be 18 d9 2b 3e e5 72 34 bd
       -0.012595042 -0.1259393 0.16782033 -0.044054884
000200 cf e0 42 3d 8d 32 cb 3c af 4d 26 bd ca 5c 9c 3d
       0.047577675 0.024804378 -0.04060143 0.076348856
000210 0c b1 e5 bd cb 86 01 be c0 1a f5 bc 84 f4 09 be
       -0.1121541 -0.12649076 -0.029919982 -0.13472182
000220 1e 14 15 bd a8 49 b3 bd 32 da 16 3d 4b 9e 1b bc
       -0.03639614 -0.08754283 0.03682918 -0.009498189
000230 0c 44 4c bd c6 3c 10 3e 14 fe 66 3c 9f f8 cb bc
       -0.049869582 0.14085683 0.014098663 -0.024898825
000240 b5 41 e0 ba cd 64 9d 3d 4c 96 d6 bc 22 67 6a bd
       -0.0017109426 0.07685242 -0.026194714 -0.05722726
000250 f6 b6 48 3d 92 6a 72 bd ee 47 cf 3c f2 4d 18 3e
       0.04900261 -0.059183665 0.025302853 0.14873484
000260 0e d8 6c bd 71 e0 b8 bd 30 01 b0 bd 9b 19 9a bd
       -0.057823233 -0.09027184 -0.085939765 -0.07524415
000270 a3 79 7e 3d 4e 90 16 3e d8 63 fc bd d6 6b d7 3c
       0.06212772 0.14703485 -0.12323731 0.026296537
000280 27 dc d5 3c 1e f7 00 3d fe fe a9 bc f0 a6 07 3e
       0.026105953 0.03148567 -0.020751473 0.13247275
000290 6c b7 10 3d 09 1a 69 3d 8d 77 d7 3d be d7 3b bc
       0.035331175 0.056909595 0.105208494 -0.011465011
0002a0 8e 91 47 3d 8a 9d bb 3b fc 09 02 bd e5 62 62 bd
       0.048722796 0.005725567 -0.031747803 -0.055270094
0002b0 20 ef bc bd 32 f6 18 3e fc 3f 9d bc d8 02 56 3d
       -0.09225297 0.14937666 -0.01919555 0.052248806
0002c0 91 42 86 3d da b7 8f 3d 0a e4 6b bd 6c d4 f8 3d
       0.06555665 0.07017489 -0.057590522 0.12149891
0002d0 7a 4f 7e 3d 01 67 98 bd 15 b4 84 3c 16 96 a5 3d
       0.062087514 -0.074415214 0.016199151 0.08085267
0002e0 36 a8 30 bc 58 3b e6 bc ff 25 43 3d 08 85 0b bd
       -0.010782292 -0.02810447 0.047643658 -0.034062415
0002f0 33 46 84 bb 1b dd 5e bd 82 84 b5 3d ac ca a2 3d
       -0.0040366887 -0.05441008 0.088631645 0.07948813
000300 ad 6b 7f 3c 62 b5 c1 bc e3 a3 09 3d 27 b0 ba 3d
       0.015589637 -0.02364606 0.03360356 0.0911563
000310 2c e1 ba 3c b2 d5 a6 3d 44 96 df 3d 48 33 9f 3d
       0.022812448 0.08146228 0.10917333 0.07773453

backbone.model.0.0.model.0.bias f4 [4]
000000 76 53 80 bd 0b 6b a3 3d 47 df 9a bd 83 78 0c be
       -0.06265919 0.07979401 -0.07562118 -0.13717847

backbone.model.0.1.model.0.weight f4 [4, 4, 5, 5]
000000 24 1b 53 bd 9f fd c3 3c 0a 89 e7 3d 07 f0 0d bd
       -0.051539555 0.023924647 0.11305435 -0.034652736
000010 74 69 8e bd 06 82 61 3c 43 78 84 bd 66 85 30 3d
       -0.06953707 0.01376391 -0.064682506 0.04309597
000020 10 d7 9d 3c 9d 6e 1a 3c 20 de e9 3d 00 43 08 3d
       0.019267589 0.009425786 0.1141932 0.03326702
000030 47 50 f7 3d af 34 99 3b 08 28 74 bd f2 30 04 3d
       0.120758586 0.00467547 -0.05960849 0.03227324
000040 2e 87 35 3c d9 49 a8 3c 37 e8 9a bd 1f 48 a0 bd
       0.011079593 0.020543026 -0.07563823 -0.07826256
000050 39 b2 a5 3c 94 d9 5c bd 0b e2 45 bc 2f 02 86 bd
       0.020226585 -0.053918436 -0.012077819 -0.06543385
000060 0a a2 61 bc bd 4a af 3d e2 23 b4 3d c0 b2 8b bd
       -0.013771543 0.08559177 0.087959066 -0.06821203
000070 87 5e a9 bd 8c 46 be bc 53 51 d6 bc ba bc 03 3d
       -0.08269983 -0.023226999 -0.026161825 0.032162406
000080 ff 8c 3d 3d 6c 44 f0 bd 74 3a 91 bd 8c f9 dc 3d
       0.046277042 -0.117318004 -0.07091227 0.10789785
000090 bf 0c 46 bd c1 79 5e bd 75 fa ed 3c 50 a8 ec bc
       -0.048352 -0.054315332 0.029050091 -0.028888851
0000a0 fa 31 8c 3d 13 8a 6a bd 38 73 4f bd 7a 44 5f bd
       0.0684547 -0.057260584 -0.05064699 -0.054508664
0000b0 74 3e 09 bd 98 69 90 bd a2 0b cb bd 11 ab 80 bc
       -0.033506826 -0.070513904 -0.09914328 -0.01570657
0000c0 af 18 51 3d 5f 3b ce bd a5 89 81 bd 8b f0 8f bd
       0.05104893 -0.10069918 -0.06325082 -0.07028302
0000d0 80 08 96 3d 56 97 a4 3d ea 5b 1c 3c 2d 95 08 bd
       0.0732584 0.080366775 0.009543398 -0.03334539
0000e0 6d ad 86 bd 69 3d 73 3c cc dc 56 3d bc 58 9e 3c
       -0.06576047 0.014846184 0.052456662 0.019329421
0000f0 9f 2f b2 bd db a4 cd 3d a0 88 27 3d ae da 48 3d
       -0.08700489 0.10041209 0.04090178 0.049036674
000100 79 ab 45 bd 3e ce ab bc e0 de da 3d 35 2b 4c 3d
       -0.048259232 -0.020972367 0.10687041 0.049845893
000110 f6 46 b5 3d 18 fa f1 3c 59 07 63 3c 7f be d0 3d
       0.08851425 0.0295382 0.013856732 0.10192584
000120 06 e5 cf 3d 87 a6 65 3d 36 c6 32 3d 8a da 86 3d
       0.10151105 0.056067016 0.04364606 0.06584652
000130 1e 59 1b 3e 03 6d 14 3d 95 73 a4 bd 2c 64 81 3a
       0.15170714 0.036236774 -0.08029858 0.0009871772
000140 44 f2 79 bd 42 cf d2 3d 9d 2d 22 bd c7 43 22 bd
       -0.061022058 0.102934375 -0.03959428 -0.03961542
000150 b5 a5 da bd 21 02 1c 3b bc 10 8f bc af f9 7d bd
       -0.10676137 0.002380498 -0.017464034 -0.062005695
000160 c2 3c 81 bc 81 94 70 bd 51 08 f5 3d 3a 6f d1 3d
       -0.015776042 -0.058735374 0.11964477 0.10226293
000170 78 75 6d 3d 92 ee 85 3c 83 b9 1f bc cf a1 49 bc
       0.057973355 0.01634911 -0.009748819 -0.012306645
000180 37 a8 a7 bd 49 4f b5 bc c7 87 97 3c 9f 71 f0 bd
       -0.08186381 -0.022132533 0.01849736 -0.117404215
000190 bd 9a 8c 3d 7c 0c 67 3d 69 65 d1 bd 79 4b ce bd
       0.068654515 0.05640839 -0.102244206 -0.10072989
0001a0 4a c7 b0 bc 5b cc a2 bd 0d e5 ae bc f6 e8 a1 bc
       -0.021579403 -0.07949134 -0.021349454 -0.019764405
0001b0 3b ba 9a bd 11 a9 1d 3d 6e bc 51 bd 8a b2 ab bd
       -0.07555052 0.038491312 -0.05120509 -0.08383663
0001c0 8e fd a1 3d 75 8d 04 bd 1c 6a c0 bc 0e 3f 1f 3d
       0.0790969 -0.032361466 -0.023488097 0.038878493
0001d0 c5 e7 be bc 40 8c 5b 3d c7 60 25 bd 53 ab 97 3d
       -0.023303876 0.05360055 -0.040375497 0.074057244
0001e0 cb 29 09 be 54 85 81 bd e9 81 18 be e5 a9 c7 bd
       -0.13394849 -0.063242584 -0.14893307 -0.09749202
0001f0 f1 05 e7 bd fb 88 60 b9 12 37 81 bd 68 bf 98 3d
       -0.1128043 -0.00021413334 -0.06309332 0.07458383
000200 5b ec cb 3c 73 ea aa 3d 49 4b e3 3d a3 09 44 bd
       0.024892977 0.08345499 0.11098344 -0.047860753
000210 3d 85 d9 3c 3b 22 5c bd 5a 0b ef bc e7 6f 2f bd
       0.02655279 -0.053743582 -0.029180218 -0.042831328
000220 5d 42 95 3a c8 ae 4e 3d 41 3b 5e bd d7 e7 07 3e
       0.0011387576 0.050459653 -0.054255728 0.13272034
000230 c5 95 c0 3c a0 7a c8 3d 8e ec 97 bc b9 08 d5 3d
       0.023508916 0.09789014 -0.018545415 0.10402054
000240 8a 09 03 3e 29 ca 7f bd a1 d0 9b 3d 25 8d 8b 3c
       0.12796608 -0.062448654 0.07608152 0.017035076
000250 de 67 96 bd 52 49 56 3c 7a 00 51 bc 6d ec fe bd
       -0.0734403 0.013079004 -0.012756461 -0.124474384
000260 c9 aa d1 bc a9 93 f3 bd 0d 13 78 3d 57 fe 18 3d
       -0.025594132 -0.11893398 0.060565043 0.037351932
000270 93 97 5f 3d 0a 1e 88 bd bb 44 e5 bd 65 54 0f 3d
       0.05458791 -0.066463545 -0.1119475 0.034992594
000280 f7 f2 05 be d2 26 49 3c 9d f3 92 bd 9b d2 db bd
       -0.13080965 0.012277322 -0.07175372 -0.10733529
000290 62 13 96 bd 5a 26 98 bb b9 4e 74 bd 20 a5 01 3d
       -0.07327916 -0.0046432437 -0.05964539 0.031651616
0002a0 c2 9d 68 3d a3 88 5c 3d 7c c6 b5 bd 70 b4 95 bd
       0.056791075 0.053841244 -0.088757485 -0.07309806
0002b0 c4 e3 c4 bd fa ce 38 bd 99 2e d7 bd 63 44 ca 3d
       -0.09613755 -0.045119263 -0.10506935 0.09876325
0002c0 0d a5 65 3d 78 c7 d3 3d b6 02 71 3b dd 09 33 3d
       0.056065608 0.1034078 0.0036775297 0.04371058
0002d0 06 64 16 3e 30 c2 19 3d 05 4f cf 3d 5a 77 b7 3d
       0.14686593 0.037538707 0.10122494 0.089583114
0002e0 1f f2 21 3d 89 b1 96 bc d7 f0 b8 3d 00 e0 31 bc
       0.039537545 -0.018395202 0.090303116 -0.010856628
0002f0 b1 99 ad bc 64 89 3b 3d cb 84 0a 3d 15 4c 17 3e
       -0.02119145 0.045785323 0.033818047 0.14775117
000300 ef 2a bd 3d a8 06 54 3c ee b6 8c 3d 6f 89 cd bc
       0.092367046 0.01294104 0.068708286 -0.025089948
000310 52 97 0a 3d 48 7a 8f bb cd ba 13 bc 72 6e d5 3d
       0.033835717 -0.0043785907 -0.009016705 0.104214564
000320 fa 84 30 3d 8d ef 09 3d d9 52 d1 bc 4a 7a 8a bd
       0.043095566 0.03367572 -0.0255522 -0.06761606
000330 82 5f 2b 3d 0b 71 6f bd 8b cc f7 bd ea 52 24 3d
       0.04183913 -0.058457416 -0.1209956 0.040118136
000340 e0 0e ac bd ee 88 c5 bd 05 90 53 bd 7d 39 94 3b
       -0.08401275 -0.09645258 -0.05165102 0.0045234547
000350 22 de bc bd ec e0 63 3c 84 99 a7 bd be 1b 80 bd
       -0.09222056 0.013908606 -0.08183578 -0.062552914
000360 bc e8 5b bd 4c 1c 17 be c2 14 28 3d 27 c2 82 3d
       -0.05368875 -0.14756888 0.04103542 0.06384688
000370 cf 63 01 be fc a3 af bd 2e be f1 bc 07 0b 10 be
       -0.1263573 -0.085761994 -0.02950963 -0.14066707
000380 c7 df d3 bd 62 74 96 3d 01 01 90 3d 7c 8d 92 bc
       -0.103454165 0.07346417 0.070314415 -0.01788973
000390 e5 73 c4 3c b8 0b 7c 3d 8e a5 9f 3d df 3b 70 bd
       0.023981044 0.061534613 0.07795249 -0.058650848
0003a0 c9 c9 12 bd f8 22 ca 3d b7 94 b1 3c 2b 18 c1 3d
       -0.03583697 0.09869951 0.021677358 0.09428438
0003b0 ad 3b 6f bd 8d e7 a0 3d 0f 37 b6 bc d1 e1 fd 3d
       -0.05840652 0.07856665 -0.02224305 0.12396587
0003c0 5a 29 bd 3d d6 74 87 3d 14 fd f6 bc 7e a7 07 3e
       0.09236403 0.066140816 -0.030149974 0.13247487
0003d0 70 fe ce 3d d6 e1 b9 3c c1 21 20 3d 26 f9 07 bb
       0.10107124 0.022690695 0.03909469 -0.002074787
0003e0 fc c7 24 bb 8e e7 d9 3d c1 ab c0 bd 4a cb c0 bd
       -0.0025143614 0.10639869 -0.094077595 -0.09413774
0003f0 74 77 b2 bd 14 d9 32 3c e5 47 de bb 50 bb 78 3c
       -0.0871419 0.010916013 -0.006783473 0.0151813775

backbone.model.0.1.model.0.bias f4 [4]
000000 8b d6 b0 3d d9 02 be 3c c6 06 93 bd 88 5b 3c bd
       0.08634671 0.023194717 -0.07179026 -0.04598573

backbone.model.1.0.model.0.weight f4 [8, 4, 5, 5]
000000 c5 1b 2f 3d 5f 2c dd bd 6d 43 08 be b9 0b d4 3c
       0.042751092 -0.10799479 -0.13306971 0.025884496
000010 c2 66 20 bb 4b 09 42 3d 03 f7 80 bc b7 fa 2b 3c
       -0.002447531 0.047372144 -0.015742784 0.010496787
000020 96 81 12 be e4 cc 6b bd 6a 20 a5 3d 20 75 ee bc
       -0.14307246 -0.057568446 0.08062823 -0.029108584
000030 cc a2 ab bc e5 db 6f 3c c8 0a d2 bd 05 7d 5a bd
       -0.020951651 0.014639829 -0.102559626 -0.053341884
000040 7b 3a 2c bd f3 d8 26 3c 80 5d 24 bd 82 99 52 bc
       -0.04204796 0.010183561 -0.04012823 -0.012853982
000050 ee b2 c6 bc d9 d4 b2 bd 7e 2c a9 bd ac 15 ba bd
       -0.024255242 -0.08732004 -0.08260439 -0.09086165
000060 ca b0 0b bd c0 eb b2 bd 3b a3 d5 bd 70 58 24 be
       -0.034104146 -0.08736372 -0.10431524 -0.16049361
000070 d5 8e 71 bd 97 f8 b6 bc ba 30 2c bd 11 d7 92 bd
       -0.058974106 -0.022335334 -0.042038657 -0.07169927
000080 ee 40 d5 bd 43 2b dc bc 69 6f a9 bd 94 f9 99 bd
       -0.10412775 -0.026876098 -0.08273203 -0.075183064
000090 86 87 62 bd 2d bd 2a 3d a3 77 ab 3c c4 4c c0 3d
       -0.055305026 0.04168432 0.02093107 0.09389642
0000a0 ac ae 82 3d e9 30 9d bc 22 9d 18 3c e1 2d 47 bd
       0.06380972 -0.019188361 0.009314807 -0.048627738
0000b0 2f ae 63 bc 92 2a 0d 3c b0 2e e4 3d a9 93 ca 39
       -0.013896509 0.008616107 0.111417174 0.00038638458
0000c0 0e 79 86 3d 61 a2 01 3e 9a 4b c2 bc 0c d6 4b 3c
       0.06566058 0.12659599 -0.02371769 0.0124411695
0000d0 5e 5e d0 3c 9d a9 a7 bd 45 7e c6 bd 4e 4b 03 bc
       0.025435623 -0.08186648 -0.09692053 -0.0080135595
0000e0 c7 9c be bd b8 17 c7 bd 41 65 53 3d b7 9f 04 3c
       -0.09307247 -0.09721321 0.051610235 0.00809472
0000f0 cc 0d 83 bc 19 30 28 3d 2c 1b 54 3d 26 ab a2 3d
       -0.01599779 0.041061494 0.051783726 0.079428
000100 3b 95 0a bc 32 48 cb 3d 0b 5a 91 3c 10 a9 99 3d
       -0.008458431 0.099258795 0.017743131 0.07502949
000110 57 85 28 3d a0 7c 39 3d 50 45 f8 3d 10 5d 08 3e
       0.041142788 0.045284867 0.12122595 0.1331675
000120 43 8c d1 3d 85 05 30 3e c2 19 75 3d 7b bb 6d bb
       0.10231831 0.17189606 0.059839018 -0.0036275077
000130 a7 6b ae bc 11 6e 01 3d b7 c3 6a 3d 49 6c 18 3d
       -0.021291567 0.031599108 0.057315554 0.037212644
000140 d4 35 33 bd 92 b4 b7 bd cc 0c db 3d 9c 5a 9e 3d
       -0.043752506 -0.08969988 0.106958 0.07732126
000150 35 5c be 3b a9 b0 5b 3d 50 40 19 bd 0d 39 31 bc
       0.005809332 0.053635273 -0.03741485 -0.010816825
000160 2d 35 03 3e 0e e5 0e 3e 55 89 71 bc 88 3c d3 bc
       0.12813254 0.13954565 -0.014742215 -0.0257857
000170 c5 f4 b4 3c bf c0 ad 3d 3a 26 99 3d f6 57 68 3d
       0.022089371 0.08484029 0.07477994 0.05672451
000180 e1 d5 b1 3d a1 ab 18 3e 3f 6d 14 3d 84 30 d3 3d
       0.08683372 0.14909221 0.036236998 0.10311988
000190 89 27 b4 3c 21 d3 26 be a4 bb f3 bd 42 29 0b 3a
       0.021991508 -0.16291477 -0.11901024 0.0005308577
0001a0 06 06 67 bc 6c 79 8c bd 62 5f 86 3c 9c 5b 5f bd
       -0.014100557 -0.06859097 0.016402904 -0.054530725
0001b0 2e 20 2f bd eb 0c e7 bc 8d 87 34 bd d5 df 86 bd
       -0.0427553 -0.028204402 -0.044074584 -0.06585661
0001c0 8f dc 19 bc 37 36 bc bd 49 b5 a6 3d bc 37 a0 bc
       -0.009390964 -0.09190028 0.08140046 -0.019557826
0001d0 65 16 f6 bd f8 fc 04 be e3 46 ce bd 7f 72 78 3d
       -0.1201599 -0.12987125 -0.10072114 0.060656067
0001e0 a7 09 3d bd d2 9f 18 be 44 96 16 be 24 93 05 bd
       -0.046151783 -0.14904717 -0.1470576 -0.032611027
0001f0 3c 32 c1 bd 69 74 c5 bd ee 41 af bd 3c 14 31 bd
       -0.094334096 -0.09641344 -0.08557497 -0.043232188
000200 d7 60 b4 bc c9 b9 c2 bd 97 80 32 bd d6 f2 92 bc
       -0.022018833 -0.09508092 -0.043579664 -0.017938059
000210 df 04 8b bd a1 c5 0c 3d 2b e1 17 3d 2a bc 37 bd
       -0.067880385 0.03436816 0.03707997 -0.04485718
000220 5d b7 b3 3d 84 4c 7e 3c a1 d6 ab 3d 0c 15 94 3d
       0.08775208 0.015521172 0.083905466 0.07230577
000230 9e 06 f1 3c 34 74 c5 3c 05 91 ae 3d 6a af 2a bd
       0.0294221 0.024103262 0.08523754 -0.041671194
000240 77 62 28 bc 85 5d 11 3e 65 e4 10 3e 3a e6 a9 3d
       -0.010277382 0.14195831 0.14149626 0.08295865
000250 75 e7 1a bc 18 45 a4 3d e2 b0 e5 bd 13 16 cf bc
       -0.009454598 0.08020991 -0.11215378 -0.02527908
000260 4b d9 e8 bd 03 36 e8 bc ac 23 33 bc d0 9a a3 3d
       -0.1136957 -0.028346067 -0.010933798 0.079885125
000270 4c da 82 3b 9a fe ac bc 02 3f 11 3d 2b 3c 66 bd
       0.003993308 -0.021117497 0.03546048 -0.056209724
000280 a8 7a 7f 3d 45 f2 bb bb ca be 87 3d b4 79 99 bd
       0.062372833 -0.005735668 0.06628187 -0.07493916
000290 83 50 84 bc c1 31 93 3d 35 62 01 3e 4a f8 e0 3d
       -0.016151672 0.07187224 0.1263512 0.109848574
0002a0 94 4d 7c bc bc ba 76 3b 19 cf f1 3d 01 cd 6c 3d
       -0.015399355 0.0037647923 0.11807079 0.057812694
0002b0 96 8f 03 bd a5 c0 9a 3b 87 a4 d9 bc c0 0c b0 3b
       -0.032119356 0.004722672 -0.02656771 0.0053726137
0002c0 be 72 95 3d 69 d9 fd bc f0 c0 98 3c e9 7d ea 3c
       0.07297276 -0.030987458 0.018646687 0.028624492
0002d0 f8 e3 fd ba 6a 75 a5 3d 33 a5 89 bc 8c f9 79 bd
       -0.0019370308 0.080790356 -0.016802406 -0.061029002
0002e0 12 a1 75 3d 34 1e 10 3e 57 2a 16 3e f5 4c aa 3c
       0.05996806 0.14074022 0.14664589 0.02078865
0002f0 1d 91 44 3d 0a 0f bc bc 30 66 06 3e bf 7c db 3d
       0.047989953 -0.02295639 0.13124919 0.10717153
000300 d0 09 25 3c 05 5e c3 bd 54 f7 84 bc c0 ee b6 3d
       0.01007314 -0.09539417 -0.016231216 0.08932257
000310 a9 02 a5 3d 9a 2c e8 3d bf 9a 5e 3c 04 a3 b4 3d
       0.08057148 0.11336632 0.013586699 0.08820155
000320 cb 93 9c 3d 5a f8 aa bd c7 2b 91 3d d3 ab 06 bd
       0.07645377 -0.083481506 0.07088428 -0.032878708
000330 02 7e 97 bd 7f 0c 5c 3d 46 2b ca 3c f0 60 df bd
       -0.07397081 0.053722855 0.024678838 -0.10907161
000340 4d 73 88 bd 52 7e 9e 3c 0d 73 fc 3b 90 16 1d 3d
       -0.06662617 0.019347344 0.007704145 0.038351595
000350 c5 f8 4c 3d 29 3a ac bd a5 64 ee bc 28 ac 45 bd
       0.050041933 -0.08409531 -0.029100725 -0.048259884
000360 81 a9 0f 3d 4a 93 cd bd a7 b8 cc 3d 5a 32 dd bc
       0.03507376 -0.10037859 0.09996157 -0.027001549
000370 0a a7 ef bc cc 01 80 bd 79 05 9a 3d 9b fe 89 bc
       -0.029254455 -0.06250343 0.07520575 -0.016845038
000380 93 92 51 bd 7b 8f 39 bd 2d ef c4 bc dd db 0d 3e
       -0.051165175 -0.04530285 -0.02403983 0.13853402
000390 7a 66 60 3d d3 19 fa 3d 04 2f 3b 3c bc db e7 bc
       0.05478523 0.12211957 0.011424784 -0.02830302
0003a0 9f b8 bd bc 74 89 8f bc 8d 58 ea 3d 88 c9 15 bd
       -0.023159323 -0.017521597 0.11442671 -0.03656915
0003b0 b4 0b 24 bd 18 87 fc 3d 3d c7 07 3e a2 cd 91 3d
       -0.040050223 0.123304546 0.13259597 0.071192995
0003c0 cf 17 54 bc e1 39 6d 3d 81 db 48 3c dc 18 e9 3d
       -0.01294513 0.057916526 0.012259365 0.11381695
0003d0 8e 01 20 3b 94 ee 8a bc eb b9 5c bd 69 c1 02 bd
       0.002441499 -0.016959466 -0.053888243 -0.03192273
0003e0 f2 1c 8d 3d 00 9d 93 bc 4a e9 ba 3d e3 f1 b6 3d
       0.068902865 -0.0180192 0.091265276 0.08932855
0003f0 36 d3 2d 3d 94 21 e2 3d 4f 44 5e 3d 2e 0f 54 bc
       0.042437755 0.11041561 0.054264363 -0.012943072

backbone.model.1.0.model.0.bias f4 [8]
000000 13 e3 b2 bc 5e f7 c1 bd f6 1f 88 bd d3 be 8a bd
       -0.021836793 -0.0947101 -0.06646721 -0.06774678
000010 41 a0 bd 3d a7 0a 0c 3d c8 07 33 be cb 04 c3 3d
       0.09259082 0.034189846 -0.17483437 0.095223986

backbone.model.1.1.model.0.weight f4 [8, 8, 5, 5]
000000 97 0d 49 bc e9 cc d3 3d 7f 57 38 3d 96 fb 05 be
       -0.0122713065 0.10341818 0.045005318 -0.13084254
000010 24 64 b5 bc d0 a0 de 3c 20 ab d6 3d ad 0a aa 3c
       -0.022142477 0.02717629 0.10481858 0.020757044
000020 23 f9 c9 3d 98 e7 09 bd 21 00 00 3e 42 9f 0d 3e
       0.09861972 -0.03366813 0.12500049 0.13830283
000030 0f 34 5c 3e cf dc 96 3d 70 29 98 3d 92 7d b0 3d
       0.21504234 0.07366335 0.074297786 0.08617701
000040 c3 cc 5c 3e 2b a0 05 3e 85 44 18 3e be 03 a4 3d
       0.21562485 0.1304938 0.14869888 0.08008526
000050 74 01 a8 bc f0 10 e5 bb 37 65 a8 bc 42 5a 6a bd
       -0.020508505 -0.0069905445 -0.020556075 -0.057214983
000060 6e 49 ed bc 13 c8 0c 3d 20 73 ad 3d 94 c5 54 3d
       -0.028965678 0.034370493 0.08469224 0.051946238
000070 1f 23 3f bd eb 7e d8 bc c4 a6 aa bd 57 29 db 3d
       -0.046664353 -0.026427707 -0.08332589 0.10701244
000080 cb 41 ca 3c 98 4b 32 3d 4c 44 8c 3c 67 8c 5c bc
       0.024689576 0.043529123 0.01712241 -0.013461209
000090 d4 78 17 3e 16 33 58 3e f6 a2 4d 3e f2 02 e8 3c
       0.14792186 0.21113238 0.20081696 0.028321717
0000a0 69 15 27 3d 9c 01 79 3e 15 70 e8 3d 79 73 25 3e
       0.040791903 0.2431702 0.11349503 0.1615733
0000b0 f6 b6 09 bc 3f 4b e5 3c f6 7c e8 3d 04 8b 2d 3d
       -0.008405438 0.027989982 0.113519594 0.042368904
0000c0 94 69 53 bd 9d 9b f1 bc da 55 fa 3d cd 6e 23 3d
       -0.05161436 -0.029493148 0.12223406 0.03990059
0000d0 f9 84 20 3d 1f 4a 4d bd 2a 85 08 bd 92 5f b3 3c
       0.039189313 -0.050119516 -0.03333012 0.021896157
0000e0 ec bb a4 3d 0a 1c b2 bd d8 f7 18 be da 84 11 be
       0.08043656 -0.08696754 -0.14938295 -0.14210835
0000f0 6f ba bd 3d 16 c9 b6 bc b0 86 8c bc 74 5c 08 bd
       0.09264075 -0.022312682 -0.017154068 -0.033291295
000100 f5 d4 96 bd ef bf 04 bd 47 3f 8d 3d 70 02 77 3c
       -0.07364837 -0.032409605 0.06896835 0.015076265
000110 54 39 f1 bd 12 83 aa bb fe 0f 19 3e 54 23 4b 3e
       -0.117785126 -0.005203613 0.14947507 0.19837695
000120 2c 20 2e 3e 7b a1 8d 3c 84 c1 1d 3d 7b e0 74 bc
       0.1700446 0.017288914 0.03851463 -0.014946098
000130 41 5c 16 3d 0d b7 b6 bc 2a b9 42 bd 0d e8 e3 bb
       0.036709074 -0.022304082 -0.047539867 -0.006955153
000140 d0 5a 22 3d 70 18 88 3d eb 9b 23 3d 54 db 96 3d
       0.039637387 0.06645286 0.039943617 0.07366052
000150 06 70 95 bc 99 9f 97 bc c4 7d 60 bd 89 59 87 3d
       -0.018241894 -0.01850872 -0.05480744 0.06608874
000160 f9 be fa 3c dc 31 c9 3d 04 bd 96 3d 89 e4 90 3b
       0.030608641 0.09823963 0.073602706 0.0044217748
000170 a0 84 84 3c 81 97 82 3d 5c a0 98 3d 80 8a ce bd
       0.016176522 0.06376553 0.07452461 -0.100850105
000180 5d 41 30 bd bd 91 a5 bc 0f 02 da bd 2d 12 98 3b
       -0.043031085 -0.020211095 -0.10644924 0.0046408386
000190 74 f6 6e 3e d8 66 9d 3d 03 66 22 be 3c 04 1e bd
       0.23336202 0.076856315 -0.15859227 -0.038578257
0001a0 4f 20 be bd 26 fe 73 3e d9 4f b5 3d af 17 ed bb
       -0.09283506 0.23827419 0.0885312 -0.0072354893
0001b0 f4 1e 80 bd e2 d1 36 3d 80 c1 0f 3e e2 99 c8 3d
       -0.06255904 0.044633754 0.14038658 0.09794976
0001c0 15 1f 3c 3d d3 6d 38 3c c2 fe 2d bd ea bd a2 3b
       0.04592808 0.011256653 -0.042479284 0.004966487
0001d0 ac 7d 86 bc 2c 81 63 3d 8b 8d 4e 3c 9c 16 9a bc
       -0.016417347 0.05554311 0.012606989 -0.01880961
0001e0 2a b6 b1 bc 68 1c a0 bd d7 9c 86 3d 51 a9 01 bd
       -0.021693308 -0.07817918 0.065728836 -0.031655613
0001f0 30 be 32 3d 1e f8 1a 3c 5b 5b 64 3d 82 53 44 bc
       0.04363841 0.00945857 0.055751186 -0.0119828
000200 d8 11 97 bc c6 46 22 3b 72 fb 33 3d 49 76 34 3d
       -0.018441126 0.0024761423 0.04394097 0.044058118
000210 7c b6 26 3e e0 e7 65 3d b8 8f a9 3c bb 84 ff 3d
       0.1628055 0.056129336 0.020698413 0.12476488
000220 a9 76 56 3e 1f 32 12 3e 40 9a 19 3d 5b a1 dc 3d
       0.20943703 0.14276932 0.03750062 0.107729636
000230 31 a9 18 3e c4 b6 f7 3d 72 b6 48 3c 97 a8 19 bd
       0.14908291 0.12095407 0.01225053 -0.037514295
000240 69 1c 7d 3c 22 1c 96 bd c8 81 65 bd 58 3d df bd
       0.015448668 -0.07329585 -0.056031972 -0.10900372
000250 f5 c7 ac bd 41 12 8a bd 4e 49 41 bc b0 72 5b 3d
       -0.08436576 -0.06741763 -0.011797262 0.05357617
000260 70 01 a3 3d 16 fc 33 3d 18 dd 8a bd 50 50 3f 3d
       0.079592586 0.04394158 -0.067804515 0.04670745
000270 18 f6 dd 3d 83 48 c0 3c 8d f5 a5 bd ee 19 35 3c
       0.10837954 0.023472076 -0.08103476 0.011053545
000280 87 f6 6a bd 85 8a 21 3d c8 ac 2a 3d a0 4a a9 bb
       -0.057364013 0.039438743 0.041668683 -0.0051663667
000290 f4 76 6c bc 04 d8 16 bd f2 51 b2 bd bc 16 51 3d
       -0.0144326575 -0.036827102 -0.08707036 0.05104707
0002a0 99 c8 85 3c 3d 73 0c bd a2 58 29 bd 75 aa 17 3d
       0.016331004 -0.034289587 -0.041344292 0.037027795
0002b0 ee 42 21 3d 68 26 5b 3d 33 70 e4 3d 3f 34 07 3d
       0.03937047 0.053503424 0.11154213 0.03300881
0002c0 0b e5 f2 3d b8 c3 ca 3d 65 13 28 3e c2 e5 a2 3d
       0.11860093 0.09900612 0.16413648 0.07953979
0002d0 59 10 81 3d 4a 2a 8a 3d ba 0e de 3c b6 a5 00 3e
       0.06301946 0.06746347 0.027106632 0.12563214
0002e0 d6 37 3c 3d 70 a5 d1 bd be 8a 3a bd b0 4c fc 3d
       0.045951687 -0.10236633 -0.04554247 0.123193145
0002f0 5b c0 1a 3e d0 04 20 3d 6e 1b a8 bd a4 31 63 3b
       0.1511244 0.03906709 -0.08208357 0.003466704
000300 29 82 65 3c ca 8d 75 bc cb 47 3b bd 8a 76 d3 bd
       0.014008083 -0.014987418 -0.045722764 -0.10325344
000310 c6 85 74 bc 22 78 8b bd 30 bc 25 bd 72 e1 c7 bd
       -0.014924472 -0.06810023 -0.040462673 -0.09759797
000320 84 ff 7b bd a2 10 03 bd e3 1f 72 3c b4 e4 24 3d
       -0.061522976 -0.031998284 0.01477811 0.04025717
000330 07 65 07 bd 82 a9 43 bd c4 b2 eb bc 14 1a 60 bc
       -0.03305533 -0.047769077 -0.028771766 -0.0136780925
000340 d8 fc 59 bd 93 8f 66 3d 25 60 f3 3c 08 d2 b5 3d
       -0.053219646 0.056289267 0.029708931 0.08877951
000350 d3 e7 7f bb 4d dc d1 3c 5d 9f 81 3c a9 ce 92 3d
       -0.003904809 0.025617743 0.01582306 0.071683235
000360 94 b9 18 3e 68 be 47 3d 3a 7d 8e 3c 4f ab a2 3d
       0.14914542 0.04876557 0.017393697 0.07942831
000370 e3 53 cb 3d b5 f7 37 3e fa 1b fb 3d 02 59 98 3d
       0.099281095 0.17965586 0.122611955 0.07438852
000380 39 f7 14 3d 48 4f e2 bd c5 c2 1a bc ea 65 d5 bd
       0.036368582 -0.11050278 -0.009445851 -0.10419829
000390 db 21 b6 bd f8 6c 46 bd ee 39 e3 bb 6d c6 af bd
       -0.08893176 -0.048443764 -0.006934396 -0.085827686
0003a0 5d e5 4e bd 6f fd 6c bd 20 34 84 bc 5c 47 0d bd
       -0.050511707 -0.05785888 -0.016138136 -0.03449188
0003b0 6d 04 8e 3c e0 2d 75 3d e0 6f e0 bc cd 00 09 bd
       0.017336095 0.059858203 -0.027397096 -0.03344803
0003c0 54 54 66 3d 4c 3b bb 3d f6 c6 c1 3d ca 09 0c 3e
       0.056232765 0.09142169 0.09461777 0.13675609
0003d0 d6 ec 92 3d 60 60 e1 bb b5 a8 0b 3e a9 99 83 3e
       0.07174079 -0.006877944 0.13638575 0.2570317
0003e0 ac 95 34 3e 65 4a bb 3c fc 69 bb bd ba 75 ed bd
       0.1763522 0.022862623 -0.09151074 -0.1159472
0003f0 b0 a3 cc bd c5 57 c8 bd 43 37 1d be 97 3c 9a bd
       -0.099921584 -0.09782366 -0.15353112 -0.07531088

backbone.model.1.1.model.0.bias f4 [8]
000000 67 19 ae bd 92 67 84 bd fb 1c 18 3e 2e 27 e7 bc
       -0.08500939 -0.06465067 0.14854805 -0.028216925
000010 24 52 d3 3c cd 9c 36 bd 7d 2b 24 be a5 7c e4 bd
       0.025796004 -0.04458313 -0.16032214 -0.111565866

backbone.model.2.0.model.0.weight f4 [8, 8, 3, 3]
000000 02 9d 2a be 08 dd 06 bc ea d7 14 be 6a c1 28 3d
       -0.16661456 -0.008231409 -0.1453549 0.04120008
000010 fe 1e 09 be dd b9 d1 bd 95 87 0b bd a5 56 fe 3d
       -0.13390729 -0.10240529 -0.034064848 0.1241887
000020 7e d8 2a 3d 4a 55 4b 3e 84 ea 5b 3e c1 d5 30 3c
       0.04171037 0.19856754 0.2147618 0.01079315
000030 8e dd 87 3e 1d d3 de 3d a2 4f 6a 3d 1d d2 02 3e
       0.2653622 0.108801104 0.05720485 0.12775464
000040 f7 4f 94 3c 4f de 8a 3d bf 34 5e 3d 04 f7 1b be
       0.018104536 0.06780683 0.05424952 -0.15230948
000050 71 99 f5 bd 23 de 38 3d 49 a5 8b bd ee f5 f0 bd
       -0.11992157 0.04513372 -0.06818635 -0.11765657
000060 b3 69 9a bd 09 44 99 3d 11 c3 ce 3d 62 ff 4c bc
       -0.07539692 0.0748368 0.100958 -0.01251206
000070 b4 8e 41 bd 87 ed 8a be 62 c3 04 3d 25 66 dd bd
       -0.047255233 -0.27134344 0.032412894 -0.10810498
000080 53 81 9b bc 03 30 2a bd 10 e4 16 be 25 d5 6e bc
       -0.018982565 -0.041549694 -0.14735436 -0.014577185
000090 18 eb 43 3b f5 57 14 3d 67 55 e8 bc 4b 1c e6 bd
       0.0029894765 0.036216695 -0.028361036 -0.11235865
0000a0 54 77 8f 3d 8e 48 d2 bc 7a 04 3c 3e d4 19 09 3e
       0.07005182 -0.025669362 0.18361083 0.13388759
0000b0 c6 44 30 3d 63 fa 05 3d 28 5e 49 bc 01 be b5 3d
       0.043034337 0.03270949 -0.012290515 0.08874131
0000c0 c0 ba 9f 3d 38 5c af 3d c1 1e 22 3e 97 46 2b bd
       0.077992916 0.08562511 0.15832044 -0.041815367
0000d0 53 42 42 3e 4f a7 83 bc 65 78 94 3d 18 3e a8 bd
       0.18970613 -0.01607099 0.07249526 -0.082149684
0000e0 e0 43 3f be 3a bd 10 3e db ec b6 3d 9a c5 2f 3d
       -0.18678236 0.14134684 0.08931895 0.042913057
0000f0 d9 62 39 3e 64 5f 74 bd 7c d1 21 be 4d 10 e2 bd
       0.18104114 -0.059661284 -0.15802568 -0.110382654
000100 d7 52 94 bd c7 c4 0a be 1d 0f 20 be 12 92 0d be
       -0.07242363 -0.13551627 -0.15630765 -0.13825253
000110 55 3d 10 be b6 2c e2 bd 63 9f 8a bc 03 5b f5 bd
       -0.14085896 -0.11043684 -0.016921705 -0.1198025
000120 c2 71 28 bd b7 27 fd bd 1a 8c 87 bc 26 57 ea 3d
       -0.041124113 -0.12361091 -0.016546298 0.114424035
000130 de 55 38 bd c9 80 c5 bc d2 de 8f 3d 33 09 2f 3e
       -0.045003764 -0.024109261 0.070249215 0.17093353
000140 67 da d4 3b 5b 70 17 3e b5 8b 26 3c a2 0c 4c 3e
       0.006495762 0.14788954 0.010165145 0.19926694
000150 eb 3c a8 3c 03 6e 69 3d 39 44 11 3e 48 02 b3 bd
       0.02053686 0.05698968 0.14186181 -0.087406695
000160 74 44 ca bd df 30 ee bb 76 58 b1 bd 62 ed 82 3d
       -0.09876338 -0.0072690095 -0.08659451 0.063929334
000170 64 99 12 bd f2 b2 a8 3d 98 42 a2 bd 1b c2 ce bd
       -0.035790816 0.08237256 -0.07922858 -0.100956164
000180 f0 5d 2c 3e 2a 95 ff 3d cb 55 eb bd e9 a5 71 be
       0.1683271 0.12479623 -0.11490973 -0.23598446
000190 59 6b 8e be a3 f2 02 be 1d 11 0d bd 09 a6 81 bc
       -0.27816275 -0.12787871 -0.03444015 -0.015826242
0001a0 ff ca bf bd f2 aa 10 be 44 e6 df 3d 99 f2 9f bd
       -0.0936489 -0.1412771 0.109325916 -0.07809944
0001b0 a0 83 f3 bc a6 b2 93 3d dd df 74 bd 47 e0 5c bd
       -0.02972585 0.07211809 -0.059783805 -0.053924825
0001c0 b7 a1 09 bd 7e b8 1d 3c 42 94 93 3d 69 b8 89 bc
       -0.03360149 0.009626506 0.07206012 -0.016811566
0001d0 ca 90 fd 3d 95 e2 16 3d 5c da 3f 3e 1d 95 a5 3d
       0.12381132 0.03683718 0.18735641 0.08085082
0001e0 13 fa 3a bd f1 06 1c 3e 71 d7 81 3c 6f b1 96 3d
       -0.045648646 0.15237023 0.0158498 0.073580615
0001f0 a8 a2 bf 3d fa 9f 6e 3d 61 2e 22 3e ff 37 26 3e
       0.09357196 0.058258034 0.15838005 0.16232298
000200 18 98 72 3d ab a6 6c 3e f6 b5 5f 3e ba 68 81 bd
       0.05922708 0.23110454 0.21846756 -0.06318803
000210 14 03 86 3d 84 18 99 3c 6b c5 ca 3c 2a 0f 83 3c
       0.06543556 0.018688448 0.02475234 0.015998442
000220 d6 30 cb 3c ef ba dd 3d c1 60 9d 3d 58 c3 29 3e
       0.02480356 0.108266704 0.0768447 0.16578424
000230 24 56 a2 bc a9 f8 87 3d f2 4b 58 3e aa e3 5b 3e
       -0.019816466 0.06639225 0.21122721 0.21473566
000240 d1 1a 6c 3d 65 d2 bf bd 37 01 7e bc f4 c9 03 3e
       0.05764276 -0.093663014 -0.015503219 0.12870008
000250 5f 29 08 be df 07 15 be 4c d1 11 3e ad 70 00 3d
       -0.13297032 -0.14553784 0.14239997 0.031357456
000260 3f 89 0c be 93 78 a8 bd 05 42 af bd c6 a4 a5 be
       -0.1372423 -0.08226123 -0.08557514 -0.32352275
000270 ed 01 15 3c 53 bd 73 bc 19 ef b4 bd 45 9b e7 3c
       0.009094697 -0.014876681 -0.08834667 0.02827228
000280 7d 12 e3 bc da c5 29 be 9e e7 9c bd 0e b2 1d bc
       -0.027718777 -0.1657938 -0.07661365 -0.009624971
000290 aa a0 e8 3d 10 e0 29 bd d0 79 e7 bd f9 da 23 3c
       0.11358769 -0.04147345 -0.11302531 0.010000938
0002a0 82 ef 8c 3c 30 c3 e4 bd d7 63 a9 3d 52 21 19 3e
       0.01720405 -0.111700416 0.08270996 0.14954117
0002b0 66 a4 ca 3d 5f 04 54 bd e1 90 24 3d 17 20 06 be
       0.09894638 -0.05176198 0.04017723 -0.13098179
0002c0 0c 5f 40 be 09 2f 0c 3e 82 d0 de bc 89 43 a1 3c
       -0.18786258 0.13689817 -0.027199034 0.019685524
0002d0 8d 7a 69 3e 93 46 27 3d 0a 74 29 be e3 00 fa 3d
       0.22800656 0.04083879 -0.16548172 0.122072004
0002e0 98 08 e7 bc 58 a0 64 be 2e 94 81 3e a2 c5 c5 bd
       -0.02820234 -0.22326791 0.25308365 -0.09656836
0002f0 ef 44 33 be 4d a8 2b 3e 0e 34 2d 3d 03 74 27 be
       -0.17506765 0.1676342 0.04228597 -0.16352849
000300 5e b7 10 3e cd 7b f0 3c 09 b1 38 be ba df 42 3e
       0.14132449 0.029355908 -0.18036284 0.19030657
000310 8c 43 59 3c c7 82 8f 3b 07 58 29 3c 87 9a 0d be
       0.013260733 0.0043796035 0.010335929 -0.13828479
000320 57 3a 52 be 1b 93 8c 3b 75 ae e0 bd 82 31 43 be
       -0.20530067 0.0042899973 -0.10970775 -0.19061854
000330 7a 24 18 3e de c5 92 3d 59 1c 4d be 65 77 64 3e
       0.14857665 0.071666464 -0.20030345 0.2231117
000340 74 c4 fe 3d de 41 05 3e bc d6 f3 3d d8 d9 21 bd
       0.12439814 0.13013408 0.11906192 -0.039514393
000350 ec 6f f8 bc eb 3f bc 3d b8 51 78 bd 9f 64 c6 bd
       -0.030326806 0.09191879 -0.060624808 -0.09687161
000360 4b 25 b5 bd 40 3e eb bd 1e c4 a0 bd 52 b7 06 3c
       -0.08845004 -0.114864826 -0.078499064 0.008222418
000370 7f 5b 30 bd 25 28 9b bd 30 c0 22 3d 1e c1 ad 3c
       -0.043056007 -0.07576016 0.039734066 0.02121025
000380 47 be 41 3d e4 85 e6 bd a6 b9 eb bc 4b e0 0b bd
       0.047300603 -0.11256006 -0.028775048 -0.03414945
000390 85 37 02 be ab 95 9f bd 18 2a ac bd c8 72 15 bb
       -0.12716492 -0.07792219 -0.08406466 -0.002280401
0003a0 c7 64 e2 3b 4a a6 e3 bd a1 15 7d bd b4 16 27 bd
       0.0069089863 -0.111157015 -0.061788205 -0.040793136
0003b0 2e 2e 04 be 39 17 8c 3d bc 56 a6 3d d6 2b 14 be
       -0.12908241 0.06840367 0.08122012 -0.14469847
0003c0 86 eb 91 3c 16 24 a8 bd 19 9b 3a 3b 67 61 db 3c
       0.017812502 -0.08210008 0.0028473793 0.026779843
0003d0 3d 05 d8 bd b9 90 19 3d fc 22 54 3d 09 6a 17 3d
       -0.10547874 0.037491534 0.051791176 0.036966357
0003e0 55 5b a9 bd 1d f9 74 3d 54 a7 93 bd a5 cc dc 3d
       -0.08269373 0.059807885 -0.0720965 0.1078122
0003f0 f1 eb 93 bd 4b 98 88 3d 34 81 80 3c 76 b2 26 bd
       -0.072227366 0.066696726 0.015686609 -0.040697537

backbone.model.2.0.model.0.bias f4 [8]
000000 0c 34 54 3d c6 66 05 be 28 6c cb 3d 8d 5e 96 bd
       0.05180745 -0.13027486 0.099327385 -0.07342253
000010 be 20 13 bc da eb d1 3d 7f 4d 49 bd bb 7d 10 be
       -0.008979974 0.10250063 -0.04914617 -0.14110462

backbone.model.2.1.model.0.weight f4 [8, 8, 3, 3]
000000 2c f9 20 3e 33 87 ad 3d a4 77 70 3b 79 bb fd 3d
       0.15720052 0.08473053 0.0036692405 0.12389273
000010 23 05 61 3e 2a c3 4f 3e 33 17 30 be 3c f9 26 be
       0.21974616 0.20289293 -0.1719635 -0.16306013
000020 ba 1b 04 bd 84 0b 11 bd c0 52 64 3d 71 7e 68 3c
       -0.032253005 -0.035411373 0.05574298 0.014190302
000030 a8 a8 1a 3e 75 e7 10 3e a4 8c 85 bc 6c cc 73 bc
       0.151034 0.14150794 -0.016302414 -0.014880281
000040 0a 47 3c bc fb 24 97 bd cb d9 5b be 66 86 a6 bd
       -0.011491546 -0.073801 -0.214698 -0.08131103
000050 4f bf 83 be c9 5f 58 be 89 72 ba 3d a8 77 72 bd
       -0.25731894 -0.21130289 0.09103877 -0.059196144
000060 db 21 ab bc 2c b9 4a 3b 5c e9 05 be bc b1 b0 3c
       -0.020890167 0.0030933125 -0.13077301 0.021569125
000070 91 7e a2 bd e2 a6 4c 3d a3 20 32 3d f6 03 50 3c
       -0.07934297 0.04996384 0.043488156 0.012696257
000080 49 c9 93 3d 6c 41 8e 3d d5 f4 5e bd bf 83 ee b8
       0.072161265 0.06946072 -0.05443271 -0.00011373264
000090 71 0a 5f 3d d2 84 06 3e d4 05 f1 bc 75 1c e0 bd
       0.054453317 0.13136604 -0.029421724 -0.10942928
0000a0 3e ba ae 3e 2d c3 88 3d fb fe 4c be 2f e6 d5 bc
       0.34126467 0.06677852 -0.20019142 -0.026110737
0000b0 ec b8 13 be 52 4e c0 bb 70 36 4e bc c2 6a 17 bd
       -0.14426011 -0.0058687115 -0.012586221 -0.036967047
0000c0 f2 8d ae bc b9 c0 77 3b d9 05 cf bd 3c 72 d7 3d
       -0.02130792 0.003780408 -0.10108537 0.10519835
0000d0 cc 7f 98 bd c0 83 47 3d d0 e9 c5 3d 28 dd d4 bb
       -0.0744625 0.04870963 0.09663737 -0.0064960904
0000e0 c1 d9 fc bd 2d b2 bf 3a 22 fc 2d 3e bc d2 27 bd
       -0.12346221 0.0014625244 0.16990712 -0.040972456
0000f0 91 4f 74 be ae 86 11 bd ad e8 a9 3d 07 78 97 3d
       -0.23858477 -0.03552883 0.082963325 0.0739594
000100 27 5a e1 bd 23 83 05 be 79 ed a5 3e 3f 43 1f 3e
       -0.11003523 -0.13038306 0.3240774 0.15552996
000110 94 8e d7 3d 24 38 27 3d 4a dc 94 3d 62 b3 05 3e
       0.105252415 0.040825024 0.07268579 0.1305671
000120 35 d9 01 3e 26 a3 18 3c 54 d7 18 3c 4c a1 34 3e
       0.12680514 0.009316241 0.009328682 0.17639655
000130 e1 fe c2 bd 20 25 12 be 8d 51 67 3d 21 9c 29 3d
       -0.095212705 -0.14271975 0.056474257 0.04140866
000140 f4 c8 0b bd 14 a9 8e 3d 9f c4 81 3d 77 e7 31 be
       -0.03412719 0.06965843 0.063363306 -0.17373453
000150 09 4e f0 3d 28 f2 93 3c 00 0b 06 bd 0c bf ed 3d
       0.11733634 0.018059805 -0.032725334 0.11608705
000160 01 5e c5 3d 22 09 0d be 39 39 19 3e cf c8 85 3e
       0.096370704 -0.13773015 0.14963235 0.26129767
000170 3a ad 0c be f9 70 d7 3d 9d 3b 98 3e 0a 90 02 bd
       -0.13737956 0.10519595 0.2973298 -0.031875648
000180 f0 48 02 3e 54 aa c1 3e 7f dd 11 3e ad f2 df bc
       0.12723136 0.37825263 0.1424465 -0.027337397
000190 b1 99 40 bd 9c 74 48 bd d9 23 b7 bd 14 10 0a 3d
       -0.04702157 -0.048939332 -0.08942384 0.03370674
0001a0 25 7e 83 bd af aa 2d b8 a0 16 e6 bc 82 d5 60 bd
       -0.064205445 -4.1405376e-05 -0.02808696 -0.054891117
0001b0 08 e0 36 3e 0a f6 bd 3d 21 2a a9 bd 7a 66 5c 3e
       0.17858899 0.09275444 -0.082599886 0.21523467
0001c0 28 a4 d7 3d 47 93 29 be 65 91 67 3d 4e f4 dc bc
       0.10529357 -0.16560088 0.056535143 -0.026971962
0001d0 a3 55 9b 3c 87 77 fd 3d 12 19 18 bd 83 23 0b be
       0.018961733 0.12376314 -0.037133284 -0.13587765
0001e0 59 2c 96 bc 01 c6 c2 3c ca d2 7c bd 0c b4 3d 3e
       -0.018331693 0.023776056 -0.06172446 0.18525714
0001f0 73 1c fc bc 43 da 4e be aa 10 8d 3c 5d d9 2b be
       -0.030775284 -0.20200448 0.01721986 -0.16782136
000200 cb 85 2a bd 1d 2d 3c 3d 51 20 a6 bd 53 fb 6f be
       -0.0416315 0.04594146 -0.081116326 -0.23435716
000210 b7 b9 1d 3d 44 d6 78 bd 80 37 3c bd 72 8a 2f 3e
       0.03850719 -0.060751215 -0.045951366 0.17142656
000220 08 e5 1d be 01 75 09 be ca e3 db 3d 19 65 95 bd
       -0.154194 -0.1342354 0.10736807 -0.072946735
000230 f1 62 51 be 5e 76 15 3e bf e7 4a bd 06 a5 2d be
       -0.204479 0.14595935 -0.049537417 -0.16957483
000240 c0 c3 d8 bc a1 80 84 3d df ca 02 3e 0c fe a3 3d
       -0.026460528 0.064698465 0.12772702 0.0800744
000250 67 bd 40 3e 64 30 43 3d 4b 56 8c 3d 49 26 c8 3d
       0.18822251 0.04765357 0.068523966 0.09772927
000260 cd 96 5b 3d 5d c0 54 bd be b3 3c be bd 24 bf bd
       0.05361061 -0.051941264 -0.18427941 -0.09333179
000270 2e f6 b9 bd 5e e2 0e 3e 08 1c 62 bd c3 4c 36 bc
       -0.09080158 0.1395354 -0.055202514 -0.0111267
000280 12 36 5e 3e 21 02 e8 bb f6 ce 6c be 26 bf cc bd
       0.21700314 -0.007080332 -0.23125824 -0.09997396
000290 62 e4 2a be fb e0 89 be 58 66 a9 bd 28 02 1e bd
       -0.16688684 -0.2692946 -0.08271474 -0.038576275
0002a0 b0 74 83 be 86 3e bf bd f0 61 a5 3a 55 aa 18 3c
       -0.25674963 -0.09338097 0.0012617689 0.009317954
0002b0 1b b5 06 3d cf d5 a0 3c a2 da 8d bd 3a 39 87 3d
       0.03288756 0.019633202 -0.069264665 0.06602712
0002c0 7d ec 0c 3d 02 16 40 3d 18 26 c5 bd 2c 31 25 3d
       0.03440522 0.04689599 -0.096264064 0.040330097
0002d0 ee fb e7 3d b4 b3 2d bd 18 78 83 3d b9 bd e6 bd
       0.11327349 -0.042407706 0.064193904 -0.112666555
0002e0 79 c6 63 3e b9 78 88 3e 02 1f 19 be 47 79 03 3e
       0.2224368 0.26654604 -0.14953235 0.12839232
0002f0 03 fd fc 3d 56 80 cf bd 7f 2e a3 39 32 b6 f5 b9
       0.12352946 -0.101319 0.00031124425 -0.00046865788
000300 99 76 69 3d 3c 7a e2 3d 36 75 25 bd 96 f4 9a bb
       0.05699787 0.110584706 -0.040394984 -0.004728864
000310 6b 46 86 3e 85 4a a1 3d 69 f9 01 3c a6 5c de 3d
       0.262256 0.078755416 0.007932999 0.10857515
000320 8f 3c e5 bd 6b 95 36 3e 09 ad 79 3e c6 63 8f 3d
       -0.11193191 0.17830436 0.24382414 0.07001452
000330 0c 96 40 3d 15 fb c2 bd 37 36 af bc ad 86 e5 bd
       0.047018096 -0.09520546 -0.021388156 -0.11207328
000340 44 ef 03 be 5a 74 7c bd b9 6e 58 bd f5 a5 5d 3e
       -0.12884241 -0.0616344 -0.05283997 0.21645339
000350 cc 3b 31 bd c6 09 ce 3d 6a c6 96 3d ad 06 97 bd
       -0.043269917 0.10060458 0.07362063 -0.0737432
000360 2e dd fe 3d 4b 73 d0 3c 86 8d a1 bd f1 c5 77 3c
       0.124445304 0.025445601 -0.078883216 0.0151228765
000370 d1 32 4b 3e 68 e3 36 bc b4 f9 33 3e ac 89 c0 3a
       0.19843604 -0.011162616 0.17575723 0.0014689467
000380 69 9b 01 3c 6b e0 38 3c 58 b3 3a 3d cc c0 5f 3d
       0.007910588 0.011283974 0.04558119 0.054627225
000390 e2 c0 0d bd e5 1d 2c 3e 80 0a 71 bd 59 ea e3 3d
       -0.034607776 0.16808279 -0.058847904 0.11128683
0003a0 e7 84 e5 bc 90 cd d9 bc d1 00 85 be f9 22 a3 bd
       -0.028017474 -0.026587278 -0.25977185 -0.07965655
0003b0 b2 17 34 be 28 f3 48 be 41 17 57 3c 86 6a 9f 3b
       -0.17587164 -0.19624007 0.013128103 0.0048649935
0003c0 30 5c b1 be 0f 3c 14 3e 0a c5 88 3e 61 5c d0 3d
       -0.34640646 0.14476036 0.2671283 0.1017387
0003d0 44 31 8d bd 17 65 7f bd a9 7c 43 bd 1c 96 55 bd
       -0.06894162 -0.062352266 -0.047726307 -0.05214511
0003e0 30 95 4c 3c 4c a1 d5 3c 06 11 8a bd 2f 75 51 bd
       0.012486741 0.026077889 -0.06741528 -0.051137146
0003f0 8e c2 2e be a1 fc 28 3e 8b 49 e4 bd ce 5d 94 bd
       -0.17066404 0.1650262 -0.1114684 -0.07244454

backbone.model.2.1.model.0.bias f4 [8]
000000 b8 69 c4 bd e4 45 cb bb c9 5b 21 bd 82 08 12 3b
       -0.09590477 -0.0062034 -0.039394174 0.0022282903
000010 ed 16 a2 bd 86 65 d9 bd 65 37 72 bb 82 da 14 3e
       -0.07914529 -0.10615067 -0.0036959287 0.14536479

backbone.model.3.0.model.0.weight f4 [16, 8, 3, 3]
000000 55 3a cc bd 76 74 19 bd 45 b8 f9 3c 7c b6 80 3b
       -0.099720635 -0.03746458 0.030483374 0.003928004
000010 d6 33 e2 3d fb 55 aa bd c0 41 a3 3d 56 46 89 3d
       0.11045043 -0.08317181 0.07971525 0.06702869
000020 5b 09 9d 3d 37 73 c3 bd 4e 4c 8f 3d 17 81 33 bd
       0.076678 -0.0954346 0.06996976 -0.04382428
000030 34 8d 7c be ab 1c f5 bc 36 61 b1 3c bb f3 6c be
       -0.2466324 -0.029920897 0.0216528 -0.23139851
000040 88 fc d3 bc b6 19 bf 3d db 12 48 bd b6 41 25 3e
       -0.025877252 0.09331076 -0.048846107 0.16138348
000050 89 77 55 bd 3c 26 77 3d 7b 6b ee 3d e2 13 86 bd
       -0.05211595 0.060339198 0.11641594 -0.06546761
000060 03 30 ef 3d 42 06 25 be da ec 21 be f0 98 02 3d
       0.116790794 -0.16115668 -0.15813008 0.031884134
000070 23 f8 36 3b 0e 8f b9 3d b9 0d fb bd e2 e8 0a 3d
       0.0027918897 0.09060489 -0.12258477 0.0339135
000080 93 71 13 3e b1 2c fb bd 7d bd 06 bd 9a 57 b2 bd
       0.14398794 -0.122643836 -0.032895554 -0.08708115
000090 44 17 44 be 83 47 15 3c d4 73 08 3e 98 83 b5 bd
       -0.191495 0.009111288 0.13325435 -0.0886299
0000a0 91 47 8d 3d 3a 62 42 bc 60 84 44 3e c4 4a 2e 3e
       0.06898416 -0.011864239 0.19191122 0.17020708
0000b0 6a 7c 29 3c 54 cf ad 3e 83 a5 87 3d 30 95 52 3d
       0.010344604 0.3394724 0.06623366 0.051411808
0000c0 8e 2e fa bd 0d 28 1b be 3b a6 e2 bd ca f9 9f be
       -0.12215911 -0.15151997 -0.11066862 -0.3124526
0000d0 f0 18 99 be 78 aa 5c be f6 dc fa 3b bc 66 04 3e
       -0.29901838 -0.21549404 0.007655735 0.12929815
0000e0 9d 67 a0 bd 99 d5 11 3d 25 ad 23 3d 2c b6 f9 3b
       -0.07832263 0.035604093 0.039960045 0.0076205935
0000f0 be 36 00 3d 5b 6c b8 3d 87 ac 48 bd 4a e8 1b bd
       0.031302206 0.09005042 -0.04899266 -0.038063325
000100 9e 6d 3d bd aa 64 c2 3c f9 57 5a bd af c6 62 bd
       -0.046247117 0.023729641 -0.053306554 -0.05536526
000110 55 2b 3d bd a0 55 dc 3d b5 79 06 bc dd 22 b2 bd
       -0.046183903 0.10758519 -0.008207728 -0.08698056
000120 58 56 e0 bd 19 6e 96 bd ae fe 1c 3e 8f 5d b5 bd
       -0.10953969 -0.07345218 0.15331528 -0.088557355
000130 98 74 ce be 5d cf 8b 3d 89 4b 00 bf cf 30 e9 be
       -0.4032333 0.06826661 -0.5011526 -0.4554505
000140 05 ec 6e be 56 cb d3 bd 3c dd 6e be 41 a0 25 be
       -0.23332222 -0.103415176 -0.23326582 -0.16174413
000150 59 96 15 bd 95 79 6e bd df 73 68 be 9e bd e0 3d
       -0.036520336 -0.05822142 -0.22700451 0.109736666
000160 11 f5 23 be 6f d4 a5 3d f2 58 a2 be 41 1e cf bd
       -0.16011454 0.08097159 -0.31708485 -0.10113192
000170 da 09 66 3e f9 69 59 bf c1 90 7f be e0 85 12 bc
       0.22464696 -0.84927326 -0.24957563 -0.008943051
000180 f2 52 47 be a3 c2 2d 3e c0 ec 20 3e ba a5 4c be
       -0.19465235 0.1696878 0.15715313 -0.19985095
000190 34 71 5b be 0c 0e bf 3c 54 d3 2f be d2 ac e0 be
       -0.21429902 0.023322128 -0.17170459 -0.4388185
0001a0 65 41 71 bd d0 6f 50 bd f5 18 b5 be b7 14 d6 3d
       -0.058900256 -0.050887883 -0.35370603 0.1045317
0001b0 5c e0 9d 3d 6a fb 4c 3e 13 fc b6 3e 4a 1f 8f bb
       0.07708809 0.20017782 0.35739192 -0.0043677436
0001c0 51 d1 0a 3e a3 2d ac 3e 6a 24 a0 be 1b 4d f8 bd
       0.1355641 0.33628568 -0.31277782 -0.12124082
0001d0 6b e1 33 3e ff 0c d1 be b7 6d 3a be 9f 8d 81 3e
       0.17566459 -0.40830228 -0.18205915 0.2530336
0001e0 78 8f 2a bf 2f 93 50 be 14 a9 9f 3e b9 43 2f bd
       -0.66625166 -0.20368646 0.31183684 -0.042789195
0001f0 e8 e0 9e 3e d8 f1 0c 3e 44 c1 84 be f9 0f 1b be
       0.31030965 0.13764131 -0.259287 -0.15142812
000200 8c 9b 24 3d c0 34 b8 be ef 4f 49 bf 85 7f a7 be
       0.040187404 -0.35977745 -0.78637594 -0.32714477
000210 af e7 9f bd b9 82 06 be e7 62 29 3d b6 61 97 bd
       -0.07807862 -0.13135804 0.041354086 -0.07391684
000220 74 c6 e3 3d 1e 74 a3 3e ca 3b 42 be ef 54 27 bd
       0.11121836 0.31924528 -0.1896812 -0.040852483
000230 ec df 4d 3e 38 b4 c2 bd dd cf dd bd 35 4d cb 3c
       0.2010495 -0.0950703 -0.108306624 0.024817089
000240 33 d2 cc 3d ac da 1c 3e 15 06 9b 3d 00 15 d1 3c
       0.1000103 0.15317792 0.075695194 0.025522709
000250 0b 0a f3 3d bd 19 ab bc 82 60 73 bd 0b 8b 1a be
       0.1186715 -0.020886296 -0.05941821 -0.15092103
000260 4b a0 11 be 65 4b 37 3d fd 73 98 3d 8c 3b cb bc
       -0.14221303 0.044749636 0.07443998 -0.024808668
000270 33 ef ef bc 79 5f d5 3d 46 6f e3 3c 22 8a d0 bd
       -0.029288864 0.104186006 0.02776302 -0.10182597
000280 91 34 af 3d 7c 44 b8 bd a4 45 75 3d a9 a1 2a bd
       0.08554948 -0.08997437 0.059880868 -0.041658077
000290 4e b5 de 3b 6c ad 80 3c 8f 5b da bd db fd 7e be
       0.0067965155 0.015707694 -0.10661995 -0.24901526
0002a0 8a 96 6a bb e2 8a 94 be 76 17 23 3d 66 21 0b 3e
       -0.0035795295 -0.2901221 0.039817296 0.13586959
0002b0 3d e5 1b 3d f3 29 89 bd 84 99 1a 3e cc 3d c1 3d
       0.038060416 -0.06697454 0.15097624 0.09435615
0002c0 7d d0 ba 3b 48 0f 01 bb dc a3 c6 bd 2c eb 01 be
       0.0057011233 -0.0019692946 -0.096992224 -0.12687367
0002d0 9d 59 4d bb 58 29 a1 3e 85 53 bf 3e 8e 03 89 3d
       -0.0031333931 0.31476855 0.37368408 0.06690131
0002e0 dc 77 95 bc 36 16 7b bb 92 88 77 3d 7b 36 fe bc
       -0.01824563 -0.00383128 0.060432978 -0.031031838
0002f0 eb 18 26 3e b1 5d 72 bc ff bd 37 3b 29 3f 55 3e
       0.16220443 -0.014792846 0.002803683 0.20824875
000300 e5 74 97 be 9f da 0f bf e2 e4 74 3e d3 1f 4c be
       -0.2958137 -0.56192964 0.23915437 -0.19934015
000310 3a 36 6c 3e 09 73 2a 3f 16 2a 09 3e 33 70 0e 3e
       0.23067561 0.6658178 0.13394961 0.13909988
000320 ed fb 54 bd 55 18 56 bc 6b 32 0a be 0a cd 4b bc
       -0.051998068 -0.013067325 -0.13495795 -0.012439022
000330 72 c0 80 bd 90 37 82 be f5 23 b1 be 2d 27 16 3d
       -0.06286706 -0.25433016 -0.34597746 0.036658455
000340 95 e1 a2 3d bd 6f af 3c 9c aa 6b 3e 52 a0 52 3c
       0.079531826 0.021415586 0.23014301 0.012855606
000350 1c d6 5a bc d3 85 a1 3c 8e 99 98 3d f7 9c 2a 3e
       -0.013356712 0.019717133 0.07451163 0.1666144
000360 09 d7 d6 3d 9a a5 98 3d b1 f4 d6 3a d1 86 6b bd
       0.104902335 0.07453461 0.0016399828 -0.057501618
000370 ca fe 9d bc 22 d1 b6 3d 9c 29 41 3d 00 97 8e be
       -0.019286532 0.08926608 0.047158822 -0.2784958
000380 bd ac e8 bd 55 43 b0 bd c3 3d 93 be 91 fb 01 be
       -0.11361072 -0.086065926 -0.28758058 -0.12693621
000390 d3 a3 7a 3e 84 dc 9c bd 41 da 12 3d 07 06 60 3e
       0.24476556 -0.076592475 0.035852674 0.21877299
0003a0 5d 81 1e bd 80 37 f2 bd f3 22 45 3c f8 92 8a 3d
       -0.03869759 -0.11826992 0.012032258 0.06766313
0003b0 c0 f8 07 3e 66 27 16 be 87 c3 dd bd 51 fd 02 be
       0.13278484 -0.14663467 -0.108283095 -0.12791945
0003c0 0c 13 79 3d 36 c9 a4 bd 9d 86 3f be 2c a0 8e bd
       0.06080918 -0.080461904 -0.18703695 -0.06964144
0003d0 6b e6 b5 3d ea 1b 1a 3e 34 99 ac bd f8 ea 94 3d
       0.08881839 0.15049711 -0.08427659 0.07271379
0003e0 9d bb 97 bb c9 9b 13 3e b5 20 cb bb 45 22 ae bc
       -0.0046305195 0.14414896 -0.0061989673 -0.021256575
0003f0 25 89 e2 bc 12 78 99 bd da 2a 27 3c 8f e7 84 3e
       -0.027653286 -0.07493605 0.010203088 0.25957915

backbone.model.3.0.model.0.bias f4 [16]
000000 ba 80 bb bd 11 b2 49 3c 09 c4 d3 bc 2e e2 06 be
       -0.09155412 0.012310521 -0.025850313 -0.13172218
000010 51 84 8b 3e c0 1b a2 3d 90 2c a3 bc ce 63 3b be
       0.27249387 0.07915449 -0.01991871 -0.18299791
000020 33 91 21 be 05 fb ed bd f5 b1 f5 bd ee b1 46 be
       -0.15778045 -0.11620144 -0.11996833 -0.19403812
000030 75 53 04 bd b7 54 72 bd 2f 71 f1 bd 0e 76 06 bd
       -0.032306153 -0.05916282 -0.11789166 -0.03282743
